saved_models/08-08 17:58.pth (torch, 785053 bytes, 23 tensors)

weight_mu f4 [150, 64]
00000000: d6c6 953e 38b5 a03e 7d13 95bd 3f71 a8be
00000010: 4259 f53e 8d1c 9c3e aacf a33e 80f6 81be
00000020: e9d6 cb3e 8c8b 0c3f 2e46 ba3d 0229 1bbd
00000030: 1e44 9fbe 8d1f b33e 1a23 53be 0463 cbbd
00000040: f5f3 c4bd 70a9 033e c609 733e 59a4 08be
00000050: 97e7 063b cc53 643d 2675 773d 0bf5 003f
00000060: 06fb b53e 34fe b2bd f48e bf3e 6393 a03e
00000070: 00a7 813e 97c0 313e b9ff e2bd d562 a93d
00000080: ee67 fc3e 10b9 d83c 6ddb b93c be03 c63e
00000090: e52a f33e 733f ca3e d028 b33e d45d abbe
000000a0: 6c1c b4bc a96d 59be 7591 953b b300 f03e
000000b0: 9c63 11be 59e9 0e3e 200a 143f 371f 493d
000000c0: 22a2 813e 035d 47bc 494a 42bd c290 e03e
000000d0: f0fd 953c f478 803e 927e 483e 4c37 b1bd
000000e0: 7f6f 8ebe 6eab a93e 26e8 fc3e bb9c 003f
000000f0: d68c 88be 4d9b cc3d a2de d8bc eea8 60bd
00000100: 111b 8e3e ca66 de3e d2bd 783d f340 babe
00000110: 5922 fd3e 5101 da3e 3e37 f13e 896b 8bbe
00000120: 5068 193f ce71 1f3f 8922 6e3e 1102 1ebe
00000130: ffec 76be 2767 a73e 590c babd f853 8bbe
00000140: 180f 06be c392 15bd cfff ca3e f2a5 26be
00000150: fade 80be e22d 83be cf40 353e 6fce cd3e
00000160: 9961 963e d82a 85be 00c1 a13e 72e5 0b3f
00000170: 0c5c e43e 4048 93bd 7009 4fbe 6f16 a7bc
00000180: 727c f33e 7810 5abd 48e9 e4bd 8025 0f3f
00000190: 2beb 083f 2922 d83e 9f6a c33e 5c48 c9be
000001a0: ee03 14be 33fa e9bd 7d9e 183e dd75 0c3f
000001b0: d7cd a2be bb24 1a3e 5d11 0f3f 9bb9 073c
000001c0: 905f 363e f278 eb3d de1f 13bd 4540 d33e
000001d0: 3d16 17be b2bd d53e fbb5 473e 2578 9dbe
000001e0: 532c 42be 1dbf af3e bc43 d53e 2abf b33e
000001f0: 1928 08be c118 18bd 24b3 c6bd 07e4 1f3e
00000200: 2a3a c93d 74b9 803e e286 2a3d 8f6e 89be
00000210: 49bc ef3e d626 d03e d1f2 bc3e 5151 86be
00000220: 905f be3e 6ab9 be3e d41b 433e 9e43 9dbd
00000230: 39ce 8bbe 5b51 463e ecb0 8639 0b56 95bb
00000240: ee43 9cbd a05e 3c3c feef b23e bb12 1d3d
00000250: ffb1 00be 715c 8e3c d858 bb3d a165 ae3e
00000260: 5e82 c23e 4967 073d bb00 923e f62b e23e
00000270: 6fa4 5d3e 53e3 ee3d a230 96bc 9251 efbc
00000280: 4ac0 c93e f34c d83c 5000 78be 957f ac3e
00000290: 529c ef3e c981 c13e 5076 833e 2180 babe
000002a0: 8939 51be a034 a3bd 84ec 123e 560e dc3e
000002b0: b7a2 46be 9410 423e 463a bb3e e113 32bd
000002c0: 19ff 1b3e c5a9 fdbd f912 99be 6a12 dd3e
000002d0: f4fe 3f3d 447f 3e3e b060 3c3e a52c 4abe
000002e0: e39a d4be d425 cc3e 55a5 f53e 3787 433e
000002f0: 03b9 66be ac05 dabd d32d 5abc 3130 25bd
00000300: ce6b 3ebd f5a5 4ebd 49dc 8dbe 76ee 643e
00000310: 6be3 37be 971e acbd e2cf 47be e328 5b3f
00000320: 1b39 8dbe 88af 04be 5c48 04bf ac9a 93be
00000330: 5503 b83d f3dd 88bd 81df 69bf 735b e63e
00000340: ce54 babe 6c2b a9be 690c 01be 6ddf a0bd
00000350: 10d3 5b3e 102c 93bc e30c a3bd 8c07 cdbd
00000360: 8954 0ebe 116b 4cbe 425d a7be 26a0 d6bc
00000370: 34dd db3d 3879 edbd 16c3 26bd 0880 633d
00000380: c948 ecbd 7bd3 f13c a273 8f3c 9195 98be
00000390: 14b3 2dbe 62ef 51be 0f1e febc 9dc3 513e
000003a0: f2da 003e dfb7 bebe 731b b8bd 28ee 3dbe
000003b0: 9969 20be c67b c0bd 6cfe 45be feb8 61bd
000003c0: 2c7b 08be 3648 0a3f 5643 c33e 95b9 2fbd
000003d0: c123 8d3d 197b d6be 7d76 2dbd a3d4 9b3e
000003e0: da3d 663e b473 94bd 17c7 49be 463f 01be
000003f0: 6c00 1abf a75c 383e b28a 38be 4d0a 6c3d
0.29253262 0.3138826 -0.07279108 -0.328989 0.4791966 0.30490533 0.31994373 -0.25383377
0.398124 0.5490043 0.09095417 -0.037880905 -0.31106657 0.3498501 -0.20618859 -0.09930995
-0.096168436 0.12857604 0.23734197 -0.13343944 0.0020584816 0.055743977 0.060414456 0.50373906
0.35543078 -0.08739892 0.37413752 0.31362447 0.25322723 0.17358623 -0.110839315 0.08270804
0.49298042 0.026455432 0.022687638 0.3867473 0.47493663 0.39501533 0.34992075 -0.33470023
-0.021986209 -0.21233238 0.004564459 0.46875533 -0.14198154 0.13956203 0.5782795 0.049102034
0.2531901 -0.012168172 -0.047434125 0.4386044 0.018309563 0.2509228 0.19579533 -0.08653125
-0.2781944 0.33138603 0.49395865 0.5023915 -0.2666995 0.09990559 -0.026473347 -0.054848604
0.27755025 0.43437797 0.0607279 -0.36377677 0.49440268 0.4257913 0.4711246 -0.2723048
0.59924793 0.6228303 0.23255362 -0.15430476 -0.24113844 0.32695886 -0.090843864 -0.272125
-0.13091695 -0.036516916 0.3964829 -0.1627424 -0.25170118 -0.25620943 0.17700504 0.4019656
0.29371336 -0.2600925 0.3159256 0.5464698 0.44601476 -0.07191515 -0.20218444 -0.02039644
0.47555882 -0.053238362 -0.11177307 0.55916595 0.5348384 0.42213562 0.38167283 -0.39313018
-0.14454624 -0.11424675 0.14904208 0.54867345 -0.31797668 0.15053074 0.5588587 0.008283998
0.17809892 0.11497678 -0.035919063 0.4125997 -0.14754577 0.4174629 0.19503014 -0.30755726
-0.18962221 0.34325495 0.4165324 0.35106784 -0.13296546 -0.037132982 -0.09702137 0.1561433
0.09825547 0.2514149 0.04163254 -0.26842162 0.46823338 0.4065463 0.36904004 -0.26233914
0.37182283 0.37250835 0.19053584 -0.076789126 -0.27305773 0.19366972 0.0002569029 -0.0045573763
-0.07630144 0.01149717 0.34948725 0.03834794 -0.125679 0.017378064 0.09147805 0.34061912
0.37990087 0.033057485 0.28516182 0.44174165 0.21644758 0.116644524 -0.018333737 -0.0292137
0.39404517 0.02640388 -0.24218869 0.33691087 0.4679895 0.3779433 0.25676203 -0.3642588
-0.20432104 -0.07969022 0.14348036 0.42979687 -0.19398008 0.18951637 0.36567897 -0.04347599
0.15234031 -0.123858966 -0.29897287 0.4317811 0.046874 0.18603235 0.18396258 -0.19743593
-0.4152442 0.3987261 0.479777 0.19094549 -0.22531514 -0.10645613 -0.013316589 -0.040329162
-0.04648953 -0.050451238 -0.27707127 0.2235659 -0.17957847 -0.08404272 -0.19512895 0.85609263
-0.2758263 -0.12957585 -0.5167291 -0.28828943 0.089850105 -0.066829585 -0.91356665 0.44991645
-0.36392826 -0.3304094 -0.1260239 -0.07855115 0.21467233 -0.017965347 -0.07961442 -0.10011205
-0.13899435 -0.19962718 -0.32688338 -0.026199412 0.107355505 -0.11595386 -0.040713392 0.055542022
-0.1153732 0.029519787 0.017511193 -0.2980161 -0.16962844 -0.20501474 -0.031020192 0.20484777
0.12583521 -0.37249658 -0.089896105 -0.1854788 -0.15665282 -0.09398608 -0.19335335 -0.055108063
-0.13328236 0.54016435 0.3813731 -0.042901594 0.06891585 -0.4189079 -0.042349327 0.30435666
0.22484532 -0.07248631 -0.19704853 -0.12621793 -0.60156894 0.18004094 -0.18021658 0.05762701

weight_sigma f4 [150, 64]
00000000: 23e5 a03e f6a0 23bd de18 913e 4a78 4bbe
00000010: ae4b 5bba b3e7 d73b b03d 0fbe fd75 f9bc
00000020: 4f67 663e cd37 673e 1cf1 87b8 f761 143d
00000030: 8783 a0ba 0167 f63d a539 453d 3f1a c9bd
00000040: 3549 73be ad5a 9abd 254f 6f3e e9a9 85be
00000050: 39bc 46bd 1488 473d afb4 83bd 3e01 333e
00000060: 5ee6 83bc 46aa f4b9 a260 1e3e 408e 1ebc
00000070: b1d4 92bd d19b 3c3c d0e4 c13c 9779 a0bd
00000080: e1aa 143e 929f edbd 5677 3cbd 3f80 1dbe
00000090: b42f 853d 39de fabd 5f51 643e 57c9 0c3d
000000a0: d135 e63d 3336 163e 6957 2b3c 9c4d d63c
000000b0: dde2 073d 856a 85bd 72d5 373e 2d7a d53c
000000c0: eee0 e23e f7a5 8e3e 86d3 d43c 7842 fabc
000000d0: 2cd8 e5bd 13bb b5bd 7fe9 513e ceb4 c8bd
000000e0: d216 78bd 8cc9 dc3e 5773 343e c24d 5a3e
000000f0: 76f5 f13c 0b60 473c 6bb6 cb3c a45e a4bc
00000100: 3df1 873e 0c2e 8a3b ec1a 7a3d bdce 16be
00000110: dfb0 09be 6ada 48bc f031 5ebe e51a dc3d
00000120: d2ba 79be 6616 d63b 94b3 423d 46a0 a4bd
00000130: d449 0a3e 2a70 d23e 025e 963e 2395 bbbd
00000140: f086 98bd f26c e4bd 68b5 083f 3bff b9bd
00000150: f8b8 0a3e 46d2 29be 82a3 82bd d178 543e
00000160: 13bd 8f3e ad36 aebd df91 7d3e 5301 08be
00000170: 2813 1f3e c4c6 033d 7703 92bd cf33 23bd
00000180: 4747 1c3e 620c 613e 1d38 40be 4266 c13d
00000190: dfb8 17be b3a5 cb3d bfcd 953e e2a1 1dbc
000001a0: 8787 dd3c 1339 d4bb 09e8 2d3e 470e d13d
000001b0: f096 8ebd da48 533e bf3e 24bb 952a a7bd
000001c0: 295d 433e 0986 16be a9c1 573e d9eb 213e
000001d0: 3965 993b aeea 873d 6271 edbd 9d49 f9bd
000001e0: 2bd0 b33d 8077 73be 57d6 1bbe 2f49 753e
000001f0: 72e5 42bd 7778 b83e 3ae3 183e bc81 c93d
00000200: 2fb3 cb3b 8cfa 233e f204 edbd 95f8 e53d
00000210: 3a35 d93d da1d 3fbe 2319 213d 9170 023e
00000220: 50af e43d 0e6c 0d3f d91e 56be 98d2 cfbc
00000230: 2083 c23c 1355 863e 0a92 30bc 3a81 943c
00000240: 619f 523e a09b 193c e6ec b03e 0530 903d
00000250: abc2 ffbd 5461 c43d 5313 d9bd 66cf 94bd
00000260: d27a cebe 7756 fe3d 8a67 acbd b1ce c13d
00000270: ce7b 4fbe f7dc a63d 6cdb c2bd 7eec 93be
00000280: 2238 dd3d 7cdf bf3d ab18 f73d 2302 b1be
00000290: c2f3 7d3e 7fff 833e 54ae 093e 8e58 73bd
000002a0: c24b 63be 5d0d c7bd b667 5e3d c188 a3bc
000002b0: 4066 0d3c 3a48 1e3e 08de 043e 5f85 0b3e
000002c0: 2e2f b13e 064f c23b b93a e23d 8b28 8f3e
000002d0: 25f3 a93d be1b d3bd 5f11 8ebd 31f9 623d
000002e0: ea6e 093d 0435 acbd 6622 23be f2aa 583e
000002f0: b61c 103a d06d 443d 86fa fb3d 9c6b ee3c
00000300: bc5f 183d cc8d 1dbc 3b8e 963c 0cb2 89bc
00000310: 1d11 043d 7af3 5f3b f3de ffbc b998 8cbc
00000320: 83bb 91bd 925e a6bd 15bc 76bc 35bb 00bd
00000330: 3f03 51bb 7714 4b3d 3f6e 6ebc cdc2 b53c
00000340: 15e9 923c 91f5 3f3c abd7 04be 5d5e 313d
00000350: 69d5 c33b fb6f dc3b 4a65 0d3e f43f b43d
00000360: 132a 593c 23a5 853c c065 3bbb c4dc ea3c
00000370: b97f 04bc 645f 0ebd 327c 06bd d2f5 993b
00000380: 2c7a 863d 76e7 a0bc cb76 aabc 51c5 1bbc
00000390: 28fc 6b3d 54c8 31bd 5b06 56be 3387 8a3c
000003a0: 900c 033b d81c f13c 9fb0 a73d 05d8 3fbd
000003b0: 9f96 18bc 720c 8fbc 08fa 19bb f3f4 ad3d
000003c0: 15c7 6ebc 517b 90bc 3ff5 9b3a d6d0 f5bd
000003d0: badd b63c 88cd 7c3d 18d1 9f3c 91f5 99ba
000003e0: ee40 46bc 8e48 b4bc f03f f7bc f94c 313d
000003f0: 00ac d43c 8637 8b3b 2a14 733c 86a6 61bd
0.31424817 -0.039948426 0.28339285 -0.19870105 -0.0008365464 0.0065889 -0.13988376 -0.030451769
0.22500347 0.2257988 -6.482212e-05 0.03622624 -0.001224623 0.12031365 0.048150677 -0.09819459
-0.23758395 -0.07536826 0.23370035 -0.26106194 -0.048519347 0.04871376 -0.06430947 0.17480943
-0.016101059 -0.0004666617 0.1546655 -0.00967747 -0.07169474 0.011511759 0.023668677 -0.078356914
0.1451831 -0.11602701 -0.046012245 -0.15380953 0.06503239 -0.12249417 0.22296666 0.0343717
0.112407334 0.14669113 0.010457852 0.026160054 0.033175338 -0.065144576 0.17952517 0.026059235
0.44312233 0.27860996 0.025979768 -0.030549273 -0.11222872 -0.08873572 0.20499228 -0.09800111
-0.06056864 0.43122518 0.17622124 0.21318725 0.02953599 0.0121688945 0.024867257 -0.02006466
0.26551238 0.004216915 0.06106083 -0.14727302 -0.13446377 -0.012259105 -0.21698737 0.10747317
-0.24387673 0.006533432 0.04753454 -0.08038382 0.13504726 0.411012 0.29368597 -0.09159305
-0.07447612 -0.11153592 0.53401804 -0.090818845 0.13547122 -0.16584119 -0.06378843 0.20749213
0.2807394 -0.08506522 0.24762677 -0.13281755 0.15534651 0.03217198 -0.07129567 -0.03984433
0.15261565 0.2197738 -0.18771406 0.09443332 -0.14816616 0.09943714 0.29258534 -0.009621115
0.027042164 -0.0064765303 0.16983046 0.10207801 -0.06962383 0.2063326 -0.0025061814 -0.08162419
0.19078507 -0.14699568 0.21069969 0.15812625 0.004681256 0.066365585 -0.11593892 -0.12172244
0.08779939 -0.23776054 -0.15218483 0.23953699 -0.047582097 0.36029407 0.1493043 0.09839198
0.0062164287 0.16013545 -0.11573209 0.11229054 0.10605855 -0.18663731 0.039330613 0.12738253
0.11166251 0.55243003 -0.20910205 -0.025368974 0.023744166 0.2623678 -0.010777006 0.018128026
0.2056861 0.009375483 0.3455574 0.07040409 -0.12488302 0.09588876 -0.10599389 -0.072661206
-0.4032808 0.124188356 -0.08418186 0.094632514 -0.20262071 0.081476144 -0.09514508 -0.28891367
0.10801722 0.09368798 0.12065252 -0.34571943 0.24800017 0.25780866 0.13445407 -0.059410624
-0.22196868 -0.09719346 0.054298125 -0.01996267 0.008630335 0.1545724 0.12975323 0.13625096
0.34606308 0.0059298305 0.11046357 0.2796062 0.08298329 -0.10308026 -0.06936907 0.05541343
0.03355304 -0.084085494 -0.1593109 0.2115896 0.00054974423 0.047956288 0.12303643 0.029104047
0.037200674 -0.009616327 0.018378368 -0.016808532 0.032242883 0.0034172223 -0.03123424 -0.017162668
-0.07115843 -0.081235066 -0.015059491 -0.031428535 -0.0031892804 0.049580064 -0.014552652 0.022187615
0.017933408 0.011716262 -0.12972896 0.043302882 0.005976368 0.0067272163 0.1380817 0.088012606
0.01325466 0.016314095 -0.0028594583 0.028669722 -0.008087092 -0.03475894 -0.032833286 0.0046984935
0.06566271 -0.01964162 -0.020808598 -0.009507493 0.05761352 -0.04340394 -0.20900862 0.016910171
0.0019996502 0.0294327 0.08187985 -0.04683687 -0.009313255 -0.01746199 -0.0023494978 0.08493986
-0.014573832 -0.017636927 0.001189865 -0.12002723 0.022322524 0.061719447 0.019508883 -0.0011746158
-0.012100441 -0.022007253 -0.030181855 0.043286297 0.025960922 0.0042485623 0.01483635 -0.05509045

bias_mu f4 [150]
00000000: db52 f4be 967f c8be a5c3 dfbe 272e 2a3e
00000010: 05d6 91bb 031b 2cbf 5942 0ebf 3036 13bf
00000020: 3b21 f0be 7d24 babe 862d acbe 5b5a 7f3e
00000030: a94a a6be 4d51 14bf cc00 f5be b336 623d
00000040: 51b7 f8be c922 13bf 5b36 0bbf 3e51 9cbe
00000050: b328 18bf 08ff a8be fd70 a3be 2f60 c1be
00000060: ea12 21be 9620 edbe 8408 79bd df5f eebe
00000070: d83b e4be 4327 1cbf 924f aabe 551f 4c3d
00000080: 6e16 cb3d 5dd9 efbe 7aa4 dfbe 6156 2dbf
00000090: f9b4 cabe 119c 27bf 826a c2be d960 10bf
000000a0: b872 0abf 7456 bdbe c491 1ebf e5d5 8fbe
000000b0: 9b06 a2be cdb5 febe 325a acbe 417d b8be
000000c0: 8a4d 27bf b430 1b3d 0923 2fbf e0f5 f5be
000000d0: 0027 84be 811b 1abf 1549 ffbe a853 99be
000000e0: 974e 903e 57c1 03bf 6a3c e03c 5d1f cfbe
000000f0: 0053 09bf 9294 04bf c506 16be f3ba 313e
00000100: b9ec 09bf 8b0c cfbe b37b e2be 73b2 debe
00000110: 2c28 19bf 510b edbe 48a7 29be 5e28 14bf
00000120: d338 02bf 289c 13bf 04cc dcbb c9f9 d0be
00000130: 9cd7 d2be 8d51 03bf 7134 fabe 4218 bcbe
00000140: a17e f5be 1022 19bf 2dd1 29bf fb03 afbe
00000150: 2470 c1be b91b 22bf c424 c8bd b74c eabe
00000160: 2e61 103f bf13 00bf 625e b7bb e3f0 2abf
00000170: 57fb e4be 770c 21bf 9e28 eebe 7a80 f5be
00000180: a86b b3be 6c62 45bf dae8 b9be 1e50 e8be
00000190: 3c63 953c f284 26bf 6b51 d8be b141 acbe
000001a0: a56a 12bf d7a3 b4be 23c9 92be 0e85 9cbe
000001b0: 6ca2 4fbe 1bb6 11bf 8c58 973e a1f0 7bbe
000001c0: 3b31 06bf b62a a8be e8b2 0cbf 7200 39be
000001d0: 1361 12bf a482 09be a398 043d 2a24 00bf
000001e0: c684 c2be bd28 01bf 4b54 ddbe 0ceb d9bd
000001f0: 983e ffbe 79ae 12be a41d bfbe fbd8 2fbf
00000200: 604f babe f12d d4be db24 b2be e11e 24bf
00000210: b5ba 8ebe 8237 a2be 386e 1bbf 0334 8ebe
00000220: 1779 bdbe 0f8c 953c 86b8 e1be 934e bcbe
00000230: 6ed8 7fbe 6662 96bc b3d2 5d3e d74e 643e
00000240: c865 e7be 076e 8dbc 8eb2 06bf 6df0 d6be
00000250: a698 fbbe 2e9c 93be
-0.47719464 -0.3915984 -0.43703952 0.16619168 -0.004450562 -0.67228717 -0.5556999 -0.5750456
-0.46900353 -0.36355963 -0.33628482 0.24936812 -0.32478836 -0.57936555 -0.4785217 0.055227946
-0.4857736 -0.5747495 -0.54379815 -0.30530733 -0.594371 -0.33007073 -0.3192214 -0.37768695
-0.15729871 -0.46313924 -0.060799137 -0.4655752 -0.44576907 -0.6099741 -0.33263832 0.049834568
0.099163875 -0.46845523 -0.43680173 -0.6770993 -0.39591196 -0.65472513 -0.37971884 -0.5639778
-0.54081297 -0.3698002 -0.6194117 -0.28092876 -0.31645665 -0.49748078 -0.33662564 -0.3603306
-0.6535269 0.037888244 -0.68412834 -0.4803915 -0.25811005 -0.6019822 -0.49860445 -0.29946637
0.2818496 -0.5146689 0.027372558 -0.40453616 -0.5364227 -0.517892 -0.1465102 0.17356472
-0.53876835 -0.40439257 -0.44235 -0.4349552 -0.5982692 -0.46297696 -0.16567719 -0.57874095
-0.50867957 -0.5766015 -0.0067381877 -0.4081557 -0.41180122 -0.5129631 -0.48868135 -0.36737257
-0.47948173 -0.598176 -0.663348 -0.34182724 -0.3778087 -0.6332355 -0.097726375 -0.45761654
0.56398284 -0.5003013 -0.005595968 -0.66773814 -0.44723007 -0.62909645 -0.46515363 -0.47949582
-0.35043073 -0.77103305 -0.36310464 -0.45373625 0.018235795 -0.6504661 -0.42249617 -0.3364387
-0.57193977 -0.3528125 -0.2866908 -0.30570263 -0.20276803 -0.56918496 0.29559743 -0.24603511
-0.5241887 -0.32845086 -0.5496049 -0.18066576 -0.57179374 -0.13428742 0.03237213 -0.5005518
-0.37991923 -0.50452787 -0.43228373 -0.10640535 -0.49852443 -0.14324369 -0.37327302 -0.6869046
-0.36388683 -0.414413 -0.34793743 -0.6410962 -0.2787682 -0.31682974 -0.60715055 -0.27774057
-0.37006447 0.018255262 -0.44086093 -0.36778697 -0.24984905 -0.018357467 0.21662407 0.222957
-0.4519484 -0.01726438 -0.526162 -0.41980305 -0.491399 -0.28830093

bias_sigma f4 [150]
00000000: b638 4f3e 2f34 8a3c 7bd1 773d 9038 f0bc
00000010: 5b58 fe3c 8b9d da3d cf8a dc3e 9f8c 89be
00000020: 25e2 a13d c573 413e 5fd9 6a3e 2192 053d
00000030: 5978 a13d 6305 e13e 1371 973d 785d abbb
00000040: 3342 f23d ec94 ac3d b470 a5bd 2eed 153d
00000050: 5225 05be 0ab6 823b 6246 cf3c c67c 023e
00000060: ef54 673d 368a 38be 6e43 14bd bda6 7b3c
00000070: b262 febc 4f04 4cbe d181 cc3d 2080 4e3b
00000080: 1b6e 5ebb 8b96 25be 778b 12be d89c 49be
00000090: 3d7e 3dbe e704 0fbe 1755 2e3e aed2 693e
000000a0: 5c8b 62be eb48 fd3a ed3f e03d 6cec c23d
000000b0: e9de 7d3d 4308 043d 6c27 6f3e 673a af3e
000000c0: 4462 a93c 09dc 39bd caa9 4f3e ac6f a73e
000000d0: 81e8 773c 1c04 c03d 5fad b93d e905 093e
000000e0: b456 d3bc 7810 133e 78ba 20bc b958 323e
000000f0: 06a1 013e e91c 50be 8a8d 80bd 723e 503c
00000100: a9ad 133e 5d89 693e e43f 013e cbcd 463e
00000110: f493 2bbe b8e6 f93c f668 8f3a 39e2 dd3e
00000120: 8af2 b1bd afa0 11bd cfaf 933b 49cc 463e
00000130: 181f d63d 141a f93e f054 e6bc d3b6 e5bb
00000140: c537 62be e66c 8d3d 6823 89be 6f0d 7e3e
00000150: 572d ae3c 6a3b babd 43b5 23bd 46ee e33d
00000160: accd b0bc 6d06 0fbe ff1d 343d 81e4 39be
00000170: 3029 7fbd cc90 b93d 2b5b a2bc d7ba 7abc
00000180: 725f e73e d9de 8dbe 3373 79bd f6d6 f33d
00000190: d79e df3c 69c3 ab3e d60d a73c 1814 09be
000001a0: 3e40 103d f984 833e 3c30 3c3c d43d f2bd
000001b0: 1fd3 153d 99d9 643e 81e8 40bd be8d 2d3e
000001c0: 4e06 79be 2ade ed3d b19b 53be 7d9a 6ebc
000001d0: 5667 1c3f 20db adbb 9ba4 3e3d bcec 123e
000001e0: 9ae6 b4be ffeb 46be c6c3 953e 2535 91bd
000001f0: a384 e0bd ee96 5bbd e4d6 793e cf73 0f3e
00000200: a54e cb3e bdbc b6bd 9f02 213e b441 393e
00000210: 8b17 ec3d 6de4 733e 905b bdbe 7f36 2ebe
00000220: e40e 51bd 27c4 c03a 523d f1bd 7273 963e
00000230: c66a d23d edf7 c23c b825 95bb 69c7 143c
00000240: f389 be3e 08cd 1c3d 516f 0f3e 9f14 83be
00000250: 5594 c93d 7ede 5c3c
0.20236477 0.016870586 0.06050251 -0.029323846 0.03104799 0.1067458 0.43074653 -0.26865098
0.07904462 0.18891819 0.22934483 0.032610063 0.078842826 0.43949422 0.07394614 -0.005229648
0.11829033 0.08426842 -0.08078137 0.036603145 -0.13002518 0.003988986 0.025302116 0.1274291
0.056477483 -0.18021473 -0.03619712 0.015359578 -0.031052921 -0.19923519 0.09985698 0.0031509474
-0.003394014 -0.16170709 -0.14311014 -0.19688737 -0.18505187 -0.13966714 0.17024647 0.22834274
-0.22123474 0.0019324099 0.10949693 0.0951775 0.06198016 0.03223444 0.23354882 0.34224245
0.02067674 -0.045375858 0.20279613 0.32702386 0.015131117 0.09375784 0.09066271 0.13381161
-0.02579818 0.14361751 -0.009810083 0.17416658 0.12659082 -0.20323528 -0.062769964 0.012710201
0.14421715 0.22806306 0.12622029 0.19414441 -0.16755658 0.030505523 0.0010941315 0.43336657
-0.08688839 -0.03555363 0.004507042 0.19413866 0.104551494 0.4865271 -0.028116673 -0.0070103197
-0.22091587 0.06905536 -0.26784825 0.24809812 0.021261854 -0.090933636 -0.039967787 0.111294314
-0.021582447 -0.13967295 0.04397392 -0.18153574 -0.06229514 0.09060821 -0.019818863 -0.015303335
0.45190006 -0.27709082 -0.06090088 0.11906235 0.02729742 0.33547524 0.02039234 -0.13386571
0.035217516 0.25687388 0.011486109 -0.11828199 0.036578294 0.22348632 -0.047096733 0.16948602
-0.24318811 0.1161464 -0.2066486 -0.0145632 0.6109518 -0.0053056628 0.0465437 0.1434812
-0.35332185 -0.19425963 0.29250926 -0.07090215 -0.109627984 -0.053610735 0.2439838 0.14009021
0.3970844 -0.08922718 0.15723656 0.1809147 0.11527928 0.23817606 -0.3698392 -0.17012976
-0.05103959 0.0014706895 -0.11779274 0.29384953 0.10274272 0.02379986 -0.0045516156 0.009080746
0.37214622 0.03828147 0.14007308 -0.2560167 0.09842745 0.013480781

weight_epsilon f4 [150, 64]
00000000: b3e3 25bf 5470 22bf 4fa1 e33e 8f80 2e3f
00000010: 36ba b23e 5389 5cbe 4823 093f 7c01 e33e
00000020: 886f 183f a2ac 263f eb1d 71be f71b 2abf
00000030: 7562 183f 4e83 0dbf 9720 283f d1ca 303f
00000040: 2c93 f23e 8412 c03e 0add 3f3e e38e c1be
00000050: 4463 aabd 5bb4 083f bc4e 293f 8d87 c9be
00000060: ad61 a9be fe87 88be 97f2 c7be 997b bcbe
00000070: 73dc f0be 89a6 aa3e 1fd7 2abf ef5d 1a3f
00000080: 7f69 343f 251b f8be 5106 8fbd bd44 63be
00000090: 4a4f 04bf b746 033f 903e 1dbf 320d b73e
000000a0: dc4b 453e 11a9 d5be 78f5 cf3e 5122 a9be
000000b0: 4cfe 8bbe 7622 32bf 67c5 6cbe 2ede ed3e
000000c0: c8d4 c53d b545 493e 1c46 1e3f 1f8a 96be
000000d0: 3ba0 963e 9e73 ebbe 89d0 9b3e abae 983e
000000e0: 9520 033f 303d 85be a626 d4be 689f 1f3f
000000f0: 27ab dfbe 3eaf 30bf feaf 7ebe 041f 19bf
00000100: e949 acbf 76b4 a8bf 3a69 6c3f d23b b53f
00000110: 339f 393f 300b e5be 8f6d 8e3f 3cc3 6b3f
00000120: e250 9e3f 971a ad3f 056b fabe d8ab b0bf
00000130: 4e43 9e3f caf8 92bf e69c ae3f b29c b73f
00000140: acee 7b3f 497b 473f c043 c73e 5506 49bf
00000150: e5f5 30be 5bfa 8d3f b3d6 af3f b74d 51bf
00000160: 5eea 2fbf 48cc 0dbf 22a9 4fbf ecc0 43bf
00000170: 0727 7abf c23b 313f 396e b1bf 5a52 a03f
00000180: 1f5f bb3f a2d6 80bf ba8a 14be 1609 ecbe
00000190: e369 89bf 1b57 883f 664f a3bf e31c 3e3f
000001a0: 38e8 cc3e 07e7 5dbf 21fb 573f 91a8 2fbf
000001b0: c664 11bf 9801 b9bf 97e7 f5be 330b 773f
000001c0: 6d76 4d3e 5509 d13e 1d61 a43f bf58 1cbf
000001d0: b66f 1c3f c688 74bf 41d3 213f 7492 1e3f
000001e0: 812f 883f f760 0abf b555 5cbf bbc7 a53f
000001f0: f34b 68bf 0e80 b7bf 8e41 04bf 2207 9fbf
00000200: a8f5 9fbf dca1 9cbf 487e 5b3f b343 a83f
00000210: b056 2c3f 36a7 d4be 573c 843f 2be4 5a3f
00000220: 9bfc 923f 68b7 a03f 797f e8be 4e07 a4bf
00000230: ffef 923f 5574 88bf 111e a23f 0179 aa3f
00000240: 62e7 693f df34 393f 4f01 b93e a6a3 3abf
00000250: 0f4c 24be 62d1 833f 6941 a33f 5e53 42bf
00000260: ad53 23bf 9ba6 03bf e2cc 40bf cebe 35bf
00000270: 5840 68bf ec8c 243f c6bb a4bf 55d9 943f
00000280: 8ff6 ad3f be3c 6fbf 82e9 09be 0525 dbbe
00000290: 1029 7fbf d42a 7d3f a19f 97bf 1a82 303f
000002a0: 6a3e be3e e005 4ebf 7486 483f 9516 23bf
000002b0: 3afd 06bf 5cc4 abbf b94e e4be 785d 653f
000002c0: 71c2 3e3e e113 c23e c29d 983f 8c28 11bf
000002d0: dd3d 113f 0409 63bf b03e 163f 7b39 133f
000002e0: 4be1 7c3f ed79 00bf 4591 4cbf b6ea 993f
000002f0: 60ac 57bf 6a5e aabf 5d95 f5be d0a5 93bf
00000300: 4df7 61bf 0444 5dbf 7108 1b3f a5b2 6d3f
00000310: 0474 f33e 9f33 96be 52cd 3a3f 979b 1a3f
00000320: d6a3 4f3f 0009 633f ed37 a4be c8b6 67bf
00000330: 0792 4f3f f6c2 40bf a903 653f 38d1 703f
00000340: 2336 253f c4d0 023f 58ac 823e d3d3 03bf
00000350: e717 e8bd 3936 3a3f 3a9f 663f ab41 09bf
00000360: 07b9 e6be cbf9 b9be dd2d 08bf ea5e 00bf
00000370: 560b 24bf 8873 e83e b8b5 68bf 4845 523f
00000380: 7ebf 753f 85fa 28bf 20d2 c2bd 65c9 9abe
00000390: b739 34bf 53d1 323f ae30 56bf e557 f93e
000003a0: 985f 863e c284 11bf aaa2 0d3f b962 e6be
000003b0: 12b1 bebe 4fa5 72bf 3842 a1be 7301 223f
000003c0: d9bc 063e d314 893e ac97 573f a30e cdbe
000003d0: c02c cd3e 2a5c 20bf 193e d43e d5f9 cf3e
000003e0: 639d 323f c57d b5be 947d 10bf 046e 593f
000003f0: ba55 18bf a8ab 70bf 0776 adbe de92 50bf
-0.64800566 -0.6345265 0.44459006 0.68164915 0.34907693 -0.2153676 0.5356946 0.4433707
0.59545183 0.65107167 -0.23546569 -0.6644892 0.59525234 -0.5527848 0.6567473 0.69059473
0.47377908 0.37514126 0.18736663 -0.37804326 -0.08319715 0.534002 0.66135764 -0.3936123
-0.33082333 -0.26666254 -0.3905227 -0.36813048 -0.4704319 0.3333018 -0.667345 0.6029958
0.70473474 -0.4845821 -0.06983627 -0.2219419 -0.51683486 0.5127978 -0.6142359 0.35752255
0.1926722 -0.4173055 0.40616965 -0.33033994 -0.2734245 -0.69583833 -0.23122178 0.46458572
0.096597254 0.19655497 0.6182573 -0.29402253 0.2941912 -0.45986646 0.30432537 0.2982076
0.5122159 -0.26023245 -0.41435736 0.6235261 -0.43685266 -0.690174 -0.24871823 -0.5981295
-1.3460056 -1.3180072 0.92348063 1.4158881 0.72508544 -0.44735098 1.1127185 0.9209478
1.2368433 1.352374 -0.48909774 -1.3802443 1.236429 -1.1482174 1.3641632 1.4344695
0.9841106 0.77922493 0.38918877 -0.78525287 -0.17281301 1.1092027 1.3737396 -0.8175921
-0.6871699 -0.55389833 -0.8111745 -0.7646625 -0.977158 0.6923181 -1.3861762 1.2525132
1.4638404 -1.0065501 -0.14506045 -0.46100682 -1.0735439 1.0651582 -1.2758605 0.7426283
0.4002092 -0.86680645 0.8436757 -0.68616587 -0.56794393 -1.4453611 -0.48028252 0.96501464
0.20064707 0.40827432 1.2842137 -0.61072916 0.6110796 -0.955212 0.6321297 0.6194222
1.0639497 -0.54054207 -0.8606828 1.2951578 -0.9074089 -1.4335954 -0.5166253 -1.2424052
-1.2496843 -1.2236896 0.85739565 1.314566 0.67319775 -0.41533822 1.0330914 0.85504407
1.1483339 1.2555971 -0.45409754 -1.2814729 1.1479491 -1.0660502 1.2665426 1.3318177
0.9136869 0.723463 0.3613381 -0.7290596 -0.16044639 1.0298274 1.2754337 -0.7590846
-0.63799554 -0.51426095 -0.75312626 -0.7099427 -0.9072318 0.6427753 -1.2869804 1.1628824
1.3590869 -0.9345206 -0.13467982 -0.4280168 -0.9967203 0.98893476 -1.184559 0.6894852
0.37156993 -0.80477715 0.7833016 -0.6370633 -0.52730143 -1.3419299 -0.4459131 0.89595747
0.18628861 0.3790579 1.1923144 -0.56702495 0.5673502 -0.8868563 0.58689404 0.57509583
0.9878127 -0.50186044 -0.79909164 1.2024753 -0.842474 -1.3310063 -0.47965518 -1.1534977
-0.88267976 -0.8643191 0.60559756 0.92850715 0.4754945 -0.2933626 0.72969544 0.6039366
0.8110937 0.8868561 -0.32073918 -0.9051328 0.81082195 -0.75297487 0.8945871 0.9406924
0.6453573 0.510998 0.25522113 -0.51495093 -0.11332684 0.7273899 0.9008671 -0.53615826
-0.4506304 -0.3632339 -0.5319498 -0.5014483 -0.640798 0.45400643 -0.9090228 0.82136965
0.9599532 -0.6600726 -0.095127344 -0.30231777 -0.70400566 0.69850653 -0.8366803 0.4869987
0.26244807 -0.568432 0.5532633 -0.44997194 -0.3724447 -0.9478349 -0.31495833 0.6328346
0.13157977 0.267737 0.8421581 -0.4005023 0.40073204 -0.6264063 0.41453627 0.40620294
0.69771403 -0.35447517 -0.56441617 0.84933496 -0.5950581 -0.94011927 -0.3387911 -0.814741

bias_epsilon f4 [150]
00000000: f791 073f c3cc 8c3f 5fb9 823f abaa 383f
00000010: 87b2 9a3e fb5c 5d3f 4133 8b3f a3b7 9c3f
00000020: c9bb 5dbf b86d 4dbf 82ff 1c3f 4527 173f
00000030: 7468 0e3f 2a3c a1bf ad62 823f f580 cbbe
00000040: 89c8 6dbf b743 9d3f 9c6a 7a3f 2942 993f
00000050: 078d 38bf efa2 d3be bd11 4cbf 2646 2b3f
00000060: f273 35bf 6b38 3cbf 8bc6 123f 009b 933f
00000070: ec51 20bf cd2a 873f 1cbc 89bf dc4a b23e
00000080: d059 88bf d955 093f 78e3 02bf c535 86bf
00000090: 1d5e b1bf 04c1 b03f 57eb 81bf a623 97bf
000000a0: 8aee 323f 7a61 50bf f7d5 133f 949b 61bf
000000b0: e10e 613f 91bb 0e3f 665c 7bbf 6172 113f
000000c0: 849a 863f 2ea7 a73e 656e 1f3f ae48 b53f
000000d0: 2419 863f 756f 82be ba5b 6d3f 561a 4a3f
000000e0: e9eb 583f 26c3 653f 31f7 713f bd23 01bf
000000f0: b76d 0ebf bb17 723f 80c1 d83f 2ff4 873f
00000100: 251d 423f a7ed 63bf 3fa8 5e3f e180 9f3f
00000110: e591 82bf c34f 5f3f 0705 8bbf 5ccd a6bf
00000120: afbb d2be 8995 1abf 48c9 04bf e17a 22bf
00000130: 1bb4 42bf e70a 3dbf 6150 b83e 3b99 7ebf
00000140: 14b3 243f b3b6 69bf 9b38 b03f 70e4 713f
00000150: 99cf 683f 740e 873e 828a 0b3f 8c87 a2be
00000160: 6ee4 553f 5610 253f 1664 b4bf 296c 52bf
00000170: 1fdc 8b3e 667f b0bf f8f8 8abf 33eb 7c3e
00000180: 0e1d 87bf 0080 13bf 4efa 71bf 0d78 163f
00000190: 4336 ccbf 349e d0bf 67b6 a63e bd09 b03f
000001a0: e8f1 363f 73ee ad3f fb5b 8fbf 7cb2 8ebf
000001b0: 95f2 863d 824d 7a3f 9799 5c3f e47f fabe
000001c0: 4901 b43f f434 033f d36d 113f 2ed3 643f
000001d0: 34f2 91bf a7bc 363f 5cdf dfbe ccea a23e
000001e0: 9650 8a3f 1af6 47bf 1c6c 93bf 72da 8d3f
000001f0: d498 423f 77f1 93bf d61a 913f 25e2 fe3e
00000200: 2b6d 7b3f 00c2 52bf 56e3 a4bf 4c21 713f
00000210: 0e96 b9be ddfa 72bf f101 b2bf 77cf 07bf
00000220: 1798 32bf 1b75 eebe ad7f ccbf 4bfa 9c3e
00000230: bac1 9ebe 1960 87bf 55d2 853f 957d 59bf
00000240: b2a4 423e 984c 68bf 3f45 253f b670 353f
00000250: c855 86bf 9eba 13bf
0.529571 1.0999988 1.0212821 0.7213542 0.3021433 0.8647 1.0875016 1.2243541
-0.8661466 -0.8024554 0.61327374 0.59044296 0.5562813 -1.2596486 1.0186363 -0.39746824
-0.9288412 1.228629 0.97818923 1.1973315 -0.7209019 -0.41335246 -0.79714566 0.66903913
-0.70880044 -0.73523587 0.573342 1.1531677 -0.62625 1.0559937 -1.0760531 0.34822738
-1.0652409 0.5364662 -0.5112834 -1.0485159 -1.3856846 1.3808904 -1.0149945 -1.1807754
0.6989523 -0.8139874 0.5774836 -0.8812802 0.8791333 0.55754954 -0.98187864 0.56815153
1.0515904 0.32744735 0.62277824 1.4162805 1.0476422 -0.2547566 0.9271809 0.78946435
0.8473497 0.897509 0.9451781 -0.5044516 -0.5563616 0.9456746 1.6934052 1.0621394
0.7582572 -0.89034504 0.86975473 1.2461206 -1.0200773 0.8723108 -1.0860909 -1.3031421
-0.41158816 -0.6038442 -0.5186963 -0.6346875 -0.7605607 -0.7384476 0.35998824 -0.9945256
0.6433575 -0.912944 1.3767275 0.9448919 0.9094177 0.26378214 0.5450822 -0.3174404
0.8355168 0.6447805 -1.4093044 -0.8219629 0.27316377 -1.3788879 -1.0857229 0.24699096
-1.0555742 -0.5761719 -0.9452256 0.5877693 -1.5954059 -1.629828 0.32561037 1.3752972
0.7146287 1.3588394 -1.1199945 -1.1148219 0.065892376 0.9777452 0.8617186 -0.48925698
1.4062892 0.51252675 0.56808203 0.89384735 -1.140204 0.7138161 -0.43725097 0.3181976
1.0805843 -0.78109896 -1.1517367 1.1082289 0.7601445 -1.1558064 1.1336315 0.4978191
0.9821345 -0.8232727 -1.2881877 0.9419143 -0.36247295 -0.94914037 -1.3906842 -0.5305094
-0.6976332 -0.4657372 -1.5976464 0.30659708 -0.31007177 -1.0576202 1.0454813 -0.8495725
0.19008139 -0.9074187 0.64558786 0.7087511 -1.0494928 -0.5770663

weight_mu f4 [100, 150]
00000000: 4d45 143e 21d6 9b3c 9388 163e a715 163e
00000010: 0bda 71be c0ab 59bd f3f7 923d 0856 10bb
00000020: 7354 8c3d 3fb1 af3d 106e c63d 9fa5 d43d
00000030: 2750 8f3d c301 78bc ce27 b83d d2c4 d2be
00000040: 3847 b93c 88fc f43d 05fb 043d 03f8 573c
00000050: 0b8f ec3c 6835 033e 4d20 ccbc beb8 513d
00000060: 7eec d9be 7673 e03d 5c10 093e a731 163d
00000070: 6ea8 703d c1c0 eb3d 1cec a4bd 62a2 05bf
00000080: 5054 9bbe 8330 093e 74a6 0fbc b09b 1b3e
00000090: f7eb 36bd 90a5 d63d a499 fc3d c8d0 28bd
000000a0: f275 3c3d ebe5 46bd 8297 473d 4264 1f3e
000000b0: e34d 093d cacc ae3c 4719 d93d 869f 23bc
000000c0: a819 bc3d 52de f6be 54c1 7e3d d3d4 013d
000000d0: ddf3 343d bd24 96bc 0e63 d33d 89fd 2c3c
000000e0: d761 1c3e 6c5c 683d 7d8c 89be 0b4f 863d
000000f0: dfa8 163d 852a efbc 311d 3cc0 2539 b33d
00000100: 82e3 53bc 4da0 c93d 17f5 c4bd e9d8 353d
00000110: b95e 913d 8ba9 d7bd 3653 95bf 0cc0 d63d
00000120: 9f06 313e 33c0 b83c d317 80bf 6c4f 04be
00000130: 0666 d13d 3590 bc3d 9e73 ca3d e9c8 dc3d
00000140: c166 b83d d36c 9d3d c2d6 853d 028b c63d
00000150: 5423 47b8 a7c3 063e 32f9 61be 834e 0d3e
00000160: 0f80 b2bd 0e6c a63d 8168 41be 9144 2abc
00000170: 6da0 1dbd 4fb6 23bd 266d 873b 024d dc3c
00000180: 3a48 a5bd 62e1 893d 9c24 bcbb 5574 cd3d
00000190: 2fd0 cf3c 8f96 563d 9bbb b53c e105 20bd
000001a0: 3c02 293e 50a1 743d ffff ad3c c88b 603d
000001b0: 9f1c 9fbe 5092 5abd e916 48be 85da 783d
000001c0: d080 c53d d82a c93d 579c fc3c 43d3 a6be
000001d0: 1ec0 d4bc 18b2 b6bc 1801 62be e700 ac3d
000001e0: c2ee cb3d 7e19 1f3c ec76 6e3d b105 e3bd
000001f0: 599b b9bc fe2c 22be 4e23 e1bd bb8e 01bc
00000200: 2039 293e 34ed ac3d 7826 863d 688a dc3d
00000210: d180 2e3c 102f 1cbd 053d f73d eaa8 b73d
00000220: 9970 333e 40ae 01bd 6778 1bbd ca3a 9dbd
00000230: e577 403d e1d8 6cbe b8fc 15be bc62 f23c
00000240: 195a 6f3c 16a6 bcbe fa61 7f3d a46b afbd
00000250: 659e 4e3d f102 d33b b389 24be e1bd c63d
00000260: 2ddc c5bd f439 8cbd 81ac 78bf 154b 6ebd
00000270: 3e4d 743d 0a28 78bd 5135 b1bd 23c5 d93d
00000280: 1ea3 aebd df14 65be 514f 78bd 3989 04be
00000290: bc1d acbd 6d6b 703e 5ba7 9ebd 59ee 0b3c
000002a0: 3d65 b4bd c7bb 2c3d a97b 17be fefe a2bd
000002b0: b2cb e4bd 2f27 f13c 6fd9 15bf eeee 353d
000002c0: d998 c5be 994f 343d f67f 8bbd 50d2 3abd
000002d0: ba2b 4b3d ae04 cfbd c355 773e 45fc a839
000002e0: 6f96 91bd 81a3 c0bc 7811 823c 060b 15bd
000002f0: ecf8 bbbc 392a 09be b700 40bd 29c1 44bd
00000300: 9dc2 153c 44e6 81bc 20aa 69bd 9878 3abe
00000310: 7fa4 efbc 52ca 423c 4ea3 b5bd 125b 40bc
00000320: cb24 2abd 5b68 fa3a 591d 6c3c 1acc b3bd
00000330: 1b5b b23c c7cb d7bd b290 c9be 06ef 393c
00000340: 4472 50be 30c1 ddbc 1a40 86bd 9988 eabc
00000350: 0f44 ddbd b576 30be c2af ab3d ba21 c6bd
00000360: cccb c1bc e288 b9bd f201 f23c 5f11 fcbc
00000370: be31 7cbc 49e6 32be 9b22 f6bc d02c 3ebd
00000380: cee2 7b3d d62e 92bd a073 98bc b195 8a3d
00000390: 77a6 53bd fa49 51bb 1f0c 42bd a0b2 9cb9
000003a0: 373e 63be 0c60 d33d 7a81 10be ea94 75bd
000003b0: a164 25be 7eaf 37bd db93 133d d44b 27bc
000003c0: 6d28 6cbe 66ea 27be 9ef7 e8bd b1e2 15bd
000003d0: c512 9d3d 3be8 14bd 1ca1 8c3b c305 10be
000003e0: 449b d83c b775 913d e95e 1e3d 3537 08be
000003f0: 72fb 8ebc d53d 7fbc e096 2b3d d44f 50bd
0.14479561 0.019023003 0.14700536 0.14656697 -0.23618333 -0.05314231 0.07176199 -0.0022023935
0.06852045 0.08578729 0.096889615 0.10383152 0.0699771 -0.015137139 0.08991967 -0.41165787
0.022616968 0.11962229 0.032465953 0.013181689 0.028876802 0.12813342 -0.024917746 0.051201575
-0.42563242 0.109595224 0.13385147 0.036668446 0.058754377 0.11511374 -0.08052847 -0.522009
-0.30337763 0.13397412 -0.008767713 0.15196109 -0.044658627 0.10480797 0.12333992 -0.041214734
0.04601092 -0.04855911 0.048728473 0.15565589 0.033521544 0.021337885 0.106005244 -0.009986764
0.09184581 -0.48216492 0.06219609 0.031697106 0.04417788 -0.018328065 0.103216276 0.010558494
0.15271698 0.056728765 -0.26864997 0.06558045 0.03678214 -0.02919508 -2.9392817 0.08751134
-0.01293266 0.09845028 -0.0961706 0.044396315 0.07098145 -0.10530385 -1.1666019 0.10485849
0.17287682 0.022552585 -1.000727 -0.12920922 0.102245376 0.09207193 0.098853335 0.10780508
0.09003974 0.07686772 0.065351024 0.096944824 -4.74782e-05 0.13160573 -0.22067717 0.13799481
-0.087158315 0.081260785 -0.18887521 -0.010392324 -0.038483072 -0.039968785 0.0041328846 0.026892189
-0.08070417 0.067324415 -0.005741669 0.10031954 0.025367824 0.052389678 0.022184184 -0.039068107
0.16504759 0.059724152 0.021240233 0.054820806 -0.31076524 -0.05336219 -0.1953999 0.06075527
0.0964371 0.09822625 0.030836267 -0.32583055 -0.025970515 -0.022301719 -0.2207073 0.083986096
0.09957649 0.009710668 0.05821888 -0.1108507 -0.022657083 -0.15837476 -0.10993062 -0.007907565
0.16525698 0.084436804 0.06550306 0.107685864 0.010650829 -0.03813082 0.120721854 0.08967765
0.17523421 -0.03166032 -0.03795662 -0.07677229 0.04698934 -0.23129608 -0.14647186 0.029588096
0.014608883 -0.36845464 0.062349297 -0.08565453 0.050444026 0.0064395596 -0.16068153 0.09704185
-0.09661136 -0.06846991 -0.9713822 -0.058177073 0.059643976 -0.06058506 -0.086527474 0.10633304
-0.08527206 -0.22371243 -0.060622517 -0.12942971 -0.08404109 0.2347848 -0.07746764 0.008540713
-0.08808372 0.042171266 -0.14793266 -0.07958792 -0.11171664 0.02943763 -0.585349 0.044417314
-0.38593176 0.044021223 -0.06811516 -0.045610726 0.049602248 -0.101083145 0.24153809 0.00032231412
-0.07108771 -0.023515465 0.01587747 -0.036387466 -0.022945844 -0.13395013 -0.04687568 -0.048035774
0.009140638 -0.01585687 -0.05704701 -0.18210065 -0.029253243 0.011889057 -0.088690385 -0.011740463
-0.041538995 0.0019104587 0.014411294 -0.08779164 0.021771958 -0.10536914 -0.39368206 0.011348492
-0.20356089 -0.027069658 -0.06555195 -0.028629588 -0.10803997 -0.17232783 0.083831325 -0.096744016
-0.023656748 -0.090593114 0.029541943 -0.030770002 -0.015392719 -0.1747066 -0.030045798 -0.046429455
0.061495595 -0.071378395 -0.018609822 0.067668326 -0.051672425 -0.0031934963 -0.04737484 -0.00029887725
-0.22191702 0.10321054 -0.14111891 -0.05995647 -0.16151668 -0.044845097 0.036029678 -0.01021095
-0.23062296 -0.1639801 -0.11375354 -0.036593143 0.07669596 -0.036354285 0.0042916667 -0.14064698
0.026441224 0.071025304 0.038664732 -0.1330231 -0.017453883 -0.015578707 0.041891932 -0.05085738

weight_sigma f4 [100, 150]
00000000: 505d 4ebe 3699 01be bd1b 4ebe 5fc6 67bd
00000010: e834 653d b3f0 1b3e 60de f43c 50b0 383e
00000020: 638c 6d3e 9c3f 183f 734c 34be cbb4 c63d
00000030: 5525 263e 4379 8d3c 1f67 66be 8f56 f3bd
00000040: 36a5 633d c4f8 fe3e 5278 b43d 8f2d 99be
00000050: 0ee0 fc3d 1afe e4bd c917 b6bd ffe2 b53e
00000060: 9f3b 0c3e 3fc3 2cbe 0b1f 88bd ee94 5ebe
00000070: b053 58be 0595 b23e c65b 6c3e 7726 a73d
00000080: cd1b 8dbd 3fd9 273e 1e6b 403e 831a e33d
00000090: 97f5 5fbd 14ce cf3d 9d9a 4f3e eb89 b9bd
000000a0: 2637 1d3d cf86 33bd 9b30 7e3e 7ee4 d83d
000000b0: 588f 65be 8914 afbd 2769 95be 3edd ed3d
000000c0: 41b2 553d b0ae 16bc 1269 6fbe 636a 283e
000000d0: 7bbe 863e 0acc e7bc 3baa 743e 94b2 41be
000000e0: be32 473d 554b 1f3e ffaf 56be bc01 27be
000000f0: 08e9 89bd 2fa8 b93d 098b 7cbd ce94 0f3e
00000100: f441 553d 9235 08be 2482 813e a337 603e
00000110: 3ba3 49be 7c2b 7f3e 5b19 27be f660 cb3e
00000120: 13f6 73bd 5b37 0ebd 9ff1 0bbe 97b4 a83e
00000130: 2d7a 9b3d fda1 003e e00f 853e 37db 013e
00000140: 31cc 86bd dd27 803e 2436 0b3e 9867 0dbe
00000150: 14f4 16be a2d2 95bd be4f 4e3e 8e89 313e
00000160: 9c96 833c dce3 48be a7bc e7bd e7d7 0f3d
00000170: 0671 04be a6de b33e 206a 243f c989 603d
00000180: 2cca f2bd b0c4 9f3e ea4b 26bc 4615 56be
00000190: 61fd a23d 8227 a8bd 1860 b43d 11f7 33be
000001a0: a35b 2cbd a60d c4be ac37 fd3d ed90 4b3d
000001b0: 1b20 9f3d 64f5 083e 34d4 ea3c 7cd3 093d
000001c0: 784f d2bd 609a 16be 9951 14be b07a d83b
000001d0: c4b3 cf3d cec3 803b 12d5 d93d 861d 85bc
000001e0: 45ed 573d c476 2c3e ca7f 60bd 8a42 e3ba
000001f0: 040d 983e 668f 5b3d 1ea9 a63e e409 c23d
00000200: 9391 bcbd 1646 8fbe 68ac 5b3e 9b82 7a3e
00000210: 838d 95be 45fc 213e f101 8e3a 3509 9c3e
00000220: 0313 13be 4c23 dabc cdcd 203e 0eb6 15bf
00000230: c554 29be c567 4e3d f133 e63d 6a2a 303d
00000240: aa3b e93d 5265 8939 57ef cbbd 6902 8abe
00000250: e85e dabc efe2 5bbc 0dac 8bbc 0ee3 483d
00000260: 1b61 ba3d ef6b 7d3c 9cbe 4a3d 9f26 48bd
00000270: 72b9 88bd b277 de3d c17c a2bc 081f 02bd
00000280: 257d cd3c 5d56 63bc 028c 933d a728 c33d
00000290: a8c3 a93d 0022 11bd 5069 1cbc 1ecd 9bbd
000002a0: 8e1e 903c 5782 f23d 51b2 5a3d e079 1d3d
000002b0: 16e0 c8bc be50 b23d 0906 ddbc bd0a 5abe
000002c0: 81c2 8d3c b374 19be 93af 173e c6e0 253e
000002d0: 3fd0 893d 9ef5 36bb d9ce 2dbc 8f81 ffbd
000002e0: b328 fabc 69f6 46bd 44c1 28bc c306 7bbd
000002f0: ca5b c7bc 917f 523c 8d01 a2bb 3625 4e3e
00000300: 6a34 e83d 97c8 08be 7c3f dfbd d68e a93d
00000310: 2d3f 01be 4a41 7a3c 98df acbd 3ee8 c4ba
00000320: 2aa1 2cbd 9cd3 1d3e 99dd 14be 8132 de3d
00000330: f7b0 053e 58f1 fa3c a7f8 9bbb 3829 8dbd
00000340: 7708 b03c c299 033d db50 d9bc 58f8 24be
00000350: e781 203e 406b 02bd 7240 b43d 59ff fc3d
00000360: ec0e a3bd c40e acbd 35f5 6e3d 3eb3 043e
00000370: f232 e9bd e85d 91bb 7a33 d73c 2ebe 03be
00000380: f6f1 16b9 9524 9cbd 9924 1b3d e77a 5ebd
00000390: a6f9 dbbc b402 c63d 158b 3ebd 3a65 cebc
000003a0: 6fdd 293e 9049 1a3e 0dfa bc3d 213b 3cbc
000003b0: 3a07 b8bb 9c00 ea3d c082 a33c 9986 573c
000003c0: 8537 c2bc a4e9 153e 13cd f0bd d3e5 9cbd
000003d0: 0ab1 1cbe 4b16 643e 3d70 12bc 3dd5 d3bd
000003e0: 9660 673e b902 70bd 1bc4 293d 645c 1cbe
000003f0: 6a13 5cbd b26e 4cbe b3d3 8b3d bb6c acbc
-0.20152783 -0.12656102 -0.20127769 -0.056585666 0.05595866 0.15228538 0.029891193 0.18036008
0.23198085 0.5947206 -0.17607288 0.09702452 0.16225179 0.017269736 -0.22500275 -0.11881744
0.05557748 0.49799168 0.08812012 -0.2991757 0.123474225 -0.111812785 -0.088912554 0.35524747
0.13694619 -0.16871355 -0.06646546 -0.217365 -0.21125674 0.34879318 0.23081884 0.081616335
-0.06890068 0.16391467 0.18790862 0.11089041 -0.054677572 0.10146728 0.20273824 -0.09059509
0.03838267 -0.043829735 0.24823229 0.105904564 -0.22417963 -0.08548839 -0.29181787 0.11614464
0.05217195 -0.009196922 -0.23379925 0.16446833 0.263172 -0.028295536 0.23893063 -0.18915778
0.048632376 0.1555608 -0.20965575 -0.16309255 -0.067339 0.090652816 -0.06165603 0.14021608
0.05206485 -0.13301685 0.25294602 0.21896224 -0.19691174 0.24918932 -0.16318266 0.39722413
-0.059560847 -0.03472076 -0.1366639 0.3295028 0.075916626 0.12561794 0.25988674 0.1268128
-0.06581915 0.25030413 0.13594872 -0.13809049 -0.14741546 -0.07315566 0.20147607 0.17337629
0.016063027 -0.19618171 -0.113152795 0.03511801 -0.1293374 0.35130805 0.64224434 0.054818902
-0.118549675 0.31204748 -0.010149935 -0.20906553 0.079584844 -0.082106605 0.08807391 -0.17574717
-0.04207958 -0.38291663 0.12364134 0.04969876 0.077697955 0.13374859 0.02866564 0.033648953
-0.10269064 -0.14707327 -0.14484252 0.0066064224 0.101417094 0.0039295917 0.10636343 -0.01624943
0.052716512 0.1684218 -0.05480937 -0.0017338556 0.2969743 0.053603552 0.325509 0.09474543
-0.092074536 -0.2798316 0.21452487 0.24463885 -0.29209527 0.1581889 0.0010834319 0.30475774
-0.14362721 -0.026628159 0.15703507 -0.5848092 -0.16536243 0.05039193 0.11240376 0.0430092
0.11388333 0.00026206166 -0.0995776 -0.26954964 -0.026656583 -0.013420804 -0.017049814 0.04904466
0.09100553 0.015467628 0.049498186 -0.048864957 -0.06675996 0.10862674 -0.019834878 -0.031767875
0.025084088 -0.013875571 0.07204439 0.09529238 0.082892716 -0.035432816 -0.009546593 -0.076074824
0.017592695 0.118412666 0.053392712 0.038446307 -0.024520915 0.087068066 -0.026980417 -0.21293159
0.01730466 -0.14985923 0.1481307 0.16199026 0.06729173 -0.0027917395 -0.010608398 -0.12475883
-0.030536985 -0.04857484 -0.010299984 -0.061285745 -0.02433576 0.012847797 -0.0049440325 0.20131382
0.11338122 -0.13357769 -0.109007806 0.08279197 -0.12621756 0.015274355 -0.084410846 -0.0015022827
-0.042145886 0.15412754 -0.14537658 0.108494766 0.13055788 0.03063266 -0.0047598663 -0.068926275
0.021488411 0.032129057 -0.026527813 -0.1611036 0.15674554 -0.031840563 0.088013545 0.12353391
-0.079618305 -0.08401254 0.058339316 0.12959 -0.1138667 -0.0044362433 0.026269663 -0.12865517
-0.00014395252 -0.07624165 0.0378767 -0.054316428 -0.02685244 0.09668484 -0.046519358 -0.025194753
0.16588376 0.15067124 0.09227381 -0.011488707 -0.005616096 0.114258975 0.019959807 0.013154649
-0.023708114 0.14639908 -0.11757865 -0.07661023 -0.1530191 0.22274129 -0.0089378925 -0.10343406
0.22595438 -0.058596347 0.041446786 -0.15269619 -0.053729452 -0.19964102 0.06827488 -0.02104794

bias_mu f4 [100]
00000000: 8b80 3fbe 0684 613e 9699 09bf ce48 63be
00000010: a30d b8be b771 72be 0786 c73e f26d 1abf
00000020: dadd 9d3e 243e cdbe 61af 98be 6e89 05be
00000030: 7ca9 a6be f427 99be 9f10 7f3e 407b 0dbf
00000040: 5a08 95be 46b6 2e3e ce6d adbe 1e1f 92be
00000050: 2423 5abe d67f 203f 4d50 cfbe 1640 acbe
00000060: 3edf edbd 13dd e0be e545 6abe 23a7 0ebf
00000070: 78e5 b6be b9db 27be 78de a1be 7eff 223e
00000080: bcfe 53be ca9b cd3e 2a86 853d ed18 a13e
00000090: 81af 08bf 3239 e5be 8c4b dfbe 2169 353e
000000a0: c159 613f ad4f 353e ad49 f7be 4ecc a3be
000000b0: 79bd 18be 1505 c3be 762e a13e dd6e 07bf
000000c0: 150a d8be 2f6c 993d 8b5b 92be e796 06be
000000d0: a7cd 58be a9a9 d0be c15b 95be 814b 9bbe
000000e0: 3790 c6be 2a9c dfbe c6fd 003e 0beb 67be
000000f0: c2a4 42be 5bd0 88be 11f2 4dbd 8dbd a9be
00000100: 14fa 87be be50 b9be 227d 4ebe 2efb e8bd
00000110: 5e0d 763e 789a 90be 782c 95be 789f 94be
00000120: 4a2c 8c3d 6f3d 85be 0bf1 c8bd d5c6 5fbe
00000130: bfc8 a5be ad8c c3be 1fe1 983d 98ba d63d
00000140: 2c3a 4a3e 9538 d2be 287a a7bd 91a5 6cbe
00000150: dd3a e73e 0208 5ebe 7931 c6bd bd2a 5abe
00000160: a4d6 d5be 6c03 b13d 3ac1 1abd 4d84 82be
00000170: 1e9c dabe 109c 013f eb6c bebe 9d42 703e
00000180: 1190 61be 53d9 b1be 7acf 66bd 6581 00be
-0.18701379 0.22023019 -0.5374998 -0.22195742 -0.35947904 -0.23676191 0.38969442 -0.60324013
0.30833322 -0.40086472 -0.29821303 -0.13040707 -0.3255118 -0.29913294 0.24908684 -0.5526619
-0.29107934 0.1706172 -0.33872837 -0.28539366 -0.21302468 0.6269506 -0.40490952 -0.33642644
-0.11614846 -0.43918666 -0.22878225 -0.5572378 -0.35721946 -0.16392411 -0.31615043 0.15917775
-0.20702642 0.4015792 0.065197304 0.3146433 -0.533928 -0.447702 -0.43612325 0.17715885
0.8802758 0.17706175 -0.48298398 -0.3199181 -0.14916028 -0.38089815 0.3148076 -0.5290354
-0.42195192 0.074913375 -0.28585467 -0.13143502 -0.211722 -0.4075444 -0.29171565 -0.30331042
-0.38781902 -0.4367383 0.12596807 -0.22648256 -0.19008163 -0.26721463 -0.05027968 -0.33152428
-0.26557982 -0.36194414 -0.20164922 -0.11376034 0.24028537 -0.2824285 -0.2913549 -0.29027915
0.06844385 -0.26023433 -0.098116 -0.21853192 -0.3237972 -0.38193265 0.074648134 0.10484809
0.19748753 -0.41058794 -0.08177596 -0.23110034 0.45162097 -0.21682742 -0.09677405 -0.21305366
-0.4176532 0.08643231 -0.03778193 -0.25491562 -0.42697233 0.5062876 -0.37192473 0.23462911
-0.22027613 -0.34736118 -0.05635021 -0.1254936

bias_sigma f4 [100]
00000000: a99b 983d 2879 15bd ab37 cdbe 3c66 f6bd
00000010: 1118 c43d f8aa 923c 6fdf 103a a915 39bc
00000020: bb05 e03c 59f7 163d 68f4 76bd 0b0f c93c
00000030: c362 0f3b 73a2 e7bd f0e7 843c a4e0 313d
00000040: 4343 453d c2d7 debd 82cf 9d3d 4518 683e
00000050: 5f3f a5be 5f50 8cbd 2871 04be 3ed8 1abd
00000060: 0058 0abe b31b 0b3e c19e acbd e394 803d
00000070: 836a 9b3e 9b6e 933d e295 6b3c e898 74bb
00000080: d1f9 853e a281 f03d 23eb 833d e29f 75bd
00000090: 116e 93bd 401b 39be 759a a13c db0e b6bc
000000a0: f5db 34bd f353 343c 4831 b53d c616 26be
000000b0: 6ed5 c5bd 5a28 523e 39e1 debd cf68 283e
000000c0: f8ae 49be c352 04be 719d 3c3e c597 afbd
000000d0: 8873 b73d 032a 3d3e 8ebe e93d 992c afbd
000000e0: b01e 9fbd 167e 633e efe2 513c a68e 16be
000000f0: ee9a c4bd 1886 5dbe 5148 67bc 82c5 e4bd
00000100: e7fd b1bd 0d91 883e 40bb 423e 7efe 833c
00000110: 3a6b 1f3c 92b2 01bd 732f 4b3e 80e0 b93d
00000120: 26b5 69bd 08fb abbc 4e7b b9bd 74f7 063e
00000130: a8c6 c3bc baaf 15be 2095 043d de4d dfbc
00000140: 8ddb 26ba eb50 1fbd d4d5 1f3d de9d a7be
00000150: e1e9 37bd 041d 283c 4e6f cc3d 2e92 ee3d
00000160: fe52 ae3d f4d7 9ebd 4efb a6bd 3b02 e63d
00000170: 66d1 ae3d 8516 343c c3d4 a43c 2348 3cbd
00000180: 4435 a43c d664 463d a451 cabc 2bea 97bc
0.07451565 -0.036492497 -0.40081534 -0.120312184 0.09574903 0.01790379 0.0005526458 -0.011296668
0.027346483 0.036856983 -0.060291678 0.024543306 0.0021878935 -0.113102816 0.016223878 0.043427125
0.04815985 -0.10880996 0.077055946 0.22665508 -0.3227491 -0.06851267 -0.1293379 -0.03780388
-0.13510132 0.13584785 -0.084287174 0.06278398 0.303547 0.07198831 0.014378997 -0.0037322585
0.26167157 0.117434755 0.06441333 -0.05996693 -0.07198728 -0.18076801 0.019726971 -0.02222388
-0.04415508 0.011006343 0.0884729 -0.16219625 -0.09659849 0.20523205 -0.108828016 0.16446231
-0.19695652 -0.12922196 0.18419434 -0.085738696 0.08957583 0.18473057 0.114132985 -0.08553428
-0.07769525 0.22216067 0.012810453 -0.14702854 -0.09599863 -0.21633184 -0.014116363 -0.11170484
-0.08691006 0.26673165 0.19016743 0.016112562 0.009730155 -0.03166444 0.19842319 0.09076023
-0.057057522 -0.020993724 -0.09056722 0.13180333 -0.023898438 -0.14617816 0.03236878 -0.02725881
-0.0006365113 -0.03889553 0.03902228 -0.3273763 -0.04490078 0.010260824 0.09982167 0.11648975
0.08511923 -0.077560335 -0.08153401 0.11230894 0.08536033 0.010991697 0.020120984 -0.045967232
0.02004493 0.04843601 -0.024697132 -0.018544277
