saved_models/08-09 01:13.pth (torch, 785053 bytes, 23 tensors)

weight_mu f4 [150, 64]
0	0xbe23a565	-0.15981062
1	0x3fac9599	1.3483154
2	0x3f9d235f	1.2276419
3	0x3f48e8ee	0.7848042
4	0x3fcd68d2	1.6047614
5	0xbe8e2159	-0.27759817
6	0xbf9c1a04	-1.2195439
7	0xbec46480	-0.38357925
8	0xbf225db1	-0.6342421
9	0x3fe05392	1.7525504
10	0xbe60dc90	-0.21959138
11	0x3fc6888e	1.5510423
12	0xbeeb1668	-0.45915532
13	0x3fb8e7d3	1.4445747
14	0x3daa8894	0.083268315
15	0x3fc1aa0c	1.5130019
16	0x3fc6a20f	1.5518206
17	0x3fc63670	1.5485363
18	0xbe8eb6e7	-0.27873918
19	0x3f7a74cd	0.97834474
20	0x3fca4a37	1.5803899
21	0xbe4adf1e	-0.19811675
22	0x3f1a8123	0.60353297
23	0x3fc77510	1.55826
24	0x3fd654f8	1.674468
25	0xbf1a42c2	-0.60258114
26	0x3eba1664	0.36345208
27	0x3fd4c7a3	1.6623424
28	0xbef0c239	-0.4702318
29	0x3fc422f6	1.5323169
30	0x3fa5a141	1.2939836
31	0x3fc3f5be	1.530937
32	0x3ea611b2	0.32435375
33	0xbe165fe2	-0.14685014
34	0x3fbb0f6e	1.4614084
35	0xbf0b3be9	-0.5438829
36	0xbecb7ff0	-0.39746046
37	0xbecb0f3b	-0.39660057
38	0x3fcc5f53	1.5966591
39	0xbe4c90fa	-0.19977179
40	0x3fc5ab58	1.5442915
41	0x3fc9621a	1.5733063
42	0xbe551fc9	-0.20812906
43	0x3fda7854	1.7067971
44	0x3faca7e9	1.3488742
45	0x3fbb834b	1.4649442
46	0x3e3cdc6d	0.18443461
47	0xbeffd6d5	-0.4996859
48	0xbf1ca814	-0.61193967
49	0xbf2b4362	-0.66899693
50	0x3fcbf288	1.593339
51	0xbeb6d97e	-0.35712808
52	0xbe70cda2	-0.23515943
53	0x3fcc7d6c	1.5975776
54	0x3dad355e	0.084574446
55	0xbe74f558	-0.23921716
56	0x3e7bd00e	0.24591085
57	0x3fc8475d	1.5646778
58	0x3f147e0d	0.5800484
59	0xbeda97ab	-0.42693838
60	0xbc403de9	-0.0117335105
61	0x3fca6867	1.5813111
62	0xbde4ef7d	-0.11178491
63	0x3fcb3990	1.5876942
64	0xbf8c08e6	-1.0940216
65	0xbd06b5cb	-0.032888215
66	0xbe698350	-0.22803998
67	0xbe032941	-0.12808706
68	0xbdf5fdc6	-0.12011294
69	0xbf9a4e29	-1.2055103
70	0xbd523a5b	-0.051325183
71	0xbfac9c10	-1.3485126
72	0xbf9cc8ae	-1.2248743
73	0xbd09548a	-0.03352789
74	0xbf948beb	-1.16052
75	0xbbdc7f9a	-0.0067290785
76	0xbda62d42	-0.08114101
77	0xbe1ee23d	-0.1551599
78	0x3ed8462c	0.42241037
79	0xbe4df037	-0.20111166
80	0xbe63bca0	-0.22239923
81	0x3c745120	0.01491192
82	0xc039aa7c	-2.9010305
83	0xc02f78af	-2.741741
84	0x3d045133	0.032304
85	0xbfb1424a	-1.3848355
86	0xc01b7d56	-2.429525
87	0xbe83df52	-0.25756317
88	0xbe034e98	-0.1282295
89	0x3f1f2b26	0.62175214
90	0xbfc61e44	-1.5477986
91	0xbde7616e	-0.1129788
92	0xc02c5ab0	-2.6930351
93	0xbe020382	-0.1269665
94	0xbd3e3129	-0.0464336
95	0xbd265a43	-0.040613424
96	0x3dabe65d	0.08393548
97	0xbfb3e89c	-1.4055362
98	0xbe07af58	-0.13250482
99	0xc000e1cb	-2.0137813
100	0x3c6f82e2	0.014618607
101	0xbea5c28f	-0.32375
102	0x3ae16dc7	0.0017198854
103	0xbea00ed1	-0.31261304
104	0xbdd33a55	-0.1031386
105	0xbca24121	-0.019806447
106	0x3ec2490c	0.37946355
107	0xbd05320d	-0.032518435
108	0x3cc7ac4b	0.024374148
109	0x3dc8b5ba	0.098002866
110	0xbf9fdf1c	-1.2489963
111	0xbf106b86	-0.5641407
112	0x3f003ae2	0.5008985
113	0x3f44e715	0.76915103
114	0xbd4cc07c	-0.049988255
115	0xc0189de1	-2.3846362
116	0xbf03a396	-0.5142149
117	0xbe5c1f7c	-0.21496385
118	0xc0491bc8	-3.1423206
119	0xbec93091	-0.39294866
120	0x3bfd30fa	0.0077267857
121	0x3d549089	0.051895652
122	0xbf2b93c1	-0.6702233
123	0xbecf5a83	-0.40498742
124	0xbf956a2b	-1.1673025
125	0xbd1f4c35	-0.038891036
126	0xbf22c2a7	-0.63578266
127	0xbd9ecc9f	-0.07753872
128	0xbe767ddf	-0.24071454
129	0x3f9f5fbd	1.2451092
130	0x3f7a571a	0.97789156
131	0x3f3f1436	0.74640214
132	0x3fb286d3	1.3947395
133	0xbe896eb3	-0.2684227
134	0xbf8b1718	-1.0866423
135	0xbe8950b1	-0.26819375
136	0xbedb5788	-0.4284022
137	0x3fc8e7f6	1.5695789
138	0xbe4d9c77	-0.20079218
139	0x3fc6cb9a	1.5530884
140	0xbe3042e4	-0.17213017
141	0x3fa597e6	1.2936981
142	0xbb6e9386	-0.0036403849
143	0x3fbbac4c	1.4661956
144	0x3fbb1957	1.4617108
145	0x3fc8b938	1.5681524
146	0xbe8ff4bc	-0.28116405
147	0x3f93cc0e	1.1546648
148	0x3fb88240	1.4414749
149	0x3c865f78	0.016402945
150	0x3f2a1bf4	0.66448903
151	0x3fccb858	1.5993757
152	0x3fbe137b	1.4849695
153	0xbef80ab2	-0.4844566
154	0x3e9c1070	0.3048129
155	0x3fcacb6f	1.5843333
156	0xbf1314ac	-0.5745342
157	0x3fb703ff	1.4298095
158	0x3f90fa7d	1.1326443
159	0x3fb73fb2	1.4316313
160	0x3e1e8758	0.15481317
161	0xbe115809	-0.14193739
162	0x3fc2f7c6	1.5231864
163	0xbebdb231	-0.37050012
164	0xbeb6d333	-0.35708007
165	0xbecd33a8	-0.40078473
166	0x3fb64c6c	1.4242072
167	0x3d27854a	0.0408986
168	0x3fc5961e	1.5436437
169	0x3fad8ecb	1.3559202
170	0xbddbbe7a	-0.1072969
171	0x3fd460f1	1.6592084
172	0x3fa22f4e	1.2670686
173	0x3fc1e234	1.5147157
174	0x3ed2dc54	0.41183722
175	0xbeaa67f7	-0.33282444
176	0xbf1320f7	-0.57472175
177	0xbf27cedb	-0.6555001
178	0x3fc28f51	1.5199987
179	0xbebe194a	-0.3712867
180	0xbcea0e8e	-0.028571393
181	0x3fc10759	1.5080367
182	0x3e9fc7f0	0.31207228
183	0xbe1a190f	-0.15048622
184	0x3ea0ab07	0.31380484
185	0x3fa7dc3b	1.3114084
186	0x3f32b6c6	0.6981014
187	0xbf188d17	-0.59590286
188	0xbe46f151	-0.19427992
189	0x3fc735ee	1.5563333
190	0xbde385ed	-0.11109529
191	0x3fb6af9c	1.4272342
192	0x3db5a833	0.08869972
193	0x3faada97	1.3347958
194	0x3f662064	0.89893174
195	0x3f40fcb5	0.753856
196	0x3fb0c2d3	1.3809456
197	0xbe8b4a84	-0.27205288
198	0xbf70e938	-0.94105864
199	0xbea6f1c2	-0.32606322
200	0xbef9b512	-0.48770958
201	0x3fc1e96d	1.5149361
202	0xbe8630ff	-0.26209256
203	0x3fc825ff	1.5636595
204	0xbe88f6ec	-0.26750886
205	0x3fa7061f	1.3048743
206	0x3e59e2cb	0.21277921
207	0x3fb67340	1.4253922
208	0x3fbe6f49	1.4877712
209	0x3faf7e93	1.3710502
210	0xbe432650	-0.19057584
211	0x3f894832	1.0725157
212	0x3fb32690	1.3996143
213	0xbde01d26	-0.109430596
214	0x3f280bb8	0.6564288
215	0x3fc0c954	1.506144
216	0x3fa43c8f	1.2830981
217	0xbf1702bf	-0.58988565
218	0x3ea7a6e4	0.32744515
219	0x3fb3dc29	1.4051563
220	0xbf1d17e7	-0.613646
221	0x3fae2998	1.3606443
222	0x3f861e06	1.0477912
223	0x3fb65ec5	1.4247671
224	0x3e250c79	0.16118039
225	0xbd8e3f1a	-0.069456294
226	0x3fb7bc33	1.4354309
227	0xbee68dad	-0.45029965
228	0xbe955e25	-0.2917339
229	0xbe2681d5	-0.16260464
230	0x3fb9b061	1.4506952
231	0x3dc2c983	0.095110916
232	0x3fb1272c	1.3840079
233	0x3fb66331	1.4249021
234	0xbd890174	-0.0668973
235	0x3fba9237	1.4575871
236	0x3fa656e5	1.2995268
237	0x3faeec91	1.3665944
238	0x3f14bdd1	0.58102137
239	0xbf06da5f	-0.5267696
240	0xbed4568b	-0.41472277
241	0xbefad1e7	-0.48988268
242	0x3fb46b90	1.4095325
243	0xbe68a412	-0.22718838
244	0xbd948226	-0.07251386
245	0x3fa9680c	1.3234878
246	0x3ea67b16	0.32515782
247	0xbe05843b	-0.13038723
248	0x3e19c42f	0.15016244
249	0x3f9a72d7	1.2066296
250	0x3f360ac5	0.71110183
251	0xbedbbb08	-0.4291613
252	0xbe5fd70d	-0.21859379
253	0x3fa8872e	1.3166254
254	0xbd9ac9a1	-0.07557989
255	0x3f9a2c7b	1.2044824

weight_sigma f4 [150, 64]
0	0xbe84e349	-0.25954655
1	0x3ea6b2ce	0.32558292
2	0x3d6e3629	0.05815712
3	0xbf27aa25	-0.65493995
4	0xbdd9929d	-0.106236674
5	0x3ce7516b	0.028237065
6	0x3d4fd975	0.050744493
7	0x3d2ec335	0.042666633
8	0x3e499fd5	0.19689877
9	0x3ebd78cc	0.37006223
10	0xbe39d079	-0.18145932
11	0xbe116146	-0.14197263
12	0x3e08ee1c	0.13372082
13	0x3f00252a	0.5005671
14	0x3e1d27f9	0.1534728
15	0xbe0b11d3	-0.13581018
16	0x3e4369e8	0.19083369
17	0x3d5f7e97	0.054564085
18	0x3df2e706	0.118604705
19	0x3dd6f9c1	0.104968555
20	0xbefe4df3	-0.49668846
21	0xbe4c12c3	-0.19929032
22	0x3e3a5fcb	0.18200605
23	0x3efc49a7	0.49274942
24	0x3ed98014	0.42480528
25	0xbe0d9e41	-0.138299
26	0x3e4f0aa9	0.2021891
27	0xbe94fded	-0.2909998
28	0x3bb31e73	0.0054662763
29	0x3ea2b0a9	0.31775406
30	0x3d381ba6	0.044948243
31	0x3f0a1c35	0.5394929
32	0x3c189366	0.009312486
33	0xbc74db36	-0.014944842
34	0x3f280c71	0.65643984
35	0xbea20283	-0.3164254
36	0x3de1f74e	0.11033498
37	0x3e1439bb	0.14475147
38	0x3db31a7f	0.08745288
39	0xbd19f34c	-0.03758554
40	0xbcc8085c	-0.024418049
41	0xbea70b2a	-0.32625705
42	0xbe35ef01	-0.17766954
43	0xbe1425a8	-0.1446749
44	0xbed58573	-0.41703376
45	0xbf09d4bb	-0.53840226
46	0xbde53135	-0.11191026
47	0x3e150b49	0.14555086
48	0x3db6f37c	0.0893316
49	0x3dcac1f0	0.09900272
50	0x3e9e2a19	0.30891493
51	0x3e06a88a	0.1315023
52	0xbef254a4	-0.473302
53	0xbee7c0d1	-0.45264295
54	0x3e419d0f	0.1890757
55	0x3b8f36d1	0.0043705483
56	0xbed631dd	-0.41834918
57	0x3f26abc4	0.65105844
58	0xbefa00ac	-0.48828638
59	0xbdbcb215	-0.09213654
60	0x3d425138	0.047440737
61	0x3f000092	0.5000087
62	0x3e98e5a6	0.29862708
63	0x3ead8e38	0.33897567
64	0x3cb20075	0.021728734
65	0x3e2e2a84	0.17008406
66	0x3e06c9d1	0.13162924
67	0xbe392271	-0.18079545
68	0xbc042d80	-0.008067489
69	0xbdab147e	-0.08353518
70	0xbcb98c5b	-0.022649935
71	0x3d98b4d1	0.07456363
72	0xbe015115	-0.12628587
73	0xbd14fb97	-0.036372747
74	0x3e3b63e6	0.18299827
75	0x3e461974	0.19345647
76	0x3de8f652	0.11375107
77	0xbe0d086f	-0.13772748
78	0x3d781ba6	0.060573243
79	0xbd5e9522	-0.054341443
80	0x3c98d4aa	0.018656094
81	0x3d918f74	0.0710744
82	0x3e1df720	0.15426302
83	0x3dbcf55a	0.092264846
84	0x3d81daa0	0.063405275
85	0xbe841966	-0.25800627
86	0xbe884ad0	-0.26619577
87	0x3e2097a3	0.15682845
88	0x3eb20420	0.34768772
89	0x3d6479e8	0.05578032
90	0xbca2471f	-0.019809304
91	0x3d335e8f	0.04379135
92	0xbe32a179	-0.1744441
93	0xbda5a186	-0.08087449
94	0x3be01236	0.0068381084
95	0xbca3a4ba	-0.019976009
96	0xbd9717d5	-0.073775925
97	0xbd04969f	-0.032370206
98	0x3e20fc3b	0.15721218
99	0x3defdcb4	0.11712018
100	0x3d9021a6	0.07037668
101	0xbd231143	-0.039811384
102	0xbe234eab	-0.15947978
103	0x3dfb6dfc	0.12276837
104	0x3e40311e	0.18768737
105	0x3df653eb	0.12027725
106	0xbd91a203	-0.071109794
107	0xbd9c3527	-0.076273255
108	0x3e65810a	0.22412506
109	0xbde143b0	-0.109992385
110	0xbdedabae	-0.11605011
111	0x3d94b4c4	0.07261041
112	0x3ca08f6f	0.019599644
113	0x3d138ecb	0.03602485
114	0x3cca837c	0.0247209
115	0xbd8794c0	-0.06620169
116	0xbb9e96d5	-0.004839758
117	0xbdaa1678	-0.08305067
118	0xbe279efa	-0.16369238
119	0x3d8f20e3	0.069886945
120	0x3d2e9a26	0.042627476
121	0xbd756bce	-0.059917264
122	0x3c0d8002	0.0086364765
123	0xbd1210ee	-0.035660677
124	0x3cabf2f1	0.020989867
125	0xbdf0caa0	-0.11757398
126	0xbd94988b	-0.07255658
127	0x3d962c43	0.07332661
128	0xbc823219	-0.015893029
129	0xbcfeb0ea	-0.031090219
130	0x3d57986f	0.052635606
131	0xbefcdcd7	-0.49387237
132	0x3f1628bc	0.58655906
133	0xbc5aeec5	-0.013362591
134	0x3c0d30df	0.008617609
135	0x3e486d92	0.19573048
136	0xbced863b	-0.02899467
137	0x3eb7d3f4	0.35903895
138	0xbf0c7507	-0.5486607
139	0x3e0d617c	0.13806719
140	0x3e707aa9	0.23484291
141	0xbdb9717d	-0.09054849
142	0xbd2be712	-0.041968413
143	0x3e44d586	0.19222078
144	0xbea72a4f	-0.32649466
145	0x3d919c5d	0.07109902
146	0x3e51204b	0.20422475
147	0xbd33e0e1	-0.043915633
148	0xbe4b29db	-0.19840185
149	0xbed6c570	-0.41947508
150	0x3f4bc1e1	0.7959271
151	0x3ec28939	0.37995318
152	0xbe3d22c6	-0.18470296
153	0x3eb2eb49	0.34945133
154	0x3e49b0af	0.19696306
155	0x3df1c9b2	0.118060485
156	0xbdbe6fef	-0.092986934
157	0x3de21aec	0.11040291
158	0xbe14576c	-0.14486474
159	0xbddd5538	-0.1080727
160	0x3d2a5a9d	0.04159032
161	0x3c285f8f	0.010276689
162	0x3d426131	0.04745597
163	0xb8ab8ad2	-8.179773e-05
164	0xbdee9e63	-0.116513036
165	0xbd6a1c1e	-0.05715572
166	0x3c8a9478	0.016916499
167	0xbdd558ba	-0.10417314
168	0xbe91767c	-0.2841071
169	0x3eaee50c	0.34159124
170	0x3e2a4cf5	0.1663092
171	0x3f0a4035	0.5400422
172	0x3dac98d9	0.08427591
173	0x3eb5d31d	0.3551263
174	0x3dd03bc0	0.101676464
175	0xbe87e6fd	-0.26543418
176	0x3e909b4f	0.2824349
177	0x3ddd030a	0.10791595
178	0xbee46904	-0.4461137
179	0xbe2bfe1f	-0.16796158
180	0x3e7b66e4	0.24550968
181	0x3af4e6c2	0.0018684494
182	0xbe76e442	-0.24110511
183	0x3d758266	0.05993881
184	0xbf107bb7	-0.56438774
185	0xbe2e1db4	-0.17003518
186	0xbd278736	-0.04090043
187	0xbd0a2da2	-0.033734925
188	0xbdb7b753	-0.08970513
189	0x3e3b62a9	0.18299355
190	0x3d227b2d	0.03966825
191	0xbeb6a48d	-0.35672417
192	0x3d4b7e6c	0.049681112
193	0xbe02fd11	-0.1279185
194	0xbe54a739	-0.20766915
195	0xbdf7edea	-0.121059254
196	0xbf3945aa	-0.72371924
197	0xbdd8a362	-0.10578038
198	0xbcfaf4e9	-0.03063436
199	0xbc6fe157	-0.014641128
200	0xbec4f228	-0.38466
201	0xbe029b29	-0.12754501
202	0x3de8c7cd	0.11366234
203	0x3e50c783	0.20388608
204	0xbe0cb178	-0.13739574
205	0xbe0e80de	-0.13916346
206	0x3e9aa23a	0.30201894
207	0x3dbaf1b8	0.091281354
208	0x3ea8c18f	0.32960173
209	0xbf92b885	-1.1462561
210	0xbddabdbf	-0.106807224
211	0x3d0b4e24	0.034010068
212	0x3e5c21d6	0.21497282
213	0x3ceb57a0	0.028728306
214	0xbef7348c	-0.48282278
215	0x3cdd8e0e	0.027045276
216	0xbe14fd70	-0.14549804
217	0x3e45a33e	0.19300553
218	0x3e635bae	0.22202942
219	0x3e83ab7c	0.2571677
220	0x3e8c660e	0.27421612
221	0xbd5ae9f0	-0.053445756
222	0x3cf63905	0.030056486
223	0x3e62e93f	0.22159289
224	0x3d90ffa5	0.0708001
225	0x3d35951e	0.044331662
226	0x3e51b689	0.20479788
227	0x3dac5d8a	0.08416279
228	0x3bbb8414	0.005722532
229	0x3e6be875	0.23037894
230	0x3ec5533c	0.38540065
231	0xbd9bc58d	-0.07606039
232	0x3dbac05b	0.0911872
233	0xbe35f325	-0.17768534
234	0xbd42365f	-0.047415134
235	0x3e625bbd	0.22105308
236	0xbf11a76a	-0.5689608
237	0xbf52b2b4	-0.8230393
238	0x3e8da70e	0.27666515
239	0x3cc70fc5	0.024299512
240	0x3d9c3c45	0.07628683
241	0x3bc33251	0.005956926
242	0xbe150251	-0.14551665
243	0xbe9c5d35	-0.3053986
244	0x3ea5d955	0.32392374
245	0xbd97521e	-0.073887095
246	0x3e2bb30d	0.16767521
247	0x3d8462f2	0.06464185
248	0xbd825500	-0.06363869
249	0x3e1b2bdd	0.15153451
250	0x3ea1ab9a	0.31576234
251	0xbd9c1fac	-0.076232284
252	0x3e8087e1	0.25103667
253	0xbd0c1731	-0.034201805
254	0xbca07665	-0.019587705
255	0xbe3b30fc	-0.18280405

bias_mu f4 [150]
0	0xc0067138	-2.1006603
1	0x3eccb919	0.39984968
2	0xc00ce7f7	-2.201658
3	0xc0081393	-2.1261947
4	0xbffc216a	-1.9697697
5	0xc005471e	-2.0824656
6	0xbdc99e21	-0.09844614
7	0xc00235f8	-2.034544
8	0x3f02de9d	0.5112093
9	0x3f137cdc	0.57612395
10	0xc0117db5	-2.2732975
11	0x3fdea5ad	1.739431
12	0xc00b97fd	-2.1811516
13	0x3f16700f	0.5876474
14	0xbfe1a768	-1.7629213
15	0xc0037c40	-2.0544586
16	0xbfe49cf9	-1.7860404
17	0xbfc22be2	-1.5169642
18	0xbff7db01	-1.936371
19	0xc011a2b9	-2.2755568
20	0x3e638295	0.22217782
21	0xc01355f3	-2.302121
22	0x3eb8070e	0.35942882
23	0xbfe61b9e	-1.7977178
24	0xc0069a0c	-2.1031523
25	0xc006c5cc	-2.1058226
26	0xc0132b46	-2.2995162
27	0xc01507aa	-2.3285928
28	0x3faf45f9	1.3693229
29	0xc0012925	-2.0181363
30	0xc00b2e8a	-2.1747155
31	0xc01f00f7	-2.484434
32	0xc007c64b	-2.1214778
33	0xbf3813bf	-0.7190513
34	0xbdfb3fc3	-0.12268021
35	0xc00ddfa5	-2.2167752
36	0x3f3b35f4	0.731292
37	0xc00dc5a6	-2.2151885
38	0xc0173b96	-2.3630118
39	0xc0041fa1	-2.0644305
40	0xc0091b92	-2.1423078
41	0xc0140f91	-2.31345
42	0x3f8b338a	1.0875103
43	0xc00b6c3a	-2.1784806
44	0xc001e392	-2.0295148
45	0xbe4575f7	-0.19283281
46	0xbdda0a60	-0.1064651
47	0xc00dc14a	-2.2149224
48	0x3c6f233b	0.014595802
49	0xbfef475b	-1.8693651
50	0xc0092a2a	-2.1431985
51	0xbfec4040	-1.8457108
52	0xbffbbf37	-1.9667729
53	0xbfeca451	-1.8487645
54	0x3f6e2ef3	0.9304039
55	0xc00f8033	-2.2421997
56	0xc019888c	-2.3989592
57	0xc0079da5	-2.1189969
58	0xc002a6b1	-2.041424
59	0xc00b3028	-2.1748142
60	0xc00acd77	-2.1687906
61	0xbffb8e6a	-1.9652836
62	0xc00c7285	-2.1944897
63	0xbfe21f55	-1.7665812
64	0x3fddf3c7	1.734002
65	0xc0014cd8	-2.0203152
66	0xc00d6839	-2.2094862
67	0xbfe9d34b	-1.8267606
68	0x3fcb2021	1.586918
69	0x3f0d5d89	0.5522085
70	0xc00d2986	-2.2056594
71	0xc00da226	-2.2130218
72	0xc0045cd5	-2.068166
73	0xbff43eaf	-1.908163
74	0xc0080d16	-2.1257987
75	0x3ee36120	0.44410038
76	0xc00b5bce	-2.1774783
77	0xc009aa63	-2.1510246
78	0xbf56177a	-0.8362957
79	0xbf5e476a	-0.8682772
80	0xbff45a64	-1.9090085
81	0xc00d1512	-2.204411
82	0xbff4b499	-1.9117614
83	0xc017b625	-2.3704922
84	0xbff12e1d	-1.8842198
85	0xc0115093	-2.2705429
86	0xbffd2e22	-1.9779704
87	0xc00cae32	-2.198132
88	0xc00d410e	-2.2070956
89	0xc0058ba4	-2.086648
90	0xbe7e9915	-0.24863084
91	0xc00de086	-2.2168288
92	0xc00281e9	-2.039179
93	0xc002afb3	-2.0419738
94	0xc008e3b6	-2.1388984
95	0xbec0f9b7	-0.37690517
96	0xc014695f	-2.3189313
97	0x4002196b	2.0328014
98	0x3e64d37c	0.223463
99	0x3f861933	1.047644
100	0xc00c3ecd	-2.191333
101	0xbfeb6cee	-1.8392618
102	0xbf40f4ae	-0.7537335
103	0x3ff2356e	1.8922555
104	0xc00f3529	-2.2376196
105	0xc00ed889	-2.2319663
106	0xc003027b	-2.0470264
107	0xc008631c	-2.1310492
108	0xc00f4279	-2.2384322
109	0xbfcd26b4	-1.6027436
110	0x3d6d9e5f	0.058012363
111	0x3eeb9599	0.4601257
112	0x3f47f618	0.78109884
113	0xbff5b265	-1.9195067
114	0xc0103b65	-2.2536252
115	0x3f3eba7a	0.7450329
116	0xc0011c9b	-2.017371
117	0xbf12abad	-0.57293206
118	0x3fdc5e1d	1.7216221
119	0xbff28811	-1.8947774
120	0xc0017eeb	-2.0233715
121	0xbfdc30ab	-1.7202352
122	0xc00faa3e	-2.2447658
123	0xc0047020	-2.0693436
124	0xc0079f81	-2.1191103
125	0xc00c0dfb	-2.1883533
126	0xc0057bc9	-2.0856802
127	0x3f48c1d9	0.7842079
128	0xc008ae14	-2.135625
129	0xc00cc970	-2.1997948
130	0xc0057ea7	-2.0858552
131	0xc007ba3f	-2.1207426
132	0xbfff15bd	-1.9928509
133	0xc00db621	-2.2142413
134	0x3f917ece	1.1366823
135	0xbffb08d5	-1.961207
136	0xc0195109	-2.395571
137	0x3f353a80	0.7079239
138	0xc00fef5b	-2.248984
139	0xc0007533	-2.0071533
140	0xc0088c50	-2.133564
141	0xc012d328	-2.294138
142	0xbff2e4c3	-1.8976063
143	0xbfde3745	-1.7360617
144	0xc0057144	-2.0850382
145	0xc00e185e	-2.2202373
146	0xc005049c	-2.0784063
147	0xbea28b94	-0.31747115
148	0xc0110530	-2.2659416
149	0xc002e5cc	-2.0452757

bias_sigma f4 [150]
0	0x3e721f58	0.23644769
1	0xbe32e216	-0.17469057
2	0x3f6a417b	0.91506165
3	0x3e1102e2	0.14161256
4	0x3dca69df	0.098834746
5	0x3f34b0d4	0.7058232
6	0x3c351de5	0.011054491
7	0x3f2e7695	0.6814969
8	0xbd871933	-0.06596603
9	0x3c971ffd	0.01844787
10	0x3de67e47	0.11254554
11	0xbd0a9062	-0.0338291
12	0xbf509c62	-0.8148862
13	0xbdfd2d63	-0.123621725
14	0x3ee256aa	0.44206744
15	0x3e95872f	0.292047
16	0x3ee16325	0.44020954
17	0xbdeb312b	-0.114839874
18	0x3d50be42	0.050962694
19	0xbe1ab120	-0.1510663
20	0x3d48886e	0.048958234
21	0xbdf7fca2	-0.12108733
22	0xbdcb8fa8	-0.0993951
23	0x3eed6a98	0.46370387
24	0x3ed870c9	0.42273548
25	0xbec612d4	-0.3868624
26	0x3d12a741	0.035804037
27	0x3d75e552	0.06003315
28	0xbbbe5711	-0.005808719
29	0xbe333468	-0.1750046
30	0xbdc41b03	-0.095754646
31	0x3a97f7fa	0.0011594289
32	0x3dcbfb5f	0.099600546
33	0x3d9b5973	0.075854205
34	0xbd948f65	-0.07253913
35	0x3d797d22	0.06091035
36	0xbd8609a8	-0.065448105
37	0xbd47ee7b	-0.048811417
38	0xbeccd502	-0.40006262
39	0xbd318977	-0.043343987
40	0x3e3b543c	0.18293852
41	0x3d3057d0	0.043052495
42	0xbda53586	-0.080668494
43	0x3e3e0eb4	0.18560296
44	0xbe1b358b	-0.15157144
45	0x3d84beac	0.0648168
46	0xbdaea300	-0.085271835
47	0x3eb0fa1d	0.3456582
48	0x3ba55136	0.0050450815
49	0xbee96962	-0.45588213
50	0x3f68607e	0.90772235
51	0x3ed18f34	0.40929568
52	0xbd0d9916	-0.034569822
53	0x3f096b3c	0.5367925
54	0xbe014b6d	-0.12626429
55	0x3e956524	0.29178727
56	0xbcdf67d4	-0.027271189
57	0x3eaeb017	0.3411872
58	0x3dcc593c	0.099779576
59	0x3ed82d7c	0.42222202
60	0xbe8e44f2	-0.27786976
61	0xbe19fed3	-0.15038614
62	0xbb699ecc	-0.0035647629
63	0x3f47078c	0.7774589
64	0x3d4d2e4a	0.050092973
65	0x3e39d51b	0.181477
66	0xbf05d87c	-0.52283454
67	0xbe1dbb4c	-0.1540348
68	0xbd98b462	-0.0745628
69	0x3d40287c	0.04691361
70	0x3ead812c	0.33887613
71	0x3f15934d	0.5842789
72	0x3ebd42b0	0.3696494
73	0x3e040838	0.1289376
74	0x3f38b23a	0.7214695
75	0x3e327bac	0.1742999
76	0x3e5d9dfb	0.21642296
77	0xbe3d2436	-0.18470845
78	0x3d84b8cb	0.06480559
79	0xbc9a5389	-0.01883866
80	0xbefa7fce	-0.48925632
81	0xbeba69ea	-0.3640893
82	0xbecdf215	-0.40223756
83	0xbf04467b	-0.51670045
84	0xbde79e0e	-0.113094434
85	0x3ee34001	0.4438477
86	0x3e0cf052	0.1376355
87	0xbf755a1b	-0.95840615
88	0x3eca0ea6	0.394643
89	0xbf1964be	-0.59919345
90	0xbccc65c9	-0.024950879
91	0x3f12e4f1	0.57380587
92	0xbe6855e5	-0.22689016
93	0xbf818fa9	-1.0121967
94	0x3bf4eb62	0.007474349
95	0xbd8aecc5	-0.067834415
96	0xbeb0263c	-0.3440417
97	0xbcaf6ab3	-0.021413183
98	0x3d974b9c	0.07387468
99	0x3c9ad7f5	0.018901804
100	0xbe644d31	-0.22295071
101	0xbdee97a0	-0.11650014
102	0x3da48fd2	0.08035244
103	0xbd184520	-0.037175298
104	0xbc9830d8	-0.018577978
105	0x3e8ce560	0.2751875
106	0xbe1e0985	-0.15433319
107	0x3c509e87	0.012733108
108	0xbdd4d194	-0.10391536
109	0xbeec1b77	-0.46114704
110	0xbd6c80c7	-0.05774
111	0x3e14a8a8	0.14517462
112	0x3d287545	0.041127462
113	0x3f32bb44	0.69816995
114	0x3ec7c944	0.3902074
115	0xbd343405	-0.043994922
116	0xbd9d1300	-0.076696396
117	0xbd175902	-0.03695012
118	0xbd4f980d	-0.050682116
119	0xbee69d66	-0.4504196
120	0xbef51bfd	-0.47872916
121	0x3f23d315	0.6399396
122	0xbe75042e	-0.23927376
123	0x3f4a002d	0.7890652
124	0xbe48819d	-0.19580694
125	0x3ec3b0ec	0.38220918
126	0x3e871ea9	0.2639058
127	0xbd42b542	-0.047536142
128	0x3e950edf	0.29112908
129	0xbf202bf6	-0.6256708
130	0xbd959577	-0.07303899
131	0x3ea217a4	0.3165866
132	0xbddd98c9	-0.10820157
133	0xbef82f5f	-0.4847364
134	0xbdd9acf0	-0.10628688
135	0xbf2926b6	-0.66074693
136	0x3f29a143	0.6626169
137	0xbde6fff5	-0.11279289
138	0x3e9dfb98	0.30856013
139	0xbedc26a8	-0.42998242
140	0x3e9e8de0	0.30967617
141	0xbea90a1d	-0.33015528
142	0x3f24c840	0.6436806
143	0xbf872bff	-1.0560302
144	0x3da3d578	0.079997
145	0x3eb1cb91	0.3472562
146	0x3ef55ad6	0.47920865
147	0x3dddb2dd	0.10825131
148	0x3f2d2a72	0.6764289
149	0xbe49f6ea	-0.19723096

weight_epsilon f4 [150, 64]
0	0xbed9b953	-0.42524204
1	0xbf3b5e5c	-0.73190856
2	0x3ed6578b	0.41863665
3	0xbed1a81a	-0.40948564
4	0xbe307028	-0.17230284
5	0xbed8a7a7	-0.4231541
6	0x3f225291	0.63407236
7	0xbe86867f	-0.26274487
8	0xbed36564	-0.41288292
9	0xbf2b6bbf	-0.6696128
10	0x3f05fc6a	0.5233828
11	0xbf010217	-0.50393814
12	0xbec58aa1	-0.38582328
13	0x3f321729	0.6956659
14	0xbf10df9e	-0.5659121
15	0x3eafcd87	0.34336492
16	0xbf1420d7	-0.5786261
17	0xbed0a644	-0.4075185
18	0xbeb09c33	-0.3449417
19	0x3e2bd448	0.16780198
20	0x3f07eee1	0.53098875
21	0x3e58ab2e	0.2115905
22	0x3e68ef58	0.22747552
23	0x3f3e4b27	0.74333423
24	0x3f095699	0.5364776
25	0x3e672831	0.22573926
26	0x3f0e136c	0.55498385
27	0x3f038387	0.5137257
28	0xbe937095	-0.2879683
29	0x3e426be8	0.18986475
30	0xbf0915b6	-0.53548753
31	0x3f04b2a6	0.51835096
32	0x3e80962e	0.25114578
33	0xbee58389	-0.44826916
34	0x3f1fd41c	0.6243303
35	0x3ed79562	0.42106158
36	0xbee2803c	-0.4423846
37	0x3ef06896	0.46954793
38	0x3eca6e69	0.3953736
39	0xbec79ad8	-0.38985324
40	0x3ef806e3	0.48442754
41	0xbecec47e	-0.40384287
42	0xbee95fb2	-0.45580822
43	0x3f553bdc	0.83294463
44	0x3e38d638	0.18050468
45	0x3f3d9054	0.7404835
46	0xbd33012e	-0.043702297
47	0x3deca462	0.11554791
48	0xbee3ddaa	-0.44505054
49	0xbeea94de	-0.45816702
50	0xbd83769b	-0.064191066
51	0x3f0e7855	0.5565236
52	0x3dbe3b0a	0.092886046
53	0xbdd331f7	-0.103122644
54	0xbeeecd2f	-0.46640918
55	0x3ee56bac	0.4480871
56	0xbea8ce34	-0.3296982
57	0xbed697d4	-0.4191271
58	0xbf1713e2	-0.59014714
59	0x3eb9b17f	0.3626823
60	0x3f19aa14	0.60025144
61	0xbeec6815	-0.46173158
62	0xbf262900	-0.6490631
63	0xbe00e62b	-0.12587802
64	0xbf2e6241	-0.68118674
65	0xbf96122d	-1.1724297
66	0x3f2bacd0	0.67060566
67	0xbf27ec22	-0.65594685
68	0xbe8d50fb	-0.27600846
69	0xbf2d870f	-0.6778421
70	0x3f8202b7	1.0157079
71	0xbed77e56	-0.42088574
72	0xbf2950c9	-0.66138893
73	0xbf894c3f	-1.0726393
74	0x3f56a125	0.8383964
75	0xbf4ea7d5	-0.8072484
76	0xbf1e380a	-0.6180426
77	0x3f8ea3c9	1.1143733
78	0xbf6811ea	-0.90652335
79	0x3f0cceba	0.5500294
80	0xbf6d48a3	-0.9268896
81	0xbf271d9f	-0.65279573
82	0xbf0d7442	-0.5525552
83	0x3e899ff9	0.26879862
84	0x3f59bfa1	0.8505803
85	0x3ead89e2	0.3389426
86	0x3eba9121	0.3643885
87	0x3f9869ea	1.1907322
88	0x3f5bffdb	0.8593728
89	0x3eb92494	0.3616072
90	0x3f6396a7	0.8890175
91	0x3f52ab56	0.8229269
92	0xbeec2e4b	-0.4612907
93	0x3e9bb850	0.30414057
94	0xbf5b97ea	-0.8577868
95	0x3f5490e8	0.8303361
96	0x3ecdfafa	0.40230542
97	0xbf37d3a8	-0.71807337
98	0x3f800359	1.0001022
99	0x3f2cab62	0.6744901
100	0xbf3569e4	-0.708647
101	0x3f408d85	0.7521594
102	0x3f2222a4	0.6333411
103	0xbf1fdf1c	-0.6244981
104	0x3f46a798	0.7759948
105	0xbf259bc0	-0.6469078
106	0xbf3aeb1d	-0.73015004
107	0x3faac99a	1.3342774
108	0x3e940b0e	0.28914684
109	0x3f97d448	1.1861658
110	0xbd8f5f38	-0.070005834
111	0x3e3d8941	0.1850939
112	0xbf3681c4	-0.71291757
113	0xbf3be2be	-0.73392856
114	0xbdd296a4	-0.10282639
115	0x3f64384d	0.8914841
116	0x3e185d02	0.1487923
117	0xbe292798	-0.1651901
118	0xbf3f4403	-0.7471315
119	0x3f37c08b	0.7177817
120	0xbf0733fc	-0.52813697
121	0xbf2be04e	-0.67139137
122	0xbf72021f	-0.94534487
123	0x3f14baae	0.5809735
124	0x3f7626e2	0.9615308
125	0xbf3d58f4	-0.73963857
126	0xbf851595	-1.0397211
127	0xbe4e7b1a	-0.20164147
128	0xbf8ace7a	-1.0844262
129	0xbfeee870	-1.8664684
130	0x3f88a683	1.0675815
131	0xbf85a9d4	-1.0442452
132	0xbee0f888	-0.43939614
133	0xbf8a2001	-1.0791017
134	0x3fcef8f5	1.6169726
135	0xbf2b8778	-0.67003584
136	0xbf86c5b7	-1.0529088
137	0xbfda92d2	-1.7076056
138	0x3faad768	1.3346987
139	0xbfa47e8e	-1.2851121
140	0xbf7be110	-0.98390293
141	0x3fe313e5	1.7740446
142	0xbfb8b949	-1.4431545
143	0x3f60292c	0.87562823
144	0xbfbcdfb4	-1.4755769
145	0xbf850573	-1.0392288
146	0xbf6130b1	-0.8796492
147	0x3edb181c	0.42791831
148	0x3fad52fd	1.3540951
149	0x3f0a2240	0.5395851
150	0x3f14810d	0.58009416
151	0x3ff2a333	1.8956054
152	0x3faf1da7	1.3680924
153	0x3f135ee0	0.5756664
154	0x3fb52816	1.4152858
155	0x3fa7b06f	1.3100718
156	0xbf3bfef6	-0.73435915
157	0x3ef7e6a2	0.48418146
158	0xbfaecaeb	-1.3655676
159	0x3fa932ef	1.3218669
160	0x3f23f4f7	0.6404566
161	0xbf9252b1	-1.1431485
162	0x3fcbcae0	1.5921288
163	0x3f897125	1.0737654
164	0xbf9066f6	-1.1281421
165	0x3f9944cf	1.1974124
166	0x3f810e96	1.0082576
167	0xbf7e8292	-0.99417984
168	0x3f9e2031	1.2353574
169	0xbf83d24d	-1.0298554
170	0xbf94c8ad	-1.1623741
171	0x4007f1a8	2.1241245
172	0x3eebae03	0.46031198
173	0x3ff1b4fc	1.8883357
174	0xbde43e49	-0.111446925
175	0x3e96de18	0.2946632
176	0xbf9145bc	-1.1349406
177	0xbf958dc9	-1.1683894
178	0xbe279ff5	-0.16369613
179	0x3fb5a8c1	1.4192125
180	0x3e728ea7	0.2368723
181	0xbe86a4ee	-0.26297706
182	0xbf983e87	-1.1894082
183	0x3f92437a	1.1426842
184	0xbf573d1c	-0.8407762
185	0xbf88cf7f	-1.0688323
186	0xbfc0a26e	-1.504957
187	0x3f6cc59b	0.9248902
188	0x3fc3eec8	1.5307245
189	0xbf96b7a7	-1.1774796
190	0xbfd3dda0	-1.655201
191	0xbea45af4	-0.32100642
192	0xbf66b432	-0.90118706
193	0xbfc689f4	-1.551085
194	0x3f631ecd	0.88718873
195	0xbf5e27da	-0.8677956
196	0xbebaf4ed	-0.3651499
197	0xbf659235	-0.8967622
198	0x3fabffe9	1.3437473
199	0xbf0e8b9a	-0.55681765
200	0xbf5fffb0	-0.87499523
201	0xbfb5a3f2	-1.4190657
202	0x3f8df949	1.1091701
203	0xbf88b2fe	-1.0679624
204	0xbf51517b	-0.81764954
205	0x3fbcb527	1.4742783
206	0xbf9982a8	-1.1992998
207	0x3f3a489b	0.7276704
208	0xbf9cf58e	-1.2262437
209	0xbf5d16a5	-0.8636268
210	0xbf3b2399	-0.7310119
211	0x3eb612b6	0.3556115
212	0x3f900979	1.1252891
213	0x3ee595f2	0.44840962
214	0x3ef6d25d	0.4820737
215	0x3fc9a363	1.5752987
216	0x3f9186a3	1.1369213
217	0x3ef4f013	0.47839412
218	0x3f968bc3	1.1761402
219	0x3f8b5aac	1.0887046
220	0xbf1c3aca	-0.61027205
221	0x3ece0324	0.4023677
222	0xbf9141e1	-1.134823
223	0x3f8c9bdd	1.0985066
224	0x3f0840a7	0.5322365
225	0xbf733257	-0.9499869
226	0x3fa95b63	1.3231014
227	0x3f646f96	0.89232767
228	0xbf70010f	-0.93751615
229	0x3f7ebdaa	0.99508154
230	0x3f567fe3	0.8378889
231	0xbf53812f	-0.82618994
232	0x3f83681e	1.0266149
233	0xbf5b1826	-0.8558372
234	0xbf774969	-0.9659639
235	0x3fe1f234	1.765204
236	0x3ec3db2c	0.38253152
237	0x3fc8dd6c	1.5692573
238	0xbdbdad20	-0.092615366
239	0x3e7abffb	0.24487297
240	0xbf717352	-0.9431659
241	0xbf789104	-0.97096276
242	0xbe0b4cfb	-0.13603584
243	0x3f96f6b0	1.1794033
244	0x3e49924f	0.19684719
245	0xbe5fc932	-0.21854094
246	0xbf7d09bd	-0.98842984
247	0x3f73190e	0.94960105
248	0xbf32de7d	-0.6987074
249	0xbf6362eb	-0.8882281
250	0xbfa0159b	-1.2506593
251	0x3f44c385	0.7686084
252	0x3fa2d348	1.2720728
253	0xbf7a8016	-0.97851694
254	0xbfb010e9	-1.375516
255	0xbe889568	-0.26676488

bias_epsilon f4 [150]
0	0xbef99de1	-0.48753265
1	0xbf47ed92	-0.7809688
2	0xbf9f23aa	-1.2432759
3	0xbf843fbf	-1.0331954
4	0x3f8e05df	1.1095542
5	0xbeb69e7c	-0.3566779
6	0x3f165dcc	0.5873687
7	0xbf77dc02	-0.9682008
8	0x3f57f9af	0.8436536
9	0xbf110b03	-0.5665743
10	0x3f6b2cf6	0.9186548
11	0xbfae78cf	-1.3630618
12	0x3f9b0788	1.2111673
13	0x3f867e3d	1.0507275
14	0xbf730e1d	-0.9494341
15	0x3f3df5a1	0.74202925
16	0x3ff37064	1.9018674
17	0x3f693526	0.91096723
18	0x3fa7501f	1.3071326
19	0xbfb93523	-1.4469341
20	0x3f589d9a	0.8461548
21	0xbf88549e	-1.0650823
22	0x3f21637d	0.6304243
23	0xbe90fd69	-0.28318337
24	0xbf9744cb	-1.1817869
25	0x3ec1acd0	0.37827158
26	0xbf7c3b8b	-0.98528355
27	0xbf960b7e	-1.1722257
28	0x3fb6bd77	1.427657
29	0xbf09e1fd	-0.53860456
30	0x3f99b1af	1.200735
31	0x3f943d80	1.1581268
32	0xbf5bb350	-0.85820484
33	0xbfa6fe07	-1.3046273
34	0x3f684a40	0.90738297
35	0xbf48611e	-0.7827319
36	0x3fc2685f	1.5188102
37	0x3f729048	0.94751406
38	0xbf458bbd	-0.7716635
39	0xbf87b6c9	-1.0602657
40	0x3f44bff3	0.7685539
41	0x3fa636ee	1.2985513
42	0xbfa848c4	-1.3147206
43	0xbf951d00	-1.1649475
44	0x3f95571c	1.1667209
45	0x3f9d4d41	1.2289201
46	0xbee709e1	-0.45124725
47	0x3fbab280	1.4585724
48	0x3fc0cab6	1.5061862
49	0x3ed8614a	0.42261726
50	0xbe17d99a	-0.14829102
51	0xbeb6d0c8	-0.35706162
52	0x3eadd993	0.33955058
53	0xbf4854a0	-0.7825413
54	0xbf0a3ca1	-0.5399876
55	0xbfa11be0	-1.2586632
56	0xbf9c6f13	-1.2221397
57	0x3f8a4b27	1.0804185
58	0x3f324817	0.6964125
59	0x3fa9bf52	1.3261511
60	0xbf9c66c0	-1.2218857
61	0x3eaf004f	0.34179923
62	0x3f538dda	0.82638323
63	0xbf8ebc44	-1.1151204
64	0x3f5026c2	0.8130914
65	0xbf618fd7	-0.8811011
66	0xbf6cd229	-0.9250818
67	0xbf44a1a1	-0.76809126
68	0xbdfa5276	-0.122227594
69	0x3f5ab6ed	0.8543537
70	0xbf04a599	-0.5181518
71	0x3f690fa4	0.9103949
72	0x3fa1924f	1.2622775
73	0x3f375d2e	0.71626556
74	0x3f09722c	0.5368984
75	0x3f04b766	0.51842344
76	0x3f9c60ac	1.2217002
77	0x3f380f98	0.71898794
78	0x3e9948df	0.2993841
79	0xbf6b9166	-0.92018735
80	0x3fb5abaa	1.4193013
81	0x3f1a51c2	0.60281
82	0xbf7da39f	-0.9907779
83	0xc00a04e4	-2.1565485
84	0xbf1cd5af	-0.61263555
85	0xbf777bff	-0.9667358
86	0x3f52167e	0.8206557
87	0x3f89993a	1.0749886
88	0x3f8607f4	1.0471177
89	0x3f1706d3	0.5899479
90	0x3ec74c68	0.3892548
91	0x3fcf0c8d	1.6175705
92	0x3f8627e3	1.0480922
93	0x3f53285a	0.82483447
94	0xbf9abf3c	-1.208961
95	0x3f8195ed	1.0123879
96	0x3f596920	0.84926033
97	0x3ea3f05c	0.32019317
98	0xbfb0bb40	-1.3807144
99	0x3fc04791	1.502184
100	0xbf0416a8	-0.5159707
101	0xbf086805	-0.5328372
102	0xbf3de15a	-0.74171984
103	0xbfb78637	-1.4337834
104	0xbf37e689	-0.71836144
105	0x3f7e51c1	0.99343497
106	0xbeca2a31	-0.39485314
107	0xbf0e9abb	-0.5570485
108	0xbee3935e	-0.4444837
109	0xbf3cc5aa	-0.7373911
110	0x3f103d50	0.56343555
111	0x3e64dcb9	0.22349824
112	0xbf50bfcd	-0.81542665
113	0xbef4f6fe	-0.4784469
114	0x3ebc4c8e	0.36777157
115	0x3f3f1b46	0.7465099
116	0xbef0507b	-0.46936402
117	0xbf342630	-0.7037077
118	0x3f1ecbea	0.620299
119	0x3fa9d159	1.3267013
120	0x3e620eef	0.22076009
121	0xbe1ad4f7	-0.15120302
122	0x3f7b3e38	0.98141813
123	0x3fb2781f	1.3942908
124	0x3fa0eccf	1.2572268
125	0xbef1c7d9	-0.47222784
126	0x3f6aa525	0.9165824
127	0x3ef652ed	0.48110142
128	0x3edad030	0.4273696
129	0xbf1ddcc6	-0.61665
130	0xbed3fa61	-0.4140196
131	0x3f218329	0.6309076
132	0x3f977d80	1.1835175
133	0xbef5b5a5	-0.47990146
134	0xbed6184c	-0.41815412
135	0xbf63d96c	-0.89003634
136	0xbf8718ba	-1.0554421
137	0x3f02c524	0.5108206
138	0xbf6228b6	-0.8834337
139	0xbfc7121f	-1.5552405
140	0xbf965039	-1.1743232
141	0xbfa278f5	-1.2693163
142	0x3e5112a9	0.20417275
143	0xbf4bff0e	-0.7968606
144	0x3fd0b854	1.6306252
145	0xbf317d67	-0.69331974
146	0x3f484b9b	0.78240365
147	0xbf69d7b7	-0.9134478
148	0xbf73a209	-0.9516912
149	0xbfa07740	-1.2536392

weight_mu f4 [100, 150]
0	0x3ebffc5e	0.37497228
1	0xbde34046	-0.110962436
2	0x3ed01daa	0.40647632
3	0x3ec2ec0d	0.38070717
4	0x3ed61d79	0.4181936
5	0x3f0e395f	0.5555629
6	0xbe1a9f67	-0.1509987
7	0x3e927aae	0.28609222
8	0xbf09d180	-0.53835297
9	0xbdc122de	-0.094304785
10	0x3ed03695	0.40666643
11	0xbecbd25d	-0.39808932
12	0x3ee7a2b8	0.45241332
13	0xbebaab84	-0.3645898
14	0x3e820257	0.2539241
15	0x3efd2c48	0.49447846
16	0x3e39f2fb	0.18159096
17	0x3e1c61dc	0.15271705
18	0x3ed8e0b9	0.4235895
19	0x3f0dd7e6	0.5540756
20	0x3ec99260	0.39369488
21	0x3f1ed075	0.6203683
22	0x3f87024d	1.0547577
23	0x3e38f1b5	0.18060954
24	0x3ee1e57a	0.4412039
25	0x3ebb2238	0.36549544
26	0x3efe2296	0.49635762
27	0x3eda6887	0.42657873
28	0xbed1399a	-0.4086426
29	0x3edbf687	0.42961523
30	0x3f0c0c3f	0.54706186
31	0x3f010d21	0.5041066
32	0x3efb707a	0.4910925
33	0x3c816610	0.015795738
34	0xbeb119f0	-0.345901
35	0x3edd5b7f	0.43233868
36	0xbf455c37	-0.77093834
37	0x3eef2e50	0.4671502
38	0x3ef398bc	0.47577465
39	0x3ef01cc8	0.46896958
40	0x3e995091	0.2994428
41	0x3f126e2f	0.57199377
42	0xbf30d0ca	-0.69068587
43	0x3ed260c6	0.41089457
44	0x3e9fea49	0.31233433
45	0x3e80b184	0.25135434
46	0xbe7a32d8	-0.24433458
47	0x3f076a80	0.5289688
48	0xbcae73f1	-0.02129552
49	0x3e94dfb8	0.29076934
50	0x3ef2b6de	0.47405142
51	0x3e9aa6a5	0.30205265
52	0x3ebb4665	0.36577144
53	0x3e79c94f	0.243932
54	0x3b1d254a	0.0023978525
55	0x3ef5d6d5	0.48015466
56	0x3f00283d	0.500614
57	0x3ec4b1d2	0.38416916
58	0x3eb4ead2	0.35335404
59	0x3f0e543a	0.5559727
60	0x3eeb3391	0.4593778
61	0x3ede71ad	0.43446103
62	0x3e9cfde5	0.30662456
63	0x3e9fa02c	0.3117689
64	0xbeb457cf	-0.35223243
65	0x3edbe838	0.42950606
66	0x3ed2f06a	0.41199046
67	0x3e64762c	0.22310704
68	0xbe8c46f4	-0.27397883
69	0xbe6f2924	-0.23355538
70	0x3ecdf3e4	0.40225136
71	0x3ed88062	0.42285448
72	0x3ed63276	0.41835374
73	0x3eaf036b	0.34182295
74	0x3ec65b25	0.38741413
75	0x3f57396c	0.84071994
76	0x3eb61b3c	0.35567653
77	0x3ed3bcde	0.41355032
78	0x3f6ced4f	0.92549604
79	0x3f432cab	0.7624003
80	0x3e7b8c0d	0.24565144
81	0x3ed220cd	0.4104065
82	0x3ed731b7	0.42030117
83	0x3f17f311	0.59355265
84	0x3e9f1567	0.31071016
85	0x3f0c2e20	0.5475788
86	0x3ed8f898	0.42377162
87	0x3ed418db	0.41425213
88	0x3effd43e	0.49966615
89	0x3f18480b	0.5948493
90	0xbf0ac215	-0.54202396
91	0x3ece3f3d	0.40282622
92	0x3ed77ed3	0.42088947
93	0x3ef8a13a	0.48560506
94	0x3ece46d1	0.40288404
95	0xbe01b706	-0.12667474
96	0x3f0e1c78	0.5551219
97	0xbf20f765	-0.62877494
98	0x3f49e216	0.78860605
99	0xbe8a345d	-0.26993075
100	0x3ed427ce	0.4143662
101	0x3e8c2810	0.27374315
102	0xbe65df79	-0.2244853
103	0xbe92fc31	-0.28708032
104	0x3f0726e2	0.52793705
105	0x3ece50dd	0.4029607
106	0x3ea9f95a	0.33198053
107	0x3ed880a3	0.42285642
108	0x3ef238e5	0.47309032
109	0x3d87d053	0.066315316
110	0x3c60b685	0.013715391
111	0xbeb9c91d	-0.3628625
112	0xbec27439	-0.37979296
113	0x3eac569c	0.33659828
114	0x3ee4324c	0.44569623
115	0xbf3c54d0	-0.73566914
116	0x3ee304de	0.4433965
117	0xbf6ebda1	-0.932581
118	0xbf016a92	-0.5055324
119	0x3eaa091f	0.33210084
120	0x3e99ddaa	0.3005193
121	0x3e42dd85	0.19029815
122	0x3f04d3e7	0.5188584
123	0x3ecf1dde	0.40452474
124	0x3eb08a01	0.3448029
125	0x3eb4f184	0.35340512
126	0x3ef63146	0.48084468
127	0xbdb08cb3	-0.08620586
128	0x3ed60277	0.41798756
129	0x3ef71710	0.48259783
130	0x3ec99c25	0.3937694
131	0x3ec816b0	0.3907981
132	0x3eb4c4ec	0.3530649
133	0x3ef70c7f	0.4825172
134	0xbf42493e	-0.7589301
135	0x3eafdca4	0.34348023
136	0x3f12bd27	0.57319874
137	0xbd9ca6a0	-0.07648969
138	0x3ecb6f93	0.39733562
139	0x3eba23b7	0.36355373
140	0x3eaefd9c	0.34177864
141	0x3f10fa0c	0.5663154
142	0x3e9f33e3	0.31094274
143	0x3ed8ee54	0.4236933
144	0x3eb46eb0	0.35240698
145	0x3f1becce	0.6090821
146	0x3eed3d2d	0.46335736
147	0x3e3e0bea	0.18559232
148	0x3f1eac6b	0.6198184
149	0x3eb432ed	0.35195103
150	0x3e120456	0.14259467
151	0xbf30b432	-0.69024956
152	0xbca6921d	-0.020333344
153	0x3e0f330a	0.13984314
154	0x3d8936cf	0.06699907
155	0x3c4dc117	0.012558243
156	0xbf93d15a	-1.1548264
157	0x3ba58ebf	0.005052417
158	0xbf84c6d6	-1.037318
159	0x3f367747	0.7127575
160	0x3c753a28	0.014967479
161	0xbe1b2f49	-0.15154757
162	0x3e101c81	0.14073373
163	0x3d5c4b8f	0.053782996
164	0x3b7f92c8	0.00389974
165	0xbc88e728	-0.016711786
166	0x3ddde811	0.10835279
167	0x3e4b5dba	0.19859973
168	0x3cad44d6	0.021150988
169	0x3d515a15	0.0511113
170	0xbf2858d1	-0.65760523
171	0xbd8cd237	-0.06876033
172	0xbfa0cb29	-1.2562
173	0xbce85f10	-0.028365642
174	0x3e1d6bd3	0.15373163
175	0x3c8491b0	0.01618275
176	0xbe32170f	-0.17391609
177	0x3cdfd301	0.027322294
178	0xbfb77576	-1.4332721
179	0x3e0cd133	0.13751678
180	0xbb1b998f	-0.002374265
181	0xbde7a184	-0.113101035
182	0x3c947220	0.018120825
183	0x3e9a787f	0.30170056
184	0xbd8ad676	-0.067791864
185	0x3c2215ed	0.009892923
186	0xbf886190	-1.0654774
187	0x3dc8b537	0.09800189
188	0x3c81a3a4	0.0158251
189	0xbc0175d0	-0.007901624
190	0x3d845fe3	0.064636014
191	0xbcfe171a	-0.031016875
192	0xbe1510f5	-0.1455725
193	0x3dd18407	0.1023026
194	0x3d9341d2	0.071902886
195	0xbf32bc3f	-0.6981849
196	0x3f1c1729	0.6097284
197	0xbd1d4f4b	-0.038405698
198	0x3edaaaf0	0.4270854
199	0x3d4dc11a	0.050232984
200	0x3e125168	0.14288867
201	0x3d2b73ff	0.04185867
202	0x3e1390c4	0.14410692
203	0x3c7be1fb	0.015373702
204	0x3e2ecf52	0.17071274
205	0xbd725058	-0.059158653
206	0x3dabd00c	0.08389291
207	0x3d5cb8da	0.053887226
208	0x3e0d5e03	0.13805394
209	0x3d8e3d7d	0.06945322
210	0x3dde0164	0.10840109
211	0xbc9a2b6e	-0.018819537
212	0x3e043db0	0.12914157
213	0x3d7939a9	0.060846005
214	0xbe96988f	-0.29413268
215	0x3dfbe3f9	0.12299342
216	0x3e0bccd3	0.13652353
217	0x3b258c8b	0.0025260772
218	0x3df6547a	0.120278314
219	0xbe8724c6	-0.26395243
220	0x3dccdf49	0.10003526
221	0x3de1cab6	0.11024992
222	0xbc925aeb	-0.017865619
223	0x3d8f23a4	0.0698922
224	0x3d387727	0.045035508
225	0xc006f6db	-2.1088169
226	0x3d14c80f	0.036323603
227	0x3db6fbf4	0.08934775
228	0x3e38cd13	0.1804698
229	0xbf10a84e	-0.5650681
230	0x3d2049b7	0.0391328
231	0x3d5d95af	0.054097828
232	0xbbeb3acd	-0.0071786405
233	0xbb72a86c	-0.0037026657
234	0x3c7a99e3	0.0152954785
235	0xbc296e5c	-0.010341253
236	0x3dac5b38	0.08415836
237	0x3c63a577	0.01389443
238	0x3d1b7b81	0.03795958
239	0x3de4f006	0.11178593
240	0xbf10faf5	-0.5663293
241	0x3d927409	0.07151038
242	0x3d172f39	0.03691027
243	0x3db7f2f0	0.089818835
244	0x3c8e1146	0.017342221
245	0xbff2e024	-1.8974652
246	0xbd94f6f5	-0.07273666
247	0xbee48199	-0.44630125
248	0x3f5fe27d	0.8745497
249	0xbf897e3a	-1.0741646
250	0xbd4c24e2	-0.04983986
251	0x3d61d711	0.055136744
252	0xbf0de7b5	-0.5543168
253	0x3d250b9d	0.04029428
254	0x3d8ab8e5	0.06773547
255	0x3dae54f9	0.08512301

weight_sigma f4 [100, 150]
0	0x3e04f6d9	0.1298479
1	0x3ef51dc0	0.4787426
2	0x3e861f94	0.26195967
3	0xbd210e3c	-0.039320216
4	0xbeb677b0	-0.3563819
5	0x3ea71a47	0.32637236
6	0xbe39d11c	-0.18146175
7	0xbeb92f05	-0.36168686
8	0xbd66371e	-0.056204908
9	0x3e572708	0.21010983
10	0x3f92563c	1.1432567
11	0xbe0f5ea9	-0.14000954
12	0x3ea84217	0.32862923
13	0x3e56ec7b	0.20988648
14	0xbe914b87	-0.28377935
15	0xbe8603d3	-0.26174793
16	0xbd998a15	-0.0749704
17	0xbf1d96fd	-0.61558515
18	0x3e92f718	0.28704143
19	0xbe89919b	-0.268689
20	0x3e87f13a	0.2655123
21	0xbf19c5e7	-0.600676
22	0xbed30603	-0.41215524
23	0xbf6bad18	-0.92060995
24	0x3f1066ff	0.5640716
25	0x3d2e21c9	0.04251269
26	0x3f0051bd	0.5012472
27	0xbf513d28	-0.8173394
28	0xbda3ffa6	-0.080077454
29	0x3c954467	0.018221093
30	0x3e2387c4	0.15969759
31	0x3efce168	0.4939072
32	0x3e53e4d4	0.2069276
33	0xbb8f21bc	-0.004368035
34	0x3c3e1d4b	0.011603664
35	0xbf22d2ed	-0.636031
36	0xbea57798	-0.32317805
37	0x3ebcd193	0.36878642
38	0x3fa326cb	1.2746214
39	0xbd885391	-0.06656564
40	0x3ee9fe3e	0.45701784
41	0x3e8d1c6d	0.2756075
42	0x3e80ec0b	0.25180086
43	0xbf0a5dbf	-0.54049295
44	0x3e192f07	0.14959346
45	0xbe98c104	-0.2983476
46	0x3e68dda1	0.22740795
47	0x3e8e4e4d	0.27794114
48	0x3e0a8e09	0.13530745
49	0x3cf4235a	0.029802013
50	0xbf2d9e9c	-0.67820144
51	0xbec18bcf	-0.37801978
52	0x3f6cb551	0.92464167
53	0xbea28ed0	-0.31749582
54	0xbcf7ff7f	-0.030273197
55	0x3f762495	0.9614957
56	0x3f1a0f7a	0.60179865
57	0xbf27dd92	-0.65572464
58	0xbc9be977	-0.019032223
59	0x3f1e18c1	0.6175652
60	0x3f22dd5f	0.63619035
61	0x3eb04c36	0.34433144
62	0x3eae1498	0.34000087
63	0x3d57b66b	0.0526642
64	0xbcc38b6e	-0.023870196
65	0x3e716337	0.23573004
66	0xbe97ef0b	-0.29674563
67	0xbefbf326	-0.49208945
68	0x3dcf50fb	0.10122868
69	0x3d437d90	0.047727168
70	0x3cb64de7	0.022253944
71	0x3ebfe817	0.37481758
72	0x3f5dd1a5	0.8664802
73	0x3ee7486f	0.4517245
74	0xbf04de5d	-0.519018
75	0x3e739d19	0.23790397
76	0xbed3e396	-0.41384572
77	0xbf1d012c	-0.61329913
78	0xbd89964e	-0.067181215
79	0x3e56ef86	0.20989808
80	0xbd934d8a	-0.07192524
81	0xbd7f5259	-0.062334392
82	0x3d296c7d	0.041363228
83	0x3f8cebca	1.1009457
84	0xbb3d2c84	-0.0028865645
85	0xbf3c1827	-0.73474354
86	0xbe040463	-0.12892298
87	0xbec9b519	-0.3939598
88	0xbeb8e183	-0.36109552
89	0xbf0089d1	-0.5021029
90	0xbd963da3	-0.07335975
91	0xbf428f9f	-0.760004
92	0xbd99812b	-0.0749534
93	0xbf38659d	-0.7203005
94	0xbf051e41	-0.5199929
95	0xbc891d3c	-0.016737573
96	0xbee16ca4	-0.440282
97	0x3de7c312	0.113165036
98	0x3c9e98ad	0.01935991
99	0x3f3565e4	0.708586
100	0xbe32d9f1	-0.1746595
101	0xbf15c771	-0.5850745
102	0xbda14561	-0.07874561
103	0x3cea234e	0.028581288
104	0x3df2a54b	0.118479334
105	0xbe9fc6cf	-0.31206366
106	0xbe6a18ff	-0.22861098
107	0xbe870ce2	-0.26377016
108	0xbe78877b	-0.24270432
109	0x3cea81cb	0.028626343
110	0x3ed8661a	0.42265397
111	0xbe512437	-0.20423971
112	0xbe3d8f05	-0.18511589
113	0x3e1822e9	0.14857067
114	0xbf0891c3	-0.53347415
115	0x3eacd18d	0.33753625
116	0x3e142fa5	0.144713
117	0xbd2b7b21	-0.04186547
118	0xbe82a317	-0.25515053
119	0x3f18124f	0.59402937
120	0xbe2ad93d	-0.16684432
121	0xbde9891d	-0.114031054
122	0x3f782903	0.9693758
123	0xbeb4d2bc	-0.35317028
124	0xbd51e96a	-0.05124799
125	0xbf38cfa2	-0.7219182
126	0xbea8646b	-0.32889113
127	0x3e244dfb	0.16045372
128	0x3efb4be7	0.49081346
129	0x3e1c39c1	0.15256406
130	0xbd5b7b09	-0.053584132
131	0x3f497e8c	0.7870872
132	0xbeba6596	-0.3640563
133	0x3e3964d6	0.18104872
134	0x3daf08fb	0.08546635
135	0x3de9da9e	0.11418651
136	0x3c165200	0.009174824
137	0xbe93f0d9	-0.2889469
138	0xbe8bda60	-0.27315044
139	0xbea8c92d	-0.32965985
140	0xbd6dcf07	-0.058058765
141	0xbee137e3	-0.4398795
142	0x3b7c8da9	0.0038536584
143	0x3e8618d2	0.2619081
144	0xbebe0c42	-0.37118727
145	0xbd065083	-0.032791626
146	0xbf4b3437	-0.7937655
147	0xbdae633d	-0.08515022
148	0xbd7776fe	-0.060416214
149	0x3e7c83f5	0.24659713
150	0xbda39622	-0.0798762
151	0x3e9bb705	0.3041307
152	0x3e7859d6	0.2425302
153	0xbe4db05e	-0.2008681
154	0x3d97715d	0.07394669
155	0xbe1954bc	-0.1497373
156	0x3dcddc87	0.10051828
157	0x3de4b06b	0.111664616
158	0x3e5f224c	0.21790427
159	0xbdaa2323	-0.08307483
160	0xbcc02c27	-0.023458553
161	0x3d39f493	0.04539926
162	0xbc65a3ed	-0.014016134
163	0x3d558a82	0.052134044
164	0xbedcdf27	-0.43139002
165	0x3d32dee6	0.043669604
166	0xbebe84d4	-0.37210715
167	0x3d869115	0.06570641
168	0xbdcbcc77	-0.09951108
169	0xbe6f2733	-0.23354797
170	0x3e15548a	0.1458303
171	0x3ef79f51	0.48363736
172	0xbbb414c1	-0.005495638
173	0xbd896fae	-0.06710754
174	0x3dce010f	0.10058796
175	0xbc904a2b	-0.017613491
176	0x3d6d14cc	0.05788116
177	0xbe24ebdb	-0.16105597
178	0x3dbd637c	0.09247491
179	0x3e2dfe51	0.16991545
180	0xbe6701d2	-0.22559288
181	0xbddda590	-0.10822594
182	0xbe50938c	-0.20368785
183	0x3c273da6	0.010207569
184	0x3c1d8db7	0.009616307
185	0xbe797a96	-0.24363169
186	0xbe019c84	-0.12657362
187	0xbe1d0bf3	-0.1533659
188	0x3d2f68a4	0.042824402
189	0xbe0386f1	-0.12844445
190	0x3dd32914	0.103105694
191	0xbec5e289	-0.38649395
192	0xbdfad044	-0.12246755
193	0x3d06635d	0.032809604
194	0xbb936a99	-0.0044987914
195	0x3dab1eb8	0.083554685
196	0xbd88feeb	-0.06689247
197	0x3bf47dee	0.007461301
198	0x3e201691	0.15633608
199	0xbebecf02	-0.3726731
200	0xbe6b4088	-0.22973835
201	0xbcd98df7	-0.026556952
202	0x3e7d5018	0.24737585
203	0x3b8435da	0.00403474
204	0xbd693887	-0.056938674
205	0xbebf4f54	-0.3736521
206	0x3e8274c6	0.25479716
207	0xbe0915f8	-0.13387287
208	0xbf3692b1	-0.71317583
209	0xbe3d6b2a	-0.18497911
210	0x3de3cd67	0.11123162
211	0x3e2bda0b	0.16782396
212	0x3d59188e	0.053001933
213	0x3e540e20	0.20708513
214	0xbb072f70	-0.002062764
215	0xbe847c83	-0.25876245
216	0x3a9840c6	0.0011615984
217	0x3d5b170c	0.053488776
218	0x3c2812ba	0.010258371
219	0xbd2d0082	-0.042236812
220	0x3e67c956	0.22635397
221	0xbec71bc9	-0.38888386
222	0x3d0bf5fd	0.03417014
223	0x3e178513	0.14796858
224	0xbe395af0	-0.18101096
225	0xbe958fc3	-0.29211244
226	0xbdacd073	-0.08438196
227	0x3e58c7cd	0.21169968
228	0x3d838e7b	0.0642366
229	0x3d3dc88d	0.04633384
230	0xbdf8e6b0	-0.12153375
231	0xbe7f5370	-0.24934173
232	0x3d9007f8	0.0703277
233	0xbe04979b	-0.12948458
234	0xbe41f461	-0.1894088
235	0xbed08d02	-0.4073258
236	0x3efc8609	0.4932101
237	0xbea15f82	-0.3151818
238	0xbe85afb8	-0.26110625
239	0xbea6cffd	-0.32580557
240	0x3db1cce3	0.08681657
241	0xbe3e9ec5	-0.18615253
242	0xbd8828b3	-0.06648388
243	0xbd00109a	-0.031265832
244	0x3d90a49a	0.07062645
245	0xbdabcec5	-0.083890475
246	0xbe8463fa	-0.25857526
247	0x3d8d4146	0.068972155
248	0xbac6a01c	-0.0015153917
249	0x3d315c3a	0.043300845
250	0x3e6244e1	0.22096588
251	0xbd71b77c	-0.059012875
252	0xbd9d02fa	-0.07666583
253	0x3e1d9e30	0.15392375
254	0xbe999a23	-0.3000041
255	0x3dad8e07	0.08474355

bias_mu f4 [100]
0	0xbfebe548	-1.8429346
1	0x3f04119b	0.51589364
2	0x3fa228a3	1.2668651
3	0xbff56781	-1.9172212
4	0xbfed6343	-1.8545917
5	0x3fa0b526	1.2555282
6	0xbff7833b	-1.9336923
7	0x3f6637e9	0.8992906
8	0x3f842f4b	1.0326933
9	0xbfa1d14d	-1.2641999
10	0xc00745cc	-2.113635
11	0x3fc7e401	1.5616456
12	0x3f48d3f7	0.7844843
13	0xbf7fd701	-0.99937445
14	0xbff91041	-1.9458085
15	0x3fc97a22	1.5740397
16	0xbffc7682	-1.9723666
17	0xbfe64836	-1.7990787
18	0xbfc59873	-1.5437149
19	0xbfd77271	-1.68318
20	0x3fab7b14	1.3396935
21	0xbff42ca2	-1.9076121
22	0xbff2e385	-1.8975683
23	0xbfbbc64f	-1.4669894
24	0xbfe7d422	-1.8111613
25	0xbed03fa1	-0.40673545
26	0x3f0216f0	0.5081625
27	0xbf88e136	-1.0693729
28	0xc005192c	-2.0796614
29	0xbff4b2b2	-1.9117033
30	0xc0076db8	-2.1160717
31	0xbffcd0bc	-1.9751201
32	0x3f490b2e	0.78532684
33	0xbf813dd2	-1.0096991
34	0x3f88f7b8	1.0700598
35	0xbfa8baee	-1.3182046
36	0xbfd4079b	-1.6564821
37	0x3fb66651	1.4249974
38	0x3fc663da	1.5499222
39	0x3fb82542	1.438637
40	0xbff6cea0	-1.9281807
41	0xbfff74d5	-1.9957529
42	0xbff5f464	-1.9215207
43	0xbff65348	-1.9244165
44	0xbffc26df	-1.9699363
45	0x3fda1429	1.7037402
46	0xbfe2fc00	-1.7733154
47	0x3fa3f3e6	1.2808807
48	0x3f80159b	1.0006593
49	0xbffb2d7e	-1.9623258
50	0xc002e591	-2.0452616
51	0x3fc23f50	1.5175571
52	0x3fdd8371	1.7305738
53	0xbff30662	-1.8986323
54	0xbff4ddf6	-1.9130237
55	0xbfffacf5	-1.9974657
56	0xbff9b68c	-1.9508834
57	0x3ea831b2	0.32850415
58	0x3faf402e	1.3691461
59	0xbfe271d6	-1.769099
60	0xbfd2b69c	-1.6461978
61	0xbfd1adfc	-1.6381221
62	0xbff81342	-1.9380877
63	0xbfe0855e	-1.75407
64	0xbfd84049	-1.6894618
65	0xbff0db6f	-1.8816966
66	0xbfc978af	-1.5739955
67	0x3fbdb612	1.4821188
68	0x3fc2396e	1.5173776
69	0xbfdc031b	-1.7188448
70	0xbfc82dd9	-1.5638992
71	0xbff9e317	-1.9522427
72	0xbee69632	-0.45036465
73	0xbfece494	-1.8507257
74	0x3f53d3f4	0.8274529
75	0xbfeb3a86	-1.8377235
76	0x3fa73969	1.3064395
77	0xc0004aae	-2.004558
78	0xbfe15ddc	-1.7606769
79	0x3fb9090f	1.445589
80	0x3f78d57a	0.9720074
81	0x3f87c3d5	1.0606638
82	0xbfd3cc3b	-1.6546701
83	0xbfeef556	-1.866862
84	0xbfe74fdd	-1.8071247
85	0xbfe1bcb3	-1.7635711
86	0xbff65f86	-1.9247901
87	0xbf53fe9d	-0.82810384
88	0xbfe4e2b0	-1.788168
89	0x3fabb441	1.3414384
90	0xbfe3921d	-1.7778965
91	0x3fbf5404	1.4947515
92	0xbff5a116	-1.9189785
93	0x3e6ec74f	0.23318218
94	0xbf03d37d	-0.5149458
95	0x3f46995d	0.77577764
96	0x3e52f58d	0.20601483
97	0x3f88c1a1	1.0684091
98	0xbfde1a45	-1.7351767
99	0xc0016fa6	-2.0224395

bias_sigma f4 [100]
0	0x3e019c32	0.1265724
1	0xbdf9b627	-0.12192946
2	0x3e2d37ed	0.16915865
3	0x3eb7735f	0.3583021
4	0x3ce441ec	0.027863465
5	0x3e0d7fcc	0.13818282
6	0x3f46ab87	0.7760548
7	0xbdd3c209	-0.10339744
8	0x3f3a7ffd	0.72851545
9	0x3e637566	0.22212753
10	0x3ed3f810	0.41400194
11	0x3ccfb360	0.025354087
12	0xbdb3ed43	-0.087854885
13	0x3e0835e9	0.13301815
14	0xbe7ccbda	-0.24687138
15	0x3c822a4a	0.015889306
16	0x3dc6e65a	0.09711905
17	0x3cdcdc25	0.026960442
18	0xbdbd38f4	-0.092393786
19	0x3d8c3977	0.06846898
20	0x3e2322b6	0.1593121
21	0x3da96b59	0.08272428
22	0x3dfdf611	0.12400449
23	0x3e88afc8	0.2669661
24	0xbe2ab408	-0.16670239
25	0xbe2b5b3f	-0.16734026
26	0xbddd224c	-0.10797557
27	0x3f2d615b	0.6772668
28	0x3ed8bd05	0.4233171
29	0xbebb58b2	-0.36591107
30	0x3f12816b	0.57228726
31	0x3e2e0dae	0.16997406
32	0x3e5b0f96	0.21392664
33	0xbe694c6c	-0.22783059
34	0xbc4cb5ce	-0.0124945175
35	0xbca0fca0	-0.019651711
36	0xbf0961fc	-0.5366514
37	0xbc398a57	-0.011324487
38	0xbdab3a07	-0.08360677
39	0x3eac29e9	0.33625725
40	0x3e2985d3	0.16554956
41	0x3c6b6b56	0.014368853
42	0x3e973d44	0.2953893
43	0xbea9b0f0	-0.33142805
44	0x3f05699b	0.52114266
45	0xbd3de2b8	-0.046358794
46	0x3f1834c7	0.5945553
47	0xbe8a9721	-0.27068427
48	0x3db2f16d	0.087374546
49	0xbe647314	-0.22309524
50	0xbf0c92b9	-0.5491138
51	0x3de3f9d9	0.11131639
52	0x3e985091	0.29748967
53	0xbe9bbadc	-0.30416
54	0x3e277d4b	0.16356389
55	0xbe79f197	-0.24408565
56	0xbc0b8d32	-0.00851755
57	0xbdd19dc5	-0.1023517
58	0xbe2d2e96	-0.16912302
59	0xbf31cda0	-0.69454384
60	0xbd1f532b	-0.038897675
61	0x3e7b6347	0.2454959
62	0xbee3b433	-0.4447342
63	0x3e6dd913	0.23227338
64	0x3c702656	0.0146575775
65	0xbd328ae4	-0.043589488
66	0xbf6a231f	-0.9145984
67	0x3e086352	0.13319138
68	0x3e96bc91	0.2944074
69	0x3f3c015e	0.73439586
70	0xbd700221	-0.05859578
71	0x3df15666	0.11784057
72	0xbf0aaaa3	-0.5416662
73	0x3e25055e	0.16115329
74	0x3e1c64e6	0.15272865
75	0xbe910ffe	-0.28332514
76	0x3e207361	0.15669014
77	0x3b86c7ad	0.0041131587
78	0x3d896869	0.06709368
79	0xbe471081	-0.1943989
80	0xbe1f831f	-0.15577362
81	0xbc8f2f81	-0.017478706
82	0xbea38968	-0.3194077
83	0xbd99d263	-0.07510831
84	0xbd1cf9ed	-0.038324285
85	0x3e2b534f	0.16730998
86	0x3e86b20e	0.2630772
87	0x3de730d7	0.11288612
88	0x3dde2461	0.108467825
89	0x3e702231	0.23450543
90	0x3dfd5613	0.12369933
91	0x3d69bba0	0.0570637
92	0xbe3da326	-0.18519267
93	0x3e0f8c1b	0.1401829
94	0xbe47e607	-0.19521342
95	0xbd59fed0	-0.053221524
96	0x3d78f44b	0.06077985
97	0x3e1c482b	0.15261905
98	0xbdeca34a	-0.115545824
99	0x3f023c36	0.50873125
