saved_models/08-07 13:53.pth (torch, 462081 bytes, 11 tensors)

weight f4 [64, 6]
000000 1d b7 66 be 7d ca 25 be 8c 32 ee be 1f a6 9c bd
       -0.2253079 -0.16190524 -0.4652294 -0.076488726
000010 18 a6 fa bc 3d 6a 60 be f8 ef 08 3e 7b 49 04 be
       -0.030596778 -0.21915527 0.13372791 -0.12918656
000020 53 15 04 bf 74 a8 30 be 5c e9 05 be d7 bd 25 3f
       -0.5159504 -0.1725176 -0.13077301 0.647428
000030 12 28 56 be 66 50 ad be f9 78 68 3e 65 1a 3c 3e
       -0.20913723 -0.33850402 0.22702397 0.18369444
000040 7c 14 18 be 61 ec a8 3e ff 3a ac be f5 91 ea bd
       -0.14851564 0.32992843 -0.3363876 -0.1145362
000050 44 fe 31 be bf 9c ba bd e0 a1 07 bd a9 39 fd be
       -0.17382151 -0.09111928 -0.03311336 -0.49458054
000060 9b 34 91 be 85 66 0f be b4 10 93 3e 07 03 09 bd
       -0.28360447 -0.14003952 0.2872368 -0.033450153
000070 ca 1e 9b be 47 8f 84 be a8 e4 5b be e1 ee dd bd
       -0.30296928 -0.25890562 -0.21473944 -0.10836578
000080 ba f5 48 3d 38 b6 ea 3b 37 3b 9c be 8e e9 e0 be
       0.049062468 0.0071628354 -0.30513927 -0.43928188
000090 d7 ff 97 bd 06 b3 1e bd 58 32 1c bf 73 0d 94 be
       -0.074218445 -0.03874495 -0.6101432 -0.2891651
0000a0 a5 42 32 3e 81 3b 0c 3f 58 b0 fb 3c 80 95 8e 3c
       0.17408235 0.54778296 0.030723736 0.017405272
0000b0 74 a1 de be ec 82 9f 3d 2a 8b 85 3f fa e1 aa be
       -0.43482554 0.07788643 1.0433095 -0.3337553
0000c0 c2 a9 a4 3e 6e f6 dc 3e 13 98 ec 3d 2b 38 a1 be
       0.32160765 0.4315676 0.11552443 -0.31488165
0000d0 f7 a9 7a 3d 2b 24 fa 3e 7b 97 09 bf 7b 73 d7 be
       0.061197247 0.4885572 -0.53746766 -0.42080292
0000e0 50 e7 61 3e 86 30 7b 3e 54 ce 95 3e 18 7d 46 3f
       0.22060895 0.24530229 0.29258978 0.7753463
0000f0 43 02 da bb dc 87 fb bd 90 7c 87 be 80 6a 9c bd
       -0.0066531016 -0.122817725 -0.2646222 -0.07637501
000100 a8 2c da 3e 63 eb cb 3e 88 27 78 3e f0 0f 88 be
       0.42612195 0.39828023 0.2423383 -0.2657466
000110 1f 28 6f be 67 3a d0 3d 4e 14 c0 3e a9 30 a1 3e
       -0.23355149 0.10167389 0.3751549 0.31482437
000120 9b 1a 31 3f c9 c1 03 be e2 9e b0 be 01 e1 6e 3e
       0.6918122 -0.12866892 -0.34496218 0.2332802
000130 8c cb 18 3e 13 0a 26 bf f9 ea 8e be 5d a7 db bc
       0.14921397 -0.6485912 -0.27913645 -0.026813203
000140 ff 16 44 be 36 7b 37 be cc 6a 9b be 1e f8 f3 be
       -0.19149397 -0.17918095 -0.30354917 -0.47650236
000150 eb 33 e2 3d e8 c3 41 be 89 a4 a8 3d 63 43 0f 3e
       0.11045059 -0.18922389 0.082345076 0.1399055
000160 8d e3 33 3f 1d 23 15 be be 7a 12 3c 94 10 89 bd
       0.7026909 -0.14564176 0.008940397 -0.06692615
000170 6a 99 2a be 8c 48 1a be 41 a4 b5 3e 02 a8 37 3f
       -0.16660085 -0.15066737 0.35476878 0.71740735
000180 e6 c8 f0 be 19 36 55 be ae de eb 3d 54 96 a8 bd
       -0.47028273 -0.20821418 0.11517082 -0.08231798
000190 d9 4f f2 bd 7c 09 ff 3e 92 a0 dc 3d 9e e2 ad be
       -0.11831636 0.49811924 0.10772814 -0.33961958
0001a0 d5 55 96 be d1 04 c0 3d 04 92 14 3e af 01 00 3e
       -0.2936236 0.09375919 0.14508826 0.12500642
0001b0 13 6d fa bd ae d1 45 3e 2c 3d 42 3d 55 f1 47 be
       -0.122278355 0.19318268 0.04742162 -0.19525655
0001c0 17 13 c9 bd 39 3c 40 bf 37 f7 ab be fa 69 42 3c
       -0.09818094 -0.7509189 -0.33587047 0.011866087
0001d0 a2 e5 81 be b7 21 c5 be e4 cb 56 3e cc 81 1a 3f
       -0.25370508 -0.38502285 0.20976216 0.60354304
0001e0 9c bf 19 3e 60 54 d4 3d 5c 28 b6 bd 8d 81 30 be
       0.150145 0.10367656 -0.08894417 -0.1723692
0001f0 22 30 dd 3e c7 d8 25 be 29 ed 08 be 98 bb 0a 3d
       0.43200785 -0.16195975 -0.1337172 0.03387031
000200 07 c3 09 3e 16 b5 0b be 9e 4f 4c 3e 43 35 94 bd
       0.13453303 -0.13643298 0.19952247 -0.07236721
000210 7f c2 23 3e 62 20 33 3d 82 2d 5e 3f 7e 9d 27 3e
       0.15992163 0.043732055 0.8678819 0.16368672
000220 f4 d6 b4 be 18 95 06 bf 21 82 15 3f 2d b3 46 be
       -0.35320246 -0.5257125 0.58401686 -0.19404288
000230 03 03 9f 3d 3f 9f ce 3e 92 36 4c be 50 83 d8 be
       0.07764246 0.4035587 -0.19942692 -0.42287683
000240 b6 a9 cf be 2a bb 46 be 35 d4 11 3f cd ee 8b 3e
       -0.40559167 -0.19407335 0.5696443 0.27330628
000250 59 76 3c 3f 1c 5c 59 3f 05 aa ca be 5f fd 80 be
       0.73618084 0.8490617 -0.3958284 -0.25193307
000260 a3 b8 05 bd 48 53 07 ba 30 e1 02 3f 1f 4a be be
       -0.032646786 -0.0005162251 0.5112486 -0.37165925
000270 58 0e 08 bf 52 73 bc ba c1 ff 04 3f 54 b5 fe bc
       -0.53146887 -0.001437763 0.5195275 -0.031092323
000280 81 8e 80 be bd b1 b8 be 41 7f 4f be d4 64 42 be
       -0.25108722 -0.36073104 -0.20263387 -0.18983775
000290 5d ff 99 be f5 2f 1f bd 6a 9c ad 3e 5f 81 df 3e
       -0.3007764 -0.038864095 0.33908397 0.4365339
0002a0 cc 81 b5 bd 89 b1 4b 3e fa 7b 00 bf 2a 99 80 be
       -0.088626474 0.19891943 -0.50189173 -0.25116855
0002b0 37 d5 a1 3e e4 1e 0c bf 36 7d dd 3e 62 3a c4 3d
       0.31607983 -0.54734635 0.4325959 0.09581448
0002c0 70 b6 df be 54 23 2c be 6d 39 44 bd f3 c3 6f 3f
       -0.43693876 -0.16810352 -0.047906328 0.9365837
0002d0 48 2b a2 3e 1f 88 3d 3e 7d cd c8 bd 9b f0 3a 3d
       0.31673646 0.18508957 -0.09804819 0.045639616
0002e0 ef 92 a2 3f 45 31 04 3f df e9 6f 3d 92 8a 8c 3e
       1.270109 0.5163768 0.058572646 0.2744947
0002f0 a1 ba a3 3e 3f 10 24 be 51 d5 70 be 41 69 8d bf
       0.31978324 -0.16021822 -0.23518874 -1.1047746
000300 de 77 89 be fb 08 9a be 8b 9b ca be ab 53 9b 3e
       -0.26849264 -0.30084977 -0.39571795 0.3033727
000310 07 64 4d 3f 58 63 a7 be 57 51 00 be d8 ef ad 3e
       0.80230755 -0.3269298 -0.12531029 0.3397205
000320 6b 09 16 be 4c be bd be 25 fb 3d 3e 86 bf 00 bf
       -0.1465203 -0.37059247 0.18552835 -0.5029224
000330 c5 39 2d 3d 3f ac f5 bd fd 66 91 bd 4e 49 ce 3d
       0.04229142 -0.11995744 -0.070997216 0.100725755
000340 4a af 8f bd 0c 0a d3 be cb c7 1f 3d 51 38 6e bd
       -0.070158556 -0.41218603 0.039008897 -0.058159176
000350 f8 f3 69 be 96 22 cc bd 04 d2 28 3f 46 f0 08 3f
       -0.22846973 -0.09967534 0.6594546 0.5349163
000360 5e 50 f2 bd 79 5e 90 be 87 cb c2 3e b1 3e f2 3d
       -0.11831735 -0.28197077 0.38045904 0.11828364
000370 bf 6d b3 be cc 57 26 3e de 4e 5a 3e 5d 44 50 3d
       -0.35044667 0.1624443 0.21319148 0.050846446
000380 7b b8 b1 bd 88 97 04 3e 94 92 07 bf ee e4 a0 bf
       -0.08677765 0.1294843 -0.52958035 -1.2569864
000390 dc 6f ba 3c 54 07 fd bd de 0d 8c bd 1d 6c 35 3d
       0.022758417 -0.12354913 -0.068385825 0.044292558
0003a0 02 d0 8a be d6 dd c4 be 0c e7 24 be f7 d3 e6 b9
       -0.27111822 -0.38450497 -0.16103762 -0.00044026945
0003b0 ca 3d 35 be 11 66 5d be 68 22 67 3d 72 ee f3 3e
       -0.17699352 -0.21620966 0.056429297 0.47642857
0003c0 1c ab ad bd fb 83 2f be 8c be ab 38 67 46 a7 3d
       -0.08479902 -0.1714019 8.1894075e-05 0.08167725
0003d0 73 ce 84 bd 42 e1 54 be c7 c8 9f 3e 5f 3d 46 be
       -0.064846896 -0.20789054 0.31207868 -0.19359349
0003e0 94 cb c9 be cd 00 25 3d 07 08 a9 3e ee 57 b1 bd
       -0.3941313 0.040283967 0.33013937 -0.086593494
0003f0 05 63 d8 3d f0 3f 93 3e fa 81 0d 3e 5f ad ea be
       0.105657615 0.28759718 0.13819113 -0.45835397

bias f4 [64]
000000 8c 70 15 3e 3d da 26 3c 19 ec 44 be a7 84 7f be
       0.14593714 0.010183868 -0.19230689 -0.24952947
000010 43 19 8c 3e 9e 4f af bc 03 82 42 be 38 d3 c5 bd
       0.27363023 -0.02140027 -0.18994908 -0.096594274
000020 7e 31 ce bd 81 86 4c bd af 93 90 be ea 42 ac be
       -0.10068034 -0.04993296 -0.28237674 -0.336448
000030 66 25 f6 3d 86 b3 b4 3c 03 d0 16 bf 4b f4 23 be
       0.12018852 0.02205826 -0.5891115 -0.16011159
000040 87 33 d0 3e fd 0a 90 be f5 de b1 be c5 81 08 bc
       0.40664312 -0.28133383 -0.34740415 -0.008331721
000050 b0 36 f7 bc fc bd 14 be bf 13 77 3f ea a4 ce 3e
       -0.030177444 -0.14525598 0.96514505 0.40360194
000060 5d 96 96 be 5b 8a f8 3c f0 ae 63 3e 90 25 a8 bd
       -0.29411593 0.03033941 0.22234702 -0.082102895
000070 41 b1 3a 3e a3 2e 8f be 7e 54 07 bf 9d 35 12 3f
       0.1823168 -0.27965268 -0.528633 0.5711306
000080 d2 f1 00 be 7c bd 42 be c4 2e 80 bd bb 68 02 be
       -0.12592247 -0.19017595 -0.0625892 -0.12735264
000090 84 07 ce be 84 b7 0f 3e 54 a1 97 bd 61 40 87 be
       -0.4024011 0.1403485 -0.07403818 -0.26416305
0000a0 9b 80 20 3e 07 7a bb be a7 d9 15 3e 7c fc fa 3c
       0.15674059 -0.36616537 0.14633809 0.030637972
0000b0 e7 67 a3 be 29 be 2b bf a5 7c a7 3d a3 8c a6 be
       -0.3191521 -0.67087036 0.08178071 -0.32529172
0000c0 ff 00 48 bc 35 e6 e5 3d e6 43 4e 3e bc 5b e0 bd
       -0.012207269 0.11225549 0.20143089 -0.10954997
0000d0 e5 9c 12 3e e9 40 c7 be 7a 35 58 3d 68 5a 44 bf
       0.14317663 -0.3891671 0.052785374 -0.7670045
0000e0 53 5d 59 3e 23 c8 c7 bd 35 6a 35 bf c9 08 1d 3e
       0.21227007 -0.0975497 -0.70865184 0.15335383
0000f0 0d a9 34 be a6 7d 97 be 31 59 15 3e a3 72 97 3e
       -0.17642613 -0.2958805 0.14584805 0.29579648

weight f4 [150, 64]
000000 d9 cf 9a bd da 44 74 3e 0d 88 96 3e f9 0c 0f 3e
       -0.07559175 0.2385439 0.29400674 0.13969792
000010 a1 19 8f 3c ae 6f 6d bd 14 f3 4b 3e b0 1f ad 3c
       0.017468276 -0.057967834 0.19916946 0.021133274
000020 f7 47 ae 3d cc 9d be be ce b5 cc 3e a0 5d 00 3f
       0.0850982 -0.37229764 0.39982456 0.5014286
000030 fa f4 09 3e 90 11 20 3d 01 9a c1 3e 41 39 4a 3e
       0.13472357 0.03907925 0.37812808 0.19748403
000040 dc ea d8 3c 65 0d ac 3e a3 49 62 3e 82 3b a2 3d
       0.026479177 0.3360397 0.22098403 0.079215065
000050 a0 9b 89 3e d4 24 5a 3d d8 76 30 be 66 08 d9 3d
       0.26876545 0.05325778 -0.17232835 0.10597305
000060 b3 59 cc be 19 36 4a 3e e6 34 0e bf 0a 63 04 3e
       -0.39912185 0.19747199 -0.55549467 0.12928405
000070 39 30 26 bd d3 f7 c2 3e f8 4f f8 3d be 51 91 be
       -0.040573332 0.380797 0.12124628 -0.28382677
000080 ee 02 7d be 48 5a ff 3c a1 d2 17 3e da bf f2 3d
       -0.24708149 0.03117098 0.14826442 0.11852999
000090 35 84 5b 3e 98 c7 fd bc e4 eb 7d bd 55 c0 36 3d
       0.21437152 -0.030978963 -0.06199254 0.044617016
0000a0 bd 77 ec 3d 2d e0 ba 3e b7 29 53 3e 78 6b 87 3e
       0.11546276 0.36499158 0.20621382 0.2644918
0000b0 7f 31 5b 3e 81 c5 3b 3d 13 5b 59 3d 39 91 91 bd
       0.214056 0.04584265 0.05306537 -0.07107777
0000c0 9c cb db 3e 96 cf fd 3d b9 32 43 3e d7 a9 22 3f
       0.4292878 0.123931095 0.19062318 0.63540405
0000d0 81 29 ad 3d b2 00 70 3e af 74 80 be b5 63 c9 bd
       0.08455182 0.23437765 -0.25089023 -0.09833471
0000e0 66 60 79 3e c2 c7 9e 3e 2e b9 40 3e 76 5d 81 bd
       0.2435318 0.31011778 0.1882064 -0.063166544
0000f0 b4 9c 04 3e ef 07 27 3e 51 a6 e8 bd 2c ca 8a 3e
       0.12950402 0.1631162 -0.11359847 0.2710737
000100 af dc 7d 3e 7b 88 7e 3d 68 b0 65 3e 10 ac 49 be
       0.24791215 0.062141877 0.22430575 -0.19694543
000110 fb 2e a2 bb 43 b7 ff 3d c8 6b 33 3d f5 ad f6 be
       -0.004949448 0.12486126 0.04380396 -0.48179594
000120 cc 80 d5 bd 7d e8 9f 3d 2f 9d 9c bd dd 48 ff 3c
       -0.10424957 0.078080155 -0.07647168 0.031162674
000130 33 75 90 be c4 03 c2 3d d0 a3 28 bd b0 76 c7 bd
       -0.28214416 0.094733745 -0.04117185 -0.09739435
000140 34 0e 35 3e 34 dc 98 bd 30 9a 00 3e 28 fb c2 3c
       0.176812 -0.074638754 0.12558818 0.023801401
000150 85 d5 00 3d ad fa c3 bd a9 8d 9b 3e 91 f7 88 3d
       0.031453628 -0.09569297 0.30381516 0.066878445
000160 b0 17 cc 3d 8c 4d ee 3d 2f 4b 02 3c 61 67 f4 bd
       0.099654555 0.11635885 0.0079524955 -0.119337805
000170 42 e8 00 be b7 c2 9f bd 9a 72 1f bf 89 8d ff bc
       -0.125886 -0.07800811 -0.62284243 -0.031195419
000180 e3 21 06 3e a2 21 d3 be a7 15 02 3b b6 58 63 bd
       0.13098864 -0.41236597 0.0019849332 -0.055504523
000190 6f ab 8c 3e b7 00 f0 3d 78 e3 f7 3c b4 32 7d bc
       0.27474543 0.11718886 0.030259833 -0.015453983
0001a0 32 74 66 bd 30 cb d9 bd f6 64 83 be df cf cc bb
       -0.056263156 -0.10634458 -0.25662965 -0.006250366
0001b0 d6 27 94 3b 97 b9 f6 be 1d 82 50 3e aa 24 8f 3d
       0.0045213504 -0.4818847 0.20362134 0.06989415
0001c0 25 07 09 3e 65 bd 0f bd bd e6 e7 bc da b9 a7 3e
       0.13381632 -0.03509273 -0.028308267 0.3275898
0001d0 90 67 f5 3d ff 4d 2a be 25 25 3c 3d 6a 48 30 bf
       0.119826436 -0.16631316 0.04593386 -0.68860495
0001e0 05 54 39 3e 99 84 a4 be 99 93 e4 3c 52 6f 6f bd
       0.18098457 -0.32132414 0.027902411 -0.058455773
0001f0 25 9e 8a bc 77 9e 31 be 06 86 e1 3b 6e 4e 90 bd
       -0.016921112 -0.17345606 0.006882432 -0.07046209
000200 d0 8d a1 3e 84 b6 7d 3c 31 fa 1d be 77 d3 26 3d
       0.31553507 0.01548541 -0.15427472 0.040729012
000210 9c 24 4a 3e 09 c3 9a be c9 a9 fb bb e3 cb 59 3c
       0.19740528 -0.30226925 -0.007680152 0.013293239
000220 96 02 9c be 0e 19 59 3d 47 cd 2b 3e 83 48 d6 3d
       -0.30470723 0.05300241 0.16777526 0.10463049
000230 df e2 3e 3d ef 02 42 bc 93 26 e4 bc 8d d8 36 3e
       0.04660308 -0.01184152 -0.027850425 0.17856045
000240 af 78 80 3d 0a c0 88 bd 59 c6 b5 ba e3 6a 23 3e
       0.062730186 -0.066772535 -0.0013868316 0.15958743
000250 b1 e9 5e 3e c6 a9 d5 3d 29 ce 1d bc 80 c9 18 be
       0.21768834 0.10432772 -0.009631672 -0.14920616
000260 f1 19 7a be b7 d4 16 3e e3 c6 27 3d 56 39 10 bd
       -0.24423958 0.14729582 0.040961158 -0.03521093
000270 82 e8 55 bd 62 28 80 3c ac 19 cc bd fe 8e 35 bd
       -0.05222369 0.015644256 -0.09965834 -0.04432582
000280 e3 c0 5d 3c dc 34 41 3e a2 11 19 3e a1 60 11 be
       0.013534757 0.1886782 0.14948133 -0.14197017
000290 59 b1 03 be a8 5f 76 3d d3 df 3d 3e c3 61 18 3e
       -0.12860622 0.06014982 0.18542413 0.14881043
0002a0 ec 69 2a bc e9 c4 8a 3c 8d d9 3b be bd 91 df 3d
       -0.01040123 0.016939597 -0.18344708 0.10916469
0002b0 7b 65 0a 3e ba e6 2f bd 24 5b 99 bd e3 54 0e bd
       0.13515274 -0.042944647 -0.07488087 -0.034748923
0002c0 ae 13 f3 3b 23 1e 12 bc 8e fa 99 3d a8 0c 72 3c
       0.0074181175 -0.008918318 0.07518493 0.014773525
0002d0 bd 72 92 bc 67 07 68 bd 0d e8 e4 bd e1 8b 46 bd
       -0.017876977 -0.056647684 -0.11177073 -0.048473243
0002e0 58 fc 82 be 50 fa f0 bd 39 e9 9a 3d 86 23 10 be
       -0.25583148 -0.11766493 0.07564015 -0.14076051
0002f0 8f 2d cd bd 63 85 2d 3e 33 32 06 be bf 5a 08 3d
       -0.10018455 0.16945414 -0.13105087 0.033289667
000300 39 95 1d 3e b3 3b 8c 3e 66 72 fd 3c 19 b9 31 3e
       0.15388955 0.27389297 0.030938338 0.17355765
000310 20 fd d5 3d 43 3d 4e 3e 46 0d 0f 3e 3e 01 15 be
       0.104486704 0.20140557 0.13969907 -0.14551255
000320 cd e6 ab 3d 53 6c 0e bf a8 14 74 3e 62 3d ce 3c
       0.08393631 -0.5563404 0.23836005 0.025175754
000330 0e 75 10 3d 54 02 6d 3e 7e d1 fc bb 39 c0 63 3e
       0.035267882 0.2314542 -0.007715403 0.22241296
000340 65 92 53 bc 96 77 5a 3e 62 bb 2c be 07 63 c2 bc
       -0.012913321 0.21334681 -0.16868356 -0.02372886
000350 62 d6 a7 3e dd eb 80 3e 38 9f f4 3d 6b db 00 3e
       0.3278075 0.2517995 0.11944431 0.12583701
000360 e1 18 b7 be 0b b6 c9 bd 69 09 1a 3e bc ed 1b 3d
       -0.3576117 -0.09849175 0.15042652 0.038068518
000370 1d 7e 45 be f7 84 2e bd a6 37 1f be 9c b0 94 3d
       -0.1928639 -0.042607274 -0.15548572 0.07260248
000380 32 40 5c be 48 74 a5 3c 76 d2 95 3e 1c 84 cb bd
       -0.21508864 0.020197049 0.2926213 -0.09937307
000390 54 f5 02 3e fb 69 d8 3d f0 ca 6f 3e 1f fb f0 3d
       0.12788898 0.10567089 0.23417258 0.117666475
0003a0 79 a9 8f 3e 9c ab bf bc 1c 1b 01 3e 58 9f 20 3e
       0.28058985 -0.02339726 0.12607998 0.15685785
0003b0 f1 1c ee bd 0a 85 12 bc a0 b3 df 3d 14 18 7a 3c
       -0.11626614 -0.008942852 0.109229326 0.01526453
0003c0 38 18 ce bc 80 d6 86 be 68 ec 67 3e 36 96 46 3e
       -0.025158033 -0.26335526 0.22648776 0.19393238
0003d0 fb 20 fe 3d 0e 93 45 3e 15 08 ce 3e 17 4f 7e be
       0.12408634 0.19294378 0.4024054 -0.24834858
0003e0 60 70 0c bd 8d 9b 2c bf 4a 0c d4 bc c4 66 14 be
       -0.034286857 -0.6742485 -0.025884766 -0.14492327
0003f0 aa d9 99 b8 74 93 9c be 27 43 e2 bb d9 6a 50 3e
       -7.3361516e-05 -0.30581248 -0.006904978 0.20353259

bias f4 [150]
000000 ca 70 c0 be e1 5d 17 bd e2 2d 0a bd 1d 82 b0 be
       -0.3758605 -0.036954764 -0.033735164 -0.3447427
000010 6e ac 8a be 93 7a 19 bf 4c ff ee be e0 9b 06 3f
       -0.27084678 -0.5995266 -0.4667915 0.52581596
000020 04 40 43 be 88 71 f8 be c1 44 9f be 8d db cc be
       -0.19067389 -0.48524117 -0.31107143 -0.40011254
000030 50 6f f8 be cc 10 13 3c 14 07 63 bd 32 7e b5 be
       -0.48522425 0.008976173 -0.055426672 -0.35447842
000040 f4 82 ba bd fd ff c8 3d 11 6c 8e bd 8f a6 de 3e
       -0.091070086 0.09814451 -0.06954206 0.4348645
000050 76 6a 0e 3e 80 05 bd be eb fb d7 be 9c 9e 60 be
       0.13907799 -0.3691826 -0.42184386 -0.21935505
000060 e9 0c 4e bf 76 b5 06 be 1f 7b 9e be 69 0f 6b be
       -0.8048845 -0.1315516 -0.3095331 -0.22955097
000070 8f 2f 8b 3e 6b 1a 3e 3e 02 dc 13 3e d8 95 be be
       0.27184722 0.18564765 0.14439395 -0.37223697
000080 1a 9b 61 be 42 ff 27 3e cd cd 0f 3e 3b 01 eb bc
       -0.22031823 0.16405967 0.1404335 -0.02868711
000090 2d 34 24 be 77 2b ab be 6f bb da be 64 11 bd be
       -0.16035528 -0.334316 -0.42721125 -0.3692733
0000a0 82 43 2c be 23 77 a4 be 56 d5 c0 3e 6e 9c b3 be
       -0.16822627 -0.32122144 0.37662762 -0.35080284
0000b0 3e 6a 58 be 23 1f 9e be 69 19 9b bd 66 8d 00 bd
       -0.21134278 -0.3088313 -0.07573206 -0.031384848
0000c0 df 69 01 bf c7 fb 04 3e e1 57 f0 3c 26 8f 93 3c
       -0.5055217 0.1298667 0.029338779 0.018012594
0000d0 96 3d 82 bf 40 53 d7 be a4 19 59 be f7 d9 86 bf
       -1.0175045 -0.42055702 -0.21201187 -1.0535268
0000e0 56 77 ba be c0 57 93 be 4c ec 01 3e 1a dc 26 bd
       -0.3641917 -0.28777885 0.12687796 -0.04073725
0000f0 4d 6b 77 be 22 3d fd 3d 96 ef 92 bd d2 53 9b be
       -0.24162026 0.12365176 -0.07174604 -0.30337387
000100 32 43 e4 bd 4e d7 7a bd 62 0d ff bd f2 5b 9d be
       -0.11145629 -0.061240487 -0.124537244 -0.3073421
000110 60 ba 33 3e 33 f1 7f be 32 e4 82 be 4a 1c fa bc
       0.17551565 -0.24994354 -0.25564724 -0.030531067
000120 a2 3e 8e be cd 05 60 be fa a8 6a be e8 73 a1 be
       -0.2778216 -0.21877213 -0.22916022 -0.31533742
000130 a5 b1 4c be 1e a8 db be 01 14 da bd 0c f7 f0 bd
       -0.19989641 -0.429017 -0.10648347 -0.117658705
000140 9e bd c2 be af da ae be 2e fa 6a be 71 2d a4 be
       -0.3803529 -0.34151217 -0.22946998 -0.3206592
000150 5c 04 22 be 2a e9 72 3b de 54 aa be 96 2a a3 be
       -0.15821975 0.0037065246 -0.33267874 -0.31868428
000160 c8 cf 32 be 64 72 28 3e 99 70 d5 bd 52 73 ba 3d
       -0.17462075 0.16449887 -0.10421867 0.09104027
000170 98 de 03 bf 08 f3 9d be 9c 29 96 be bd b0 b0 be
       -0.51511526 -0.3084948 -0.2932862 -0.3450984
000180 be 82 a3 3d f3 74 1c 3e da 6b 89 be 8a bb 64 be
       0.079839215 0.15278988 -0.26840097 -0.22337165
000190 80 b3 05 bf ae 6a bb be 39 ff 17 3d 73 79 82 be
       -0.5222702 -0.36604828 0.037108634 -0.25483283
0001a0 a7 6c 58 be ff 0e bb be 0e 5c df be 9a 9f 99 be
       -0.21135198 -0.3653488 -0.4362492 -0.3000458
0001b0 00 03 cf 3e bc d3 5d be 2f 5b 29 be ec ad cf be
       0.40431976 -0.21662802 -0.1653869 -0.4056238
0001c0 9d b5 c5 bd 2a 24 fb be f0 3e ab 3e bd ce 45 3e
       -0.096537806 -0.49051028 0.33446455 0.19317146
0001d0 eb 98 21 be ce d1 02 bf 00 4a 43 be 2e 35 c0 be
       -0.1578099 -0.51101387 -0.19071198 -0.37540573
0001e0 ea 53 84 bd d0 8d 0b 3f 50 7f 75 be 87 5a 22 be
       -0.06461318 0.54513264 -0.23974347 -0.15854846
0001f0 eb bd 0a 3d 61 fa b6 be 70 1b 06 bd 8b fc 45 be
       0.033872526 -0.357379 -0.03274101 -0.19334619
000200 56 b3 ee be 56 5d b3 bd 91 44 b1 be 7b 03 9c be
       -0.46621197 -0.08758037 -0.34622625 -0.30471405
000210 3b e6 07 be 50 16 ac be 77 b5 95 be 14 e8 06 be
       -0.1327142 -0.33610773 -0.2924001 -0.13174468
000220 41 95 57 be cc 15 f5 be 3a ca 28 3d 3b 88 64 3c
       -0.2105303 -0.47868192 0.041208483 0.0139484955
000230 03 18 e5 bd bf f5 2b bf 35 77 93 bd 69 c6 83 bd
       -0.111862205 -0.67171854 -0.07200471 -0.06434328
000240 76 c2 55 be 6f 9b f9 be ba dc b0 bd 12 f6 e3 3e
       -0.20874962 -0.487514 -0.0863585 0.44523674
000250 25 3c 49 bd 76 f1 2e be
       -0.049129624 -0.17084298

weight f4 [100, 150]
000000 f1 8a 91 bd 2d f4 9c bd ce ec 49 3d 4f c9 5c bb
       -0.07106579 -0.0766376 0.0492981 -0.0033689325
000010 dc 1f 9d 3d c9 f0 1c 3e 40 d3 11 be a1 59 a9 3e
       0.07672092 0.15326227 -0.14240742 0.33076194
000020 c0 cd 36 be d5 79 32 3e 8f 63 8c be 45 f1 7f 3d
       -0.17851925 0.17429288 -0.27419707 0.062485952
000030 8a 78 e2 bd f1 56 64 3c 29 98 cb be 24 7a f5 3d
       -0.11058147 0.013936744 -0.39764526 0.11986187
000040 a1 a7 f4 bc 5f a7 5f be 58 42 8a bd ee 0c cb 3d
       -0.029865088 -0.21841191 -0.06750935 0.099145755
000050 a2 b1 69 bd d1 d9 a2 3c 31 a8 bc bd 20 36 51 3d
       -0.05705417 0.019879254 -0.092117675 0.05107701
000060 ca 06 06 bf b7 b0 39 bd 9b 57 e5 3a cf 45 58 be
       -0.5235411 -0.045334544 0.0017497422 -0.2112038
000070 b6 91 92 be d0 cf 6c be ce a1 89 3d e7 bd ce 3d
       -0.28626794 -0.23126149 0.06720315 0.10094815
000080 8b bd 56 bd cb d2 89 3d da b4 72 bd 8a af 8b bd
       -0.052426856 0.06729659 -0.059254505 -0.06820591
000090 85 92 08 be d7 73 b8 bd dc fd a0 3c f7 df 43 bc
       -0.13337143 -0.0900647 0.0196523 -0.011955253
0000a0 64 65 8c be fc 3f 8f bd df de e1 3d 78 b7 f0 bd
       -0.27421105 -0.06994626 0.110288374 -0.11753744
0000b0 15 86 c8 bc 7c 77 3a bc 64 00 67 3e 88 a8 a6 3c
       -0.024477998 -0.011381026 0.22558743 0.020344034
0000c0 2a ae 15 be ba 8f 7b 3d 6e f4 a5 bd 6e 44 7c bd
       -0.1461722 0.061416365 -0.08103262 -0.061588697
0000d0 93 1c 55 bf 48 82 c4 bd f4 b5 8a bd 23 84 9f bf
       -0.83246726 -0.09595162 -0.06772986 -1.24622
0000e0 95 a6 29 be d7 0a 00 3e 4d 77 ca bb 99 dd 65 3d
       -0.16567452 0.12504135 -0.0061787725 0.056119535
0000f0 75 77 d0 3d 11 8b 08 bd 73 b9 c5 be 23 bb 5d be
       0.101790346 -0.03333575 -0.3861805 -0.21653418
000100 a8 2b 1b bf c1 b3 92 bd 4a 14 7d be 90 54 8a 3e
       -0.6061349 -0.071631916 -0.24714771 0.2701764
000110 a3 39 18 be 1b 90 17 be ee 7e 58 be 40 95 52 be
       -0.14865737 -0.14801066 -0.2114217 -0.20564747
000120 09 43 8d bd 58 c6 b0 bd 7f ce 59 bd 19 b2 74 be
       -0.068975516 -0.08631581 -0.053175446 -0.23896064
000130 38 98 9c 3d 8f c1 89 3c 4a 4f 18 bd b9 db 87 3d
       0.07646221 0.016815929 -0.03718499 0.06633706
000140 93 3f e4 3d c6 4d 0d be 80 40 aa bc 47 c8 68 3d
       0.11144938 -0.137992 -0.02078271 0.056831624
000150 f5 82 a4 3b 81 e6 ae 3e a5 a8 b2 3d 67 ac 64 3d
       0.005020494 0.34160236 0.08723573 0.05582848
000160 20 b9 ec bd 26 82 2f 3e ea f5 62 3e 66 ae 4f be
       -0.11558747 0.17139491 0.22164121 -0.20281371
000170 53 0b 85 bd 7e 03 d2 bd ba 37 94 be fe 72 36 3c
       -0.064963005 -0.10254572 -0.28948766 0.011135815
000180 6b ac 72 3e 17 c2 86 3e b4 71 85 3d 0b 67 12 be
       0.23698585 0.26319954 0.06515828 -0.1429712
000190 32 8c 10 bd a8 56 41 be a6 5a 92 3d 6a 03 10 bd
       -0.03528995 -0.18880713 0.07146196 -0.035159506
0001a0 6e 61 d7 bd 84 19 42 bc 08 c8 c0 bc 3c d5 ee bc
       -0.1051663 -0.011846904 -0.023532882 -0.029154412
0001b0 f9 34 81 be ab b7 c2 bc 2f 10 a8 bd 8a 70 94 be
       -0.25235727 -0.02376922 -0.08206212 -0.2899211
0001c0 fc c5 85 bd 75 eb 78 be 5e c2 8e be 2d 2d 97 3d
       -0.06531903 -0.2430857 -0.27882665 0.073816635
0001d0 0d 61 0a be be 5a 5a be 39 ac 65 bd c6 90 e3 bc
       -0.13513584 -0.21323678 -0.056072447 -0.027778994
0001e0 b3 72 e0 bd 5b 6b 89 bf c1 d8 ca bd 6f 9c 14 bd
       -0.10959377 -1.0735887 -0.09904624 -0.036282
0001f0 57 59 d0 3d 68 42 a6 bc af f6 98 be e9 45 62 bd
       0.1017329 -0.020295337 -0.29875705 -0.055242453
000200 ae a2 a8 be 7f 91 8c 3d 5f 09 16 3e 61 5d 25 be
       -0.32936615 0.06863689 0.14652012 -0.16148902
000210 8f c6 e3 3d 27 9f a4 3b 43 2b 8e 3e f3 a9 2c 3d
       0.111218564 0.0050238553 0.2776738 0.042154264
000220 83 0f ea 3b 79 7d 44 be 67 45 38 bc d9 2c 8a 3d
       0.0071429624 -0.19188489 -0.011247016 0.06746835
000230 aa d6 85 3e 9d 41 b6 bd 6f 74 bf be aa a4 01 bd
       0.26140338 -0.088992335 -0.3739352 -0.031651177
000240 6d 77 01 bd 82 16 b2 bd 6f 3f a8 be 48 e7 77 be
       -0.031608034 -0.08695699 -0.32860896 -0.2420932
000250 7c a4 31 3e 5f f8 95 be 95 58 89 be a9 e6 ce bb
       0.17347902 -0.29291055 -0.26825395 -0.006314118
000260 09 47 32 3d 11 ed b0 bd 0b 92 cd 3c 3d 3c e9 be
       0.043524776 -0.08638967 0.025094053 -0.4555377
000270 d4 e2 7c 3e 9f cc 54 bf 1b 4d 8f 3e fe ab 95 be
       0.24695903 -0.83124727 0.27988514 -0.29232782
000280 7c 86 1b 3e 8e 53 cc 3d ef 9a 2f 3e db fd 24 bc
       0.1518802 0.09976874 0.17148946 -0.0100702895
000290 ba 3d 72 3e e1 ca 4a 3e 50 5b bd bd c9 d8 38 bd
       0.2365636 0.19803955 -0.09245932 -0.045128617
0002a0 9f 0f 88 bd 1f 47 48 3e b2 59 7a be 6c 60 24 3e
       -0.066436045 0.1955838 -0.24448279 0.16052407
0002b0 1f e9 13 3e ea 74 4d 3d ec e4 a8 bd 33 04 63 3d
       0.14444397 0.050160326 -0.082467884 0.055423927
0002c0 da e5 98 bc 07 d5 e1 3d 01 c1 3a 3e a4 52 2c bd
       -0.01866429 0.1102696 0.18237688 -0.042071
0002d0 bf a1 e8 3d ad 5c ea be d1 66 60 3e 20 57 38 3e
       0.113589756 -0.4577383 0.21914221 0.18001986
0002e0 08 5f e4 be 6f 66 8a bb 94 d3 3a bc 4e a5 15 3e
       -0.44603753 -0.004223637 -0.011402983 0.1461384
0002f0 3f d8 0f 3e b8 74 81 bd 09 a7 99 3b 9d 83 0b bd
       0.14047335 -0.063210905 0.0046891016 -0.034061063
000300 39 33 90 3e 16 b3 91 3d 85 cc 58 be 2a 78 dd be
       0.2816408 0.07114236 -0.21171768 -0.4325574
000310 29 e7 b6 3d 50 a1 7f 3b 59 75 09 bd e2 d4 45 3e
       0.08930809 0.0039006062 -0.033559177 0.1931949
000320 fd 79 0a 3e 2e 69 c3 3d 87 45 d9 3d 77 78 c7 3d
       0.13523097 0.09541546 0.106089644 0.09739774
000330 a5 8f af be 6a 1d 68 3e 13 52 d4 3d 5a 74 d8 3d
       -0.3428928 0.2266747 0.10367217 0.10569067
000340 ef 87 54 bd b7 ee 44 3d 13 8e 92 bd 55 2e cd be
       -0.05188745 0.04807922 -0.07156005 -0.4007441
000350 f3 52 dc bd fc a8 e8 3e 01 9e 0f be b9 6e b1 3c
       -0.10758009 0.45441425 -0.14025117 0.021659242
000360 27 b4 79 3e e9 94 85 3e d1 6c db 3d 55 4f b6 3d
       0.24385129 0.26090172 0.107141145 0.0890185
000370 01 f4 56 be 5f a7 9a bc b6 5b 11 3e ba 9a 72 3e
       -0.20991518 -0.018878637 0.14195141 0.23691836
000380 7e de 44 bd eb b0 c0 3e fe ce 5a 3d ce 62 ff 3d
       -0.048063748 0.37634978 0.05342006 0.124700174
000390 a5 16 a5 3e ba 5d 9b bc 00 c2 06 be 19 91 94 3d
       0.3224384 -0.01896559 -0.13159943 0.07254238
0003a0 26 cc d7 3e 78 e6 7f 3e 01 97 ca 3e 29 77 80 be
       0.4214794 0.2499026 0.39568332 -0.25090912
0003b0 fa ea 97 3e d0 68 9f 3e 72 e3 b5 bc 73 ec 33 3e
       0.2967146 0.31134653 -0.022203181 0.17570667
0003c0 bd a8 86 bd 0a 3c 55 3c c8 b7 7b 3e 6d 7f fd 3d
       -0.06575153 0.013014803 0.24581826 0.1237782
0003d0 a8 b6 a3 bd bd 1f ef 3e 83 67 2f 3d e0 4c 05 be
       -0.07993823 0.46703902 0.042823326 -0.13017607
0003e0 db fc 4f 3e 85 7e 35 bc dd 49 ad 3e 90 da b7 3d
       0.203113 -0.011077528 0.33845416 0.08977234
0003f0 2f f4 20 be 8f 51 08 3d db 22 2f 3e c2 34 f3 3d
       -0.15718149 0.033280905 0.1710314 0.11875297

bias f4 [100]
000000 e3 3c e5 3e 83 81 e2 be 91 38 e0 be 9a e6 56 bc
       0.44773015 -0.44239435 -0.43793157 -0.013116503
000010 6b 13 d2 be 65 0b 35 be 8f eb c3 3d d4 4f 83 be
       -0.4103044 -0.17680128 0.095664136 -0.25646842
000020 71 67 32 be 8e ab 73 3e f9 46 6d bf 0e f7 25 3e
       -0.17422272 0.23795912 -0.9268642 0.16207525
000030 87 da 8c be 5b cd 6a be 28 ef e6 bc f5 2e ac be
       -0.27510473 -0.229299 -0.02819021 -0.33629575
000040 5a 56 06 3d 06 25 84 be 2f 6f c9 be eb ed d4 be
       0.032797195 -0.25809497 -0.3934264 -0.41587767
000050 62 9f 83 3d b3 d0 32 3e c6 c5 62 3d a7 30 cc bc
       0.06426884 0.17462425 0.055364393 -0.024925543
000060 13 9c bf bd e8 47 b6 be d9 d3 86 be 64 4f d5 bd
       -0.09355941 -0.35601735 -0.26333502 -0.10415533
000070 66 b2 c2 bd e0 63 8b 3d 12 40 d3 bc e9 1b 18 be
       -0.09506683 0.06806159 -0.025787387 -0.14854397
000080 88 0a 38 bf c7 bc 15 bf ce c1 d5 3e f4 ea 15 bf
       -0.7189107 -0.58491176 0.41749424 -0.58561635
000090 6e 52 9d be 8e f8 da bc de fd ca 3c 40 90 40 be
       -0.3072695 -0.026729848 0.024779256 -0.18805027
0000a0 d0 46 95 be d8 ea ee be fb 47 96 3d 6d 91 c2 be
       -0.29155588 -0.46663547 0.07337948 -0.38001576
0000b0 0f f7 46 be ad 45 ee bd ba 2f e2 be 88 a5 0b bf
       -0.19430183 -0.11634383 -0.44177037 -0.54549456
0000c0 dd 4f de be 63 53 b9 3c dc 0e 3b be 33 e2 82 be
       -0.43420306 0.02262277 -0.18267387 -0.255632
0000d0 30 f3 2a be 94 55 83 3e 23 a8 33 be 90 22 8f 3e
       -0.16694331 0.25651228 -0.17544608 0.27956057
0000e0 35 3f 9c be 96 27 4f 3e 49 c4 a2 3d dc 61 38 be
       -0.30516973 0.20229945 0.07947595 -0.1800608
0000f0 fe 8a 87 be a0 36 cc be 2f dd e6 bd a3 84 7b be
       -0.2647323 -0.39885426 -0.11272656 -0.24562316
000100 2d 0b 44 3d 28 c8 b7 3e ad 70 0d be 0f 08 b6 3d
       0.04786222 0.35894895 -0.13812514 0.08888256
000110 31 0f b8 be d3 40 9b 3d 57 c3 12 bf 75 b0 6f be
       -0.3594909 0.075807236 -0.57329315 -0.23407157
000120 be f3 da be b7 70 b3 be 9d c6 0b bf 92 85 bd be
       -0.42764086 -0.35046932 -0.54599935 -0.3701597
000130 6d 99 e6 bd c4 a9 91 bd 6e 7f 54 be 38 cb 86 be
       -0.112597324 -0.07112458 -0.20751736 -0.2632692
000140 15 4f d6 be cb f5 e3 be 09 0d 6a 3e de c1 b4 3d
       -0.4185721 -0.44523463 0.22856535 0.0882604
000150 50 cc c9 3d 1d 3d fc be 78 53 99 be 12 50 ab be
       0.09853423 -0.49265376 -0.29946494 -0.33459526
000160 0b 95 57 bc 26 d7 ad be ca da 38 3d 58 00 bc be
       -0.013158093 -0.33953208 0.04513053 -0.36719012
000170 ca 9a 2a 3e 01 ca 9e bd 43 7a 9a be ff 27 2b be
       0.1666061 -0.07753373 -0.30171403 -0.16714476
000180 ef c5 34 3e 9a 4b f7 3d af 40 4c be 00 d3 67 3d
       0.1765363 0.12074967 -0.1994655 0.05659771

weight f4 [729, 100]
000000 cc a5 9a 3c 85 9f 00 3f 18 1c de bc fc f2 05 bf
       0.018877886 0.5024341 -0.027113006 -0.5232389
000010 2f 5e 50 3e b8 1d c1 bd 89 65 bf 3e 69 8f 96 3d
       0.20348428 -0.094294965 0.37382153 0.07351572
000020 60 d4 9d 3e ea a4 92 be 77 01 fa bd 31 1e 48 3e
       0.30826092 -0.28641444 -0.12207311 0.19542767
000030 dd 99 17 3f 83 44 6c bd 2c 1d ac be 12 c9 83 bd
       0.5921915 -0.057682525 -0.33616006 -0.064348355
000040 e5 04 9d 3d b6 52 c0 3d a7 0c 23 3c 64 a5 4b be
       0.07666949 0.09390776 0.009951747 -0.1988731
000050 0c b8 a2 3e 38 f2 20 be 62 3a 44 bd 13 90 60 bd
       0.31781042 -0.15717399 -0.04790724 -0.0548249
000060 cc 5a 98 3e c1 71 c6 be 52 f9 0e be cd a6 2f 3e
       0.29756773 -0.38758662 -0.13962296 0.17153473
000070 e5 17 5c be 2b 46 ce 3e 2e fc 9e 3e c7 1f 7d 3e
       -0.2149349 0.4028791 0.31051773 0.24719153
000080 75 b3 7a be 4a c6 cb bb 49 1b 8b 3e 91 8c 20 be
       -0.2448252 -0.0062187063 0.27169254 -0.15678622
000090 88 3e 36 be 9b 35 52 be d1 c6 27 3d 2f dd e1 bc
       -0.17797291 -0.20528261 0.04096109 -0.027571289
0000a0 02 0f 1e 3f bb 5b 0a 3e c3 e2 ac 3c c1 e6 48 bf
       0.6174165 0.13511555 0.021104222 -0.784771
0000b0 e8 c1 95 bd 55 ad 94 3d ad 67 df 3e a4 12 86 bd
       -0.07312375 0.07259623 0.43633786 -0.06546524
0000c0 2e e6 51 3e ec d5 cd be b3 a8 2b 3e e3 03 00 3e
       0.20497963 -0.40202272 0.16763572 0.12501483
0000d0 fc e0 40 3c 54 1a 0b bf 5b d0 1b bf ec 40 06 3e
       0.01177239 -0.5433705 -0.608648 0.13110703
0000e0 ea 4c 6b be b3 93 cd bc d1 50 ee 3e 79 a3 c7 3c
       -0.22978559 -0.025094843 0.46546033 0.024369942
0000f0 c3 64 84 3e 2d ff 04 bf b7 d1 dc 3d 42 3c 02 be
       0.25858125 -0.5195187 0.107821874 -0.12718299
000100 f4 44 3b bc 1a ac 81 be af dd b6 bc f8 68 3d bf
       -0.011430014 -0.25326616 -0.022322504 -0.73988295
000110 2f c1 80 3d 70 fa 24 3e b7 8d e8 3d 23 a2 50 3f
       0.06286847 0.1611116 0.11355155 0.814974
000120 27 dc 84 3e f7 fc d5 be de ec 48 3e 4c 6a 49 be
       0.25949213 -0.4179456 0.19621608 -0.19669455
000130 cd 67 f9 3d e3 47 93 be 3c 07 d6 3c 22 af 63 bd
       0.121780016 -0.28765783 0.026126496 -0.05558694
000140 24 64 90 3d 67 66 08 be 60 30 96 3b 63 a8 8c be
       0.0705035 -0.13320313 0.0045834035 -0.2747222
000150 a0 54 36 be 42 9a 5b bd 32 1a ca bd f4 f5 2f 3d
       -0.1780572 -0.05361391 -0.098682776 0.04295917
000160 12 b0 98 3e a4 07 67 3d e7 6d 89 bd b9 4a 8c be
       0.2982183 0.05640377 -0.06710415 -0.2740076
000170 2e b5 d2 be e4 9f db 3e 54 2d 84 3e 66 3c 0a be
       -0.41153854 0.42895424 0.25815833 -0.13499603
000180 c3 1e 36 bc 8d 82 3a 3e c3 f1 c4 3e 7e 68 34 bd
       -0.011115733 0.18213864 0.384657 -0.044044964
000190 ad b3 89 be 5a 10 05 3d ed 37 06 3f b2 8b 68 3e
       -0.26894894 0.032486297 0.52429086 0.2270954
0001a0 ba 52 00 3d 44 52 d9 be 30 c2 f8 be 8a 28 2d bd
       0.031328894 -0.42445576 -0.48585653 -0.04227499
0001b0 5c c8 21 3e bd 54 f7 bd af 56 a2 3e e7 16 34 3c
       0.15799087 -0.120767094 0.3170676 0.0109917885
0001c0 37 34 9f 3e 0c 92 5f 3e 8e 0c 8e be 78 d2 16 be
       0.31094524 0.21833056 -0.27743953 -0.14728725
0001d0 56 a0 70 bd 24 4b 68 3d 24 87 79 be b3 04 68 3e
       -0.05874666 0.056712285 -0.24367958 0.22658043
0001e0 9b 47 34 be 65 de 8b be d2 52 30 ba 2a b2 9a 3e
       -0.1760544 -0.2731811 -0.00067262084 0.30214053
0001f0 0f c4 15 bd b1 d7 98 3d 60 a7 ce be f9 13 22 bd
       -0.03656393 0.07463015 -0.40362072 -0.03956983
000200 5a a1 77 be 7e fd f9 3c cd 2e 9f be fc 33 8e bc
       -0.24182644 0.030516382 -0.31090394 -0.017358772
000210 ec dc 95 bd fe 93 a7 bd ce b0 8b bd b7 14 f7 bd
       -0.07317528 -0.08182524 -0.06820832 -0.12064498
000220 92 ac 12 3d 55 31 74 3e d3 af 4a be 83 4f 59 3e
       0.035809107 0.23846944 -0.19793634 0.21221738
000230 be 95 d2 3d 8d 7c 9e 3e c9 41 9d bc 1b 20 09 be
       0.10282467 0.309544 -0.019196408 -0.13391154
000240 0c cf cf 3e bd db de bd 67 49 7f 3e 97 ae 81 be
       0.40587652 -0.108817555 0.24930345 -0.25328514
000250 e6 6f 19 bc 5c 35 92 be b0 13 9c be ad 5e 2f 3e
       -0.009365058 -0.28556335 -0.3048377 0.1712596
000260 b1 73 2e bf 20 e6 78 bd b4 d5 f1 3d 4a 7c c0 be
       -0.6814528 -0.06076634 0.11808339 -0.37594825
000270 75 f1 e9 39 4e 83 f8 3d ba 3b d5 3d d2 41 3f 3d
       0.00044621123 0.121344194 0.104117826 0.04669363
000280 75 fa 82 be 50 4c 42 be 5e 8b a9 bd 34 6b 8c 3d
       -0.2558171 -0.18974423 -0.08278535 0.06856385
000290 88 74 39 be c4 98 72 be cc 96 a8 be 1b d7 4d be
       -0.1811086 -0.23691088 -0.3292755 -0.20101587
0002a0 f8 62 8e 3e 5d 22 2e 3e 68 c8 67 be 95 17 4e 3e
       0.27809882 0.17005296 -0.22635043 0.20126183
0002b0 d2 6d 5e 3d 13 bf 57 3e ef a0 87 be 0e e3 31 be
       0.05430395 0.21068983 -0.2648997 -0.1737177
0002c0 27 00 63 3e 00 97 45 3e 5c 25 64 3c 0e e7 e5 bd
       0.22168027 0.19295883 0.013924923 -0.11225711
0002d0 d4 ad 20 bd ab 54 ab 3d 1f 58 90 3e 62 18 38 bc
       -0.039228275 0.083657585 0.2819223 -0.011236282
0002e0 ad d3 0f 3e a2 8e 42 be f8 48 51 3e 77 54 d2 ba
       0.14045592 -0.18999723 0.20437992 -0.0016046901
0002f0 9d 79 22 3f ac 5d c5 3e 61 b0 9b 3d 6d 6a 65 be
       0.6346682 0.38548028 0.07602001 -0.2240388
000300 6e a3 8b be ee 1b db 3d 7e b9 52 3e bc 86 ce 3b
       -0.27273124 0.106986865 0.20578572 0.0063026827
000310 14 11 8d 3e 9a 60 58 be 01 c6 37 3e 22 7b 09 3e
       0.27552092 -0.211306 0.17946626 0.13425878
000320 e8 53 cf 3c 13 a9 af 3e ab 4b d4 3e 7d 05 d9 bd
       0.025308564 0.3430868 0.4146398 -0.1059675
000330 a8 0d 1d be 0b 4f df bb 1b 2c e9 3e 58 9b 81 bc
       -0.1533724 -0.0068148426 0.45541462 -0.015821144
000340 68 50 c9 be 34 18 72 bd 49 57 5a bf 87 a0 1b 3e
       -0.39319158 -0.059105113 -0.85289437 0.15197955
000350 22 ec 9e 3e 5d ef be be 6f c3 e7 bd 0a a4 88 3d
       0.3103953 -0.37291995 -0.11316573 0.06671913
000360 30 5d 04 3e 0a c8 ab bd 76 14 ee bd bc 23 0a be
       0.12926173 -0.08387764 -0.11624996 -0.13490194
000370 12 4b 00 be bb 24 d9 3e 7b 34 53 3c f0 2b 1a 3f
       -0.12528637 0.42410836 0.01289093 0.60223293
000380 56 6f bb bd a3 8b df be 2b 4c 87 bd 34 cb 6a 3e
       -0.09152095 -0.43661222 -0.06606325 0.22929078
000390 33 8a b2 3e a0 87 1a 3e 46 24 ea be 26 84 48 3d
       0.34871063 0.150908 -0.457308 0.04895415
0003a0 85 81 e4 bd 42 b2 24 bf 78 05 5f 3f 00 d2 81 3e
       -0.111575164 -0.643345 0.8711772 0.2535553
0003b0 13 c5 27 bc 20 35 f0 3e f1 e5 cc be b2 34 56 3e
       -0.010239857 0.4691553 -0.4001918 0.20918539
0003c0 6f 7d d9 bd 7d 0f 84 3d 71 1b 2a bf 96 4a 47 be
       -0.10619628 0.06448267 -0.6644812 -0.19462046
0003d0 3b be 61 3d 13 23 85 3e bb ef 24 bd f1 cd 17 bf
       0.05511306 0.26003322 -0.040267687 -0.59298617
0003e0 2b 4a 3a be ad 43 73 3e 66 c7 24 be a0 52 0b be
       -0.18192355 0.23756285 -0.1609169 -0.13605738
0003f0 ac 16 11 3e 25 5c a3 3e f5 6f 91 bd 40 a8 48 be
       0.14168805 0.31906238 -0.07101432 -0.19595432

bias f4 [729]
000000 32 66 98 be 72 3d 38 bd 7b a3 cc bd 1e fc 49 3c
       -0.2976547 -0.044980474 -0.09992119 0.012328176
000010 40 e0 6b bb 58 16 d3 3d bb a5 60 bc a3 26 bc be
       -0.0035991818 0.10306996 -0.013711388 -0.36748227
000020 93 0a 43 bd 01 42 9f be d3 91 53 3d e6 41 e9 bd
       -0.047617506 -0.31105044 0.05165274 -0.11389522
000030 06 30 9f 3d f1 15 5a be a3 68 3e bc bc 05 10 3e
       0.077728316 -0.21297432 -0.011621627 0.14064687
000040 1b 96 9c bc 52 e7 58 3d 52 e3 57 be ae 5f 3d 3e
       -0.019114545 0.05295498 -0.2108281 0.1849353
000050 ca a2 97 3a 7f 98 c2 3d 81 52 e2 bc b7 26 0f 3e
       0.0011568901 0.095017426 -0.027627232 0.13979612
000060 b1 56 bf be 8c 3b 56 bc 69 5e 42 3d b6 d7 83 bd
       -0.37370828 -0.0130757205 0.047453318 -0.06437628
000070 dc 03 b7 3d 4c 29 6a 3d 07 c8 8e 3d 4c 5c d8 3d
       0.08936283 0.05716829 0.06971746 0.10564479
000080 83 64 07 3e 14 d8 8e be 96 b4 0e 3d 9e 05 a4 3d
       0.13221936 -0.2789923 0.03484019 0.08008884
000090 f1 ab a7 be 41 48 31 3e 71 90 c8 bd ae 70 7f 3c
       -0.32748368 0.17312719 -0.09793175 0.01559083
0000a0 61 15 74 bb ff 50 e1 bc b7 26 85 bd 3b 5e 6d 3d
       -0.0037244188 -0.027504442 -0.06501525 0.057951193
0000b0 8b 93 9e 3d d9 9c c4 bc ad 2e cd 3c a0 bc a8 bd
       0.07742985 -0.024000572 0.02504667 -0.08239102
0000c0 db 2a 10 3e d6 b2 98 bc 66 3c 01 be b3 aa 3c be
       0.14078848 -0.018639963 -0.12620696 -0.18424492
0000d0 4b 9e 92 3d a3 28 81 be 61 28 3f bd 3d e3 90 3e
       0.07159098 -0.25226316 -0.046669368 0.2829837
0000e0 80 14 80 3d 59 1b e9 bc 70 9c eb bd c3 93 82 3d
       0.0625391 -0.028455423 -0.115044475 0.063758396
0000f0 37 93 38 3e 20 4c 72 3d a6 e3 00 3e 1b 1a 98 bd
       0.18024908 0.05915463 0.12586841 -0.07426854
000100 11 19 f3 3d f7 fa c8 bc 38 ba 48 3e 30 ee 71 bd
       0.118700154 -0.024533732 0.19602287 -0.059065044
000110 7d ab 01 be 8d c6 f0 3c 34 4b 52 bc 0c ed 12 3e
       -0.12663074 0.029391551 -0.012835313 0.14348239
000120 5c c6 ac 3c 21 5e 25 3e 98 e2 26 3d 3b d3 02 3e
       0.021090679 0.16149189 0.04074344 0.1277589
000130 06 9b 81 3d 28 d9 92 3d 43 6f b4 3d fc 49 60 3e
       0.063283965 0.071703255 0.08810284 0.21903223
000140 d1 c4 41 3e 75 8c 9d 3d 7d 8c 3b be a4 cf 0f 3e
       0.18922736 0.07692806 -0.18315311 0.14044052
000150 5f 70 94 3d ee 7b 69 bd 84 43 46 3e d0 a2 9b b9
       0.072479956 -0.057002954 0.19361693 -0.0002968521
000160 fa 0a 94 3c c5 c4 d5 3c 5f 29 d8 bd e4 a3 d8 bd
       0.01807164 0.026094804 -0.10554766 -0.10578135
000170 3d b7 1c 3e 78 22 90 3d cb 00 0b 3d 84 d5 0b be
       0.15304275 0.070378244 0.033936303 -0.13655668
000180 06 61 30 bd 31 16 8e bb 4b 05 2c 3e f8 12 df bd
       -0.04306128 -0.0043361415 0.16798894 -0.1089229
000190 fe f9 72 3d e4 18 a1 bc 30 04 3a 3e 47 18 42 bd
       0.059320442 -0.01966519 0.1816566 -0.047386434
0001a0 80 b5 ba bd 10 dc 88 3d 66 27 40 bd 9a 09 14 3e
       -0.0911665 0.066825986 -0.046912573 0.14456788
0001b0 3d f1 28 be c3 c2 b6 3d 6b 1d 56 3e 7b 90 9a be
       -0.16498275 0.089238666 0.2090966 -0.30188355
0001c0 54 35 f8 bd 68 81 e9 3d a4 df 36 3d 79 09 42 be
       -0.121195465 0.114016354 0.044646874 -0.18948926
0001d0 87 46 0e 3e 53 36 b6 3c 57 1d 72 3e 2a df 9d be
       0.13894092 0.0222427 0.23644005 -0.30834323
0001e0 20 91 96 ba c6 e2 ae 3e 32 6c 6a 3d 9e 6b 89 be
       -0.0011487342 0.3415739 0.05723209 -0.26839918
0001f0 54 3c 03 3e d7 6b 95 3e b5 4b c1 bb da 5a 2c 3d
       0.12815982 0.29183838 -0.0058989176 0.04207883
000200 a2 50 84 3e 35 14 d9 3d 5c 36 81 3e 96 17 6d 3e
       0.25842768 0.10599557 0.25236785 0.23153529
000210 27 d3 fd 3d 32 71 42 3d c0 cd 33 3e ae 72 fa be
       0.1239379 0.047471233 0.17558956 -0.4891562
000220 0e 5e 33 3e 6b 17 11 3d d4 a2 a4 bc bb 21 f6 bd
       0.17516348 0.035422724 -0.020097174 -0.12018152
000230 fe 7d 92 bd 5f cf 22 be b3 7b 5d be 3c af f3 3d
       -0.07152937 -0.15899418 -0.21629219 0.11898658
000240 07 4c 72 3d bc aa 1b bc da 99 d0 3d f0 a1 c7 bd
       0.059154537 -0.0095011555 0.10185595 -0.09747684
000250 e8 f4 af 3c 32 1c ec 3d 96 4f 83 3e 02 78 9c be
       0.021479085 0.11528815 0.25646657 -0.3056031
000260 90 d1 62 3e d9 48 9e bd 01 ee 83 3c 2d 21 48 3e
       0.22150254 -0.07728738 0.0161047 0.19543906
000270 51 ea 2a 3e 7a d3 e4 3d 80 49 a6 3c 78 cf 79 be
       0.16690947 0.111731485 0.02029872 -0.2439555
000280 bb 10 42 3d 56 20 22 3d dd 5c 0a bf b1 7b 09 3e
       0.047379237 0.03958162 -0.5404795 0.13426091
000290 69 ae 34 3e 70 06 67 3e 6c 23 a7 be e3 eb ad 3d
       0.17644657 0.2256105 -0.32644212 0.084922574
0002a0 b4 7a ad bc 57 c7 a0 3d 11 a1 01 3b 07 d9 78 be
       -0.021176673 0.07850521 0.001977984 -0.2430154
0002b0 f8 f5 4d 3d 04 0a 2b 3e f1 8a bf 3d 07 56 d0 bd
       0.050283402 0.1670304 0.09352673 -0.101726584
0002c0 c0 06 58 3d 9b 52 5d 3e d8 62 ce 3d 12 b5 3d 3d
       0.052740812 0.21613543 0.10077447 0.04631526
0002d0 49 79 94 be d6 49 0a 3e 5f 46 d6 3a e9 9e 9e bd
       -0.28998783 0.13504729 0.0016347877 -0.077451535
0002e0 43 6a 75 bd 00 3f 1b be d2 43 79 be 2e 09 42 3d
       -0.059915792 -0.15160751 -0.24342278 0.047372036
0002f0 72 94 1b be 45 90 56 3e d8 24 ac 3c 61 bf 85 3e
       -0.15193346 0.20953472 0.021013662 0.26122573
000300 7b cb af bc 99 d8 0c 3d 4d ef 1b 3e 76 ec b9 bd
       -0.021459332 0.03438625 0.15228005 -0.090783045
000310 85 4a 05 3d 5b 9a b3 3d da 57 53 3c 7f b3 63 3e
       0.03254177 0.08769675 0.012899363 0.22236441
000320 4c e6 68 3e c0 b1 2c 3e 6e dc 07 3e 0a 0a 1f 3e
       0.22744101 0.16864681 0.13267681 0.15531173
000330 4e 23 a7 3d 7d 20 9a 3d 04 41 ce 3c dc e4 70 bd
       0.08161031 0.07525728 0.025177486 -0.058812007
000340 7d f9 ac 3d 87 8c f2 bd b5 fb 0c 3e e1 05 3f bd
       0.084460236 -0.1184321 0.13767894 -0.046636466
000350 5e f2 3e 3d 65 e0 de 3d 58 68 76 3d 59 02 87 3d
       0.046617858 0.108826436 0.060158104 0.06592245
000360 e8 b3 34 be 42 59 94 bd c4 b0 1f 3e 05 2d 58 bd
       -0.17646754 -0.07243587 0.15594774 -0.05277731
000370 7b 89 ef bd cb bf 18 bd a5 b5 35 3e 5d 1a cd 3d
       -0.11696144 -0.037292283 0.17745073 0.10014794
000380 43 91 7b 3d 15 e5 5b be 5d 63 f6 bd d8 3c 69 3d
       0.06141783 -0.21474107 -0.12030671 0.05694279
000390 ce 31 12 be 3c 49 87 be 38 3d 3d 3e bd 60 e0 be
       -0.14276811 -0.2642306 0.18480384 -0.43823805
0003a0 d0 90 a7 3d 2e a0 00 3e fd 96 12 bf 6e 90 0b 3e
       0.08181918 0.12561104 -0.5726164 0.13629314
0003b0 37 fd 84 3d 02 86 70 3e 0a 86 96 bd 35 b0 89 3e
       0.064936094 0.2348862 -0.07349785 0.26892248
0003c0 9b 69 52 bc 18 99 13 be 2f 72 11 3d fe 1b 87 3e
       -0.012842561 -0.1441387 0.035509285 0.26388544
0003d0 92 52 c2 be 0b a5 32 3d 82 a0 28 3e 37 6f 92 be
       -0.3795362 0.04361443 0.16467479 -0.28600475
0003e0 e6 98 59 3d f7 e1 42 3e 28 4d 3f bc c9 48 89 3d
       0.05312433 0.19031511 -0.01167611 0.06703336
0003f0 85 8a f3 bc b8 fc f7 3d 0c 21 d9 3d 54 bf c6 39
       -0.029729137 0.12108749 0.10602006 0.00037908053
