saved_models/08-07 11:59.pth (torch, 398927 bytes, 8 tensors)

weight f4 [64, 6]
0	0x3edd3125	0.43201557
1	0xbf11aa81	-0.56900793
2	0xbd2b3b26	-0.041804455
3	0xbe6afd7f	-0.22948264
4	0x3f03a021	0.5141621
5	0xbe64886a	-0.22317663
6	0xbde64c4f	-0.112450235
7	0x3ec79d9f	0.38987443
8	0xbebb8b4e	-0.3662972
9	0xbead2db7	-0.3382394
10	0xbe9c04f3	-0.30472526
11	0x3e936e77	0.28795215
12	0x3ccbc943	0.024876243
13	0xbeacca13	-0.3374792
14	0xbd2b6596	-0.041844927
15	0xbeeb950b	-0.46012148
16	0x3e3112b6	0.17292294
17	0xbf248ffc	-0.642822
18	0xbdcd19e5	-0.100147046
19	0xbd9bb9fe	-0.076038346
20	0xbdad9253	-0.08475175
21	0xbde759e6	-0.11296444
22	0x3e50f6cc	0.20406646
23	0x3c9e7932	0.0193449
24	0x3ec94345	0.39309135
25	0x38b773bc	8.747677e-05
26	0x3db75c03	0.08953097
27	0x3d890238	0.06689876
28	0xbd5757af	-0.052573856
29	0xbead5481	-0.33853534
30	0x3edbb0b3	0.42908248
31	0x3e3fc0e5	0.18725927
32	0x3f0cc6fe	0.5499114
33	0x3d109302	0.035296448
34	0x3e565718	0.20931661
35	0x3ee31823	0.44354352
36	0xbe844a3f	-0.25837895
37	0x3d60d23d	0.054888
38	0xbe9295e5	-0.28629985
39	0xbe67e5db	-0.22646277
40	0x3da35ff6	0.079772875
41	0x3eab567e	0.33464426
42	0x3ec5d92a	0.38642246
43	0xbd0fcbd7	-0.035106506
44	0x3edcf34d	0.43154374
45	0x3e3b957e	0.18318745
46	0x3eed6b44	0.463709
47	0x3f1718e2	0.59022343
48	0xbddc2c81	-0.10750676
49	0xbe877a38	-0.26460433
50	0x3d83592a	0.06413491
51	0x3b20a697	0.0024513358
52	0xbbdd1a2f	-0.006747506
53	0xbea489ee	-0.32136482
54	0xbe90e1f2	-0.28297383
55	0xbd8fbb9e	-0.07018207
56	0xbf043dab	-0.516566
57	0xbe78188f	-0.24228118
58	0xbe07886f	-0.13235639
59	0xbe338f3e	-0.17535111
60	0xbe4c0fa3	-0.1992784
61	0xbea542c0	-0.3227749
62	0xbc8f9a8b	-0.017529747
63	0x3e2ad6ef	0.16683553
64	0x3eeca479	0.46219233
65	0x3e6398f9	0.22226323
66	0xbe11c4c2	-0.14235213
67	0xbdff676d	-0.12470899
68	0xbd8b3a61	-0.06798244
69	0xbe2ce54b	-0.16884343
70	0x3ebb6faa	0.3660863
71	0x3eafac4b	0.34311137
72	0x3eea4da9	0.45762375
73	0xbdab106b	-0.08352741
74	0xbf0a7e74	-0.540992
75	0x3df2b593	0.11851039
76	0x3dd57426	0.10422544
77	0xbeb3244b	-0.34988627
78	0x3e679164	0.22614056
79	0x3c36247e	0.011117099
80	0x3e7841a2	0.24243787
81	0xbdd1d5bf	-0.10245847
82	0xbce2ba8a	-0.02767684
83	0x3ed950d1	0.4244447
84	0x3db8d1e7	0.09024411
85	0xbf4a432c	-0.79008746
86	0x3f3e7cc9	0.7440916
87	0xbe81fe72	-0.2538944
88	0x3ea8b99f	0.32954118
89	0xbd21e755	-0.039527256
90	0xbe43a736	-0.19106755
91	0x3e231bb4	0.15928537
92	0x3f1183a8	0.56841516
93	0xbe6def06	-0.23235711
94	0xbe536c14	-0.20646697
95	0x3d9716af	0.073773734
96	0xbcea093b	-0.028568855
97	0x3e9ec907	0.31012747
98	0x3e5617dc	0.20907539
99	0xbe98e7ae	-0.29864258
100	0xbd8dccc3	-0.06923821
101	0xbf106969	-0.56410843
102	0x3f1404b2	0.57819664
103	0x3e1b76cd	0.15182038
104	0x3eb0227c	0.3440131
105	0xbd82708f	-0.06369125
106	0x3d9c8895	0.076432385
107	0xbd8547fe	-0.06507872
108	0x3e88d1c7	0.26722547
109	0x3e0e9940	0.13925648
110	0x3f520081	0.8203202
111	0x3e4721f3	0.19446544
112	0xbe441640	-0.19149113
113	0xbe969d25	-0.29416767
114	0xbe8077e9	-0.25091484
115	0x3c435515	0.011922141
116	0x3e90a966	0.2825424
117	0xbd9e4865	-0.07728652
118	0xbd59a44b	-0.053135198
119	0xbe47d262	-0.19513848
120	0xbe4e8894	-0.20169288
121	0xbdb7be63	-0.0897186
122	0x3fa27393	1.269152
123	0x3e9e3998	0.30903316
124	0xbf0aab14	-0.54167295
125	0xbf9ce2cd	-1.2256714
126	0xbe283cc8	-0.16429436
127	0xbe8b404f	-0.271975
128	0xbe43db4c	-0.19126624
129	0xbd0c1feb	-0.034210127
130	0x3e1fe5f7	0.15615068
131	0xbe2d212b	-0.16907184
132	0x3e8376e2	0.25676638
133	0xbecd65c3	-0.401167
134	0xbe3b0650	-0.18264127
135	0xbe29a3f1	-0.16566445
136	0x3eb8bb19	0.36080244
137	0xbe880e70	-0.26573515
138	0x3f152c9a	0.5827118
139	0x3e8f11ef	0.2794337
140	0x3ebaf150	0.36512232
141	0xbe022128	-0.1270796
142	0x3e5c5f91	0.2152083
143	0x3ee68150	0.45020533
144	0xbe93e0f0	-0.2888255
145	0xbd59d3bd	-0.053180445
146	0x3b612392	0.0034353477
147	0x3d19b2f6	0.037524186
148	0xbe365963	-0.17807536
149	0xbd71cf9c	-0.059035882
150	0x3f1f1a9c	0.6214998
151	0xbf03a4b4	-0.5142319
152	0x3f36e129	0.7143732
153	0xbee0343f	-0.4378986
154	0x3d71e412	0.059055395
155	0xbd01e9ea	-0.03171722
156	0xbda9ccd9	-0.08291025
157	0x3e745902	0.23862079
158	0x3ec4d084	0.38440335
159	0xbe04757c	-0.12935442
160	0x3e2e0447	0.16993819
161	0x3d234d57	0.03986868
162	0xbaab392e	-0.0013063306
163	0xbc45cbc3	-0.012072506
164	0xbe63f0c6	-0.22259817
165	0xbe054100	-0.13013077
166	0x3ed93fe6	0.42431563
167	0xbce6ce24	-0.028174467
168	0x3d2c76ad	0.042105366
169	0x3dda7eb0	0.10668695
170	0x3e085df4	0.1331709
171	0xbdf1a5c1	-0.11799193
172	0x3e8b6792	0.27227455
173	0x3e7d40e8	0.24731791
174	0xbcfe81fd	-0.031067843
175	0x3ce3bc35	0.027799705
176	0xbdff9a8a	-0.12480648
177	0xbda41f72	-0.0801381
178	0x3e0de94e	0.1385853
179	0x3d5240bb	0.051331263
180	0x3eaf1dce	0.34202427
181	0x3cfc8ee3	0.030829852
182	0xbe801e08	-0.25022912
183	0xbd0e74e9	-0.034779463
184	0x3f056c1e	0.521181
185	0x3e243552	0.16035965
186	0x3df0f593	0.117655896
187	0xbe4ca348	-0.19984162
188	0xbe13a7cf	-0.14419483
189	0x3e2fc467	0.17164765
190	0x3e811d0b	0.2521747
191	0x3ea9eda0	0.33189106
192	0xbe50da18	-0.20395696
193	0xbdf50285	-0.11963371
194	0x3d9f30bc	0.07772967
195	0xbd90d7d9	-0.0707242
196	0x3de1863f	0.110119335
197	0xbe39f8c9	-0.1816131
198	0x3cd86338	0.026414499
199	0xbd2b47e5	-0.04181661
200	0xbef8e82c	-0.48614633
201	0xbe03d36a	-0.12873617
202	0x3e225a9a	0.15854874
203	0x3ea11b14	0.3146597
204	0x3dc57ef3	0.09643354
205	0xbed88e46	-0.42296046
206	0x3f2dddd4	0.6791661
207	0xbed1c8a3	-0.40973386
208	0xbd93c27e	-0.07214831
209	0xbee86fc0	-0.45397758
210	0xbdcc0d4f	-0.09963476
211	0x3d5784cb	0.052616876
212	0xbdb7a130	-0.08966291
213	0xbe6ba84a	-0.23013416
214	0x3e74e885	0.23916824
215	0x3e9da952	0.30793244
216	0x3e498459	0.19679393
217	0x3ebfb8b2	0.374456
218	0x3ee83e37	0.45359966
219	0xbe9d4d69	-0.30723122
220	0x3e159835	0.14608844
221	0x3efcd05c	0.49377716
222	0x3e4677ee	0.19381687
223	0xbd27c5fc	-0.040960297
224	0x3ea836df	0.32854363
225	0x3dc90b00	0.09816551
226	0x3e354520	0.1770215
227	0x3e33a9a2	0.17545179
228	0xbd7b02a6	-0.061281823
229	0xbc90f90e	-0.017696884
230	0xbe567c3b	-0.20945828
231	0x3c1799b6	0.009252956
232	0x3f04740d	0.5173958
233	0xbef3bda9	-0.47605637
234	0xbdff2ed5	-0.124601044
235	0xbe498e18	-0.1968311
236	0xbee6796d	-0.45014516
237	0x3d0e1850	0.034691155
238	0x3ea6c3dd	0.32571307
239	0xbea527fd	-0.3225707
240	0x3e5a608c	0.21325892
241	0xbed47af5	-0.4150006
242	0x3ec908e4	0.39264596
243	0xbea81352	-0.3282724
244	0x3eb94d31	0.36191705
245	0xbec4590a	-0.3834918
246	0x3d6c48db	0.057686668
247	0x3e1189a3	0.1421266
248	0x3f09596a	0.5365206
249	0xbcf43d22	-0.029814307
250	0xbe809b66	-0.2511856
251	0xbf1c354b	-0.6101882
252	0xbe860063	-0.2617217
253	0x3eb22e0d	0.3480076
254	0x3f4cdcfe	0.8002471
255	0xbec99e49	-0.39378574

bias f4 [64]
0	0x3dab14d7	0.08353584
1	0xbe9f5265	-0.3111755
2	0x3d62a1d9	0.05533013
3	0x3da961f8	0.08270639
4	0x3ec3724c	0.3817314
5	0xbeac404a	-0.336428
6	0xbe8dc265	-0.27687374
7	0xbe905b86	-0.28194827
8	0xbd0eac2c	-0.034832165
9	0xbe85eb79	-0.26156214
10	0xbec28511	-0.37992147
11	0x3e191231	0.14948346
12	0x3e42fbf0	0.19041419
13	0x3edbf68f	0.42961547
14	0xbf32252f	-0.6958799
15	0x3f012219	0.50442654
16	0x3e8fda9a	0.28096467
17	0xbe3b7bd0	-0.1830895
18	0xbd6f3397	-0.05839881
19	0xbedba7a0	-0.42901325
20	0x3d050324	0.0324737
21	0xbe4b8623	-0.19875388
22	0xbe365b67	-0.17808305
23	0x3ea7b2a5	0.32753482
24	0x3e4c3fa7	0.19946156
25	0xbe8f0ae5	-0.27938
26	0xbeb46308	-0.35231805
27	0xbdd60196	-0.10449521
28	0xbe4115c9	-0.18855967
29	0x3da6fc80	0.08153629
30	0xbc2729f0	-0.01020287
31	0xbecac04e	-0.39599842
32	0x3e1a0fa4	0.15045029
33	0xbe3e0b62	-0.1855903
34	0xbd6159ea	-0.05501739
35	0x3d91b4d3	0.071145676
36	0x3e9d33b3	0.30703506
37	0xbf0ec40b	-0.5576789
38	0xbe8eca57	-0.27888748
39	0xbeb43547	-0.35196897
40	0xbe18cf8d	-0.14922924
41	0x3edc69bb	0.43049416
42	0x3cb471bb	0.022026887
43	0xbeb027b9	-0.34405306
44	0xbe8613d8	-0.26187015
45	0xbe15a0e0	-0.1461215
46	0xbd8b4e01	-0.068019874
47	0xbe3685be	-0.17824456
48	0xbdda3d2e	-0.106562
49	0xbd013620	-0.03154576
50	0x3d0850d6	0.033280216
51	0xbe85fa29	-0.2616742
52	0x3e760639	0.24025811
53	0xbec3d1db	-0.38246045
54	0x3cd873f4	0.026422478
55	0x3ef7e15c	0.48414123
56	0xbeca7148	-0.39539552
57	0xbce47840	-0.02788937
58	0xbf45e870	-0.77307796
59	0x3e266292	0.16248539
60	0x3ea9cd11	0.33164266
61	0xbd835733	-0.06413116
62	0xbe9140f9	-0.28369883
63	0xbd9840a7	-0.074342065

weight f4 [150, 64]
0	0x3ed81d1c	0.4220971
1	0xbe1e7a0d	-0.15476246
2	0x3f0cea7e	0.55045307
3	0x3ea75f4c	0.32689893
4	0xbe027613	-0.12740354
5	0xbece126c	-0.4024843
6	0x3ed56400	0.41677856
7	0xbe308fb4	-0.17242318
8	0x3e3f6eec	0.18694657
9	0xbe6b6f6d	-0.22991724
10	0x3d994dd0	0.07485545
11	0x3ee0b1e5	0.43885723
12	0xbbd9d6bb	-0.0066479123
13	0x3e39c2fa	0.18140784
14	0x3f473a4d	0.77823335
15	0x3e0d5ad3	0.13804178
16	0xbda2da38	-0.07951778
17	0x3db72a62	0.08943631
18	0xbeb3376e	-0.35003227
19	0xbecf5fb1	-0.40502694
20	0x3e26e898	0.16299665
21	0x3f05855b	0.5215661
22	0x3f09d78d	0.5384453
23	0x3cedffb6	0.029052597
24	0xbecf85d3	-0.40531787
25	0x3f1484ce	0.58015144
26	0xbea90b27	-0.3301632
27	0x3eb4a6be	0.35283464
28	0x3e4c1bd0	0.19932485
29	0xbd730ebd	-0.059340227
30	0xbbe748d0	-0.0070582405
31	0xbc976a62	-0.018483344
32	0x3e839270	0.2569766
33	0xbf26c3e1	-0.6514264
34	0x3f35e648	0.71054506
35	0xbe41015a	-0.18848172
36	0x3d9667a0	0.07343984
37	0x3de300d3	0.110841416
38	0x3d738019	0.059448335
39	0x3d415430	0.047199428
40	0x3f351781	0.7073899
41	0xbe0c2657	-0.136865
42	0xbdac02e9	-0.083989926
43	0xbe963d78	-0.29343772
44	0xbf1a24b5	-0.6021226
45	0x3f2bbb4e	0.6708268
46	0xbec4e3c6	-0.38455027
47	0x3f0aa2cf	0.54154676
48	0xbef4c6c8	-0.47807908
49	0xbdb5bb02	-0.088735595
50	0x3cc81cb0	0.024427742
51	0xbd025d9f	-0.031827565
52	0xbd761ce5	-0.06008615
53	0x3bf71873	0.0075407564
54	0x3def0ee3	0.11672761
55	0xbe9b7046	-0.30359095
56	0x3ea869ab	0.32893118
57	0x3e4032e4	0.18769413
58	0x3f6ea468	0.93219614
59	0x3e4d6b0e	0.2006037
60	0xbe78255f	-0.24233006
61	0x3e4bd6f8	0.19906223
62	0x3ee06f97	0.43835136
63	0xbea9b503	-0.33145913
64	0x3efd8587	0.49515936
65	0xbf325e2b	-0.6967494
66	0x3f0a9606	0.5413517
67	0x3e0ac3b6	0.1355122
68	0x3db61891	0.088914044
69	0x3e2b20b9	0.16711701
70	0xbe3f0991	-0.18655993
71	0xbdc7a252	-0.09747757
72	0x3de82bc1	0.113364704
73	0xbe9c094f	-0.30475852
74	0xbedc6244	-0.4304372
75	0x3e04fa30	0.12986064
76	0xbdc9cd4f	-0.09853613
77	0x3e2c3623	0.16817527
78	0x3f10ed1c	0.566118
79	0xbe1bec73	-0.15226917
80	0xbe4f1177	-0.20221506
81	0xbdf60437	-0.12012523
82	0xbda57230	-0.0807842
83	0xbd5dcab3	-0.054148387
84	0x3d1f63ca	0.038913526
85	0x3ca8a9b7	0.020588739
86	0x3e8f2292	0.27956063
87	0xbe895292	-0.2682081
88	0xbe34f8b1	-0.17672993
89	0x3eeaa625	0.45829883
90	0xbe998341	-0.2998295
91	0xbc2d470e	-0.010576023
92	0xbdd9acb5	-0.106286444
93	0x3de3bec9	0.11120374
94	0x3d88fc63	0.06688764
95	0xbdebb82c	-0.11509737
96	0x3e7785fd	0.24172206
97	0xbd815c69	-0.06316454
98	0x3e94d894	0.29071486
99	0x3cc5b6c7	0.024135007
100	0xbebe5b44	-0.37179005
101	0xbe2992d0	-0.16559911
102	0xbd45658f	-0.048192557
103	0xbe1614bd	-0.14656349
104	0x3f09c856	0.53821313
105	0xbd5ab04f	-0.053390797
106	0xbf04df79	-0.5190349
107	0x3d067ccb	0.032833856
108	0xbde708c7	-0.11280971
109	0x3f075813	0.52868766
110	0xbef3e935	-0.4763886
111	0x3eb29e79	0.3488653
112	0x3b6b46e7	0.0035900415
113	0x3def88b9	0.11696
114	0xbe49eccb	-0.19719236
115	0x3deae65b	0.11469718
116	0xbec87c80	-0.39157486
117	0x3d8facdb	0.070153914
118	0x3e741b03	0.23838429
119	0xbdf5f42c	-0.12009463
120	0x3eea90ad	0.45813504
121	0xbd93dc58	-0.072197616
122	0x3f14cfee	0.58129776
123	0x3d92c846	0.071671054
124	0x3d47d7ed	0.048789907
125	0x3e02561c	0.1272816
126	0x3ecff258	0.4061458
127	0xbe2283f3	-0.15870647
128	0x3f143f75	0.5790933
129	0xbef567bb	-0.47930703
130	0x3f2fa703	0.68614215
131	0x3e3fb6bd	0.18722053
132	0x3e2e7841	0.1703806
133	0x3e3ce45e	0.1844649
134	0x3e5441d3	0.20728235
135	0xbe244e8f	-0.16045593
136	0x3eba51fe	0.3639068
137	0xbe06cb6a	-0.13163534
138	0xbe278121	-0.16357853
139	0x3eaa3b25	0.3324825
140	0xbc15b48d	-0.009137285
141	0x3eafc514	0.34330046
142	0x3f221385	0.63311034
143	0x3d824fe2	0.06362893
144	0xbdc9e748	-0.098585665
145	0x3e2e9e61	0.17052604
146	0x3dd49453	0.10379853
147	0xbc8d6790	-0.017261297
148	0xbe6354a3	-0.22200255
149	0x3ee2e603	0.4431611
150	0x3ea7172c	0.32634866
151	0xbd6a14af	-0.05714863
152	0xbe7f468e	-0.24929258
153	0x3f1d6be4	0.61492753
154	0x3d327746	0.04357078
155	0x3e5e9408	0.21736157
156	0x3ed60662	0.41801745
157	0x3e9168ad	0.28400174
158	0x3e892fd4	0.26794302
159	0xbe2de6fb	-0.16982643
160	0x3ea0c9a8	0.31403852
161	0xbf036f47	-0.5134167
162	0x3f0d6df0	0.55245876
163	0x3d9cd3d7	0.07657593
164	0xbda859a3	-0.08220222
165	0xbe6c2d0c	-0.23064059
166	0xbdaf504d	-0.08560238
167	0xbdbaae11	-0.09115232
168	0x3ef286c9	0.47368458
169	0xbefbe6a5	-0.49199405
170	0xbecbcf7a	-0.3980673
171	0xbe4f0b3e	-0.20219132
172	0xbe857a8b	-0.26070055
173	0x3efbfe2b	0.49217352
174	0xbeb20606	-0.3477022
175	0x3efbe195	0.49195543
176	0xbc6c6dee	-0.014430506
177	0x3d9c9a4b	0.076466165
178	0x3dd2df14	0.10296455
179	0x3dc50173	0.09619417
180	0xbe21d28b	-0.15802972
181	0x3d217dfb	0.039426785
182	0x3e4e0737	0.2011994
183	0xbebeba3a	-0.37251455
184	0x3f019e66	0.5063232
185	0xbd715b06	-0.058924697
186	0x3f3264ae	0.69684875
187	0xbd3fb8dc	-0.046807155
188	0x3ac30726	0.001487945
189	0x3e842ac6	0.25813884
190	0x3f064bf6	0.5245966
191	0x3db8199f	0.08989262
192	0x3f082bf1	0.5319205
193	0x3e23f95e	0.16013095
194	0x3f04f296	0.51932657
195	0x3de745e0	0.112926245
196	0x3caf2856	0.021381538
197	0xbe49ce55	-0.19707616
198	0x3ea90856	0.33014172
199	0x3e37142d	0.1787879
200	0x3ea86ab4	0.32893908
201	0x3e3b0f29	0.18267502
202	0xbe8cd025	-0.27502552
203	0x3e3ea277	0.18616663
204	0xbe2c12d4	-0.16804057
205	0xbd84c551	-0.064829476
206	0x3ec8ac8e	0.3919415
207	0xbe1ef96c	-0.15524834
208	0x3f081404	0.5315554
209	0x3e63fc86	0.22264299
210	0xbea1e319	-0.31618574
211	0xbc9e843d	-0.019350166
212	0xbd43fd13	-0.047848772
213	0x3e64de00	0.22350311
214	0x3e8d8b61	0.276454
215	0x3e2c27b3	0.16812019
216	0xbd8fe5c5	-0.07026247
217	0x3ea8a2ab	0.32936606
218	0xbe498830	-0.19680858
219	0x3b2ac2e2	0.00260561
220	0x3ea7a35c	0.3274182
221	0x3e3684df	0.17824124
222	0x3e600af8	0.21879184
223	0x3e50d1c1	0.20392515
224	0x3e85e68a	0.2615245
225	0xbe16f830	-0.14743114
226	0x3ec51333	0.3849121
227	0x3e8a7fd1	0.2705064
228	0xbe30bb65	-0.17258985
229	0x3df39e1d	0.11895392
230	0xbc870bd3	-0.01648513
231	0xbd7d4495	-0.061832983
232	0x3eaeeb89	0.34164074
233	0xbd727d19	-0.059201334
234	0xbdaa3e38	-0.083126485
235	0xbd4e7c5c	-0.050411567
236	0x3ecbe7e1	0.39825347
237	0x3ee717a4	0.45135224
238	0x3e243c12	0.1603854
239	0x3e80c2e0	0.25148678
240	0xbd92e5b0	-0.07172716
241	0xbe8f9b1c	-0.28048027
242	0x3e3def0b	0.18548219
243	0x3cfec21d	0.03109842
244	0x3d3180f2	0.043335862
245	0xbd967d43	-0.073481105
246	0x3de9cdd4	0.11416212
247	0x3e1d9f15	0.15392716
248	0x3efc54b0	0.4928336
249	0x3f00d33d	0.50322324
250	0x3e95fc5d	0.292941
251	0x3e883ca7	0.26608774
252	0xbd3c525e	-0.04597699
253	0x3dbdff3c	0.09277198
254	0x3ee3b8a7	0.44476816
255	0x3e81f328	0.25380826

bias f4 [150]
0	0xbf12d392	-0.5735408
1	0xbf03dd24	-0.5150931
2	0xbf375144	-0.71608377
3	0xbeac4642	-0.33647352
4	0xbf934f21	-1.1508523
5	0xbf5e8637	-0.86923546
6	0xbec4f3cf	-0.3846726
7	0xbf342963	-0.7037565
8	0xbdf86c7b	-0.12130066
9	0xbfa1ef2b	-1.2651113
10	0x3e2c7728	0.1684233
11	0xbeceea70	-0.40413237
12	0xbf7603b0	-0.96099377
13	0xbd80021f	-0.062504046
14	0xbe87aa31	-0.26497033
15	0xbf94d5ed	-1.1627785
16	0xbf5449e7	-0.82925266
17	0xbf66e982	-0.90200055
18	0xbf058291	-0.52152354
19	0xbf23b358	-0.6394553
20	0xbe95dc6e	-0.29269737
21	0xbe88e03c	-0.26733577
22	0xbe2a1a23	-0.16611533
23	0xbf5bfc89	-0.85932213
24	0xbeca948c	-0.39566457
25	0xbf667b7c	-0.9003217
26	0xbe90a1a4	-0.28248322
27	0xbeacca31	-0.3374801
28	0xbe72b4d1	-0.23701788
29	0x3d8a8fe4	0.06765726
30	0xbe14149a	-0.14460984
31	0xbf168d2e	-0.58809173
32	0xbd3ec7a1	-0.0465771
33	0xbc80f090	-0.01573971
34	0xbf04267b	-0.51621217
35	0x3d931e3f	0.07183503
36	0x3df508ed	0.11964593
37	0xbf043bf8	-0.51654005
38	0xbdea2f1b	-0.11434766
39	0xbec41688	-0.3829844
40	0xbf6ce3f7	-0.92535347
41	0xbeff3417	-0.4984443
42	0xbe7c433d	-0.24635024
43	0xbf049600	-0.5179138
44	0xbf5b4d91	-0.8566523
45	0xbe9de004	-0.30834973
46	0x3d704e00	0.058668137
47	0xbd7f96d9	-0.06239972
48	0xbead50b2	-0.33850628
49	0xbe67d002	-0.22637942
50	0xbdbc4027	-0.091919236
51	0xbf3d9325	-0.7405265
52	0xbeb6e4bb	-0.35721382
53	0xbe32383a	-0.17404261
54	0xbf22bb72	-0.6356727
55	0xbf5509ef	-0.8321828
56	0xbf144736	-0.5792116
57	0xbec575bb	-0.38566384
58	0xbe8bb48e	-0.2728619
59	0xbf0c350b	-0.5476844
60	0xbe865514	-0.26236784
61	0xbd200a7b	-0.039072495
62	0xbf53e9be	-0.8277854
63	0x3df37c93	0.11888995
64	0xbf2fb33b	-0.6863286
65	0xbd2b5c54	-0.041836098
66	0xbe808139	-0.2509859
67	0xbe8d6ef6	-0.2762372
68	0xbf2f79c5	-0.6854518
69	0xbe2ac9c8	-0.16678536
70	0xbe8afea2	-0.27147394
71	0xbf38a167	-0.7212128
72	0xbed15f7f	-0.4089317
73	0xbecece98	-0.40391994
74	0xbe5f9583	-0.21834378
75	0xbd9913ac	-0.07474455
76	0xbf56368e	-0.83676994
77	0xbf2aa2fc	-0.66654944
78	0xbc82d231	-0.015969368
79	0xbf032598	-0.5122924
80	0xbed9abcd	-0.42513886
81	0xbe03a95d	-0.12857576
82	0xbe31a228	-0.17347014
83	0xbea4bc32	-0.32174832
84	0x3ea813e2	0.3282767
85	0xbe481e32	-0.19542769
86	0xbc25c862	-0.010118576
87	0xbeb73ee8	-0.3579018
88	0xbee0e7e7	-0.43926927
89	0xbf48f535	-0.78499156
90	0xbe96eaf6	-0.29476136
91	0xbe964cd9	-0.29355505
92	0xbfa0ad9b	-1.255298
93	0x3e30d62d	0.17269202
94	0xbefb22db	-0.4905003
95	0xbe45c9e0	-0.1931529
96	0xbf01dcf7	-0.5072779
97	0x3dd8b5b9	0.10581536
98	0xbebd7975	-0.37006727
99	0xbed6a9c6	-0.41926402
100	0xbe877e7a	-0.2646368
101	0xbe85a3f3	-0.26101646
102	0xbf6a7fe3	-0.9160139
103	0xbedbdc7b	-0.4294165
104	0x3d3ced6d	0.046124864
105	0xbeb9890d	-0.36237374
106	0xbf87cd69	-1.0609561
107	0xbf22aadc	-0.6354196
108	0xbf280027	-0.6562523
109	0xbe82f951	-0.25580838
110	0xbe8f743d	-0.2801837
111	0xbf1739ea	-0.59072745
112	0xbf27356c	-0.6531589
113	0xbe6c5b94	-0.2308181
114	0xbe266c6e	-0.162523
115	0xbe215ea2	-0.15758756
116	0xbf4f86cf	-0.81065077
117	0xbeaa0288	-0.33205056
118	0xbfa5c549	-1.2950832
119	0xbf93332f	-1.1499995
120	0xbe6d4625	-0.2317129
121	0xbe87765e	-0.26457494
122	0xbec5be45	-0.38621727
123	0xbeb87cb8	-0.36032653
124	0x3d276c7b	0.04087494
125	0xbf04a45e	-0.51813304
126	0x3e2cca71	0.168741
127	0xbe57f2fd	-0.21088786
128	0xbf0ad73b	-0.54234666
129	0xbf287e72	-0.6581794
130	0xbf1c6f21	-0.6110707
131	0xbd7d0aff	-0.061778065
132	0xbf5ac5a3	-0.8545782
133	0xbed4abd2	-0.41537338
134	0xbf71021d	-0.9414385
135	0xbe9e1f15	-0.3088309
136	0x3e8b5e7f	0.27220532
137	0xbe7c3332	-0.24628904
138	0xbec3ea03	-0.38264474
139	0xbe6b2be9	-0.22965969
140	0xbe1e18f2	-0.15439203
141	0xbec15614	-0.37760985
142	0xbf54281f	-0.8287372
143	0xbeceb64f	-0.40373465
144	0xbef6e518	-0.4822166
145	0xbedc877a	-0.4307211
146	0xbe8c2967	-0.27375337
147	0xbf0c5756	-0.54820764
148	0xbec247e4	-0.37945473
149	0xbf45af32	-0.7722045

weight f4 [100, 150]
0	0x3e92e98b	0.28693804
1	0x3e9b378a	0.3031581
2	0x3ee34e94	0.44395888
3	0x3e8bad1c	0.2728051
4	0x3f342ba8	0.70379114
5	0x3ed55777	0.41668293
6	0x3f1c5748	0.6107068
7	0x3eacac20	0.3372507
8	0xbe1487f4	-0.14504987
9	0x3f1490e2	0.58033574
10	0xbef16dc4	-0.47154057
11	0x3dc7d916	0.09758203
12	0x3f03adf0	0.5143728
13	0x3e064e38	0.13115776
14	0xbdc77721	-0.09739519
15	0x3eecdc22	0.46261698
16	0x3ede74de	0.43448538
17	0x3f02b9df	0.51064867
18	0x3eb4ed5a	0.35337335
19	0x3ebaa242	0.36451918
20	0x3cd191e1	0.025582256
21	0x3ddc307d	0.10751436
22	0xbe1dfd12	-0.1542857
23	0x3ed4abf5	0.41537443
24	0x3e11ccc5	0.1423827
25	0x3f03e190	0.51516056
26	0x3eb69bff	0.3566589
27	0x3d02c244	0.031923547
28	0x3d19d7c6	0.037559293
29	0xbe8cf2a1	-0.2752886
30	0x3d71367e	0.05888986
31	0x3e47859a	0.19484559
32	0xbddb7e69	-0.1071747
33	0x3d05dcd2	0.032681294
34	0x3d848a88	0.06471735
35	0xbe4ebd7c	-0.2018947
36	0xbe2ee6c6	-0.1708022
37	0x3eb86e3a	0.36021596
38	0x3d228467	0.03967705
39	0xbd7e9180	-0.06215048
40	0x3f2fcc0c	0.68670726
41	0xbe7dda39	-0.24790277
42	0x3e475bd7	0.19468628
43	0x3e75ba61	0.23996879
44	0x3e7a5933	0.2444809
45	0x3e893b99	0.26803282
46	0xbf2f1c46	-0.68402517
47	0xbe8132d1	-0.25234082
48	0x3e18923f	0.14899538
49	0x3e15c976	0.14627632
50	0xbde23765	-0.11045722
51	0x3e52c2dd	0.20582147
52	0x3e27656e	0.16347286
53	0x3db0dbc0	0.08635664
54	0x3ebee562	0.3728438
55	0x3f0672d2	0.5251895
56	0x3efb3f67	0.4907181
57	0xbdcd3a17	-0.100208454
58	0x3e37ab07	0.17936336
59	0x3d9e4940	0.07728815
60	0xbd93c883	-0.07215979
61	0xbeafd083	-0.3433877
62	0x3ef45082	0.47717673
63	0xbe17047f	-0.14747809
64	0xbc13ea0e	-0.009027971
65	0xbe495f37	-0.19665228
66	0xbc133d66	-0.0089868065
67	0x3eb99e5f	0.3625364
68	0x3f0d9545	0.5530589
69	0x3e4ef71a	0.2021145
70	0x3dbee829	0.09321625
71	0x3ecd8622	0.40141398
72	0x3dcd1cb7	0.100152425
73	0x3da19392	0.07889475
74	0x3eec2e33	0.46128997
75	0xbcfa372a	-0.030543882
76	0x3ede89b7	0.43464443
77	0x3e7505f5	0.23928054
78	0xbe47099f	-0.19437264
79	0x3ecfc44b	0.40579447
80	0x3f0f3e6a	0.5595461
81	0x3de24688	0.11048609
82	0xbcc15b5e	-0.023603138
83	0x3e91eb6f	0.28499934
84	0xbe8d215a	-0.27564508
85	0x3e9da509	0.30789974
86	0xbed26a36	-0.41096658
87	0xbdbb5930	-0.091478705
88	0x3e02912b	0.1275069
89	0x3e0a74c8	0.13521111
90	0xbd858567	-0.06519585
91	0x3e9afbb1	0.3027015
92	0x3f15affb	0.5847165
93	0x3e97384c	0.2953514
94	0x3e820edb	0.2540196
95	0x3dcebc61	0.10094524
96	0x3e8c934b	0.27456126
97	0xbd32fbf7	-0.043697324
98	0x3eadd837	0.3395402
99	0x3e923671	0.2855716
100	0xbe9d6510	-0.30741167
101	0x3dfeca43	0.12440922
102	0x3eadfdc1	0.3398266
103	0x3ec828a8	0.39093518
104	0xbd6d38df	-0.057915565
105	0x3d413549	0.047169957
106	0x3f085769	0.5325838
107	0x3dba0d9b	0.09084626
108	0x3edc6a7a	0.43049985
109	0xbdd6a388	-0.1048041
110	0xbcdca931	-0.026936145
111	0x3e616d63	0.22014384
112	0x3f02658b	0.5093619
113	0x3f050a40	0.51968765
114	0x3d885fb9	0.06658883
115	0x3eb8fc20	0.36129856
116	0x3f2bfd28	0.6718316
117	0xbe9aec7e	-0.30258554
118	0x3f109fdd	0.5649393
119	0x3ebb0a0f	0.36531112
120	0xbe0f7d80	-0.14012718
121	0x3e809dda	0.2512043
122	0x3ca0bbfe	0.019620892
123	0x3e7601e7	0.24024163
124	0x3c752d37	0.014964393
125	0x3c0a7b20	0.008452207
126	0xbe604f5b	-0.21905272
127	0x3f002682	0.5005876
128	0xbe3333e1	-0.17500259
129	0x3f02f99a	0.5116211
130	0x3ef6dfa4	0.482175
131	0xbe062e82	-0.13103679
132	0x3f1c155a	0.6097008
133	0x3e15caf3	0.146282
134	0x3e3f3b48	0.18674958
135	0x3e92fc00	0.28707886
136	0xbe590157	-0.21191917
137	0x3e291d46	0.16515073
138	0x3e408df5	0.18804152
139	0xbe050a96	-0.1299232
140	0x3e4277d4	0.18991023
141	0x3e8f5e56	0.2800166
142	0x3eb6ccb1	0.35703042
143	0x3f39ea42	0.72623074
144	0x3e97c6f5	0.2964398
145	0x3ef4ab0d	0.4778675
146	0xbe3ebfd2	-0.18627861
147	0x3ee151fb	0.4400786
148	0x3e703b85	0.23460205
149	0x3e5eee5b	0.21770613
150	0x3eeff68e	0.46867794
151	0x3ea96468	0.33084416
152	0x3e720e93	0.23638372
153	0xbdfb7b66	-0.12279396
154	0x3ef54822	0.47906595
155	0x3e615367	0.22004472
156	0x3e1fecbd	0.15617652
157	0x3e0be63e	0.13662049
158	0x3dea060d	0.11426935
159	0x3f191b0f	0.59806913
160	0xbe792d0d	-0.24333592
161	0x3e10d45f	0.14143513
162	0x3f19eae3	0.60124034
163	0x3cf425ac	0.02980312
164	0xbdb48ec4	-0.08816293
165	0x3eb9c507	0.36283132
166	0x3eab2e58	0.33433795
167	0x3eec5060	0.4615507
168	0x3dfdbe81	0.12389851
169	0x3e0df64b	0.13863485
170	0xbced0285	-0.028931865
171	0x3bf78c7f	0.0075545902
172	0xbe570f17	-0.2100185
173	0x3ec8cb67	0.39217684
174	0xbd936a2d	-0.07197986
175	0x3ee27792	0.4423185
176	0x3e6e3387	0.23261844
177	0x3e5dfa5a	0.21677533
178	0x3e9a015d	0.30079165
179	0x3e4443f0	0.19166541
180	0x3d0e3c16	0.03472527
181	0x3d510881	0.0510335
182	0xbe7c4701	-0.24636461
183	0xbc1c2b87	-0.009531862
184	0x3ea60953	0.3242899
185	0xbe571bcb	-0.21006696
186	0xbedd4e78	-0.4322393
187	0x3e130e4d	0.14360924
188	0xbe0f4bd9	-0.13993777
189	0x3e44fb61	0.19236518
190	0x3edabd4b	0.42722544
191	0x3d1ed9c4	0.038781896
192	0x3c9e08f1	0.019291373
193	0x3e66c384	0.22535521
194	0x3eb9a42f	0.36258075
195	0x3e5512bf	0.20807932
196	0xbdcbda5a	-0.09953757
197	0x3e51f00d	0.20501728
198	0x3ec3459a	0.3813904
199	0x3da75f13	0.08172431
200	0x3e164854	0.14676028
201	0x3e8459f7	0.25849888
202	0x3e0bfe21	0.13671161
203	0x3e105807	0.1409608
204	0x3edf5d29	0.43625763
205	0x3e8ee418	0.27908397
206	0x3e6881ad	0.22705717
207	0x3d6cd858	0.05782351
208	0xbe0e8000	-0.13916016
209	0xbbe8feb7	-0.0071104425
210	0x3d57e239	0.052705977
211	0x3de7a2fd	0.113103844
212	0x3eb0c1c0	0.3452282
213	0x3e851b43	0.25997362
214	0x3e986359	0.29763296
215	0xbe056160	-0.13025427
216	0x3dd1fc3a	0.102531865
217	0xbe1bd485	-0.15217789
218	0xbceff09e	-0.02928954
219	0x3e872b9b	0.26400456
220	0x3e0e2eb6	0.13885006
221	0x3e908e9d	0.28233805
222	0x3ea73111	0.32654622
223	0x3b3bd575	0.0028661166
224	0x3ecc3b29	0.39888886
225	0xbe149e98	-0.14513624
226	0x3eb190e7	0.34680864
227	0x3ebfdaeb	0.3747171
228	0xbc8b42ae	-0.016999569
229	0x3ddde1b1	0.10834063
230	0x3f111ed0	0.5668764
231	0x3e80d4b9	0.25162295
232	0x3d8861cc	0.06659278
233	0x3ec21274	0.37904704
234	0xbc0d8985	-0.008638744
235	0x3da9b6c4	0.08286813
236	0xbd25221a	-0.040315725
237	0xbdba8daa	-0.091090515
238	0x3d58062f	0.052740272
239	0x3ec7d568	0.39030004
240	0x3e4a4b9e	0.19755408
241	0xbe0d26e9	-0.13784374
242	0x3f0bf1b8	0.5466571
243	0xbe329e48	-0.17443192
244	0x3e06c0f5	0.13159545
245	0x3eaa65e5	0.33280864
246	0x3eeae12e	0.45874923
247	0xbe586c01	-0.2113495
248	0xbe2ccbce	-0.1687462
249	0x3f02488b	0.5089194
250	0x3d7801ed	0.06054871
251	0x3dc81595	0.097697414
252	0x3dc98f6b	0.09841808
253	0x3e4cba95	0.1999305
254	0xbd410436	-0.047123156
255	0xbc76f763	-0.01507363

bias f4 [100]
0	0xbf4599ac	-0.7718761
1	0xbf2e03dc	-0.6797464
2	0x3ca55bc4	0.020185359
3	0xbf16a030	-0.58838177
4	0xbf415e41	-0.75534445
5	0xbf0490ad	-0.5178326
6	0xbf3163e3	-0.6929304
7	0xbf14b7b6	-0.5809282
8	0x3d5bae23	0.053632867
9	0xbf370a6c	-0.7150028
10	0x3e0cac85	0.13737686
11	0x3ddb2284	0.10699943
12	0xbef11230	-0.47084188
13	0xbed14d80	-0.4087944
14	0xbee108f7	-0.43952152
15	0xbec8e810	-0.3923955
16	0xbf08ad20	-0.5338917
17	0xbedde07e	-0.43335336
18	0xbec74cde	-0.38925833
19	0xbe86d264	-0.2633239
20	0xbf18f2ad	-0.59745294
21	0xbea58dd4	-0.3233477
22	0xbf2e8ae1	-0.6818066
23	0xbe9830a0	-0.29724598
24	0xbf3b255b	-0.73103875
25	0xbf3b667e	-0.73203266
26	0xbec3f550	-0.38273096
27	0xbec66e22	-0.387559
28	0xbe7d727e	-0.24750707
29	0xbe6f38a0	-0.23361444
30	0x3f0df00e	0.5544442
31	0xbf36e6ab	-0.7144572
32	0xbee1e753	-0.441218
33	0xbf3ea20d	-0.7446602
34	0xbc71b308	-0.014752157
35	0xbe405049	-0.18780626
36	0xbe963c5c	-0.29342926
37	0x3f12889a	0.5723969
38	0xbeab49ed	-0.33454838
39	0xbf389289	-0.72098595
40	0x3f3db456	0.74103296
41	0xbe8780cb	-0.2646545
42	0xbf369565	-0.7132171
43	0xbd19c753	-0.037543606
44	0xbe15a844	-0.1461497
45	0x3e625f94	0.22106773
46	0xbeffb350	-0.49941492
47	0xbe6cf249	-0.231393
48	0x3dbd8fa6	0.092559144
49	0xbeb24331	-0.34816888
50	0xbf2a54a3	-0.66535395
51	0xbe5370f6	-0.2064856
52	0xbf21aca8	-0.6315408
53	0xbeb53607	-0.35392782
54	0xbf19113e	-0.59791934
55	0xbf4d7186	-0.8025135
56	0xbf5d1f33	-0.8637573
57	0xbb3ef4f8	-0.0029137712
58	0xbf536a0b	-0.82583684
59	0xbee5c6db	-0.44878277
60	0xbf5b3443	-0.8562662
61	0xbeffb78d	-0.49944726
62	0xbeec5966	-0.46161956
63	0xbf18d207	-0.59695476
64	0xbf1239ce	-0.5711945
65	0xbf5eba95	-0.8700345
66	0xbe9adab2	-0.30244976
67	0xbf831bbe	-1.0242841
68	0xbf0bfd7f	-0.5468368
69	0xbcb11e3f	-0.021620868
70	0xbf123d4e	-0.57124794
71	0xbf448ba1	-0.76775557
72	0xbf1ee9b3	-0.62075347
73	0xbf1d88f7	-0.61537117
74	0xbf009c21	-0.50238234
75	0xbe703585	-0.23457916
76	0xbee2a145	-0.44263664
77	0xbf60536a	-0.8762728
78	0xbe9a62f3	-0.30153617
79	0xbed25bfe	-0.4108581
80	0xbf0984b8	-0.5371814
81	0xbe124470	-0.1428392
82	0xbeee8e32	-0.4659286
83	0x3d2b0a56	0.041757904
84	0xbdc9720f	-0.09836208
85	0xbea63ed4	-0.3246981
86	0xbf44dd09	-0.7689977
87	0x3d2f1108	0.04274085
88	0xbe40db82	-0.18833736
89	0xbf1109c2	-0.56655514
90	0xbf02ac06	-0.51043737
91	0xbe147115	-0.14496262
92	0xbe7c97f0	-0.24667335
93	0x3f12c208	0.5732732
94	0xbf1f227a	-0.6216198
95	0xbe7342bb	-0.23755924
96	0x3cc09e3c	0.023512952
97	0xbea57d03	-0.3232194
98	0xbe55db0f	-0.20884345
99	0xbe18f500	-0.1493721

weight f4 [729, 100]
0	0x3e440c3b	0.1914529
1	0x3e1dc5ec	0.15407532
2	0x3d819ec3	0.063291095
3	0x3db5af63	0.08871343
4	0x3ea1cd05	0.3160173
5	0x3d578660	0.052618384
6	0x3eac28b6	0.3362481
7	0x3c57ac7e	0.013163684
8	0xbdd79842	-0.10527088
9	0x3e0ad1e6	0.13556632
10	0xbcc0fb58	-0.02355735
11	0xbdd36e19	-0.10323734
12	0x3e8fd6ad	0.28093472
13	0xbd6ac8e6	-0.057320498
14	0x3a6cbea2	0.0009031092
15	0x3e33ec23	0.17570548
16	0x39025bb1	0.00012431924
17	0x3cffe130	0.031235307
18	0x3d87f7f6	0.06639092
19	0xbd1b5e48	-0.03793171
20	0x3b903ccb	0.0044017783
21	0x3e27d4c3	0.16389756
22	0x3d202584	0.039098278
23	0x3c4a135e	0.012333719
24	0x3e800fa2	0.25011927
25	0xbddac8e1	-0.10682846
26	0x3e50040a	0.20314041
27	0x3ce0e564	0.027453132
28	0x3e1e9899	0.15487899
29	0x3e1ab63d	0.15108581
30	0xbe186450	-0.14882016
31	0x3e619594	0.22029716
32	0x3e5e6724	0.21719033
33	0x3e298e54	0.165582
34	0x3d0815d2	0.033223934
35	0x3da609f1	0.08107365
36	0xbda83acd	-0.0821434
37	0xbdeae4de	-0.11469434
38	0xbd2e4bb8	-0.04255268
39	0x3d535b44	0.05160071
40	0xbcdaefe0	-0.02672571
41	0x3d1684c3	0.036747705
42	0x3e34b2df	0.17646359
43	0x3e346339	0.17615975
44	0x3c05bc70	0.008162603
45	0x3eabb69b	0.33537754
46	0xbeb9282f	-0.3616347
47	0x3c1d0e78	0.009585969
48	0x3d734a99	0.059397314
49	0x3d8e5f91	0.069518216
50	0x3d882f10	0.066496015
51	0x3d477e68	0.048704535
52	0x3e0ee6dc	0.13955253
53	0x3e77a2bd	0.24183173
54	0x3e59389a	0.21212998
55	0x3d9a8029	0.07543976
56	0xbf17365e	-0.5906733
57	0xbe15e750	-0.1463902
58	0x3cfb3385	0.030664215
59	0x3eb0312b	0.34412512
60	0x3e8049f3	0.2505642
61	0x3e96ea16	0.29475468
62	0x3e1ff90a	0.15622345
63	0x3e4a524c	0.19757956
64	0x3dada8d0	0.08479464
65	0x3dd1b735	0.10240022
66	0x3be73f61	0.007057116
67	0xbce43578	-0.027857527
68	0x3e6c1842	0.23056129
69	0x3c514738	0.0127733275
70	0x3d24ab9f	0.040202733
71	0x3d4681b8	0.048463553
72	0x3d78bcdc	0.060726985
73	0x3e8f03ca	0.27932578
74	0x3e8f256a	0.27958232
75	0x3cb3f0f6	0.021965485
76	0x3db1f211	0.08688749
77	0x3cdd9e06	0.02705289
78	0x3d9413da	0.07230349
79	0xbcb151fd	-0.02164554
80	0x3db13d52	0.08654274
81	0x3d19829f	0.037478086
82	0xbc2630ae	-0.010143442
83	0x3e20e85e	0.15713641
84	0x3e029869	0.12753452
85	0x3d5136ff	0.05107784
86	0x3e84dfe2	0.2595206
87	0x3c444924	0.011980329
88	0x3dab30e0	0.083589315
89	0x3e5c641c	0.21522564
90	0x3e507a08	0.20359051
91	0x3e07935a	0.13239804
92	0x3d807941	0.06273127
93	0xbe25efbd	-0.16204734
94	0xbe83777b	-0.25677094
95	0x3cff12ec	0.031136952
96	0x3e30ec2d	0.17277594
97	0x3d240141	0.04004026
98	0x3e513c75	0.20433219
99	0xbdaddcb5	-0.08489362
100	0x3d161227	0.036638405
101	0x3d2b3160	0.041795135
102	0x3dad1256	0.08450763
103	0x3d80bfda	0.06286593
104	0x3de21204	0.110385925
105	0x3cd92514	0.026506938
106	0x3e816593	0.25272807
107	0x3cf11a1a	0.029431392
108	0xbdd8cffe	-0.10586546
109	0x3bf27d62	0.0074002007
110	0x3dceb2af	0.10092675
111	0xbd9e825d	-0.077397086
112	0xbc9a060b	-0.01880171
113	0x3e8150cd	0.2525696
114	0x3e2a41de	0.16626689
115	0x3d2189e7	0.039438155
116	0x3e51ef64	0.20501477
117	0xbd6b5f91	-0.057464186
118	0x3da288cd	0.07936249
119	0xbe43abc8	-0.19108498
120	0x3d1dcf0e	0.03852754
121	0x3e6abed0	0.22924352
122	0x3eaad72c	0.33367288
123	0xbdf9b817	-0.121933155
124	0x3eb1c1fd	0.34718314
125	0x3dca79b6	0.09886496
126	0x3e2e9a06	0.17050943
127	0x3dd3cd4a	0.1034189
128	0x3e0a995c	0.13535064
129	0x3e0c2050	0.13684201
130	0xbe0b9ddb	-0.13634436
131	0x3defb1a7	0.11703806
132	0xbd82342f	-0.063576095
133	0x3e3057c3	0.17220978
134	0xbcb3cdd1	-0.021948727
135	0x3d85327d	0.065037705
136	0xbe594139	-0.21216287
137	0xbdb34496	-0.08753316
138	0xbc837892	-0.016048703
139	0x3d6e5124	0.05818285
140	0xbcc55955	-0.024090448
141	0xbbe25a48	-0.006907735
142	0x3ca7d107	0.020485414
143	0x3d1cc76f	0.038276132
144	0xbd0eb734	-0.034842685
145	0x3cad2a59	0.021138357
146	0x3e9b73ad	0.3036169
147	0x3e00bff9	0.12573232
148	0xbc5b2a11	-0.013376729
149	0x3dfa27e7	0.12214642
150	0x3e762ffa	0.24041739
151	0xbdde0b2c	-0.108419746
152	0x3cd79b88	0.02631928
153	0xbe1f9906	-0.15585718
154	0x3e063cd6	0.13109145
155	0x3d2e2217	0.04251298
156	0xbeb3aab4	-0.35091174
157	0xbd25ec97	-0.040508833
158	0xbc822793	-0.015888011
159	0x3d1db7ad	0.038505245
160	0x3d759dac	0.05996482
161	0x3ed3b7d7	0.41351196
162	0x3db3eb36	0.08785097
163	0x3cee3ff7	0.029083235
164	0x3dd15b0c	0.10222444
165	0x3dfac264	0.12244108
166	0x3d243ef6	0.040099107
167	0xbe9f77ce	-0.3114609
168	0x3e6dba84	0.23215681
169	0xbd84af17	-0.06478708
170	0xbd8791df	-0.066196196
171	0xbda60c71	-0.08107842
172	0xbd6390b4	-0.05555792
173	0x3c94c043	0.018158084
174	0x3df714d9	0.12064523
175	0x3dc857f0	0.09782398
176	0x3d8f0221	0.06982828
177	0x3b059aac	0.002038638
178	0x3bff9d47	0.0078007313
179	0xbdeef691	-0.116681226
180	0x3d545a5d	0.05184399
181	0x3d5debf3	0.054180097
182	0x3d1d6f92	0.03843648
183	0x3df252fe	0.11832236
184	0x3d428230	0.047487438
185	0x3c858ba6	0.016301941
186	0x3dc1ab97	0.09456556
187	0xbc11fb09	-0.008909949
188	0x3e5ca936	0.21548924
189	0x3e9899fb	0.29804978
190	0x3e04d151	0.12970473
191	0x3d2166b6	0.039404593
192	0x3d14cab4	0.036326125
193	0xbd97559c	-0.073893756
194	0x3e2a41ad	0.16626616
195	0x3e7a6f22	0.24456456
196	0xbd8ab6d4	-0.06773153
197	0x3d42a6c1	0.04752231
198	0xbd676458	-0.05649218
199	0x3e13f6d0	0.1444962
200	0xbd421681	-0.047384743
201	0x3e1fdf83	0.15612607
202	0x3dce11f1	0.10062016
203	0x3e549d49	0.20763125
204	0x3d9e4315	0.07727639
205	0x3d7c8b59	0.06165633
206	0x3e26486f	0.16238569
207	0x3dd9140f	0.10599529
208	0xbe1eb906	-0.15500268
209	0x3e848dce	0.25889438
210	0x3d960e56	0.07326953
211	0xbe267036	-0.16253743
212	0x3e1d43ad	0.15357848
213	0x3e4f97d1	0.20272757
214	0x3e2ebb4f	0.1706364
215	0xbb14ff85	-0.002273531
216	0x3c53ef56	0.01293548
217	0xbc5b419e	-0.013382344
218	0x3e3499e4	0.1763683
219	0xbdb02dd0	-0.08602488
220	0xbd30e7ea	-0.04318992
221	0xbcb6cce8	-0.022314504
222	0x3e4570a0	0.19281244
223	0x3d9e1877	0.0771951
224	0x3e0ece68	0.13945925
225	0x3e08c006	0.13354501
226	0xbc69735f	-0.014248698
227	0x3df57441	0.11985064
228	0xbcf4a0f0	-0.029861897
229	0xbd35b94f	-0.044366177
230	0xbdf07822	-0.117416635
231	0xbe03d296	-0.12873301
232	0xbdcad1d3	-0.09903302
233	0x3dec9243	0.11551335
234	0xbd4b4680	-0.04962778
235	0xbe33019b	-0.17481081
236	0xbc23dd70	-0.010001525
237	0xbda7697c	-0.081744164
238	0xbd512bd7	-0.0510672
239	0x3e62dc2c	0.22154301
240	0xbdb81319	-0.089880176
241	0xbc6c3467	-0.014416791
242	0x3eac693f	0.33674046
243	0xbd20811c	-0.03918563
244	0x3cabec38	0.020986661
245	0xbdb3eee2	-0.08785798
246	0x3de42320	0.11139512
247	0xbb39d4ba	-0.0028355555
248	0xbd3639ce	-0.04448872
249	0x3e422ade	0.18961665
250	0xbd0195e1	-0.031637076
251	0xbc8fa737	-0.017535789
252	0x3e574338	0.21021736
253	0xbbd74c43	-0.0065703704
254	0xbdb900ee	-0.090333804
255	0x3d39dead	0.045378376

bias f4 [729]
0	0xbda4c8a1	-0.080460794
1	0x3dd8ba33	0.1058239
2	0xbeb7bb55	-0.3588511
3	0xbeb30542	-0.3496495
4	0xbe88584d	-0.26629868
5	0xbe7b31e7	-0.24530755
6	0xbebc771c	-0.36809623
7	0xbe92116e	-0.28528923
8	0xbe7dd8e9	-0.24789776
9	0xbe0a12a6	-0.13483676
10	0xbd224003	-0.039611828
11	0xbe3d171a	-0.18465844
12	0xbe26db9a	-0.16294709
13	0xbdd13890	-0.102158666
14	0xbd9c07e4	-0.076186925
15	0xbcb05281	-0.021523716
16	0x3e09a060	0.13440084
17	0xbeb4dcd9	-0.35324743
18	0xbee30984	-0.44343197
19	0x3e851e52	0.25999695
20	0xbe70c1f4	-0.23511487
21	0xbea29832	-0.3175674
22	0xbe2a35ef	-0.16622137
23	0xbc5f8d59	-0.01364454
24	0xbf6199de	-0.8812541
25	0xbe5f3579	-0.21797742
26	0xbdbdf0b8	-0.09274429
27	0xbc7b464e	-0.015336586
28	0x3d1f42ff	0.03888225
29	0xbe867f8d	-0.2626919
30	0x3e0be71b	0.13662378
31	0xbde5b862	-0.11216809
32	0x3d9db208	0.076999724
33	0xbe056def	-0.13030218
34	0xbe3cff9e	-0.18456885
35	0xbdc9cf69	-0.098540135
36	0xbd099ec4	-0.033598676
37	0xbe345d44	-0.17613703
38	0x3c921a61	0.017834844
39	0x3e1d8ad9	0.15384997
40	0x3e64351e	0.22285888
41	0xbda2b6cd	-0.07945023
42	0x3d9b69e1	0.07588554
43	0x3a573eee	0.00082109764
44	0x3d859ca5	0.06524018
45	0xbf079f0f	-0.5297708
46	0xb94896a9	-0.00019129612
47	0xbe8414ca	-0.2579711
48	0xbe300329	-0.17188706
49	0xbce63b0b	-0.028104326
50	0x3d37bcdd	0.04485785
51	0xbe24ee88	-0.16106617
52	0xbb7ac826	-0.003826627
53	0xbe90e6e7	-0.28301165
54	0xbeeeef69	-0.4666703
55	0xbe47e07a	-0.19519225
56	0xbe88236a	-0.2658952
57	0xbe7c7e8c	-0.24657649
58	0xbe34ec2d	-0.17668219
59	0xbd30ee67	-0.04319611
60	0xbdce1466	-0.100624844
61	0x3dc05f3f	0.09393167
62	0xbecbf3c9	-0.3983443
63	0xbe816ff4	-0.25280726
64	0x3e4dcc39	0.20097436
65	0xbf27f20a	-0.656037
66	0xbddd12eb	-0.10794624
67	0x3e4e3d03	0.20140462
68	0xbdfc6e01	-0.12325669
69	0xbe9d85f2	-0.30766255
70	0x3e051d5f	0.12999485
71	0xbd4c6c81	-0.049908165
72	0xbe660b75	-0.22465308
73	0xbe173a5e	-0.14768359
74	0xbd06488f	-0.03278404
75	0xbd51e4bd	-0.051243532
76	0x3d450984	0.048104778
77	0xbe819a74	-0.2531315
78	0xbe886015	-0.26635805
79	0xbdbffa49	-0.0937391
80	0xbdde4c82	-0.108544365
81	0xbf0312f9	-0.51200825
82	0x3e7aaac9	0.24479212
83	0xbe62bd42	-0.22142509
84	0xbf28ccd1	-0.65937525
85	0xbd31cbf6	-0.043407403
86	0xbe6a22c1	-0.2286482
87	0xbe7085e1	-0.23488571
88	0x3e1584ea	0.14601484
89	0xbef5b863	-0.47992238
90	0xbee2adc5	-0.442732
91	0x3c4238e5	0.011854385
92	0xbdab078d	-0.083510496
93	0x3d6f4fdd	0.058425773
94	0xbe9777b0	-0.29583502
95	0xbeefe174	-0.46851695
96	0xbe9d6995	-0.30744615
97	0x3e0c8192	0.13721302
98	0x3d70b250	0.058763802
99	0xbeadfced	-0.3398203
100	0xbe554bcc	-0.20829695
101	0xbdac1349	-0.08402116
102	0xbe80fc31	-0.25192407
103	0x3cd14834	0.025547124
104	0xbe284aed	-0.16434832
105	0xbe91270d	-0.28350106
106	0xbe84d2cd	-0.25942078
107	0xbcff5dd5	-0.031172672
108	0x3d8334e3	0.06406572
109	0x3d58128d	0.052752066
110	0xbe7cfdf4	-0.2470625
111	0xbd37774d	-0.04479151
112	0xbe11a091	-0.14221407
113	0x3d879126	0.06619482
114	0xbecac58a	-0.39603835
115	0x3cc628d5	0.024189392
116	0xbd06d7f2	-0.032920785
117	0xbea2f280	-0.31825638
118	0xbe1c6538	-0.15272987
119	0xbd4a138c	-0.049335048
120	0x3dad249c	0.08454248
121	0xbd85ff91	-0.06542886
122	0xbdb6e062	-0.089295164
123	0xbe2b6f92	-0.1674178
124	0xbddeac59	-0.108727165
125	0xbe527efe	-0.20556256
126	0x3c4f3b43	0.012648406
127	0x3cadb710	0.021205455
128	0xbdf3fc80	-0.11913395
129	0xbe3d2012	-0.18469265
130	0x3e5b9e96	0.21447214
131	0xbcf5e1e7	-0.030014945
132	0xbcd46bce	-0.025930312
133	0x3bf3d087	0.00744063
134	0xbdea72f4	-0.11447707
135	0x3e6bda77	0.23032556
136	0x3d96e403	0.073677085
137	0xbdb9dbc8	-0.09075123
138	0xbdea489f	-0.114396326
139	0x3d7a6a2d	0.061136413
140	0xbea4b41e	-0.32168669
141	0xbd8df74c	-0.06931934
142	0x3d17d99b	0.03707276
143	0xbdf7b575	-0.12095157
144	0xbf1631df	-0.5866985
145	0x3d9a93cb	0.075477205
146	0xbd7bcab0	-0.061472595
147	0xbe0ae099	-0.1356224
148	0xbe3cd7f5	-0.18441756
149	0xbda4c694	-0.08045688
150	0xbe12333f	-0.14277361
151	0xbe53fa3a	-0.20700923
152	0xbea28596	-0.31742543
153	0xbf353406	-0.70782506
154	0xbea55f88	-0.32299447
155	0xbe8ce669	-0.2751954
156	0xbe2fe3e7	-0.17176782
157	0xbd8cb024	-0.06869534
158	0xbddb7c5a	-0.107170776
159	0xbed9f7a7	-0.42571756
160	0xbb6af382	-0.0035850708
161	0xbe88c4c1	-0.2671261
162	0xbf183eb2	-0.59470665
163	0xbd68357c	-0.05669163
164	0xbe8dc918	-0.27692485
165	0xbdef3c2f	-0.11681401
166	0x3d168ec5	0.03675725
167	0x3d909834	0.070602804
168	0xbed3f6b5	-0.4139916
169	0xbe0409e2	-0.12894395
170	0xbdfca193	-0.12335505
171	0xbee850b0	-0.4537406
172	0xbe00c42d	-0.12574835
173	0xbd310054	-0.043213204
174	0xbec9a726	-0.39385337
175	0xbda5c83f	-0.080948345
176	0xbe060e69	-0.13091435
177	0xbe71f4e2	-0.23628572
178	0xbdd1baea	-0.10240729
179	0xbe07a4e4	-0.13246495
180	0xbf3ee346	-0.7456554
181	0x3d1cb2b2	0.038256355
182	0x3d6c3616	0.057668768
183	0xbe549899	-0.20761336
184	0xbd905861	-0.07048107
185	0xbe735ba5	-0.23765428
186	0x3cbd429c	0.02310305
187	0xbdabd80b	-0.08390816
188	0xbe2f526f	-0.1712129
189	0x3d477a31	0.048700515
190	0x3ceb0bd3	0.028692162
191	0x3df4368d	0.11924467
192	0xbe86f75c	-0.26360595
193	0xbebbf092	-0.36706978
194	0xbe3a168e	-0.18172666
195	0xbf026eed	-0.5095051
196	0xbd404b33	-0.046946716
197	0xbe03762d	-0.12838049
198	0xbed1fbbf	-0.4101238
199	0x3d0db4c0	0.034596205
200	0xbe3a0844	-0.18167216
201	0xbe75a48e	-0.23988554
202	0xbcaebf8f	-0.021331577
203	0x3e018401	0.12648012
204	0xbe8e1b49	-0.27755192
205	0xbe6d8814	-0.23196441
206	0xbe3d6d48	-0.18498719
207	0xbd290dd8	-0.041272968
208	0x3d75404e	0.05987578
209	0xbe1b72e5	-0.15180548
210	0xbe6edb51	-0.2332585
211	0xbe06cf1f	-0.13164948
212	0xbd8f6db3	-0.07003345
213	0xbd958822	-0.07301356
214	0x3c8cbfac	0.01718124
215	0x3da22a90	0.079182744
216	0xbe8bad17	-0.27280495
217	0xbe9f0af3	-0.3106304
218	0x3e1318a8	0.14364874
219	0xbf5b39af	-0.85634893
220	0x3d8f1dae	0.06988083
221	0xbf03cf42	-0.51488125
222	0xbed46af0	-0.41487837
223	0xbe1d46cb	-0.15359037
224	0xbec7e3d5	-0.3904101
225	0xbf077b1e	-0.52922237
226	0x3d58518e	0.05281215
227	0xbe1d75d1	-0.15376975
228	0x3cd496d8	0.025950834
229	0xbebb6d16	-0.36606663
230	0xbd51ca7a	-0.051218487
231	0xbe6a8c2a	-0.22905031
232	0x3cde4393	0.027131831
233	0xba9b5293	-0.001185017
234	0xbe494b15	-0.19657548
235	0x3c18ed81	0.009333969
236	0xbedea430	-0.4348464
237	0xbe3d837f	-0.18507193
238	0x3e0c3c5b	0.13694899
239	0xbec1ad80	-0.37827682
240	0xbc16e889	-0.009210714
241	0x3d8e5244	0.06949285
242	0xbdb2c4f0	-0.08728969
243	0xbe976819	-0.29571608
244	0xbca8ba3d	-0.020596618
245	0xbe72eb39	-0.23722543
246	0x3d8f6772	0.070021525
247	0xbd0f61e8	-0.03500548
248	0xbd005d98	-0.031339258
249	0x3d091f4e	0.03347712
250	0x3cc829a6	0.024433922
251	0xbe2cfc1b	-0.16893046
252	0xbe8a739e	-0.27041334
253	0xbda52ebb	-0.08065554
254	0x3e573b3d	0.21018691
255	0xbe2a14a8	-0.16609442
