saved_models/08-04 15:22.pth (torch, 398927 bytes, 8 tensors)

weight f4 [64, 6]
0.11858571 -0.13036217 -0.08994028 0.053887513 -0.06748762 0.3993995 0.30783796 -0.22649941
0.2634032 0.4710979 0.28267393 -0.10214087 0.42248997 0.18208276 0.4608998 -0.04904935
-0.48826513 0.26346317 -0.23212391 -0.058876954 0.027034838 -0.0028651094 0.3738767 -0.21893214
0.29455623 -0.05906524 0.019117026 0.09657691 -0.5267618 0.42554128 0.033702713 0.35771093
0.4754289 -0.35972032 -0.480697 -0.12468952 -0.5268863 -0.18121399 -0.3343318 -0.16678014
0.29777053 0.15107107 -0.027351031 -0.30189946 -0.26481006 0.16645454 -0.5797287 -0.56867456
-0.2790946 -0.336767 0.2851065 0.3584011 0.0025885836 -0.31505704 0.32570606 0.18297051
-0.6596949 -0.14045817 0.4730534 -0.33402634 0.165807 -0.17879725 -0.25171944 0.05667905
0.059490465 0.6573479 -0.45422897 0.05228443 0.042941775 -0.15573531 0.5246455 0.38825482
0.0057064956 0.16159728 0.8680207 0.0023331027 0.5847244 -0.0776756 0.5439628 0.14463952
0.17094943 0.11304504 -0.0073022186 -0.39426345 0.16269551 0.033330057 0.5253242 0.0035133648
-0.31096599 0.52267694 0.41915855 0.40391955 -0.020436244 -0.24689272 -0.14755924 -0.23744962
-0.08743245 -0.054816917 -0.24829152 -0.06319591 -0.003327761 -0.46453875 0.06944211 -0.17376792
-0.36807892 -0.042319532 -0.35783276 0.18708454 0.0020484384 0.2648912 0.30088922 -0.419996
-0.14848612 0.5821797 -0.11434769 0.15768729 0.3970119 -0.0969119 0.21550742 0.057523742
-0.28064868 0.06586146 -0.08696164 -0.24513707 -0.007275582 -0.06256714 0.054633092 -0.31345066
-0.40117377 0.37440208 0.5866742 0.014047816 -0.11072014 -0.08314101 -0.025055509 0.04723514
-0.03595241 -0.3768198 -0.07515743 -0.29596356 -0.35261747 0.18413074 -0.32866508 0.57370365
-0.13110185 0.14660566 0.15804738 0.012664708 0.31285244 -0.30770168 0.19690792 -0.00460691
-0.34739587 0.10253954 -0.32788566 -0.7248403 -0.15249625 0.3283924 0.2344942 -0.2823652
-0.30739835 -0.64610136 0.04453121 -0.12359037 0.6475528 0.23236014 0.46727052 0.31291708
-0.22644933 0.2819307 0.4592094 -0.40560442 -0.4578068 0.5830139 -0.47091946 -0.2652716
0.2895952 0.1115027 0.24010527 0.10081856 0.06201012 -0.24392201 -0.36476856 0.16211641
-0.26754266 0.060650434 0.02241095 -0.22173148 -0.10950439 -0.0157703 -0.47217175 0.49405733
-0.11077014 -0.099002615 0.37370163 0.16405328 -0.6100805 -0.74659467 -0.0037727961 -0.06703927
-0.14689563 0.10799835 -0.47449633 -0.90115845 -0.37613982 0.030133693 -0.07691517 -0.041884877
0.63272864 -0.2716836 0.17670904 -0.23789847 -0.4410453 0.41351646 0.39563596 -0.68302
-0.2996196 -0.3382426 -0.42387062 0.08499105 -0.4244592 0.3076051 0.038710322 -0.1950672
0.46448302 0.3137137 0.22786301 0.20839302 0.35053998 0.083032645 0.5280119 0.17409065
0.5968947 0.5939331 -0.19375747 0.027120821 -0.13142061 -0.10968122 -0.44489223 -0.5101599
0.2101254 -0.16595614 0.035727475 0.36639425 0.6347278 -0.43458384 -0.39414448 -0.1552128
-0.031692293 -0.12806582 0.146079 0.5079784 0.06260193 -0.003368291 0.057593092 -0.060204905
00000000: 11dd f23d a97d 05be 9c32 b8bd 27b9 5c3d
00000010: f336 8abd 177e cc3e f09c 9d3e 76ef 67be
00000020: c9dc 863e be33 f13e a3ba 903e 3c2f d1bd
00000030: 9b50 d83e e773 3a3e 0ffb eb3e f9e7 48bd
00000040: e3fd f9be a5e4 863e e4b1 6dbe f628 71bd
00000050: 2a78 dd3c 8fc4 3bbb c46c bf3e bf2f 60be
00000060: 13d0 963e 65ee 71bd 4f9b 9c3c 1dca c53d
00000070: dcd9 06bf 8ce0 d93e db0b 0a3d e325 b73e
00000080: 6b6b f33e 432d b8be eb1d f6be 385d ffbd
00000090: 05e2 06bf 2990 39be 8a2d abbe 6ac8 2abe
000000a0: 6175 983e 60b2 1a3e 450f e0bc 9192 9abe
000000b0: 2f95 87be 0f73 2a3e 1a69 14bf a894 11bf
000000c0: 7de5 8ebe b96c acbe 7bf9 913e 5980 b73e
000000d0: 3aa5 293b 284f a1be f2c2 a63e 9f5c 3b3e
000000e0: c4e1 28bf 44d4 0fbe 0e34 f23e 8005 abbe
000000f0: 4fc9 293e a016 37be 5fe1 80be 4b28 683d
00000100: 46ac 733d f447 283f b390 e8be 3328 563d
00000110: b7e3 2f3d 1479 1fbe 2b4f 063f 56c9 c63e
00000120: 8efd ba3b c279 253e 9b36 5e3f f8e6 183b
00000130: 80b0 153f 6314 9fbd 2541 0b3f 621c 143e
00000140: 5e0d 2f3e 2884 e73d 7347 efbb e6dc c9be
00000150: a799 263e 1985 083d a67b 063f 7b40 663b
00000160: ef36 9fbe 28ce 053f f39b d63e 8bce ce3e
00000170: e969 a7bc 72d1 7cbe c519 17be fe25 73be
00000180: c90f b3bd b487 60bd 2240 7ebe db6c 81bd
00000190: 9116 5abb 06d8 edbe aa37 8e3d 38f0 31be
000001a0: d774 bcbe 3f57 2dbd db35 b7be 1793 3f3e
000001b0: 183f 063b d29f 873e 270e 9a3e b709 d7be
000001c0: bf0c 18be bb09 153f 1f2f eabd c778 213e
000001d0: 2545 cb3e bf79 c6bd faad 5c3e 049e 6b3d
000001e0: 2fb1 8fbe 60e2 863d f218 b2bd 3605 7bbe
000001f0: 0168 eebb 3323 80bd f3c6 5f3d 9b7c a0be
00000200: a666 cdbe a1b1 bf3e 4830 163f d028 663c
00000210: 3ec1 e2bd d545 aabd 3641 cdbc a279 413d
00000220: d642 13bd 86ee c0be 23ec 99bd 8988 97be
00000230: 478a b4be c58c 3c3e ca46 a8be 3ede 123f
00000240: 903f 06be cb1f 163e 2cd7 213e a37f 4f3c
00000250: 322e a03e 138b 9dbe 3ba2 493e 90f5 96bb
00000260: dfdd b1be 4000 d23d a1e0 a7be 228f 39bf
00000270: fa27 1cbe 0c23 a83e 3f1f 703e 2c92 90be
00000280: 5163 9dbe e666 25bf 5c66 363d f31c fdbd
00000290: 05c6 253f d1ef 6d3e 153e ef3e ab36 a03e
000002a0: 55e2 67be 3959 903e 7f1d eb3e 62ab cfbe
000002b0: a765 eabe 6640 153f 5b1c f1be aed1 87be
000002c0: d245 943e 875b e43d 28de 753e f679 ce3d
000002d0: 53fe 7d3d b1c6 79be f2c2 babe d801 263e
000002e0: 5afb 88be 976c 783d 2b97 b73c 940d 63be
000002f0: d643 e0bd b730 81bc 7fc0 f1be 15f5 fc3e
00000300: 75db e2bd e2c1 cabd d255 bf3e 95fd 273e
00000310: 3c2e 1cbf d420 3fbf 0441 77bb e34b 89bd
00000320: cf6b 16be 3d2e dd3d 2ff1 f2be 52b2 66bf
00000330: 6695 c0be efda f63c b385 9dbd 7a8f 2bbd
00000340: 81fa 213f 1d1a 8bbe 37f3 343e a89b 73be
00000350: b1d0 e1be 6eb8 d33e cc90 ca3e 66da 2ebf
00000360: bd67 99be 222e adbe 9205 d9be ca0f ae3d
00000370: b752 d9be 6a7e 9d3e b78e 1e3d b2bf 47be
00000380: b8d0 ed3e 159f a03e ec54 693e fb64 553e
00000390: fa79 b33e 050d aa3d ca2b 073f d244 323e
000003a0: 17ce 183f 000c 183f 5c68 46be 7c2c de3c
000003b0: 2093 06be 8ca0 e0bd eac8 e3be d799 02bf
000003c0: 1d2b 573e 68f0 29be f956 123d 0798 bb3e
000003d0: 857d 223f c681 debe 4ecd c9be 1bf0 1ebe
000003e0: c7cf 01bd b023 03be bc95 153e df0a 023f
000003f0: 7135 803d 8cbe 5cbb bce6 6b3d 6b99 76bd

bias f4 [64]
-0.1366086 0.08204925 -0.07828692 0.11703639 -0.20903255 0.24803859 0.34690955 0.4267465
-0.12803273 -0.058760796 -0.22229879 -0.6093099 -0.012884186 -0.03276642 0.12189078 0.47132182
0.007252014 0.5236738 0.36747 -0.61523324 -0.14655326 -0.026746295 -0.18319108 -0.20560628
-0.66951513 -0.20797905 0.09113388 0.13164769 0.22483632 0.15878509 0.20161648 0.29624638
0.15321562 0.3298255 -0.5205286 -0.30882955 -0.16584171 -0.37401924 -0.36815986 0.09815017
-0.17069896 0.08669989 0.4246947 -0.33434308 -0.014094759 0.1785335 -0.52705246 0.39007178
0.09283201 -0.25822344 -0.39607584 -0.21953815 0.28221843 -0.11618588 -0.34710616 -0.32034677
0.31423548 0.55307615 0.2275021 0.14827462 0.004329509 0.094409525 0.3293649 0.43244332
00000000: 20e3 0bbe 7009 a83d e554 a0bd c6b0 ef3d
00000010: a10c 56be d4fd 7d3e 219e b13e 847e da3e
00000020: 031b 03be 29af 70bd 4ba2 63be bcfb 1bbf
00000030: 3118 53bc 1536 06bd e0a1 f93d 1851 f13e
00000040: 4da2 ed3b 7c0f 063f 0725 bc3e ed7f 1dbf
00000050: 0f12 16be 0c1b dbbc 7196 3bbe 748a 52be
00000060: 5865 2bbf 76f8 54be 66a4 ba3d a7ce 063e
00000070: 7e3b 663e 8f98 223e 8d74 4e3e 9bad 973e
00000080: 8ee4 1c3e e3de a83e 5d41 05bf e81e 9ebe
00000090: 69d2 29be 737f bfbe 737f bcbe f502 c93d
000000a0: b5cb 2ebe b68f b13d 9571 d93e 042f abbe
000000b0: b4ed 66bc 7cd1 363e e9ec 06bf 7db7 c73e
000000c0: b51e be3d dd35 84be 74ca cabe 9cce 60be
000000d0: ef7e 903e ddf2 edbd e6b7 b1be 7e04 a4be
000000e0: 79e3 a03e 6696 0d3f 4ff6 683e 4dd5 173e
000000f0: 8ede 8d3b c859 c13d 84a2 a83e 3669 dd3e

weight f4 [150, 64]
-0.024610523 -0.013844399 -0.08904765 0.019093936 0.03225215 0.2053188 0.2437163 -0.012466989
-0.052879784 0.0690517 0.14797361 0.0014263494 0.2568361 0.11147671 -0.063905515 0.009187411
0.15682355 0.13769422 0.21823148 -0.102795295 0.1890719 0.032579664 0.076643296 0.005597774
-0.20715573 -0.024613785 0.0048199412 0.28909826 -0.026148431 0.04190649 -0.08273179 0.13723078
-0.05211282 0.016081339 0.03963092 0.027974581 0.00042893074 -0.09826456 -0.053801615 -0.014862218
-0.04799386 -0.055372674 0.12760395 -0.06306074 -0.011461711 0.21576582 -0.068894945 -0.13765061
-0.0533628 -0.04912736 -0.016804188 0.069315396 0.15638591 -0.09582307 -0.07241296 0.015607038
0.07507803 0.06530068 0.04730355 0.19556136 -0.16361736 -0.08522992 -0.0570141 0.13221836
0.12264327 0.11724097 0.017865011 0.05055239 -0.08078858 0.01148083 0.23220634 0.047339004
-0.1495929 0.06981815 -0.023822358 -0.052222546 -0.0047261077 -0.007614965 -0.03473198 0.011076619
0.19630672 0.10525687 0.16573131 -0.10913269 0.13451034 -0.07384199 0.11129556 -0.19637194
-0.18237562 -0.07191718 -0.000841775 0.0075169248 -0.056741208 0.04481661 0.048006985 0.09337959
0.04429236 0.07491122 -0.03450741 0.084651545 0.22075364 -0.1368101 0.01796073 0.049739476
0.014279896 0.05930252 -0.09431773 0.07512649 -0.019071948 -0.1339523 -0.004360712 0.08271304
0.05058024 -0.15463248 0.037815258 -0.10400723 -0.08611185 0.045597304 -0.14018533 -0.015951801
0.084684305 -0.027122708 0.22438556 0.11160853 0.096937746 0.028878586 -0.011373609 0.06656152
0.021885253 -0.16894595 0.18516053 -0.16545142 0.18006733 0.1948106 -0.14593801 -0.1052355
-0.23944788 -0.17897274 0.034156844 -0.059094176 0.021443551 -0.2074432 0.12247168 -0.002691791
-0.11990375 0.11759551 0.21994221 0.011388609 -0.147079 -0.124522015 -0.20049585 0.26222003
0.07567058 -0.14669277 -0.0701071 -0.113565646 0.37751478 -0.03399694 0.037606064 -0.060710285
-0.6872777 -0.25644752 -0.44521466 -0.55758685 0.04890589 -0.0021362957 0.17234807 -0.13139452
-0.59740764 -0.03873758 0.026156342 -0.25504798 0.20219025 -0.11165199 0.074221365 -0.15576649
0.12111415 -0.012408416 -0.079985015 0.07640563 -0.16354515 -0.009916306 0.021738598 0.14684229
-0.1905418 -0.2470732 0.07071392 0.29711315 0.06092087 -0.3817218 -0.1348034 -0.044631783
0.052903783 -0.48369324 -0.17967936 -0.029017182 0.08189099 -0.021277018 -0.0835137 -0.02951671
-0.45055673 0.10445712 0.021438956 -0.106178276 -0.25075698 -0.4858889 -0.49507302 0.04802903
-0.11186822 0.06982559 0.0611928 -0.044300187 -0.00015125667 -0.08234868 -0.014406225 0.21435866
-0.01549379 0.086582854 0.08466092 -0.2350197 0.20367773 -0.078859 0.10802437 0.10697871
-0.35186756 0.12272674 -0.24551742 -0.20234014 0.19723733 -0.9493623 -0.15679283 0.08342684
-0.034583684 -0.041148566 0.017921839 0.049932927 0.111639075 -0.24649715 0.12086641 -0.05802211
-0.025941841 -0.43991342 -0.87849 0.26622957 -0.053527445 -0.064154334 0.047183495 0.089246094
0.045466937 -0.48652434 0.019378705 -0.10252816 -0.08841766 -0.095312096 0.047608223 -0.14648566
00000000: 029c c9bc 9ed3 62bc 9d5e b6bd e36a 9c3c
00000010: d51a 043d 173f 523e c490 793e 5842 4cbc
00000020: 7998 58bd fa6a 8d3d 6586 173e 58f4 ba3a
00000030: 0580 833e e74d e43d e5e0 82bd cb86 163c
00000040: 5a96 203e b7ff 0c3e 1378 5f3e 5786 d2bd
00000050: 109c 413e 4172 053d 29f7 9c3d 886d b73b
00000060: a220 54be d9a2 c9bc 99f0 9d3b b004 943e
00000070: 3c35 d6bc 24a6 2b3d 496f a9bd 3a86 0c3e
00000080: 4174 55bd 03bd 833c 0854 223d f32a e53c
00000090: 1ce2 e039 ee3e c9bd 155f 5cbd a980 73bc
000000a0: 3695 44bd 75ce 62bd 9caa 023e fd25 81bd
000000b0: e6c9 3bbc b7f1 5c3e cb18 8dbd 48f4 0cbe
000000c0: f492 5abd c539 49bd f0a8 89bc 3bf5 8d3d
000000d0: a123 203e e33e c4bd 3f4d 94bd a9b4 7f3c
000000e0: 83c2 993d 5dbc 853d 5ec1 413d 3d41 483e
000000f0: 4f8b 27be 068d aebd 9e87 69bd 4064 073e
00000100: 652c fb3d 091c f03d a559 923c 0610 4f3d
00000110: 7c74 a5bd 171a 3c3c 80c7 6d3e 8be6 413d
00000120: e22e 19be d1fc 8e3d 1b27 c3bc 4fe7 55bd
00000130: 77dd 9abb f586 f9bb 1f43 0ebd b57a 353c
00000140: a104 493e ea90 d73d 78b5 293e f680 dfbd
00000150: 14bd 093e 783a 97bd edee e33d ba15 49be
00000160: adc0 3abe 5149 93bd 90aa 5cba 8950 f63b
00000170: 7869 68bd 9f91 373d f9a2 443d cc3d bf3d
00000180: e86b 353d 0e6b 993d a457 0dbd ca5d ad3d
00000190: 3e0d 623e f217 0cbe 6122 933c 9fbb 4b3d
000001a0: 3af6 693c 33e7 723d a729 c1bd ebdb 993d
000001b0: c63c 9cbc cb2a 09be 4ee4 8ebb 7465 a93d
000001c0: 3a2d 4f3d fa57 1ebe 2ce4 1a3d be01 d5bd
000001d0: 695b b0bd 3dc4 3a3d be8c 0fbe 5aad 82bc
000001e0: f76e ad3d 7130 debc 54c5 653e 0393 e43d
000001f0: 4c87 c63d c992 ec3c 6058 3abc 6851 883d
00000200: b448 b33c 2b00 2dbe b99a 3d3e 196c 29be
00000210: 9263 383e 6e7c 473e c670 15be b685 d7bd
00000220: d331 75be a144 37be 0ce8 0b3d bc0c 72bd
00000230: 63aa af3c fd6b 54be 6fd2 fa3d c268 30bb
00000240: 1990 f5bd ead5 f03d 8838 613e 4a97 3a3c
00000250: e19b 16be 6605 ffbd c94e 4dbe b441 863e
00000260: 2df9 9a3d a136 16be 5094 8fbd 1b95 e8bd
00000270: 9e49 c13e 6040 0bbd d108 1a3d 59ab 78bd
00000280: 6ef1 2fbf 174d 83be 2df3 e3be 03be 0ebf
00000290: 8b51 483d 1801 0cbb 037c 303e 498c 06be
000002a0: b5ef 18bf 4cab 1ebd d345 d63c a695 82be
000002b0: f60a 4f3e cca9 e4bd 5f01 983d 4081 1fbe
000002c0: b20a f83d ab4c 4bbc 2fcf a3bd 8e7a 9c3d
000002d0: 6178 27be 0078 22bc 2515 b23c d35d 163e
000002e0: 641d 43be c200 7dbe 76d2 903d 371f 983e
000002f0: 2a88 793d 0a71 c3be e709 0abe d1cf 36bd
00000300: a3b1 583d a4a6 f7be defd 37be 71b5 edbc
00000310: 77b6 a73d 244d aebc 3b09 abbd 07cd f1bc
00000320: 5faf e6be 9ded d53d c0a0 af3c ff73 d9bd
00000330: 3863 80be 6ec6 f8be 367a fdbe 17ba 443d
00000340: 2a1b e5bd b800 8f3d 4da5 7a3d 1d74 35bd
00000350: a79a 1eb9 6da6 a8bd 1608 6cbc d680 5b3e
00000360: aad9 7dbc 5a52 b13d b462 ad3d 01a9 70be
00000370: e590 503e d480 a1bd e23b dd3d a717 db3d
00000380: fc27 b4be 2858 fb3d eb68 7bbe 4132 4fbe
00000390: 95f8 493e 6809 73bf 4d8e 20be b1db aa3d
000003a0: 9fa7 0dbd 668b 28bd d2d0 923c 7886 4c3d
000003b0: 07a3 e43d c069 7cbe cf88 f73d 98a8 6dbd
000003c0: fc83 d4bc 553c e1be b8e4 60bf 3e4f 883e
000003d0: 983f 5bbd 5963 83bd 7b43 413d a8c6 b63d
000003e0: 8a3b 3a3d b819 f9be 17c0 9e3c 49fa d1bd
000003f0: 5114 b5bd fd32 c3bd d700 433d 5600 16be

bias f4 [150]
-0.18919945 -0.0874713 0.1579039 0.15845636 -0.064322814 -0.32534152 0.10511627 0.04906166
-0.17785443 -0.04436511 -0.020965356 -0.20937933 -0.0012659134 0.047795184 -0.004344387 0.004605784
0.06742754 -0.26535937 -0.0031578126 -0.1060056 -0.050191965 -0.075790666 -0.08914553 -0.09377319
-0.020459611 -0.11357509 -0.13393685 -0.07620365 -0.21881925 0.034887325 -0.11946264 0.07957479
-0.08893611 0.11537559 -0.18454692 -0.037059993 0.043621764 0.22459596 -0.07629093 -0.027073408
0.052339036 -0.25053295 -0.11803673 -0.20881988 0.0895697 -0.17188407 -0.25416544 -0.09764039
-0.16068952 -0.07480612 -0.17621823 0.17773442 -0.03298046 -0.09881509 0.17048517 0.14867288
-0.2010225 0.047079094 0.034430258 -0.21207465 -0.21620944 0.060472537 -0.20546599 -0.06062412
0.11492141 0.016050762 0.0062880116 -0.025464501 -0.17356366 -0.084416114 -0.15669441 -0.2983591
-0.24753423 -0.076511465 -0.008286548 -0.18164106 -0.2367772 -0.031425938 0.04683879 -0.17061995
0.003702843 -0.073526256 -0.018282939 0.09692844 0.061092887 0.0052005127 -0.07657531 0.0815365
-0.13176899 -0.18093583 -0.056721922 0.1676743 0.1323326 -0.19820046 -0.1917387 0.07108219
-0.120365575 -0.051010106 0.03079675 -0.08416653 -0.17402482 0.07406962 -0.12646025 -0.07790623
-0.12285353 -0.1183008 -0.30169025 -0.28428268 -0.081357874 0.083046906 -0.14883475 -0.23046432
-0.0670772 -0.14616843 0.0014287397 0.015123617 0.011450462 -0.12109738 0.00941771 -0.02574139
-0.022704678 -0.2767553 -0.14698586 0.09823846 0.073596165 -0.09753545 -0.14371128 -0.051680997
-0.07775355 -0.024963666 0.0010538661 -0.1298129 0.16338257 -0.04023548 -0.19699691 -0.088210605
-0.06327889 0.037498266 -0.07825747 -0.039462734 -0.12804237 0.1861064 -0.026012449 -0.13397594
0.19432783 -0.13239539 -0.076147445 0.05746929 -0.19924387 -0.20867725
00000000: 80bd 41be 2724 b3bd 8fb1 213e 6242 223e
00000010: aebb 83bd 2a93 a6be 3347 d73d e1f4 483d
00000020: 791f 36be 31b8 35bd 8abf abbc 8967 56be
00000030: 01ed a5ba e2c4 433d 5c5b 8ebb 1eec 963b
00000040: 7317 8a3d 2fdd 87be 4ef3 4ebb 7719 d9bd
00000050: 1796 4dbd 2338 9bbd ee91 b6bd 290c c0bd
00000060: ea9a a7bc 0f9a e8bd be26 09be a910 9cbd
00000070: 2712 60be 03e6 0e3d d4a8 f4bd 1cf8 a23d
00000080: 2324 b6bd 0a4a ec3d def9 3cbe 38cc 17bd
00000090: bcac 323d 7cfc 653e 6b3e 9cbd 0dc9 ddbc
000000a0: 7561 563d db45 80be 3ebd f1bd e1d4 55be
000000b0: 5270 b73d 6102 30be f921 82be aff7 c7bd
000000c0: cb8b 24be f333 99bd 8d72 34be 0300 363e
000000d0: 8516 07bd 915f cabd aa93 2e3e b43d 183e
000000e0: d8d8 4dbe 02d6 403d be06 0d3d 192a 59be
000000f0: 0266 5dbe 0db2 773d ad65 52be ff50 78bd
00000100: eb5b eb3d e37c 833c aa0b ce3b ee9a d0bc
00000110: acba 31be 5be2 acbd 8074 20be 86c2 98be
00000120: 9d79 7dbe 0bb2 9cbd 4dc4 07bc 1d00 3abe
00000130: b975 72be 7cb8 00bd 08da 3f3d ffb6 2ebe
00000140: 66ab 723b ef94 96bd 1ac6 95bc 6b82 c63d
00000150: 893c 7a3d 1069 aa3b 84d3 9cbd 9cfc a63d
00000160: 73ee 06be 3e47 39be 3f55 68bd d0b2 2b3e
00000170: 3282 073e 10f5 4abe 2657 44be 8a93 913d
00000180: 3a82 f6bd f9ef 50bd 7749 fc3c 805f acbd
00000190: 9033 32be d0b1 973d cc7e 01be 4d8d 9fbd
000001a0: a29a fbbd b147 f2bd 2577 9abe 808d 91be
000001b0: f59e a6bd 7f14 aa3d 2368 18be d7fe 6bbe
000001c0: c55f 89bd 2dad 15be 8d44 bb3a 0cc9 773c
000001d0: b89a 3b3c e701 f8bd bd4c 1a3c 9cdf d2bc
000001e0: 29ff b9bc dfb2 8dbe 7683 16be 3f31 c93d
000001f0: 96b9 963d aac0 c7bd 0d29 13be 74af 53bd
00000200: 413d 9fbd 9a80 ccbc e121 8a3a aced 04be
00000210: c34d 273e f5cd 24bd 8fb9 49be c3a7 b4bd
00000220: 5d98 81bd c897 193d 7445 a0bd ada3 21bd
00000230: 8a1d 03be ad92 3e3e 0f18 d5bc fd30 09be
00000240: e0fd 463e a892 07be 31f3 9bbd eb64 6b3d
00000250: 9606 4cbe 7daf 55be

weight f4 [100, 150]
-0.09427217 -0.14860015 -0.035479177 -0.035859726 -0.09032017 -0.27034917 0.13777578 -0.23160459
-0.15777786 -0.050978683 0.52327347 -0.001150495 0.033834223 -0.21422648 -0.011024175 0.03219652
0.09886492 -0.11854046 0.1325311 -0.40164188 -0.12095424 -0.0013843838 -0.11407542 0.063064456
-0.07883902 -0.12529016 -0.0058392147 -0.103105135 -0.018606514 0.2645507 -0.98499244 0.052412968
-0.11392744 0.15781367 -0.1120922 -0.50468993 -0.10055742 -0.4828123 -0.10204581 0.003840951
0.17131206 -0.08724724 -0.100409254 -0.021092596 -0.5960519 0.04253491 -0.075240165 0.21372113
-0.054562334 -0.14830193 -0.47422394 -0.0072874357 0.12337324 -0.9287229 0.009778945 0.036078442
-0.13490921 -0.10772351 0.14154193 -0.110188365 -0.071137846 -0.12677781 -0.1156684 0.14907922
0.10367737 -0.048494644 -0.2507348 -0.10834901 -0.10176596 -0.3327189 -0.10922278 -0.16170427
-0.054316718 -0.9498033 -0.3871983 0.006349583 -0.25094834 -0.061070096 -0.10660635 0.06095786
-0.28833824 0.1190822 -0.027754132 -0.5678577 -0.082146645 -0.16461904 -0.043386787 0.10003591
-0.34312165 -0.70681834 -0.24392112 0.023094356 -0.12250834 -0.02288491 -0.21146502 -0.08017291
-0.101881094 0.039028455 -0.16986248 -0.017991185 -1.0817986 -0.049159218 0.007868133 0.17246415
-0.110199556 0.015761755 -0.059812136 0.009344934 -0.2350369 -0.009930006 -0.08828466 -0.13609038
0.0029606111 -0.0018488397 -0.021309767 -0.13956606 -0.014630685 -0.02657919 -0.050189562 -0.074801944
0.139352 0.15465766 -0.10403058 0.027687682 -0.10228827 -0.079013 0.2683023 -0.16141735
0.02891964 -0.056352768 -0.005661999 0.012215447 0.124762274 -0.007398414 -0.11987765 -0.12599616
-0.11420896 0.066308 0.07160702 0.12667176 -0.043574214 0.16137604 -0.15266061 -0.116688766
0.029685376 -0.52736753 -0.11209222 0.06712183 -0.097318806 -0.12123658 -0.023530785 0.084308036
-0.08344604 -0.027339373 0.07950715 -0.1735798 -0.22461608 0.41588914 0.15845603 0.17067912
-0.16169822 0.115791366 0.20239986 0.14005056 0.05557896 -0.3676936 -0.13806239 0.07897809
-0.11223419 0.025009023 -0.053095087 -0.033177312 -0.08435505 0.097376704 0.016675483 0.06851594
0.09652389 0.11288002 -0.15069598 -0.5245968 0.024978533 0.03463279 0.07650105 -0.15386583
0.05947549 0.0073780715 -0.0093631875 -0.08899665 0.07546699 -0.008055527 -0.14934249 0.14760694
0.302493 0.052117422 -0.026323032 0.065569595 0.08236619 -0.23508006 0.093904816 0.072790876
0.4616117 0.13798104 0.0069946228 -0.22932404 -0.18157692 -0.049307913 0.25659966 -0.21957234
0.12277438 -0.010241264 0.20138665 -0.010948859 0.13535064 0.19738716 -0.40169865 -0.28849128
0.73308986 -0.48002532 0.114585444 0.134506 -0.09012429 -0.048912603 0.17567915 -0.5981392
0.3125354 0.023826841 0.14618386 -0.05017466 -0.054715104 0.15575582 0.041173518 0.23133329
0.13798867 -0.21119258 -0.47046393 0.042200115 0.081756726 0.014635311 0.25843868 0.3138705
0.313133 -0.039452843 -0.06342829 0.13879652 -0.07825581 -0.033763733 0.16462551 0.08671784
0.076146126 0.10469729 -0.0024019915 0.090340994 -0.06724929 -0.13253441 0.105010375 0.004137227
00000000: c411 c1bd a32a 18be 9d52 11bd a6e1 12bd
00000010: c8f9 b8bd 356b 8abe 1815 0d3e c129 6dbe
00000020: 8590 21be 06cf 50bd 40f5 053f 35cc 96ba
00000030: c195 0a3d 305e 5bbe be9e 34bc 80e0 033d
00000040: b179 ca3d 57c5 f2bd 3cb6 073e 01a4 cdbe
00000050: dbb6 f7bd 3674 b5ba 60a0 e9bd f027 813d
00000060: 5a76 a1bd 104c 00be e256 bfbb c928 d3bd
00000070: b06c 98bc 3073 873e 7728 7cbf fbae 563d
00000080: ca52 e9bd e899 213e 9890 e5bd 5c33 01bf
00000090: 0cf1 cdbd 2c33 f7be 65fd d0bd 77b8 7b3b
000000a0: 6e6c 2f3e aeae b2bd 5ea3 cdbd 61ca acbc
000000b0: db96 18bf 1639 2e3d 8417 9abd b6d9 5a3e
000000c0: c17c 5fbd 76dc 17be 7bcd f2be 71cb eebb
000000d0: 1cab fc3d c9c0 6dbf de37 203c fdc6 133d
000000e0: a425 0abe 259e dcbd 5ef0 103e 70aa e1bd
000000f0: b8b0 91bd 0bd2 01be 8ee3 ecbd 39a8 183e
00000100: cd54 d43d 52a2 46bd 5060 80be 16e6 ddbd
00000110: ac6a d0bd 225a aabe 31b0 dfbd ce95 25be
00000120: 357b 5ebd 4f26 73bf db3e c6be 2a10 d03b
00000130: 4d7c 80be a324 7abd 6e54 dabd f3ae 793d
00000140: 12a1 93be 5ee1 f33d a25c e3bc 1f5f 11bf
00000150: 803c a8bd e591 28be 58b6 31bd a1df cc3d
00000160: a4ad afbe 0cf2 34bf 75c6 79be 6030 bd3c
00000170: a7e5 fabd 2379 bbbc 498a 58be b231 a4bd
00000180: 09a7 d0bd 4ddc 1f3d 6ef0 2dbe 4062 93bc
00000190: 6078 8abf 2d5b 49bd 57e9 003c 719a 303e
000001a0: 4eb0 e1bd cc1e 813c 92fd 74bd 7e1b 193c
000001b0: 83ad 70be 77b1 22bc 96ce b4bd 475b 0bbe
000001c0: d006 423b c454 f2ba d291 aebc 68ea 0ebe
000001d0: 8ab5 6fbc 9abc d9bc 9293 4dbd c331 99bd
000001e0: 4ab2 0e3e 945e 1e3e fc0d d5bd 47d1 e23c
000001f0: 837c d1bd 91d1 a1bd eb5e 893e 974a 25be
00000200: e2e8 ec3c 29d2 66bd 4a88 b9bb 4c23 483c
00000210: 5d83 ff3d 656e f2bb 6a82 f5bd 2305 01be
00000220: 63e6 e9bd 7dcc 873d b4a6 923d 3eb6 013e
00000230: e07a 32bd c33f 253e 1053 1cbe 85fa eebd
00000240: bf2e f33c 8f01 07bf 9b90 e5bd 2c77 893d
00000250: 154f c7bd e24a f8bd a2c3 c0bc b1a9 ac3d
00000260: c2e5 aabd d2f6 dfbc a5d4 a23d e7be 31be
00000270: c201 66be 6cef d43e 4c42 223e 82c6 2e3e
00000280: 3894 25be 0624 ed3d e941 4f3e 6a69 0f3e
00000290: c3a6 633d 5642 bcbe 3a60 0dbe 44bf a13d
000002a0: 0adb e5bd b9df cc3c 3c7a 59bd efe4 07bd
000002b0: 57c2 acbd 706d c73d 069b 883c 1652 8c3d
000002c0: 51ae c53d a42d e73d 0c50 1abe fa4b 06bf
000002d0: c89f cc3c 1ddb 0d3d 95ac 9c3d 018f 1dbe
000002e0: 929c 733d c0c3 f13b 0e68 19bc e043 b6bd
000002f0: 708e 9a3d 54fb 03bc 3ded 18be 4626 173e
00000300: 5de0 9a3e 1479 553d 66a3 d7bc 5a49 863d
00000310: 9baf a83d d4b8 70be 2b51 c03d 6213 953d
00000320: 5e58 ec3e e74a 0d3e 2633 e53b ecd3 6abe
00000330: 4def 39be 18f7 49bd 0861 833e 92d7 60be
00000340: 2271 fb3d f9ca 27bc 4d38 4e3e d862 33bc
00000350: 5c99 0a3e dc1f 4a3e 72ab cdbe 21b5 93be
00000360: c7ab 3b3f e1c5 f5be c6ab ea3d f1bb 093e
00000370: 1593 b8bd 9558 48bd 3ce5 333e a71f 19bf
00000380: a404 a03e 8230 c33c 39b1 153e f283 4dbd
00000390: f21c 60bd 747e 1f3e 90a5 283d a2e2 6c3e
000003a0: e74c 0d3e de42 58be a6e0 f0be 07da 2c3d
000003b0: 1270 a73d f2c8 6f3c 1352 843e a2b3 a03e
000003c0: f852 a03e 4e99 21bd b1e6 81bd ad20 0e3e
000003d0: 9544 a0bd d74b 0abd 9793 283e 1f99 b13d
000003e0: 80f2 9b3d 886b d63d bb6a 1dbb b304 b93d
000003f0: ffb9 89bd 1ab7 07be ae0f d73d 9391 873b

bias f4 [100]
0.124718815 -0.30023655 0.19706544 0.2607169 0.09874664 0.08755695 -0.3635564 -0.25809646
-0.009068067 -0.0025308516 -0.25133312 0.24842645 0.22228183 0.296357 0.03349548 0.22201389
-0.107909195 0.07461087 0.06818022 0.17889473 -0.24198982 0.24242753 0.18530135 -0.13181141
0.08205995 0.25187406 0.17303613 0.127635 -0.053497247 -0.22254209 0.031074516 0.34363785
-0.25127938 0.12770395 -0.25702122 0.058289222 -0.36416766 0.09146887 0.036284942 0.013273867
-0.23499244 0.11446957 -0.058920182 -0.05930088 0.053406786 -0.31513467 -0.118626155 -0.13939296
-0.18995455 -0.16397935 -0.26761553 0.38064173 -0.15278544 0.5297285 -0.22861882 -0.13847488
0.36944684 -0.2199699 -0.23997125 -0.34962404 -0.14381038 0.0834251 -0.23926166 -0.012384282
-0.22424956 0.2616231 -0.054808635 0.023046883 0.35250542 -0.12039407 0.18203601 0.37273815
0.10410956 0.43257764 -0.009909907 -0.09470858 -0.027713917 0.22920859 0.23955539 -0.07705482
-0.3348965 0.055639572 -0.2483713 0.20342301 -0.19170147 0.0047684964 0.16891475 0.08089355
0.06695552 -0.13963006 -0.0047981488 -0.019557502 0.057400916 0.19632678 0.18429838 0.15591535
-0.03883215 -0.053816777 0.16438529 0.22658442
00000000: 946c ff3d 9bb8 99be 86cb 493e af7c 853e
00000010: ae3b ca3d 0f51 b33d 1124 babe 3825 84be
00000020: 3b92 14bc a5dc 25bb bcae 80be 8163 7e3e
00000030: d99d 633e 1bbc 973e 8e32 093d 9c57 633e
00000040: 7fff dcbd 95cd 983d 12a2 8b3d 2e30 373e
00000050: 2ecc 77be ec3e 783e a3bf 3d3e 92f9 06be
00000060: 0c0f a83d a3f5 803e 6230 313e c0b2 023e
00000070: ee1f 5bbd 13e2 63be fc8f fe3c 4df1 af3e
00000080: b1a7 80be d3c4 023e 4998 83be aec0 6e3d
00000090: 2f74 babe 0854 bb3d 859f 143d a27a 593c
000000a0: dca1 70be 066f ea3d 4a56 71bd 7be5 72bd
000000b0: 13c1 5a3d 5559 a1be 45f2 f2bd 07bd 0ebe
000000c0: 7283 42be 34ea 27be e704 89be 79e3 c23e
000000d0: c973 1cbe 499c 073f 0d1b 6abe 5ccc 0dbe
000000e0: 2328 bd3e ca3f 61be 06bb 75be ec01 b3be
000000f0: 0743 13be c7da aa3d 0201 75be 72e7 4abc
00000100: ada1 65be 77f3 853e 057f 60bd d1cc bc3c
00000110: 977b b43e 2b91 f6bd a667 3a3e 89d7 be3e
00000120: 6537 d53d d17a dd3e 2a5d 22bc 92f6 c1bd
00000130: 4c08 e3bc a8b5 6a3e 024e 753e ebce 9dbd
00000140: 8e77 abbe 52e6 633d 0c55 7ebe 1f4e 503e
00000150: 644d 44be 0c41 9c3b fdf7 2c3e 84ab a53d
00000160: fa1f 893d 2ffb 0ebe ca39 9dbb 0e37 a0bc
00000170: 391d 6b3d e309 493e b7b8 3c3e 46a8 1f3e
00000180: 760e 1fbd fb6e 5cbd 9e54 283e bf05 683e

weight f4 [729, 100]
0.05794307 0.004525121 0.14030601 -0.006115046 0.03416985 0.051387098 -0.05362877 -0.108405635
0.18315798 0.039195634 -0.22739094 0.1354375 0.05491731 0.109505124 0.08598678 0.04794755
-0.2947124 -0.18211205 0.049505714 0.0056282957 -0.24231184 0.18971802 0.04874099 -0.20442548
0.0038341195 0.20873916 0.06668758 0.031571858 -0.029444836 -0.0695314 -0.096395575 0.14751858
0.17281209 -0.0031950683 0.04936932 0.052471727 -0.18114348 -0.03430995 -0.06892997 0.028806623
0.070725486 0.08993053 -0.13699959 -0.11189094 -0.013991995 -0.23330477 -0.04074754 -0.06932106
-0.14731193 -0.27951372 -0.1858561 0.061706584 -0.15053686 0.11703426 -0.043252166 0.027733814
0.14853737 0.009678704 -0.06342326 -0.22453119 0.0130997365 -0.0015428266 -0.040304787 -0.0017472359
-0.26382196 -0.015848955 0.04276799 -0.07133601 0.040379614 0.02515461 0.061889593 0.13231738
0.04576306 0.09352449 0.031122746 0.0538958 0.15961961 0.09702625 0.020158727 -0.009402185
-0.245312 0.08064989 -0.14896202 0.064340316 -0.11110732 0.03723921 0.084409066 0.069369785
0.09530142 -0.13778876 -0.24157341 -0.17435193 -0.07281559 0.11325611 0.09311877 -0.017639566
-0.123715095 0.049533732 -0.03175421 -0.19813354 0.2580512 -0.28061792 0.09867122 -0.08289789
0.13160259 0.27656302 -0.120719135 0.12658794 -0.060844056 -0.31906715 -0.11027444 -0.0051263697
0.1310708 0.03103847 -0.26888964 0.088665806 -0.037470598 -0.2564925 0.0082336 -0.015391921
0.061456457 -0.09633411 0.21922581 0.09952566 0.26591316 0.05182257 0.18236846 0.18727362
0.072438784 -0.16369098 -0.07848757 0.17203489 0.13459745 0.28246346 0.0979598 0.20143844
-0.013173922 0.0028964418 0.06458807 -0.040340863 0.07738134 0.049783416 0.20653915 0.0887209
0.2420471 -0.15687871 -0.036879018 -0.045845717 -0.112300955 0.18762533 -0.05132026 -0.16827205
-0.05301326 -0.16828413 -0.13069926 -0.37351558 0.14768422 -0.20701557 -0.090486705 0.069264136
0.0016642613 0.087332636 0.21473123 -0.13752398 0.03754317 -0.02554315 0.2603043 0.14388411
0.087513916 -0.0047955457 -0.1303175 0.3282367 0.17374238 0.1845755 0.07032558 -0.24589978
-0.03131472 0.11931231 -0.084005274 -0.23486604 -0.07243002 0.22116536 -0.04653336 0.4593131
0.08793445 -0.019164504 0.03176194 -0.17864747 0.25099885 0.041088637 0.116852425 0.048973463
0.21565993 0.119363986 0.269691 -0.124072984 -0.0708612 -0.0048243674 0.062354136 -0.018405855
0.022325095 -0.102779865 0.053922072 0.065253496 0.07115646 -0.027390022 -0.20766632 -0.024638355
-0.09980871 -0.056050595 -0.19087347 0.18243839 0.12158937 0.080740474 -0.28441012 -0.24179113
-0.10210266 -0.052579902 0.10972385 0.13387038 -0.17249668 -0.07813171 0.07511489 -0.14446789
0.118901886 0.15057075 -0.19844814 -0.0005169377 -0.01680032 -0.07142883 -0.10271758 0.18128675
-0.015054469 -0.1151839 -0.13986199 -0.034313235 -0.10829977 0.05631434 -0.059296012 0.0917594
-0.028226452 0.057706334 0.08433756 0.09326637 0.061849624 -0.25237823 -0.12890773 -0.19046764
-0.18058757 -0.14893979 -0.17266858 -0.016258437 -0.27374083 0.047623057 -0.016938737 0.005883494
00000000: b655 6d3d 7747 943b 61ac 0f3e b960 c8bb
00000010: aff5 0b3d 477b 523d d7a9 5bbd c603 debd
00000020: c48d 3b3e 9a8b 203d 2cd9 68be 21b0 0a3e
00000030: f9f0 603d 3944 e03d d619 b03d a664 443d
00000040: 8be4 96be 957b 3abe 81c6 4a3d 916d b83b
00000050: 9820 78be 7145 423e a2a4 473d ea54 51be
00000060: da45 7b3b b8bf 553e 7f93 883d 7e51 013d
00000070: 4c36 f1bc 7b66 8ebd 0b6b c5bd 1c0f 173e
00000080: a7f5 303e 5a64 51bb 7c37 4a3d 98ec 563d
00000090: ad7d 39be 9788 0cbd 282b 8dbd defb eb3c
000000a0: 86d8 903d 7f2d b83d 9f49 0cbe 1427 e5bd
000000b0: ae3e 65bc 72e7 6ebe e4e6 26bd 33f8 8dbd
000000c0: f0d8 16be 6c1c 8fbe 1051 3ebe 0bc0 7c3d
000000d0: 5626 1abe a8af ef3d 2f29 31bd 0632 e33c
000000e0: 2e1a 183e 6d93 1e3c 0ee4 81bd 81eb 65be
000000f0: 47a0 563c ac38 caba a216 25bd 8203 e5ba
00000100: ac13 87be abd5 81bc 7d2d 2f3d 9d18 92bd
00000110: 1865 253d 0a11 ce3c f17f 7d3d 357e 073e
00000120: 0c72 3b3d c589 bf3d 21f5 fe3c d8c1 5c3d
00000130: 5373 233e b3b5 c63d ea23 a53c 9f0b 1abc
00000140: 1233 7bbe c52b a53d 8089 18be dbc4 833d
00000150: 3c8c e3bd 2488 183d a9de ac3d bf11 8e3d
00000160: 642d c33d 7f18 0dbe 055f 77be 5089 32be
00000170: 5720 95bd d2f2 e73d 0eb5 be3d da80 90bc
00000180: 575e fdbd e2e3 4a3d b410 02bd 85e3 4abe
00000190: 491f 843e 27ad 8fbe 2314 ca3d 5ec6 a9bd
000001a0: d4c2 063e ab99 8d3e 983b f7bd 45a0 013e
000001b0: 9e37 79bd c55c a3be 91d7 e1bd 1bfb a7bb
000001c0: 6c37 063e 6444 fe3c e7ab 89be 6b96 b53d
000001d0: c57a 19bd fc52 83be 39e6 063c 652e 7cbc
000001e0: c4b9 7b3d d14a c5bd bb7c 603e 1cd4 cb3d
000001f0: c525 883e e743 543d ccbe 3a3e a8c4 3f3e
00000200: c95a 943d 9c9e 27be 17be a0bd ea29 303e
00000210: ead3 093e 0d9f 903e 269f c83d e145 4e3e
00000220: 6fd7 57bc 3bd2 3d3b c046 843d 763c 25bd
00000230: 1c7a 9e3d b2e9 4b3d 007f 533e 4eb3 b53d
00000240: 32db 773e d0a4 20be 740e 17bd b8c8 3bbd
00000250: 0bfe e5bd db20 403e 3135 52bd 824f 2cbe
00000260: 6f24 59bd ad52 2cbe 07d6 05be 6f3d bfbe
00000270: 883a 173e e4fb 53be 1851 b9bd 5bda 8d3d
00000280: 5823 da3a 74db b23d 81e2 5b3e 16d3 0cbe
00000290: dec6 193d de3f d1bc 9b46 853e 5b56 133e
000002a0: 7f3a b33d f423 9dbb f371 05be a40e a83e
000002b0: 86e9 313e 5c01 3d3e dc06 903d 27cd 7bbe
000002c0: dd43 00bd 035a f43d f50a acbd b980 70be
000002d0: 3156 94bd 2c79 623e c499 3ebd 162b eb3e
000002e0: fa16 b43d e1fe 9cbc cf18 023d 5def 36be
000002f0: ec82 803e 8f4c 283d 5350 ef3d 6698 483d
00000300: f5d5 5c3e 1b75 f43d f014 8a3e fa19 febd
00000310: ad1f 91bd ba15 9ebb 0d67 7f3d e0c7 96bc
00000320: 1ee3 b63c 407e d2bd 64dd 5c3d a0a3 853d
00000330: 7aba 913d 0a61 e0bc 7ba6 54be 60d6 c9bc
00000340: 8268 ccbd 4f95 65bd 5674 43be 21d1 3a3e
00000350: d903 f93d 435b a53d 349e 91be 1898 77be
00000360: 331b d1bd 065e 57bd e6b6 e03d 5115 093e
00000370: f8a2 30be 8503 a0bd d6d5 993d 64ef 13be
00000380: d582 f33d 382f 1a3e fd35 4bbe 1a83 07ba
00000390: d3a0 89bc 4749 92bd 985d d2bd 3ca3 393e
000003a0: 05a7 76bc 89e5 ebbd fb37 0fbe 098c 0cbd
000003b0: 45cc ddbd dea9 663d 60e0 72bd 5aec bb3d
000003c0: 293b e7bc 7a5d 6c3d 2cb9 ac3d 7002 bf3d
000003d0: 0856 7d3d b837 81be 6300 04be f309 43be
000003e0: f3eb 38be ac83 18be 08d0 30be 6a30 85bc
000003f0: c227 8cbe 6510 433d 1bc3 8abc 53ca c03b

bias f4 [729]
0.27510193 0.2106656 0.17249876 0.07024779 0.20452955 0.10018245 0.1624542 0.21156059
0.20094985 0.15275107 0.23427798 0.347042 0.11260957 0.017505186 0.16173337 0.09165187
0.26690537 0.24598426 0.10113046 0.23895104 0.23140752 0.26641452 0.25327924 -0.049992085
0.25332755 0.14915316 0.17063394 0.10908624 0.13222133 0.26492125 0.24881214 -0.027026046
0.05460104 0.060527924 0.21554096 0.21144837 0.2208239 0.23843421 0.12510642 0.18144517
0.216496 0.20498617 0.16765426 0.13368714 0.25892636 0.28936598 0.15416858 0.3233189
0.11583127 0.18002054 0.048633713 0.1332151 0.2857373 0.2818749 -0.08576543 0.21236168
0.28211316 0.18387501 0.19065255 0.32625082 0.116417214 0.24743819 0.29832143 0.12462478
0.19464348 0.094149664 0.09281117 0.24582894 0.08822661 0.17497241 0.3658862 0.18633223
0.16707659 0.3071167 0.094404615 0.19767146 0.2648658 0.22915584 0.13041122 0.19896425
0.16587834 0.18369637 0.15019448 0.12531905 0.04917736 0.1858381 0.24962413 0.14920978
0.3285507 0.21210639 0.13912153 0.19667108 0.04629183 0.11635692 0.30522835 -0.18365468
0.3314597 0.312532 0.25958997 0.2129043 0.12432169 0.34414244 0.39051569 0.07019176
0.21103026 0.30985144 0.028956456 0.27299365 0.28727588 0.009080961 0.13342148 0.24008757
0.2145335 0.29337218 0.27626002 0.20402454 0.280188 0.15905005 0.1598667 0.25954497
-0.03787992 0.067277975 0.2374212 0.07098556 0.1689912 0.3132963 0.16987403 0.26784834
0.10295041 0.24502952 0.15904337 0.30939955 0.19860905 0.04383699 0.14264026 0.22059366
0.2651599 0.34412995 0.09422041 0.10110438 0.23813486 0.3239397 0.10728795 0.23098132
0.01064187 -0.18563119 0.23726049 0.045078695 0.2574639 0.15440388 -0.079938106 0.1971361
0.10803936 -0.029058887 0.25217706 0.2419377 0.17208846 0.061472956 0.1773291 0.23510297
0.28017402 0.14715436 0.20340025 0.13373859 0.09366223 0.25739413 0.21187143 0.30867082
0.37130427 0.25061017 0.27515632 0.026598724 0.28841987 0.05824156 0.13290733 0.29298952
0.30841863 0.12354122 0.3252996 0.25868112 -0.053791218 0.23124836 0.3047609 0.1831969
0.29278138 0.163272 0.17984395 0.18330196 0.3688425 0.05965966 -0.0977273 0.3055028
0.33791292 0.12038701 0.24565205 0.2435764 0.19239114 0.26246038 0.27062723 0.0052295383
0.14113587 0.23457459 0.1079675 0.10871214 0.24530557 0.23750123 0.23338717 0.19570282
0.096546315 0.33691484 0.2720424 0.22259778 0.33057886 0.12971948 0.16131717 0.27382433
0.107831836 0.20006491 0.17098917 0.080925 0.20686327 0.14457723 0.13739948 0.08916194
0.30746794 0.2025832 0.20818666 0.2119912 0.29756144 0.17978041 -0.0071476623 0.05398435
0.22855687 0.0045187236 0.21917088 0.19570628 0.32073897 0.27178764 0.04032673 0.2396797
0.11957853 0.26639843 0.31224924 0.19322975 0.22788465 0.1300361 0.097973 -0.13494542
0.2226516 0.30119658 0.2786694 0.34152505 0.2350452 -0.27665943 0.13305184 0.23724662
00000000: 29da 8c3e b9b8 573e 84a3 303e 13de 8f3d
00000010: 3270 513e 752c cd3d 655a 263e 57a3 583e
00000020: ccc5 4d3e c76a 1c3e 91e6 6f3e 7daf b13e
00000030: d99f e63d 0967 8f3c 6f9d 253e fab3 bb3d
00000040: d2a7 883e 4ce3 7b3e 7d1d cf3d 95af 743e
00000050: 18f6 6c3e 7c67 883e d1ad 813e 80c4 4cbd
00000060: 26b4 813e 9bbb 183e aaba 2e3e 9b68 df3d
00000070: 0765 073e c2a3 873e 9cc8 7e3e ba65 ddbc
00000080: 57a5 5f3d 21ec 773d c5b6 5c3e ec85 583e
00000090: a91f 623e 1928 743e e61b 003e c3cc 393e
000000a0: 21b1 5d3e e5e7 513e 8fad 2b3e 48e5 083e
000000b0: ff91 843e c727 943e 5ede 1d3e 0e8a a53e
000000c0: f238 ed3d 4e57 383e 2534 473d 8a69 083e
000000d0: 294c 923e e851 903e c9a5 afbd 5775 593e
000000e0: 2371 903e bb49 3c3e 6c3a 433e 590a a73e
000000f0: 266c ee3d 7060 7d3e 96bd 983e 473b ff3d
00000100: 9f50 473e 8ad1 c03d c813 be3d 95ba 7b3e
00000110: 27b0 b43d f82b 333e 7055 bb3e e0cd 3e3e
00000120: 2016 2b3e 663e 9d3e 3557 c13d 636a 4a3e
00000130: 7d9c 873e d4a7 6a3e 858a 053e 49bd 4b3e
00000140: 03dc 293e e71a 3c3e 95cc 193e a353 003e
00000150: 336e 493d 584c 3e3e 789d 7f3e 73ca 183e
00000160: cc37 a83e 6b32 593e e075 0e3e 2564 493e
00000170: 809c 3d3d 894c ee3d e446 9c3e f90f 3cbe
00000180: 16b5 a93e 3204 a03e fae8 843e 9603 5a3e
00000190: 5f9c fe3d 7033 b03e acf1 c73e b3c0 8f3d
000001a0: 5118 583e d9a4 9e3e 1736 ed3c d3c5 8b3e
000001b0: d315 933e 50c8 143c a49f 083e 84d9 753e
000001c0: abae 5b3e e134 963e f471 8d3e cfeb 503e
000001d0: cd74 8f3e 04de 223e 19b4 233e 14e3 843e
000001e0: fa27 1bbd 09c9 893d 8b1e 733e e160 913d
000001f0: 070c 2d3e 5f68 a03e 75f3 2d3e 6b23 893e
00000200: aad7 d23d 05e9 7a3e 44dc 223e 9e69 9e3e
00000210: 2c60 4b3e 6a8e 333d 4a10 123e 4ee3 613e
00000220: 0ac3 873e cd31 b03e a1f6 c03d d00f cf3d
00000230: a0d9 733e 6ddb a53e c9b9 db3d 5e86 6c3e
00000240: 3d5b 2e3c 1a16 3ebe 6af4 723e 70a4 383d
00000250: 4fd2 833e 0d1c 1e3e 97b6 a3bd 0cde 493e
00000260: bd43 dd3d e70c eebc 5a1d 813e 84be 773e
00000270: f537 303e 11cb 7b3d c295 353e d5be 703e
00000280: f872 8f3e a2af 163e 2848 503e c5f2 083e
00000290: fcd1 bf3d 2ac9 833e d3f4 583e 1a0a 9e3e
000002a0: 981b be3e fa4f 803e 4ae1 8c3e 91e5 d93c
000002b0: c5ab 933e b48e 6e3d dc18 083e b902 963e
000002c0: 0ce9 9d3e 2e03 fd3d ab8d a63e da71 843e
000002d0: 2e54 5cbd 5fcc 6c3e 9f09 9c3e f897 3b3e
000002e0: 71e7 953e c630 273e 0329 383e 82b3 3b3e
000002f0: edd8 bc3e b05d 743d 4025 c8bd dd6a 9c3e
00000300: ec02 ad3e 778d f63d 368c 7b3e 186c 793e
00000310: 2f02 453e 3561 863e a78f 8a3e 8c5c ab3b
00000320: ec85 103e 5234 703e 111e dd3d 78a4 de3d
00000330: 6231 7b3e 8633 733e 0cfd 6e3e 5266 483e
00000340: 13ba c53d 1a80 ac3e 2449 8b3e acf0 633e
00000350: a241 a93e 2fd5 043e 5430 253e b432 8c3e
00000360: f0d6 dc3d d1dd 4c3e c917 2f3e 02bc a53d
00000370: f7d3 533e 0e0c 143e 73b2 0c3e 899a b63d
00000380: 706c 9d3e f871 4f3e e22e 553e 3914 593e
00000390: f959 983e 5b18 383e f036 eabb b21e 5d3d
000003a0: d00a 6a3e cd11 943b 556e 603e 3a67 483e
000003b0: e637 a43e c027 8b3e a42d 253d 986e 753e
000003c0: 97e5 f43d 6065 883e 22df 9f3e 05de 453e
000003d0: 985a 693e 2f28 053e 11a6 c83d 222f 0abe
000003e0: c8fe 633e 7036 9a3e c1ad 8e3e 5fdc ae3e
000003f0: b0af 703e 4ea6 8dbe be3e 083e c7f0 723e
