saved_models/08-04 21:17.pth (torch, 398927 bytes, 8 tensors)

weight f4 [64, 6]
000000 1c b4 39 3e 9c 59 0f bd 21 20 b3 bd b9 eb 04 3e
       0.18135113 -0.034997568 -0.087463625 0.12980546
000010 96 bf 9e bf 9d 2b e7 bf 1d 09 b1 bd 11 48 b6 bd
       -1.2402217 -1.8060185 -0.08644316 -0.08900464
000020 14 de ad bf 16 69 94 be c8 41 3d bf 92 44 87 be
       -1.3583398 -0.28986424 -0.739285 -0.26419502
000030 47 63 d9 3e d6 18 3d 3e bd 3a 63 bd cc 20 00 be
       0.42458555 0.18466505 -0.05547594 -0.12512511
000040 34 d6 10 bf 84 ed 6d bf 79 9d 81 be d7 84 66 bc
       -0.5657685 -0.92940545 -0.25315455 -0.014069757
000050 5a ab aa 3e 87 1c a4 bd 49 c4 05 bf 65 11 b3 bf
       0.33333856 -0.08013254 -0.5225263 -1.3989683
000060 bf ca 7e 3c 5a 9e 05 3c b3 28 24 3a 1e f4 a0 bc
       0.015551268 0.00815543 0.0006262168 -0.019647654
000070 c4 ff 77 3c 83 1d b5 3b b0 30 ed be 73 05 9d bd
       0.015136663 0.0055271997 -0.46326208 -0.07667055
000080 6a 8d ca be 35 0a 65 bd d3 99 57 bf ad d5 fb bf
       -0.39561015 -0.055917937 -0.8421909 -1.9674584
000090 da c3 9f be fc 2d 8b 3e 84 ee 16 3f 0a c0 9e be
       -0.3120411 0.2718352 0.58957696 -0.3100589
0000a0 42 9d 90 bf d3 de 83 bf 84 f1 cc 3e 17 05 ce 3d
       -1.1297991 -1.0302376 0.40028012 0.100595646
0000b0 8b a3 b3 3c 8d c7 9d 3d 3e 86 98 bf 7b ad d0 bf
       0.02192857 0.07704077 -1.1915967 -1.6302942
0000c0 66 67 d9 bc 91 6d 01 3c 51 0e 91 3d a3 09 3d bd
       -0.026538562 0.007899658 0.07082809 -0.04615177
0000d0 ef d8 e8 3e 0f 74 b2 3e 79 e1 22 bf e4 f1 b7 3e
       0.45478007 0.3485417 -0.63625294 0.35926735
0000e0 0f a0 e7 3f 72 5f b9 be 3d d0 37 3f a4 05 c1 bf
       1.8095721 -0.36205631 0.7180212 -1.5079846
0000f0 4a eb 40 3e ea b4 09 3e db 21 be 3d 36 2c 33 be
       0.18839756 0.1344792 0.09283801 -0.17497334
000100 6a 15 cc be 0e db 75 be ab 79 11 3b d9 e7 9a 3c
       -0.39860088 -0.24009344 0.0022197764 0.018909382
000110 39 02 20 bc 0a c1 de bc 72 b4 84 3d c1 4c 17 3d
       -0.009766155 -0.027191658 0.0647973 0.036938433
000120 f5 e0 83 3d b5 ef a2 3c f3 78 d7 be ac 08 11 be
       0.064393915 0.019889692 -0.42084464 -0.14163464
000130 61 59 a1 3f b4 a4 b5 3f 6e a2 01 3f 25 9c c4 bd
       1.2605401 1.4190888 0.50638473 -0.09600095
000140 a8 b3 88 3f db ee 54 3e 18 9e 75 bf f1 6a 0c 3f
       1.0679827 0.20794241 -0.95944357 0.5485068
000150 6f ae 21 3d 19 05 12 3c a3 fa b5 bc 03 11 1b bd
       0.039472993 0.008912348 -0.02221424 -0.03785802
000160 75 86 12 3d 02 6e 46 bd db 0e b7 be 80 23 1f 3e
       0.03577276 -0.048444755 -0.3575352 0.15540886
000170 f9 1c 1c 3e 17 76 c8 be 27 2b 83 3d a4 51 b6 be
       0.15245427 -0.39152595 0.06404715 -0.35609162
000180 2e 21 22 3f b1 4d 85 be cb 78 b6 be 99 a4 ec 3e
       0.6333188 -0.26035836 -0.35639033 0.46219328
000190 7a 42 83 3f b7 5a 90 3f ef 0c f3 3e c8 5f 09 3f
       1.0254662 1.1277684 0.47470805 0.53661776
0001a0 4e 31 ea be b6 c3 ed be ff 28 f0 3e 44 5e 08 3f
       -0.45740741 -0.46438378 0.46906278 0.5326884
0001b0 c4 2a 44 bf 5b 4c ad be 0e 86 bf be 78 92 9c be
       -0.76627755 -0.33847317 -0.37406963 -0.30580497
0001c0 9e 97 33 bf 1d 28 aa 3f 31 3f b9 3e a2 c3 8a 3e
       -0.70153224 1.3293492 0.36181024 0.2710238
0001d0 61 bd c7 be b2 08 f6 bd 61 22 81 bf f0 02 d1 bf
       -0.39011672 -0.12013377 -1.0088617 -1.6329021
0001e0 3a 2e 44 3f c9 e6 ec 3e 42 33 4c be 0c 93 8f be
       0.76633036 0.46269825 -0.19941428 -0.28041875
0001f0 9e 3f 92 3e 80 3e 50 3f 10 2b 53 3e 2f 8e 09 3d
       0.2856416 0.8134537 0.20621896 0.033582862
000200 87 c5 4c 3f 12 b3 aa 3e 13 42 1c 40 24 49 e4 bf
       0.799889 0.33339745 2.4415329 -1.7834821
000210 55 fe 80 be d3 0c be 3e 0f b2 47 bc c9 ce c3 be
       -0.2519404 0.3711916 -0.012188449 -0.38243702
000220 07 aa 9b 3f a9 90 87 3f 05 8d 7e bd 26 46 db 3d
       1.2161263 1.0591022 -0.062146205 0.10706739
000230 f0 30 b5 3e da 63 2e be 29 d8 3d be 77 02 e8 be
       0.353889 -0.17030278 -0.1853949 -0.4531438
000240 fd 0f 1b 3e 0f d3 8a 3d 01 f8 fe be 5c f0 c0 be
       0.15142818 0.067785375 -0.49798587 -0.3768338
000250 17 5a bd be f8 c4 b8 3e 30 f6 40 bd 7e cf 3c be
       -0.36982796 0.36087775 -0.047109783 -0.18438527
000260 36 b3 e7 3b 93 b5 d3 3d 26 45 05 3e ce fe 35 3e
       0.007070924 0.10337367 0.1301466 0.17772982
000270 f4 9e b3 bd 01 4a 25 be 36 42 89 3d 6b 00 c6 3d
       -0.08770552 -0.16141511 0.06702082 0.096680485
000280 54 fc f5 be e9 b6 0f bf 24 d2 b5 3d e3 32 6b be
       -0.48044074 -0.56138474 0.08877972 -0.2296863
000290 ea e1 a0 bf 83 ec c0 3d f0 9b 8e 3f 44 7f 7d 3e
       -1.2568944 0.09420111 1.1141338 0.24755579
0002a0 51 3e e8 bc 62 23 95 3e a7 2a 81 bf b4 a6 89 be
       -0.028350027 0.29128557 -1.0091141 -0.26884997
0002b0 c6 bd a1 3f 51 2b 0e bf 79 9e 3e 3e 9c 10 33 3d
       1.2636039 -0.55534846 0.1861514 0.04371701
0002c0 4f 75 89 bd 9d 5b 04 3c 9f 2e a4 3f 27 33 f3 3f
       -0.06711828 0.008078483 1.2826728 1.8999985
0002d0 17 e5 93 3c f3 5e f3 be 71 44 fd be 34 ad ed 3e
       0.018053574 -0.47533378 -0.4946628 0.46421206
0002e0 e1 73 31 3f 48 6e 6c 3e 08 11 d2 bd 06 79 4d bd
       0.6931744 0.23088944 -0.10257155 -0.050164245
0002f0 1a 6e 44 3d 41 88 d1 bc a1 44 0e be 2d 1a 3d be
       0.047956564 -0.025577666 -0.13893367 -0.18467017
000300 6a 97 13 bf 80 4f 0e be da cd 88 be 00 9d 3c bd
       -0.57652915 -0.13897514 -0.26719552 -0.046048164
000310 67 0e cf be 11 77 85 be cc 86 46 be 2c b7 0a 3e
       -0.40440676 -0.26067403 -0.19387358 0.13546437
000320 40 0f 51 be 53 06 d2 bd 13 39 38 40 44 ad 68 3f
       -0.20415974 -0.102551125 2.8784835 0.9088938
000330 fb 2c b0 be 8f ef 82 bc ee 78 04 3f 51 a1 89 be
       -0.34409317 -0.015983371 0.51747024 -0.26880887
000340 42 ee cd be a8 2d fe 3e 96 76 44 3f 85 42 d2 3e
       -0.4022084 0.49644208 0.7674345 0.41066375
000350 59 55 3e bf b4 c9 cd bd 7c 1d a7 3f 6d 05 8d bf
       -0.7434898 -0.100482374 1.3055873 -1.1017281
000360 d6 73 cd 3c 57 af 38 bd 53 a1 b5 bc 4f ab eb 3c
       0.025079649 -0.045089092 -0.022171652 0.02876821
000370 a1 29 3b 3e 96 6c 15 3e b5 73 67 be 01 91 01 be
       0.18277599 0.14592203 -0.22602732 -0.12652971
000380 e6 33 1a be 50 4c 42 3d a9 1d ac 3f 40 38 ba 3f
       -0.1505886 0.04743606 1.3446552 1.4548416
000390 87 e1 89 3d 92 c7 bb 39 c4 80 c6 be f3 82 3c be
       0.06732469 0.0003581611 -0.38770115 -0.18409328
0003a0 2e 47 5e bd cb e3 41 3e b9 19 69 3d 95 99 22 bd
       -0.0542671 0.18934552 0.056909297 -0.03969725
0003b0 97 7f 2d bc 87 10 a6 bb 95 a1 3e 3d 87 b6 21 bd
       -0.010589502 -0.005067888 0.046540815 -0.039480712
0003c0 c5 df 63 be 82 30 17 3e 30 d3 da bd 8b 3a a4 be
       -0.2225333 0.14764598 -0.10684812 -0.32075915
0003d0 b8 76 ce 3e 7a 62 9b 3e f5 9c 02 3d fd a4 74 3e
       0.4032495 0.3034857 0.031887967 0.23891063
0003e0 2c f2 5c 3e bc a4 b7 be fc f8 5b 3f 1c 94 f3 3e
       0.21576756 -0.3586787 0.85926795 0.47573936
0003f0 13 fc 6a bf 52 63 5d be a7 aa 66 3b f7 21 3b be
       -0.91790885 -0.21619919 0.0035196932 -0.18274675

bias f4 [64]
000000 d0 64 52 3f d8 a2 b5 be 88 b8 90 3f 42 71 b1 3f
       0.8218508 -0.35475802 1.1306314 1.3862689
000010 bb 8c 0a bf b9 93 ed 3e 20 1a cc 3f 49 69 cb 3f
       -0.5412099 0.46401766 1.5945473 1.5891505
000020 c5 2b 8e bf e0 aa f4 3d 35 28 6a 3e c9 af 3c 3d
       -1.1107107 0.11946654 0.228669 0.04606608
000030 b4 98 0a be 62 1c 38 3f 55 cf e5 be da 75 8f 3e
       -0.13534814 0.7191831 -0.44884744 0.280196
000040 22 cb 98 bf e6 07 82 bf 54 68 49 3e 1c bf bb 3f
       -1.1936991 -1.015866 0.19668704 1.4667697
000050 a8 0c 4a bf 00 e1 24 3f 6b 7a 0a c0 45 b3 90 3f
       -0.7892556 0.6440582 -2.1637218 1.1304709
000060 4c 15 05 be b3 0d 88 3e 08 2e 72 3f 22 23 c4 3e
       -0.12996405 0.26572952 0.9460149 0.38308054
000070 fe 2a bb bc 12 cd 08 c0 ba 4e 21 bf 6e e1 a8 3e
       -0.022847649 -2.1375165 -0.6301075 0.3298449
000080 5a 94 b2 bf f6 f6 24 bf e9 04 2d 3e ee ba a5 bd
       -1.3951523 -0.6443933 0.16896404 -0.08092295
000090 c0 8b 9f be be b9 fc bf 75 69 13 39 f3 a4 12 bf
       -0.31161308 -1.9744184 0.00014058298 -0.5728294
0000a0 77 29 97 bf 6f 64 09 bf 86 87 08 3f 05 8c 7e be
       -1.1809529 -0.53668875 0.5333179 -0.248581
0000b0 a5 ec fd 3e 00 da 27 bf 2a 2d 9f 3e 87 8e 33 bf
       0.49594608 -0.65567017 0.31089145 -0.70139354
0000c0 0e 57 5b bd 78 fd 16 c0 c2 ab d2 bf ae 9a 0d bf
       -0.05354982 -2.3592205 -1.6458666 -0.5531415
0000d0 6f 6a 5d be ec e1 82 bf 94 28 43 3f ea 9a a5 be
       -0.21622632 -1.0225196 0.7623379 -0.32344753
0000e0 1d be 93 3f 2a 5d 67 be 31 1e f4 3e c8 01 8f be
       1.1542393 -0.22594133 0.47679284 -0.27931046
0000f0 49 1a b7 bf cb 1f 07 bf c2 e8 22 3d 43 e2 84 bf
       -1.4304897 -0.5278289 0.039772756 -1.038155

weight f4 [150, 64]
000000 cb 18 f8 be 3d 08 0d 3e a4 02 6a be a0 28 d3 3c
       -0.48456416 0.13772674 -0.2285257 0.025776207
000010 ff 85 ec 3b af 8c b8 bd 20 cd 1e be b2 16 25 bf
       0.007218122 -0.09011208 -0.15507936 -0.64487755
000020 52 63 86 3e 39 54 5c 3e 90 d1 d2 3d 4c 77 c3 3c
       0.2624765 0.21516503 0.10293877 0.023860596
000030 0d a1 ca be 97 9e 52 bf a6 5a 11 3e ed c3 43 3e
       -0.39575997 -0.8227324 0.14194736 0.19117709
000040 04 a8 99 3e 3d 8c 3a 3e 98 38 39 be 44 8a fa 3d
       0.30010998 0.18217559 -0.18087995 0.12233403
000050 e5 a6 69 3e 18 5c 11 3f c2 55 7a 3c 5d 35 7b bd
       0.22817571 0.5678115 0.015279235 -0.061330188
000060 6d 0a 06 3f 6b 6a 8b 3e 98 34 19 be 08 6e f1 3d
       0.5235966 0.27229628 -0.14961469 0.11788565
000070 3b 0b fb 3d e0 ca 80 3e 80 49 5f 3e c4 fa ac 3d
       0.122580014 0.2515478 0.21805382 0.08446267
000080 28 0b 22 bd 5e f2 64 be f9 0b 3a bf 0e 85 bf be
       -0.03956142 -0.2235808 -0.7267452 -0.374062
000090 c3 bd ec 3d c3 73 67 3e 1f 10 01 3f 45 2c 5e 3e
       0.11559632 0.22602753 0.50415224 0.21696575
0000a0 98 60 16 3e b5 e9 31 3e 1a fe ab be 0b 7e 8c 3d
       0.14685285 0.17374308 -0.33592302 0.06859978
0000b0 42 b8 cf 3d 13 dd 3d 3e 44 85 3c 3d 39 24 10 3f
       0.10142566 0.18541364 0.04602553 0.5630527
0000c0 3a 7f 92 bf e2 48 56 3e dd e3 41 3e c4 4f 2f 3e
       -1.1445076 0.2092624 0.18934579 0.17120272
0000d0 dd 6d c5 be 0d df 0d be 8f b4 f4 bd da 96 1d 3e
       -0.38560382 -0.13854618 -0.11948501 0.15389577
0000e0 19 d1 30 bf 49 23 97 3d 3c 7e 12 3d 2d b6 b4 be
       -0.6906906 0.07379777 0.035764918 -0.3529524
0000f0 81 8a f5 3e 74 ed f2 be 02 4b cf 3d e2 c4 16 3e
       0.47957233 -0.47446787 0.101217285 0.14723542
000100 f4 16 b4 3e 8f 0d 8e 3d 83 bf c2 bd cb 0a 26 3f
       0.35173762 0.0693618 -0.09509184 0.6486022
000110 e3 c9 9b 3d 0b ee 06 3f 71 93 c3 3d 96 40 89 3e
       0.07606866 0.52706975 0.095496066 0.26807088
000120 ac d4 22 3e c6 8b cd bd a6 6a 02 3d 77 1f 07 bd
       0.1590144 -0.10036425 0.03183999 -0.03298899
000130 c8 c9 c3 bd 7a 59 00 3c 2b d5 8d 3c 8e 16 96 3e
       -0.09559971 0.007833833 0.01731356 0.29314083
000140 96 55 fe 3c 1f fa 5d bf 54 30 70 3e 50 5f bc bd
       0.03104667 -0.8670978 0.23455936 -0.09197867
000150 82 cc a1 be 05 4a 33 bf c8 92 fb bd 54 78 c0 3e
       -0.3160134 -0.7003482 -0.12283856 0.37591803
000160 ae f1 8a bc 9a 71 ac 3d 54 d0 3d bd c0 1c 8d be
       -0.016960945 0.08420105 -0.046341255 -0.27560997
000170 a9 8d ce be 4e 71 37 be 94 e8 a8 be bf 61 53 bd
       -0.40342453 -0.17914316 -0.32989943 -0.05160689
000180 c6 29 92 be 01 60 00 bf 28 0f bd bb f1 d8 22 be
       -0.28547496 -0.5014649 -0.005769629 -0.15903069
000190 fb f9 7f 3a 53 59 25 3e 7f b6 63 bd 4c c1 bb bd
       0.0009764728 0.16147356 -0.055593964 -0.09167728
0001a0 5a c2 51 3e ce f5 a8 3e f9 d1 c8 be b7 19 a8 be
       0.20484295 0.33000034 -0.39222696 -0.3283212
0001b0 cf 77 f2 3e 46 61 f9 3d f6 e9 99 3e 4d b0 bf 3e
       0.47357032 0.121767566 0.3006131 0.37439194
0001c0 3c db 93 3d 8d 81 9e bd 56 42 af 3d e2 ad d3 3e
       0.0721955 -0.077395536 0.085575745 0.413436
0001d0 66 5c e8 bc 26 82 95 be 66 76 4c be da 0e 46 bd
       -0.028364372 -0.29200858 -0.1996704 -0.048354007
0001e0 c2 53 11 3e da 94 68 3e 80 8c 18 3f e4 48 ea 3d
       0.14192107 0.22713032 0.59589386 0.11439684
0001f0 8a 55 ab bd 45 db 96 bd 6f dd a2 3d 5a 0e 94 3d
       -0.08365925 -0.07366041 0.07952391 0.072293
000200 69 fc 29 bf 6b ca d4 3e 99 7c 0d bc bf 30 15 3f
       -0.6640077 0.41560683 -0.008635663 0.58277506
000210 63 67 cd 3e 8a 00 37 3f c0 c3 0c be 12 76 ec be
       0.4011794 0.714852 -0.13746548 -0.4618383
000220 0a aa ba 3e c5 a1 0a 3f 7a fb 0e 3f f9 2a ed 3d
       0.36457855 0.5415309 0.5585247 0.11580462
000230 4d 00 1b bf c6 86 cd 3d c1 7d 8b 3e 8f 60 26 3f
       -0.60547334 0.100354716 0.2724438 0.64991087
000240 d1 18 be 3e 7c 60 2c 3e d1 b1 9a bd 27 5e c0 be
       0.37128308 0.16833681 -0.07553447 -0.37571833
000250 28 95 a6 3e 81 4e 23 bf a1 ee 7b be 94 c0 43 3f
       0.32535672 -0.6379166 -0.24602748 0.76465726
000260 d1 18 42 3f 39 7f de 3e 45 8b bf 3e 6d be 95 be
       0.75819117 0.43456438 0.37410942 -0.29246846
000270 ef 99 eb be 9e 92 9c bd 16 6e fe 3c 72 b5 9c 3e
       -0.4601588 -0.076451525 0.031058352 0.30607182
000280 9e 6b 51 bf 36 65 24 3f 29 b0 8b 3d 01 72 1e 3e
       -0.81804836 0.64216936 0.06820709 0.15473177
000290 20 18 0e bd 49 dd 8c 3e 5c d6 40 3f c0 2d 8b 3e
       -0.034690976 0.27512577 0.75327086 0.27183342
0002a0 89 04 ab 3e 78 49 31 3f e9 2d f3 be f0 67 42 3f
       0.33401898 0.6925273 -0.47495964 0.75939846
0002b0 8b 83 f3 3e 26 d8 df 3e 1a e3 05 3f 01 37 3c bf
       0.47561297 0.43719596 0.52299654 -0.7352143
0002c0 ca 50 a3 bd fb 98 37 be be 71 bc 3d 03 3c f5 3e
       -0.07974394 -0.17929451 0.09201382 0.47897348
0002d0 b4 82 53 3e aa 83 2d bf 91 25 0c 3e 7b 73 11 3e
       0.20655328 -0.6777903 0.13686205 0.14204209
0002e0 45 b2 09 bf d0 15 94 3e da f0 dc 3e 41 e2 01 3e
       -0.5378764 0.28922892 0.43152505 0.12683965
0002f0 a2 b5 b3 3e d2 2f ab bd eb 63 87 3e c3 56 ea 3c
       0.35099512 -0.083587304 0.2644342 0.028605824
000300 d3 53 bd bd 0a 8e d8 bd c1 41 f1 3d 48 a9 79 3e
       -0.09244504 -0.10573967 0.1178012 0.24380982
000310 9c 97 b8 bc 63 b3 2f bd 5b 28 aa 3d 4d 6d b1 3d
       -0.02253323 -0.042895686 0.083084784 0.086634256
000320 71 b2 7c bc 81 08 47 bf db b0 20 bd f2 f9 a9 3d
       -0.015423403 -0.7774735 -0.039231163 0.082996264
000330 9b 6f 22 bd ee 4c e6 3d da 19 ed 3b 79 50 de 3c
       -0.039657217 0.11245142 0.0072357478 0.027137982
000340 13 a0 90 be 41 30 50 be e4 fe a1 bc 6e bc 2d 3e
       -0.28247127 -0.20330907 -0.019774862 0.16966411
000350 4b 8a 1e be 2e a5 32 3d b4 a7 01 bd bc be fc 3d
       -0.15482442 0.04361456 -0.031654075 0.12341067
000360 88 b3 2a be 50 1c 22 bd 3a 6e f1 3b d4 be 44 3e
       -0.16670048 -0.039577782 0.0073678764 0.1921342
000370 10 f9 36 3d a8 99 34 bf 33 1a 48 be 0f d5 ff 3d
       0.04467112 -0.7054696 -0.19541244 0.124918096
000380 8b d3 b3 bd 17 a5 80 bd 15 d5 54 bc 12 b0 c0 3e
       -0.08780583 -0.062814884 -0.012990256 0.3763433
000390 8e 7d 63 3d c0 f3 19 bd e2 8b 1a be 62 a5 c0 3d
       0.05553966 -0.037585974 -0.15092424 0.09406544
0003a0 9c 90 a1 bd f4 0b 3f bc 3d 7b f1 3e c9 86 97 3d
       -0.0788891 -0.011660565 0.47164336 0.07398755
0003b0 b5 83 cf 3d 29 b3 05 be 65 ec 0f 3d 9d 73 91 bb
       0.10132543 -0.13056625 0.035137553 -0.004438831
0003c0 5d 64 40 be bb d4 42 be 7d a9 20 be ad 8b f6 3d
       -0.18788286 -0.19026463 -0.15689655 0.1203836
0003d0 cf 86 ae 3d 44 34 25 3e 52 74 5a 3d 40 46 14 3d
       0.085218064 0.16133219 0.053333588 0.036199808
0003e0 81 51 7d 3e e1 dc 35 bc e8 3b a9 3d f7 64 94 bd
       0.24738123 -0.011100025 0.08263379 -0.0724582
0003f0 32 1c 90 be c9 1d 9b 3c 6f 1c c5 3b f5 e2 84 bd
       -0.2814651 0.018935101 0.0060153524 -0.06488601

bias f4 [150]
000000 ed 9b 4b bf f6 04 30 3f af 84 34 bf b8 4b 8c 3f
       -0.795348 0.6875757 -0.7051496 1.0960608
000010 5f 16 87 3f 90 bd d0 be 62 81 89 3c bb 3d 0e 3e
       1.0553702 -0.40769625 0.016785327 0.13890736
000020 9a 4a 8f bf 4a 32 81 bf 96 a1 bb be 6e ea 46 bf
       -1.1194642 -1.0093472 -0.36646718 -0.7770146
000030 6f 9f 23 be ad 8e 37 bf 02 28 03 c0 c5 0c 6f 3e
       -0.15978788 -0.7170208 -2.049317 0.23344715
000040 a1 82 2a bf 68 99 0c bf dc 1c 35 bf c3 15 7d bf
       -0.66605574 -0.5492158 -0.7074716 -0.9886133
000050 a0 b0 52 3e 16 8d b4 be 06 8b 1c bf ff 04 c3 bd
       0.2057519 -0.3526389 -0.6114963 -0.09522437
000060 6f 8c 69 bf 88 4a f3 be 51 8f c5 be 8d 2c 21 bf
       -0.9122991 -0.475178 -0.38585904 -0.62958604
000070 4a bc 0c bf 88 04 77 be da 6d eb bf 42 ed 55 bf
       -0.54974806 -0.24122822 -1.8392899 -0.8356515
000080 51 0b 2a c0 1f 3a a1 bf a5 2d be be 45 ec b6 be
       -2.6569407 -1.2595862 -0.371442 -0.35727134
000090 f9 a0 bb be 52 fd c2 bf a4 31 8c bf 0e 42 72 bf
       -0.3664625 -1.5233557 -1.0952649 -0.9463204
0000a0 3a 43 1c bf 6f de 8e bf ce 87 22 bf 4c b1 0e bf
       -0.6104008 -1.1161631 -0.6348847 -0.55739284
0000b0 2c 2f 37 bf 63 a0 a4 be 36 60 4c 3d 5b 37 6f bf
       -0.71556354 -0.32153615 0.04989644 -0.9344384
0000c0 45 18 b2 bf 64 1e 91 3e 3f 79 a2 bf db a3 0a 3e
       -1.3913656 0.283435 -1.2693251 0.13539068
0000d0 25 4a 37 bf 35 16 15 bf dc 90 47 40 04 27 29 bf
       -0.7159751 -0.5823701 3.1182165 -0.6607516
0000e0 7b 37 c6 3d 4a 1b 69 bf 6e 4a 56 bf b6 a4 ea 3e
       0.09678551 -0.91057265 -0.8370732 0.4582879
0000f0 23 ae 30 bf f3 f8 e1 be fc db 82 bf 79 83 03 bf
       -0.6901571 -0.44135246 -1.0223384 -0.51372486
000100 7c 2c 4c bf 9f 11 a7 3c 3c 35 f0 be 0a 52 dd be
       -0.7975538 0.020394145 -0.46915615 -0.43226653
000110 3e 68 83 bf 1b 7d ef be 05 0f 29 bf 79 4e 00 3f
       -1.0266187 -0.46775135 -0.66038543 0.5011974
000120 8a ed 28 3f 08 bf e2 be f3 61 cf be bc 16 0c be
       0.65987456 -0.4428637 -0.40504417 -0.13680547
000130 8e 20 bf be d0 e1 57 bf 49 b0 98 3e 66 35 22 bf
       -0.37329525 -0.8432894 0.29821995 -0.6336273
000140 e3 fe 05 bf e7 24 09 bf d9 e1 c6 be 04 af e9 3f
       -0.5234205 -0.53571934 -0.38844183 1.8256536
000150 5c 07 0b 3f 37 2b f7 bf 60 32 17 be 61 fa 2f 3f
       0.54308105 -1.9310063 -0.1476531 0.6874142
000160 e3 5a fa be d3 01 24 bf 2f 53 46 bf 6b 93 2d bf
       -0.48897466 -0.64065284 -0.7747068 -0.67803067
000170 ba b9 89 3f d5 41 07 be 97 65 24 3e ef 5d f4 be
       1.0759804 -0.13208707 0.16054378 -0.47727916
000180 df 65 e2 be 2c 43 19 bf 14 a6 db be a6 9f 19 be
       -0.44218346 -0.5986812 -0.42900145 -0.15002307
000190 67 94 58 be 8a 07 d7 3d db ad 84 be 26 f6 96 3e
       -0.21150361 0.10499485 -0.2591389 0.2948467
0001a0 9a 41 0b bf 8c 33 be bf 27 5e 1e bf 64 62 6b bf
       -0.54396975 -1.4859481 -0.61862415 -0.9194701
0001b0 6a b5 5a bd 60 0a 42 bf 05 db b8 be 98 6e 09 bf
       -0.053395666 -0.7579708 -0.361046 -0.5368438
0001c0 47 f2 e1 bd f5 55 4e be b4 57 bc be 9c 8a 9d bf
       -0.11032539 -0.20149978 -0.36785662 -1.2307925
0001d0 83 f1 66 be 7e 69 94 be 3e 36 48 3e db d1 1d bf
       -0.22553067 -0.28986734 0.19551942 -0.6164834
0001e0 52 9d 4e 3f 16 8f 46 be 3f 19 1e bd 32 25 86 bf
       0.807088 -0.1939052 -0.038598295 -1.0480101
0001f0 b1 bb c0 be 7b 55 01 be 2e a2 4d bf 11 46 9f 3e
       -0.37643197 -0.12630264 -0.8032559 0.31108144
000200 f2 25 05 bf 80 ca de bd 24 83 1c be aa 00 2b bf
       -0.52011025 -0.108784676 -0.15284401 -0.6679789
000210 33 97 6b be d8 6d ff be 8e 2a b8 bd 15 28 30 bf
       -0.23006897 -0.49888492 -0.08992492 -0.6881116
000220 31 ce 3d bf 79 4a d2 be db f9 92 be dc 18 d5 3e
       -0.7414275 -0.41072443 -0.2870625 0.4162053
000230 b5 be cc be d6 b9 06 3c 95 9d 8a be 43 46 bf bf
       -0.39989248 0.008223018 -0.2707335 -1.4943317
000240 fd 3b c3 3f 09 72 b0 be 34 49 26 bf 55 40 4d bd
       1.5252682 -0.34462002 -0.6495545 -0.05011018
000250 34 ea 9a bf a2 e4 86 bf
       -1.2102723 -1.0538523

weight f4 [100, 150]
000000 95 2a 8c bd 89 28 33 3e cc ce e5 bd 60 e7 9e bb
       -0.068440594 0.17495932 -0.11221084 -0.0048493594
000010 1b 45 b4 bd 22 e2 bc 3e 07 4f 36 bf e6 6a 14 be
       -0.08802243 0.36891276 -0.71214336 -0.14493904
000020 63 d4 88 3e 1d f4 83 3f a5 5d 1e 3f 7a 1d 99 3e
       0.26724538 1.0308872 0.6186164 0.299053
000030 8a 7a 05 3e 5a 3c 6b bc 57 50 1c 3f cd 22 93 3d
       0.13035026 -0.014357651 0.6106009 0.07184372
000040 01 8a d3 bd 2e 3a 92 3d bd 8e 5d 3d f4 8c b0 be
       -0.103290565 0.07140003 0.054091204 -0.3448254
000050 7f de 05 bf ae d9 9f 3b 5e fd 5a 3d 23 de 24 be
       -0.5229263 0.0048782444 0.053464286 -0.16100363
000060 3f 50 16 bf 8a ef 07 3f 46 1b 23 be be 52 21 bd
       -0.58716196 0.5309988 -0.15928373 -0.03938555
000070 c0 1f 85 3d 3f 92 ba be 75 83 a8 be fd 93 b0 3e
       0.065001965 -0.36439702 -0.32912794 0.34487906
000080 29 7a 70 be ce b6 7c 3d d5 54 b4 3e c0 35 09 3e
       -0.234841 0.061697774 0.35220972 0.1339941
000090 63 50 4e bf 1f 3f 00 3e b7 43 b6 be 5c c4 7c 3f
       -0.8059141 0.12524079 -0.35598537 0.9873712
0000a0 44 04 25 3e 01 39 16 bd ef 30 93 bd 90 72 25 bf
       0.16114908 -0.036675457 -0.07187068 -0.64627934
0000b0 cc 3f a9 3e 34 56 ea 3e ee a7 19 3e e4 94 3b 3f
       0.33056486 0.45768893 0.15005466 0.73274064
0000c0 46 86 5a bd a6 23 9d be d1 8c 3c be 31 8a 08 3d
       -0.05335071 -0.3069126 -0.18413092 0.033334915
0000d0 3e 5b 46 3d 4d 3f 1a be 35 49 d7 bd 31 0d c0 3d
       0.04842686 -0.1506321 -0.1051201 0.09377516
0000e0 2d 1b 0e bf 8b 48 96 be 8e 28 56 3d 0d fb 3b be
       -0.55510217 -0.2935222 0.05228477 -0.18357487
0000f0 2b 77 2b be 4a d8 96 3d 7c 7f 81 3e 09 ab 3f 3e
       -0.16744678 0.073654726 0.25292575 0.18717588
000100 50 00 cd 3e 90 ff 4a be b4 86 9a 3e f4 11 3d 3e
       0.400393 -0.19824052 0.30180895 0.1846388
000110 0e e9 17 3e 53 9e 6e 3e 34 aa e7 3d 98 8e b4 be
       0.14834997 0.23302583 0.113117605 -0.3526504
000120 7f 9a 62 3e 2d 65 ce be 17 3e 40 be be 0b a9 be
       0.22129248 -0.40311566 -0.18773685 -0.3301677
000130 ed 7c 2b c0 33 ed d6 3c 07 aa ca ba 92 3c 0f 3e
       -2.6794999 0.026236152 -0.0015462049 0.1398795
000140 e2 f9 d5 3e ac 86 84 3e 3a 4a cf bd 26 68 7b bf
       0.41792208 0.25883996 -0.101215795 -0.9820579
000150 ec d0 2a 3f 17 d0 fc 3d d6 5c 34 bf b5 c2 0d 3e
       0.6672504 0.123443775 -0.70454156 0.13843806
000160 b1 c2 cd 3d 3b 13 8a 3e 12 d2 cd be 0d dc e1 3d
       0.100469 0.26967797 -0.40199333 0.110282995
000170 51 e3 c5 be 07 2b b7 3e 07 e6 58 be 3f 38 45 bc
       -0.3864999 0.35775015 -0.21181498 -0.012037336
000180 18 97 3e be 03 6f 78 3e a4 94 a7 3e aa d7 50 3e
       -0.18612325 0.24261098 0.3273059 0.2039477
000190 37 8a cd be 83 ae 62 bf ca 07 a5 3e cf 75 dd 3d
       -0.40144512 -0.88547534 0.32232505 0.10813486
0001a0 c8 1f 9c 3c 41 d9 f5 3e d8 5a 96 be 09 5b 7b be
       0.019058123 0.48017314 -0.29366183 -0.24546446
0001b0 68 10 73 3e 53 45 bb bd df 8c fc 3e 95 d0 12 be
       0.23736727 -0.09144082 0.49326226 -0.1433738
0001c0 96 8d d8 3e 9a 7a cc bd 7d 6c 8f bd aa dc 45 3f
       0.42295521 -0.09984322 -0.07003114 0.7728983
0001d0 16 be 47 3c 96 3d dd 3b 01 4f 03 bf 0e d6 3b be
       0.012191316 0.0067517264 -0.51292425 -0.18343374
0001e0 2f d8 30 3d 78 83 bc bd 36 db a7 3d 10 f1 3d 3d
       0.04317492 -0.09204763 0.08196108 0.046372473
0001f0 bd d4 18 3f 07 65 61 3e ef b0 af 3e bb ac cf bd
       0.5969961 0.22011195 0.34314677 -0.101403676
000200 36 74 8c 3d c0 44 e0 be 43 dd c4 3d 44 dc 15 3f
       0.06858103 -0.43802452 0.09612515 0.58539224
000210 e1 22 85 3e b3 c9 b2 3d 3e b9 9e bf 55 c5 07 be
       0.26003173 0.08729877 -1.2400281 -0.1325887
000220 6f 84 23 3d 5d e0 49 bc d0 0c 04 3d 33 88 8b 3d
       0.03992122 -0.012321559 0.03223878 0.06813087
000230 ea 84 0f be aa 07 20 be 98 18 50 be 79 8e af 3e
       -0.14015546 -0.15627924 -0.20321882 0.34288386
000240 e4 60 c3 3e ca 90 09 bf 04 78 bc 3c bd 36 5f 3d
       0.3815986 -0.53736556 0.023006447 0.054495562
000250 d7 b0 a4 3e db 00 fd 3d a6 67 aa bd 99 c4 25 be
       0.32166168 0.12353679 -0.083205506 -0.16188277
000260 37 0b b5 3d 79 7a 06 3e 9a 00 6d 3e 5f f1 35 3f
       0.0884003 0.13132657 0.2314476 0.7107143
000270 39 1c ea 3e 14 6a b1 3c 94 a6 5e bd c9 e4 f5 bd
       0.45724657 0.021657027 -0.05435808 -0.12006528
000280 4f 08 a5 3d 85 f7 ad bc 3c 45 8d bd 50 9d 21 3e
       0.08058225 -0.02123619 -0.06897971 0.15782666
000290 e8 02 9b 3e 28 38 03 bf 78 50 d7 be 23 b4 1b 3d
       0.30275655 -0.5125756 -0.4205358 0.03801359
0002a0 74 d9 81 bf 52 5f 15 bf cf a2 8a be 50 4b 1a 3c
       -1.0144486 -0.5834857 -0.27077338 0.00941737
0002b0 ea 1b 17 be 4c 66 5e 3d 98 eb 8e 3d 60 41 7a ba
       -0.14756742 0.054296777 0.0697853 -0.0009546485
0002c0 51 02 6d bb c3 51 f0 be 38 e4 65 3e 97 02 9e 3e
       -0.003616471 -0.4693738 0.2245034 0.3086135
0002d0 f2 e0 0d be b8 d0 51 be b6 df a6 3d d0 2a 6d 3d
       -0.13855341 -0.20489776 0.08148138 0.057902157
0002e0 78 4f 15 3e 61 34 e2 be 02 58 e6 bd 30 7c 5c be
       0.14581096 -0.44180587 -0.11247255 -0.21531749
0002f0 d3 c4 b3 3e b9 b8 46 3e 6b 31 42 3e 9d b1 83 bd
       0.35111102 0.19406404 0.18964164 -0.064303614
000300 e1 d2 5b be c7 66 40 3d b1 91 23 bf a2 6a ff 3a
       -0.21467163 0.046973016 -0.6389418 0.0019486735
000310 1e 16 0b bf e5 3b e4 3d d2 b4 f8 bd aa 34 0b bf
       -0.54330623 0.111442365 -0.12143864 -0.54377234
000320 d3 7e 1e bf 7f ed d9 3e 46 51 40 be fa ef 28 3e
       -0.6191227 0.42564008 -0.18781003 0.16497794
000330 93 94 8f 3e 12 fe 3c be 6f 58 73 3e b3 1e 58 bf
       0.2804304 -0.18456295 0.23764203 -0.84421843
000340 2d c8 21 be e9 b0 86 be 45 fb 48 3e 06 40 5e bd
       -0.15799017 -0.26306847 0.19627102 -0.054260276
000350 02 79 0c 3e 44 38 1b be f4 05 79 3e d2 5e 50 bc
       0.13718036 -0.15158182 0.24318677 -0.012717919
000360 17 2e bb bd 69 09 0a bf ee fd ac bd 0b 0f 0b 3e
       -0.0913965 -0.5392061 -0.08446871 0.13579957
000370 47 72 3a 3e 0e 6f 4b 3e 2b 19 91 3e 95 8e 39 3e
       0.18207656 0.19866583 0.28339514 0.18120797
000380 85 cf 40 bf 78 9a c1 be c8 9e 28 be 65 b8 04 bf
       -0.7531665 -0.37813163 -0.1646682 -0.51843864
000390 5a 3c 21 bc 90 06 eb bd 00 f4 09 be 26 3d fd be
       -0.009841049 -0.11475861 -0.13471985 -0.49460715
0003a0 86 46 a1 3c 35 4b fc bd 2b 74 0b be 86 83 e5 bd
       0.019686949 -0.12319032 -0.13618533 -0.11206727
0003b0 8b c1 15 3f 21 70 77 bf d2 85 b8 be dd 93 54 3d
       0.5849845 -0.9665547 -0.36039597 0.051898826
0003c0 61 1c d8 bd 93 dc 4e 3f 49 cf 4a bf a0 f1 0c 3e
       -0.10552288 0.8080532 -0.7922254 0.13764048
0003d0 f5 5e bc 3e 8b d3 74 3f 00 7f 87 be fb 95 f0 bd
       0.36791196 0.9563529 -0.2646408 -0.117473565
0003e0 33 8b 86 3e a3 c8 6a 3e 92 28 df bb 52 af 2f 3d
       0.26278076 0.229281 -0.0068102563 0.042891808
0003f0 29 b3 08 bf d7 43 03 bf 15 98 84 bf 48 7a d6 3e
       -0.53398377 -0.5127539 -1.0358912 0.41890168

bias f4 [100]
000000 6a a5 75 bf 26 0d d0 3e 74 2b a4 bf 20 bc d0 be
       -0.95955527 0.4063503 -1.2825761 -0.40768528
000010 cb 82 a3 3d 4c 68 b6 be b0 ae f7 3e 89 10 06 c0
       0.07983931 -0.35626447 0.48375463 -2.0947592
000020 60 68 33 3f 6d 15 d8 bf e3 ec 13 3d af 9e 7f be
       0.7008114 -1.6881539 0.036114585 -0.24962877
000030 c5 10 24 3f 30 ca 2d bf 3f d1 d6 bd bd f5 d9 3e
       0.6408809 -0.6788664 -0.10489129 0.42570296
000040 7b 07 24 3f 21 7d 23 bf 4a fc 19 c0 4d 77 9d 3e
       0.64073914 -0.63862807 -2.4060235 0.30755082
000050 13 ee 2d bf 49 d8 53 bd 36 2f e0 be a0 0e 08 bf
       -0.679414 -0.051719937 -0.4378602 -0.53147316
000060 c1 68 a5 be 04 6f dd be 6e c6 0b 3e be da 70 3f
       -0.32306483 -0.4324876 0.13649914 0.94083774
000070 d8 fb 73 be 15 ba 06 be 15 b8 42 bf f0 e1 46 3f
       -0.2382654 -0.13156922 -0.76062137 0.77688503
000080 ec 21 5c 3e 35 e8 cb be 68 26 ec 3b 50 24 57 be
       0.21497315 -0.39825597 0.007206727 -0.21009946
000090 cd e5 a5 be e1 06 d9 be fa 06 49 3f 8e b6 f6 be
       -0.32401887 -0.4238806 0.7852627 -0.48186153
0000a0 22 ce 2d bf ba 93 02 3c 36 55 ea bd 7c 37 4d 3b
       -0.6789266 0.007969791 -0.11442034 0.003131359
0000b0 66 e3 b7 be 07 a3 1a bd b2 4d 8c be ee 34 fe 3e
       -0.3591568 -0.03775313 -0.27403027 0.49649757
0000c0 58 33 df 3d a8 e5 7b 3e 39 9b b7 3f e0 2d 06 bf
       0.10898465 0.24599326 1.4344245 -0.5241375
0000d0 c9 cf d5 bc b2 45 8f bf 93 9d 8d bf dd ae 10 be
       -0.026100056 -1.1193144 -1.1063713 -0.14129205
0000e0 06 ce 98 be bc 11 13 3e 50 75 dc 3e 72 c7 9d be
       -0.29844683 0.14362234 0.43058252 -0.30816227
0000f0 86 df 37 be e3 03 39 bf d8 95 8b bd 28 d0 81 bf
       -0.17956361 -0.72271556 -0.0681569 -1.0141649
000100 f3 c9 df be fd 69 4f c0 10 23 ef 3e 3c 31 55 3e
       -0.43708763 -3.240844 0.46706438 0.20819563
000110 23 0a 9f 3e 5b e5 2c 3e 95 24 32 3f 0a aa a3 3e
       0.3106242 0.16884367 0.6958707 0.31965667
000120 65 78 a1 bf 56 fd 20 3f 9c 0a 7e 40 97 4e 4f bf
       -1.2614866 0.6288656 3.9693975 -0.80979294
000130 79 11 8d be bd cf c5 bf 5e fd 00 3e f1 a9 db bf
       -0.27552393 -1.5454022 0.12596652 -1.7161237
000140 92 43 d6 bf 25 cc 4b be 96 29 b2 3e 04 0b 98 be
       -1.6739371 -0.19902094 0.34797353 -0.29695904
000150 8e bc d2 bd cb a6 94 3c b5 f0 ae be 89 e6 80 bf
       -0.1028987 0.01814594 -0.3416802 -1.0070354
000160 3f 76 2b 40 94 62 8f 3c b6 f5 ca 3e ca ea 5e bf
       2.6790922 0.01750306 0.39640588 -0.8707701
000170 1e 21 22 3e 24 2d 9f 3e 89 71 56 3f 15 59 67 be
       0.15832946 0.31089127 0.8376699 -0.22592576
000180 09 6b a0 bf 3c 2b db bf d2 39 a5 3f 49 ad 45 3f
       -1.2532665 -1.7122569 1.290827 0.7721754

weight f4 [729, 100]
000000 ba 30 99 3e 77 e6 7c 3d a5 3b 73 bd 75 0f b2 3d
       0.29919988 0.061743226 -0.059383053 0.086943544
000010 50 cf b1 3c 4b 4e 19 3e 5d cf 6e 3e 28 97 34 bf
       0.0217053 0.14971273 0.2332129 -0.70543146
000020 18 c3 16 3f 28 4c bc bf eb ff 81 3e c0 c7 60 be
       0.5889144 -1.4710741 0.25390562 -0.21951199
000030 80 f4 1a bf d6 10 ed bd e0 be 0d 3e 0f 0e bd bc
       -0.6052933 -0.11575477 0.13842344 -0.023077993
000040 c8 ab 92 be bc 9e b7 be 0c e6 5a bf 7e 7c 16 3e
       -0.28646684 -0.35863292 -0.85507274 0.14695928
000050 2a ef 52 be 88 ce 93 3e 53 33 6e 3e 5c 64 17 3f
       -0.20599046 0.28868508 0.23261766 0.5913751
000060 40 d3 1a 3f be fc 36 3d d0 4e af be ea 67 90 3f
       0.6047859 0.044674627 -0.34239817 1.1281712
000070 4c f1 27 3e 49 50 ce 3d f5 d0 77 3e a6 d0 90 3e
       0.16400641 0.10073907 0.24200805 0.28284186
000080 cb 1d 11 bf 88 ec 37 bf 81 79 a2 bc 72 42 70 3f
       -0.56686085 -0.71845293 -0.019833328 0.9385139
000090 79 aa 69 3e 9d 80 c6 3e ad 01 2d bf 4f 65 dd be
       0.22818936 0.3877 -0.6758068 -0.43241355
0000a0 9d 13 c3 3e e7 f2 41 3e 30 0c db 3e 53 85 81 3e
       0.381009 0.18940316 0.42782736 0.2529703
0000b0 5b c7 49 be 24 33 08 be 32 d2 9d be 98 16 a7 3e
       -0.19704954 -0.13300759 -0.3082443 0.32634425
0000c0 9d 60 b7 3e c0 f6 02 be 70 4a 2c be 13 13 c0 be
       0.35815898 -0.1278944 -0.1682527 -0.37514552
0000d0 a6 3c 16 be ba f3 48 bd 76 ee 16 3e f3 3e dd 3d
       -0.14671573 -0.04906056 0.14739403 0.10803022
0000e0 e3 8c 45 be 82 42 82 be 2a 3f ca bb 4a 5e 58 3e
       -0.19292025 -0.25441366 -0.0061720805 0.21129718
0000f0 6b ab 30 be 57 68 e1 be 55 ec bf 3e 28 ae 42 bb
       -0.17252891 -0.44024917 0.37484995 -0.0029705856
000100 df 75 d5 3e 2e 64 2b bf ff 23 d5 be d8 90 1f 3e
       0.4169149 -0.6694974 -0.41629025 0.15582597
000110 6b 66 32 3f 63 63 49 bd 95 49 7c be 71 13 08 bf
       0.6968753 -0.04916705 -0.24637444 -0.53154665
000120 85 2a 52 bf 49 36 8f be d4 56 28 3f 3c ba c0 3d
       -0.8209613 -0.27971104 0.6575749 0.094105214
000130 a2 45 f1 3e 44 2c 70 bf 10 d2 dd 39 f8 37 a7 3e
       0.47123438 -0.93817544 0.00042308914 0.32659888
000140 07 14 9b bd 90 47 22 3e c7 41 8b bd 86 6d 69 3e
       -0.07572179 0.15847611 -0.067996554 0.22795686
000150 11 fa 06 bf 19 fe 8e 3e eb d6 33 3e 0f 04 88 3e
       -0.5272532 0.27928236 0.17562453 0.26565596
000160 ef 0c ba 3e 60 aa e4 3c d3 35 b7 3d 33 c0 85 3d
       0.36337993 0.027913272 0.08945813 0.065308
000170 4a f7 b6 be 8b bb 83 be 10 40 8c 3e e9 be a8 be
       -0.35735542 -0.2572902 0.27392626 -0.32958153
000180 c3 e5 7b be 2c b6 1f bf 59 13 8a 3e a7 19 c5 be
       -0.24599366 -0.6238735 0.26967886 -0.38496134
000190 3f a7 43 3e cd c8 eb 3d ad 53 4c bb 15 21 7b 3e
       0.19106768 0.11512909 -0.0031177804 0.24524339
0001a0 54 f2 93 3e ab 63 ff bc 33 bf eb 3d 03 b1 0c be
       0.2889582 -0.031175455 0.11511078 -0.137394
0001b0 24 aa 19 be db c6 6e bf dc ab f3 bd 01 36 b2 be
       -0.1500631 -0.9327218 -0.11898014 -0.34806827
0001c0 a6 95 df be eb 51 ab 3e 74 fa 60 3e 05 44 ac bc
       -0.4366886 0.33460936 0.2197054 -0.021028528
0001d0 c8 c4 69 3f 51 3a 8e be 18 4b 9e be c9 bb 17 3f
       0.9131589 -0.27778867 -0.30916667 0.5927091
0001e0 45 38 c2 3d 4b 20 29 3e 65 20 35 3e c9 fb 56 3e
       0.09483389 0.16516225 0.17688139 0.20994486
0001f0 4d e2 40 3f e5 d1 91 bd 0f aa 43 bd 55 34 9c 3d
       0.7534531 -0.07120112 -0.047769602 0.07627169
000200 5e 72 3b 3e b7 12 ab 3d a9 38 db bc 06 82 9f 3d
       0.18305346 0.08353179 -0.026760416 0.07788472
000210 a4 db 99 bd ac 0a 1a 3e e2 80 08 3d f0 5d 88 bd
       -0.07512596 0.15043133 0.033326037 -0.06658542
000220 95 e8 7a be cd a2 f8 3e 4a 63 6c 3e 72 a1 66 3e
       -0.24502786 0.48561707 0.23084751 0.22522524
000230 d5 dd 7f 3e 39 69 c0 3d 51 0e 70 be 1f 5c b7 3e
       0.24986966 0.0939507 -0.23442961 0.3581247
000240 12 3c a3 3e 26 6d 6d 3e 7c ba 63 bf cc 3b 6f 3e
       0.31881768 0.23186168 -0.8895643 0.23362654
000250 81 01 9e 3e cf c3 32 3e a9 36 52 be 38 7a 8e 3e
       0.30860522 0.17457508 -0.20528664 0.2782762
000260 09 27 44 be b5 52 b8 bf 31 70 e8 bf 80 0d 0c be
       -0.19155516 -1.440024 -1.8159238 -0.13677025
000270 2f 8a 3d 3d a8 32 1c be 19 bc a5 3c 96 8b 2c bf
       0.04627436 -0.15253699 0.020231294 -0.6740049
000280 64 b6 9c be 5a 48 fc bd f0 14 c9 3e ff c8 44 bc
       -0.30607903 -0.123184875 0.39273787 -0.012010812
000290 5a 83 77 3e fc 64 e2 be 9e 15 fe be 16 19 38 bf
       0.241712 -0.4421767 -0.49625868 -0.7191328
0002a0 b7 cc 32 be 3f 39 2b bc 88 51 20 3f 96 1e 91 bd
       -0.17460905 -0.01045066 0.62624407 -0.07085912
0002b0 fb 16 a6 be ee df c3 be 86 cc e2 3e 11 c7 cd bd
       -0.32439408 -0.38256782 0.44296664 -0.100477345
0002c0 c2 8b d3 3e 91 dd 9d bf a4 ca 9f be 9c 71 bf be
       0.41317564 -1.2333242 -0.3120929 -0.37391365
0002d0 8d 7e 1c 3e e3 99 eb 3e 83 86 b7 be 5d f7 ec be
       0.1528265 0.46015844 -0.35844812 -0.46282473
0002e0 3b e3 19 3e 30 f6 53 be e8 67 eb 3e 7b fa 84 3d
       0.15028088 -0.20699382 0.45977712 0.06493088
0002f0 79 7d a9 3d eb e0 dc 3e 13 bf c5 bc b7 e7 9d bf
       0.08275885 0.4314035 -0.024138963 -1.2336339
000300 d7 38 af 3e 29 6f 3f bf d5 96 61 be 09 c1 b0 3e
       0.34223053 -0.7477899 -0.22030194 0.34522274
000310 4e 21 96 3e 1a cf a2 bc d6 ba e3 3d 4f da ac 3d
       0.29322284 -0.019874144 0.111196205 0.084400766
000320 96 6a 90 bd 15 bc e3 bc a5 5d f5 be 8a 48 5a bf
       -0.0705158 -0.027799645 -0.47923008 -0.85266936
000330 d1 dd 07 bf 5b f2 70 bc e2 49 ab be d5 ed 24 bf
       -0.5307284 -0.01470622 -0.33454806 -0.644254
000340 0f ce a3 be a6 74 99 be 62 7a a5 be b7 ae b4 be
       -0.31993148 -0.29971808 -0.32319933 -0.35289547
000350 be 2e ec bc 5e bf 83 bf 0e d7 48 3d 7e d1 1e 3f
       -0.028830882 -1.0292776 0.049033217 0.6203841
000360 5b 6f e9 3b 8b 2c b1 be 02 96 d3 3c c2 d3 49 3f
       0.0071238703 -0.34604296 0.025828365 0.7883874
000370 e5 ea 18 bf c1 03 6d be 28 26 6e be a8 91 5a bd
       -0.5973342 -0.23145963 -0.23256743 -0.053361565
000380 3f 6b 57 bd 53 70 56 3d c5 14 73 3d b4 cf 27 3f
       -0.052592512 0.052353214 0.05934598 0.65551305
000390 2b e2 d9 3e 68 96 01 3d e4 61 f5 3b 73 61 0a 3f
       0.42555365 0.03163758 0.007488476 0.54054946
0003a0 0e 96 3e 3e 66 27 04 3f 33 88 d4 3e cf e3 b1 3e
       0.18611929 0.5162262 0.41510162 0.34744117
0003b0 0e 83 59 3e 09 67 e3 be ee fc 4b 3f fa 1c b6 be
       0.212414 -0.44414547 0.79682815 -0.35568982
0003c0 6e a1 c9 be 28 e2 46 3d f0 9d 33 be 28 47 c9 be
       -0.39380974 0.048555523 -0.17540717 -0.393121
0003d0 0a 91 ef be 27 56 af be 72 cc 36 3e 56 c3 4d 3e
       -0.46790344 -0.34245417 0.17851427 0.20094046
0003e0 96 15 ce 3e 9f 23 10 bf 7e ee 27 3e 66 0f 8f 3e
       0.40250844 -0.56304353 0.16399571 0.27941436
0003f0 ea 66 60 3f 31 f0 8b bf d1 ac 00 3d 04 b5 3f bd
       0.87657034 -1.0932676 0.03141481 -0.04680349

bias f4 [729]
000000 77 d1 33 bf 2a 9c fd 3e 12 7e 8e 3f 0d fe 22 3e
       -0.70241493 0.49533206 1.1132224 0.15917225
000010 a1 42 5d 3f 28 ad 0f 3f cc 07 41 bd 6c e2 50 3d
       0.8642979 0.5612359 -0.047126576 0.050997183
000020 9c 63 99 3f 58 a8 da 3d 10 60 0e 3e 02 4f 1f 3f
       1.1983523 0.1067664 0.13903832 0.6222993
000030 f2 e8 66 3f 3f 23 11 3f 8c 23 1b 3f 50 37 4b 3f
       0.90199196 0.56694406 0.60601115 0.79381275
000040 69 be 41 3e 4f 92 e5 3e 68 ff e3 3d ee d5 30 3e
       0.18920292 0.44838187 0.11132699 0.17269108
000050 08 82 dc 3e ed 11 d2 3e c0 80 41 3f 54 a2 40 be
       0.43067956 0.410293 0.7558708 -0.18811923
000060 8e 07 8b be 0b b7 03 40 d9 61 06 3f 78 37 f6 be
       -0.271542 2.058047 0.52493054 -0.48089194
000070 0e b2 83 3f b9 dd 92 3e 4d cd 95 3f 09 d2 44 3f
       1.0288713 0.28684786 1.1703278 0.7688299
000080 74 94 95 3e d6 b7 30 3b e0 a3 03 3f 0d 68 77 3f
       0.29214823 0.0026965044 0.5142193 0.96643144
000090 cf bd aa 3e 50 5d b0 3f f7 44 ab 3e f6 96 ab 3e
       0.33347937 1.3778477 0.33451054 0.33513612
0000a0 e2 fb 9b 3e ac bf 1a 3f d2 e3 91 3e 5d 02 d8 3e
       0.3046561 0.6044872 0.28494126 0.42189303
0000b0 7c 6a 0d 3f 22 c7 ae be 56 13 02 3f 27 6b 74 3f
       0.5524061 -0.341363 0.50810754 0.95476
0000c0 6a 8a d8 3f a2 80 31 3f 27 1a 17 be f5 b9 0b 3f
       1.6917241 0.69336903 -0.1475607 0.5458062
0000d0 fe 2d 5d 3f 29 26 97 3e 50 0e 27 3e f0 14 03 3e
       0.86398304 0.295213 0.16314054 0.12800956
0000e0 e4 e8 8c 3f 5d 6f 0f 3e 7e 19 a0 3f 27 ae 97 3f
       1.1008573 0.14007325 1.250778 1.1850022
0000f0 c2 52 03 3f 7c 0a 54 3e ae 52 1a 3f c3 d1 22 3e
       0.51298153 0.20707124 0.6028241 0.1590033
000100 63 9b 0b 3f 23 e9 60 3f 36 54 ae 3e 0b 97 1e 3e
       0.54533976 0.8785574 0.34048623 0.15487306
000110 85 14 98 3f 17 e4 06 3f 27 28 6f be 1f e5 21 3f
       1.1881262 0.5269179 -0.2335516 0.63240236
000120 64 f2 d9 3e 57 09 43 3e e2 86 1b 3f 59 97 1d 3f
       0.42567742 0.19046532 0.6075269 0.61559063
000130 fb 14 1d bf f9 17 8b 3f fd 7d ef 3e d4 ec 25 3f
       -0.6136014 1.0866691 0.4677581 0.64814496
000140 86 a0 f7 3f ff ff 85 be 6f a2 20 3f 8c b0 a5 bd
       1.9345863 -0.26171872 0.62747854 -0.08090314
000150 d3 58 59 3f f7 ea 5f be e7 a3 33 3f ad 7e 48 3f
       0.8490116 -0.21866976 0.7017197 0.7831829
000160 a8 66 aa 3f 81 94 1b 3f 33 44 49 bd 16 bc cd 3e
       1.3312578 0.60773474 -0.049137305 0.4018256
000170 c7 13 04 3f d4 af 29 3f 56 06 c4 be 1b 28 5f 3f
       0.5159268 0.6628392 -0.38286084 0.8717057
000180 f6 0a 06 3f 98 1b bf 3f 0b cd 75 3f 4b 98 7d be
       0.52360475 1.4930296 0.96015996 -0.24765126
000190 9c a2 2f 3f 08 f8 27 3f 17 09 06 3f bf b2 39 3e
       0.686075 0.6561284 0.5235762 0.18134592
0001a0 37 80 04 bf fb a9 9a 3e 7e a5 37 3f 09 28 ff 3e
       -0.5175814 0.3020781 0.71736896 0.49835232
0001b0 66 31 df 3e 1d ec 87 3f c2 c2 8b 3e 03 b6 96 3f
       0.43592376 1.0618931 0.27297026 1.1774296
0001c0 23 90 f0 3c 71 9c 04 3e f8 b8 90 3f be c4 eb be
       0.029365605 0.12950303 1.1306448 -0.4604854
0001d0 9b 9d 35 3f 38 cb be bd 97 d8 90 3d c9 d1 ae 3e
       0.7094361 -0.09316105 0.07072561 0.34144428
0001e0 56 3e 8f 3f be ca 97 3f d0 7d ce 3e 08 4e 0a 3f
       1.1190898 1.1858747 0.40330362 0.54025316
0001f0 a6 23 ab 3e e3 52 cb 3f 03 bc 4a 3f c8 96 83 3f
       0.33425635 1.588467 0.79193133 1.028039
000200 57 2c 41 3f d8 2f ab 3e a7 32 6f 3f 37 cb 17 3f
       0.7545828 0.3343494 0.93436664 0.59294456
000210 0d cf 90 3e 09 1d 06 3e 3e 8b 0f 3f 97 16 8e 3f
       0.28282967 0.13097014 0.5607184 1.1100644
000220 5f f5 52 3e fa 74 d9 3e c1 9a 00 bf b3 e0 73 3e
       0.20601414 0.4247206 -0.50236136 0.23816185
000230 61 00 86 3f 68 72 8f 3a f5 7a 3a 3f e9 9f ce 3f
       1.0468866 0.001094413 0.7284387 1.6142551
000240 85 9e 89 3e 1f e1 8b 3e 3f ed 52 3f 9a 07 4b 3f
       0.26878753 0.2732019 0.8239326 0.79308474
000250 40 9a 0b 3f b2 3f e6 be 03 c3 13 3f 2f 5b 89 3f
       0.5453224 -0.4497047 0.5771944 1.0730952
000260 33 5f d1 3e 3b 6c 69 3f e2 3e b0 be 42 85 8c 3e
       0.40892944 0.9118077 -0.34422976 0.27445418
000270 e2 45 9d 3f 22 9f 3b 3f 0f 8d 71 3f dd fe 87 3e
       1.2286952 0.7328969 0.94355863 0.26561633
000280 5f 0c 86 3e de 71 3f be 55 a5 de 3e 63 ac 50 3c
       0.26181313 -0.1869578 0.43485513 0.012736413
000290 fa 48 b2 3e 25 82 6e 3f cf 9f 45 bb df 48 f2 be
       0.34821302 0.93167335 -0.0030155068 -0.4732122
0002a0 c9 3c 80 bb 8b 2d 0e 3e ba 43 01 3f 53 c2 5a bc
       -0.003913496 0.13884561 0.5049397 -0.013351995
0002b0 18 b3 9f 3c 1e 20 92 bc 50 ca 5e 3f c9 38 4b be
       0.019494578 -0.01783758 0.87027454 -0.1984588
0002c0 c8 10 14 bf 91 d8 f5 3d c0 5c 0d 3e a5 e0 b5 bd
       -0.57838106 0.120041974 0.13804913 -0.08880738
0002d0 fa 1b 1d 3e 4a db 3b 3f f4 ed 71 3f ff d9 c4 3e
       0.15342703 0.73381484 0.9450371 0.38447568
0002e0 7d 99 35 bd 22 ee d1 bb 1d a6 20 3f 19 e4 72 3e
       -0.04433583 -0.0064065615 0.6275347 0.23719825
0002f0 9c 33 3c 3f cb 78 57 3e 8e 1b d7 3e 17 5e 70 3f
       0.7351625 0.21042173 0.4201321 0.9389357
000300 06 93 9d 3e 3b d5 e7 3c f6 fa 24 3f 59 91 6a 3f
       0.30776232 0.028299918 0.64445436 0.9162803
000310 b4 17 0e 3e 83 4e 9b 3f 0b 4e fb 3e e9 14 b2 3f
       0.1387623 1.2133335 0.4908298 1.3912631
000320 20 f9 57 3f 2e 7c af 3f 74 e8 56 bd ba 00 31 3f
       0.8436451 1.3709772 -0.05246778 0.69141734
000330 79 7a 6a 3f 58 b5 4b 3f 0d 28 5b 3f 17 df 29 be
       0.9159313 0.79573584 0.8560799 -0.16589008
000340 81 c8 e2 3c 53 f8 5d 3f be 61 77 3d ca 49 7e 3f
       0.027683498 0.8670704 0.06039595 0.99331343
000350 39 ff d8 3e 38 0e 17 3f 90 c9 81 3f c2 01 7f 3f
       0.4238222 0.5900607 1.0139637 0.9961206
000360 26 02 eb 3e 60 cf 1a 3f 17 d1 11 3f 92 87 34 3f
       0.45900077 0.6047268 0.5695967 0.70519364
000370 93 28 0b 3f 52 75 93 3e 38 6a a9 bd f1 29 ed 3e
       0.54358786 0.28800446 -0.08272213 0.4632106
000380 b2 c9 36 3f e9 25 7d 3e be 9a 92 3f 4c f8 69 3e
       0.7140151 0.24721493 1.1453474 0.22848624
000390 3f 62 71 3f 63 ad 06 3f 4f 34 92 3f 7b a0 c0 be
       0.94290537 0.5260832 1.1422213 -0.37622437
0003a0 cc ad 1f 3f f0 bc 45 3f 88 fd 8e 3e 39 e1 49 3e
       0.6237457 0.7724142 0.27927804 0.19714822
0003b0 c1 be 25 3f 06 35 60 3f 8b 7a 03 be bf 47 c1 3b
       0.6474419 0.8758091 -0.12839715 0.0058984454
0003c0 79 63 2e 3e 4b bf 1e 3f 1c 17 9b 3f 00 3c 86 3e
       0.17030133 0.6201064 1.2116427 0.2621765
0003d0 1a 80 60 3f 8f d3 34 3f 31 c5 9e 3f e3 d1 00 3f
       0.8769547 0.7063531 1.2403928 0.5032026
0003e0 5a e7 13 bd 7e 98 2a 3f 7e ae dc 3e 0c d6 47 3f
       -0.036109306 0.66638935 0.43101877 0.78060985
0003f0 2f 21 3f 3e a1 1e 32 3e 80 40 64 3e 67 f1 c3 3f
       0.18665002 0.17394497 0.2229023 1.5308045
