saved_models/08-08 20:41.pth (torch, 785053 bytes, 23 tensors)

weight_mu f4 [150, 64]
000000 09 14 b1 bc e5 17 d9 3e 9c 24 c8 3e c7 fd 31 be
       -0.021615999 0.42401043 0.3909043 -0.17381965
000010 d0 7c ce 3e f8 2d ad 3e 44 85 33 3e e8 21 5f 3e
       0.403296 0.33824134 0.17531306 0.21790278
000020 2b 22 2e be 9e b8 ba 3d 1a f6 75 3b 7c c4 a1 bc
       -0.17005222 0.09117244 0.0037530721 -0.019747011
000030 5b b5 9c 3e 04 90 08 bd 88 3d e5 3c a3 3b 39 3e
       0.30607113 -0.03334047 0.027983442 0.18089156
000040 55 8d 2f 3e 9c 59 97 3e 3a bb 59 3e 09 ee 29 3d
       0.17143758 0.29560554 0.21262828 0.041486774
000050 c5 89 c7 bd 99 76 8d 3e d8 1a d7 3e c4 23 ac bd
       -0.09743074 0.27629545 0.42012668 -0.08405259
000060 e4 ee 95 3d 0d 7f 99 3e 1c 0e 5a 3e 57 a7 63 bd
       0.073209554 0.29979745 0.21294445 -0.05557951
000070 ce bc 90 3e fa ad d9 3e e1 78 f6 3e 8e 53 3b 3e
       0.28269047 0.42515546 0.48139098 0.18293592
000080 a9 49 91 3e be 4c 01 bc 9a 47 1d 3d 8c 5f 25 bd
       0.2837651 -0.007891832 0.038398363 -0.040374324
000090 f5 71 26 3d 7e 7e 86 3e 6a 31 3f bd 2a c0 b0 be
       0.04063602 0.2626838 -0.046677984 -0.3452161
0000a0 aa a1 a0 bd e0 d5 9b 3e b8 25 b6 bc 8b 5c 0e 3e
       -0.07843335 0.3043661 -0.022234783 0.1390249
0000b0 60 d7 88 3e b0 52 5b be 0e 52 b8 be 05 c5 7a bd
       0.26726818 -0.21418262 -0.36000103 -0.06122305
0000c0 0e 06 99 bd ab ae 8c bb 8b a9 f0 3d 4b ca 4f 3e
       -0.07471858 -0.004293283 0.11751088 0.20292012
0000d0 c8 7b c4 3e 9e cb b7 ba 3a 14 c7 3e 95 62 88 be
       0.38375688 -0.0014022475 0.3888262 -0.26637712
0000e0 16 be 3c 3e 89 00 6c be eb 15 fd 3d 1d ca f0 3d
       0.18431887 -0.23047079 0.12357696 0.117573
0000f0 ed 93 a5 3e 1a 32 03 3d c0 cc 9e 3e 66 f4 c8 bd
       0.3233942 0.032030202 0.31015587 -0.0981224
000100 16 82 02 bd c2 e4 7f 3e 5c 91 f2 3e 94 59 04 be
       -0.03186234 0.24989608 0.47376525 -0.12924796
000110 12 83 c0 3e 24 13 ad 3e c8 bb 7f 3e 58 7c ed 3d
       0.376 0.33803666 0.24973977 0.11595982
000120 61 78 44 be b1 1f 33 bd 0e 29 fc 3c 82 46 d0 bd
       -0.19186546 -0.043731395 0.030781295 -0.10169698
000130 03 be aa 3e 0c d9 b9 bd 94 3d 3e 3d 33 1b 66 3e
       0.33348092 -0.090746015 0.046445444 0.22471313
000140 82 2b 95 3e 05 b2 da 3e 95 68 68 3e 85 c4 54 3e
       0.29134756 0.42713943 0.22696145 0.20778091
000150 5a 1b b5 bd 02 72 cb 3e 1f 35 07 3f e4 ba 47 bb
       -0.088431075 0.3973542 0.5281543 -0.0030476386
000160 b2 84 5c 3e ca 5c d0 3e 72 78 60 3e 2b dd 9b 3d
       0.21534994 0.40695792 0.21920946 0.07610544
000170 dd d3 cb 3d a2 f8 00 3f d3 dc d5 3e 21 c2 cd 3d
       0.09952519 0.50379384 0.41770038 0.10046793
000180 38 53 db 3e 7d 74 67 bd b1 74 46 3d 45 fa 42 be
       0.42836928 -0.056507576 0.04845113 -0.19040783
000190 d3 9e be bd c3 f8 b9 3e 16 0e 9d 3d bc 3b 78 be
       -0.09307637 0.36322603 0.07668702 -0.24241537
0001a0 96 35 5e be 4a 31 94 3d 1e 01 23 bd 64 10 b2 3e
       -0.21700129 0.07235964 -0.039795987 0.3477813
0001b0 d2 3d ea 3e 51 63 2d be dd 0f 46 be 03 3b 14 be
       0.4575029 -0.16932417 -0.19341989 -0.14475636
0001c0 25 91 50 be bc 33 17 3a 83 a2 84 3c 55 21 51 3e
       -0.20367868 0.0005767902 0.016190773 0.20422871
0001d0 1e 8c a6 3e 16 5c 22 bd 54 ea ea 3e cc d6 ad be
       0.32528776 -0.0396386 0.45881903 -0.3395294
0001e0 17 16 25 3e cf fb 3d be b9 42 5e 3e 21 0d 7f 3e
       0.16121708 -0.18553089 0.2170514 0.24907352
0001f0 95 87 f3 3e a1 c9 3c 3c 56 54 e8 3e e4 aa c8 bd
       0.47564378 0.011522681 0.45376843 -0.0979822
000200 3f e1 b6 bb 68 ce 50 3e b9 f3 bf 3e bc be 1d bd
       -0.0055810506 0.20391238 0.37490633 -0.038511977
000210 01 07 a4 3e 0e 88 4f 3e 4d 77 4e 3e 77 47 5c 3e
       0.32036594 0.20266744 0.20162697 0.21511637
000220 69 2e 00 be 47 aa 15 be ee 02 fc 3c ef 9e 32 be
       -0.12517704 -0.14615737 0.030763116 -0.17443441
000230 78 d8 c9 3e 2f 76 30 be 8c 84 f3 3d 61 01 13 3d
       0.39422965 -0.17232583 0.11890516 0.035889987
000240 43 5c a9 3e 5c c2 e5 3e 2b 1e 60 3e 10 6b 33 3e
       0.33078203 0.44874847 0.21886508 0.1752131
000250 aa 0c 6d bc ff c7 74 3e 33 53 b2 3e 7b 8d 9d bd
       -0.014468351 0.23904417 0.348291 -0.07693001
000260 4c 42 5c 3d 2e 9d 9a 3e da 9b 62 3e b5 0e ad bd
       0.053774163 0.30198044 0.22129765 -0.08450071
000270 b0 46 ac bd 2c 55 a5 3e d5 de e1 3e 1a d4 25 3d
       -0.0841192 0.32291543 0.4411532 0.04048548
000280 ce c8 77 3e 42 1c 94 bd bc 41 05 be 01 90 8a 3d
       0.24197695 -0.07231952 -0.13013357 0.06765748
000290 f2 fb 86 bd ff 88 dc 3e 91 8d 31 3e 09 38 10 be
       -0.065910235 0.4307327 0.1733916 -0.14083876
0002a0 45 9c 7a 3d 43 b6 16 3e 47 af e3 bc 0d 69 8d 3d
       0.061184186 0.14717965 -0.02779354 0.069048025
0002b0 cd 23 cc 3e bd f6 59 be fe 68 14 be 0c 34 ca bd
       0.39871064 -0.2128553 -0.14493176 -0.098732084
0002c0 2b 0e 39 be 56 18 71 be 3a dc 04 be 75 74 2f 3e
       -0.18071811 -0.2354444 -0.12974635 0.17134269
0002d0 2f 41 06 3e 30 4e 12 3d 32 40 b4 3e 2c 86 68 be
       0.13110803 0.035719097 0.35205227 -0.22707433
0002e0 43 77 6f 3d e2 7b 51 bd 37 8e 54 3e 2f 03 bd bd
       0.058463346 -0.051143534 0.20757376 -0.09229123
0002f0 d4 f1 72 3e d9 c7 fd bc db 41 7b 3e 0a 40 16 be
       0.23725063 -0.030979084 0.2453684 -0.14672866
000300 4f 79 05 3d 6a af c7 3e c0 4e f0 3e 6c 4f 93 be
       0.032586392 0.39001018 0.4693508 -0.28771532
000310 f7 8a e5 3e fc 81 05 3f c2 06 92 3d 19 9a 57 3e
       0.44832584 0.52151465 0.07130195 0.21054877
000320 43 15 8c be 23 f5 43 3e 46 5a 9d bd 83 07 98 3d
       -0.2735997 0.19136481 -0.07683234 0.07423308
000330 a9 c9 fb 3e 55 6d 14 3e 83 bc d7 bc 75 63 09 3e
       0.49177292 0.14494832 -0.026335007 0.13416846
000340 56 9c 2b 3e c9 2c e2 3e a1 c9 53 3e 49 41 2b 3e
       0.16758856 0.44174793 0.20682384 0.16724123
000350 6a 24 5e be da 3a dd 3e 93 f9 d8 3e 42 39 92 be
       -0.21693578 0.43208963 0.4237791 -0.2855931
000360 73 6a 89 3e 01 c2 bc 3e ad 3c aa 3e ef ba 3c 3c
       0.26839027 0.36866763 0.33249417 0.011519178
000370 02 49 b9 3d 32 99 01 3f d1 62 a8 3e c5 e9 12 3e
       0.09047128 0.5062438 0.3288789 0.14346988
000380 ab bf db 3e 8e 8a c5 3c 1a 4d 80 3d a2 e1 f6 bc
       0.4291967 0.02411392 0.06264706 -0.030136887
000390 d9 29 59 3d 9b cb 89 3e c1 83 34 3e 22 83 c1 bd
       0.053018425 0.2691315 0.17628385 -0.0944884
0003a0 af 4b 81 3d 46 b7 76 bd 49 80 8d 3d 07 b0 47 3e
       0.063132636 -0.060233377 0.06909234 0.19500743
0003b0 78 4f f3 3e c1 a4 49 be c5 f8 91 be 63 1f 4f be
       0.47521567 -0.19691755 -0.2851011 -0.20226817
0003c0 7f c4 b6 bc 64 9c 21 be f0 04 04 be ed f7 97 3e
       -0.022310494 -0.15782315 -0.12892509 0.2968134
0003d0 08 06 3b 3e dd c9 07 bd 0b 6d b8 3e 8c b2 07 be
       0.1826402 -0.033151496 0.36020693 -0.13251704
0003e0 18 3d 8c 3e dd 6a 8d be a2 60 41 3e be c0 0b bd
       0.2739036 -0.27620593 0.18884519 -0.03411936
0003f0 b7 c8 02 3f 68 e3 34 3d f9 a6 9e 3e 42 2b 90 bd
       0.51087517 0.044162184 0.30986765 -0.07039501

weight_sigma f4 [150, 64]
000000 4f 5c 0c be 42 72 a4 3e c8 cd c6 bd e5 29 76 3d
       -0.13707088 0.32118422 -0.097072184 0.060098547
000010 c1 9e cd 3d 58 d2 63 3e cc 16 1c 3e 4e d4 41 3d
       0.100400455 0.22248209 0.15243071 0.04732161
000020 72 7e af bd 9f a5 15 be 7d 2b d0 bd 88 53 0f 3e
       -0.085690394 -0.1461396 -0.10164545 0.13996708
000030 5c 13 44 3e c8 50 0b 3d cf a9 3e 3e f5 99 fd 3c
       0.1914801 0.034012586 0.18619464 0.030957201
000040 28 aa f1 bc 94 1e 53 3e bb 9e 92 be 07 84 9e 3d
       -0.029500082 0.20617133 -0.28636727 0.07740026
000050 74 18 29 3e 50 03 93 3e e4 78 15 be 1e 3a 05 3e
       0.16513234 0.28713465 -0.14596897 0.13010451
000060 8f e2 5d 3e ff 5c 40 3e 6c d5 0a be 90 9a d5 bd
       0.21668456 0.18785475 -0.13557976 -0.10429871
000070 32 16 8f 3d 88 a3 87 3e a4 0e d1 bc b5 49 08 3e
       0.06986655 0.26491952 -0.025519677 0.13309367
000080 33 56 bd 3d b3 4e 44 3d b9 62 51 3b 4b 5f e4 3d
       0.09244957 0.047926616 0.0031949712 0.11150988
000090 05 e1 02 3e 14 3e 2b 3e 6f 05 98 3e 38 f6 2b 3d
       0.1278115 0.167229 0.29691646 0.04198286
0000a0 90 ba e7 bc 66 7b ca 3d 7d 82 4c bd d9 d8 74 3e
       -0.028287202 0.09886818 -0.04992913 0.23910846
0000b0 2c ba e6 bd 5d ac da bb 10 b9 6d bc ae 0a 40 3e
       -0.11265978 -0.0066733793 -0.014509454 0.18754074
0000c0 4c 9a e9 bd 35 1c 61 3c 81 fb 38 3e 18 0f 9b 3c
       -0.11406383 0.013739635 0.18064691 0.018928096
0000d0 14 50 d1 ba 46 4e 02 3e da 1d 0a be b1 6c 07 3e
       -0.00159693 0.12725171 -0.1348795 0.13225056
0000e0 9d 0a 02 bf 55 89 02 3d 3c cd 9d 3d d7 f2 69 3d
       -0.50797445 0.03186925 0.07705161 0.057116356
0000f0 a3 42 6f 3d 2b ec 69 bd e2 dc 1b 3d e6 ab 2b 39
       0.05841316 -0.057109993 0.038052447 0.00016371868
000100 b8 f2 ef 3c 3c f1 01 be 8f ee c5 3d 42 0a 6e 3d
       0.029290542 -0.1268968 0.09664642 0.05811525
000110 e1 d1 5d be 4c 73 18 3e d9 4b 87 be 16 19 50 3d
       -0.21662094 0.14887732 -0.26425055 0.050805174
000120 34 50 c8 ba f7 d2 8a 3d c0 37 43 3e b0 0b 11 be
       -0.0015282691 0.067785196 0.19064236 -0.14164615
000130 fd b5 65 bd 8c 16 65 bc 6f a9 f7 3c 50 3b a0 be
       -0.05608176 -0.013982426 0.03023216 -0.31295252
000140 e4 d7 94 3e eb e5 bc 3e e2 93 b5 bd 47 2c 89 bd
       0.2907096 0.36894163 -0.08866097 -0.06697898
000150 91 45 36 3e de df 19 3f ce d3 b7 3d aa 67 ae bc
       0.17799975 0.6010722 0.089759454 -0.021289665
000160 ba 69 ac bd db 18 5c 3e b7 4b 1b 3e 03 21 07 be
       -0.08418603 0.21493857 0.15165602 -0.13196187
000170 08 65 bf 3d ac 45 c8 3e 9f 3a 9f bd 59 37 11 3e
       0.09345442 0.39115655 -0.07774853 0.1418127
000180 05 5c 26 be c6 d2 b8 bd 0f d9 85 be 37 79 de 3b
       -0.1624604 -0.09024577 -0.26142165 0.0067893523
000190 96 5a 3d bb 20 be 62 3e 0d e7 9b 3e 66 63 8c 3d
       -0.0028893105 0.2214284 0.30449715 0.06854896
0001a0 28 6c b2 3c 63 c1 a5 3e 7b c7 46 3e 59 d1 69 3e
       0.021780089 0.32374105 0.19412033 0.22833766
0001b0 3a ad 1a 3e d0 39 ee 3d f8 b5 0d bd 21 f8 6a 3e
       0.15105143 0.116321206 -0.034597367 0.22946216
0001c0 ec c0 30 3d de fe 47 be a7 62 18 3c 96 ca cd bd
       0.043152735 -0.19530818 0.009300864 -0.10048406
0001d0 74 02 68 be 0e 1f c3 bd 8a 7d b4 3d d7 eb b5 3c
       -0.22657186 -0.095274076 0.08813007 0.022207184
0001e0 87 d2 7e 3e 0b af 0d 3e 84 d7 6c 3d 9c c1 23 bd
       0.24884997 0.13836305 0.05782272 -0.039979562
0001f0 ae 84 85 bd db af e3 3d 90 cf a9 bd 76 c7 c4 bc
       -0.06519447 0.11117526 -0.082915425 -0.024020892
000200 07 9e 36 bd 32 79 4e bd 7e 81 b7 be 76 4d 8a bd
       -0.0445843 -0.05040855 -0.35840982 -0.06753056
000210 d4 82 92 3e c5 e2 b3 bd fc 7d 88 3d d1 9e a8 bd
       0.2861544 -0.08783487 0.066646546 -0.08233417
000220 ef 4c 08 3d cf c2 a3 bd 01 31 b4 3d 15 20 68 3e
       0.033276495 -0.07996141 0.08798409 0.22668488
000230 ec cf c6 bd 8b 41 0f 3d af cb da 3b f4 3b 81 3e
       -0.09707627 0.034974616 0.006677113 0.25241053
000240 e0 ad 86 3d 7e 8f e6 3c 4b dd 4b bb 5f 47 ea bd
       0.06576133 0.028144594 -0.0031107243 -0.11439394
000250 6e d1 24 3e 42 1a 9e 3e 45 25 f8 3d fd c1 a3 bd
       0.16095516 0.30879408 0.121164836 -0.07995985
000260 a8 8c 31 3e 6f dd 7e 3e 4e 22 4d 3e 52 1a 63 3e
       0.17338812 0.24889158 0.20032617 0.22178009
000270 a7 73 c9 3d ed 08 98 3e 99 a5 2d 3e 62 22 d5 3d
       0.09836512 0.2969431 0.16957702 0.104069486
000280 6a 76 be bd 3f 4d 8b 3b a3 2b b3 3b 9b 70 02 be
       -0.092999294 0.004251152 0.0054678484 -0.12738268
000290 19 9f 8b bc ce f3 1b 3d 6f c4 ad 3d 59 2b 5b bd
       -0.017043637 0.038074307 0.08484732 -0.053508136
0002a0 bd 21 4f bd cc 6a 10 3e 9c ed 5a 3d 39 12 9a 3c
       -0.050569285 0.1410324 0.05344926 0.018807517
0002b0 a9 25 13 3e 3e 46 51 be 72 15 98 bd 4e 59 df 3d
       0.14369835 -0.20436952 -0.07425965 0.109057054
0002c0 2d 48 f1 bd 85 21 4b be 35 87 fb bd 12 17 19 be
       -0.117813446 -0.19837005 -0.12281648 -0.14950207
0002d0 ec 81 7a 3e cb 2f c1 bd 56 4a e3 3d a5 79 8d 3d
       0.24463624 -0.09432944 0.11098163 0.069079675
0002e0 a7 cb b7 3e 25 e6 ad 3b 8a 34 7a 3e d2 15 28 3e
       0.35897562 0.0053069764 0.24434105 0.16414574
0002f0 69 00 5b be 1a 61 7e bd 8c 81 03 be 59 7f dc bb
       -0.21386875 -0.062104322 -0.12842387 -0.006729048
000300 c2 19 3b bc be 75 15 3e 3b 5e 9c 3e 60 9c c4 3c
       -0.011419715 0.14595696 0.30540642 0.024000347
000310 2c c7 09 3e 9c a6 f3 bd 46 5b e3 bd 2b 9e 7a 3d
       0.13454884 -0.118970126 -0.111013934 0.061185997
000320 1c ba cd bc 2f 97 2d be 9e 2d 02 bd 68 31 b4 3d
       -0.025113158 -0.16952203 -0.031781785 0.08798486
000330 fa 16 78 3e b1 d9 64 3d 7e 1d 59 3d e5 36 bb 3d
       0.24227515 0.05587167 0.05300664 0.0914133
000340 82 1d 9f 3e ed 72 64 3e 2b ff 09 be 6b 8a c6 bd
       0.310772 0.22309466 -0.13476245 -0.0969437
000350 08 b8 34 be 02 99 3b 3e 68 86 ee 39 a5 c0 4c be
       -0.17648327 0.18320087 0.00045495038 -0.19995363
000360 52 ce 3f 3d 77 19 d6 bb 37 90 27 3e 58 45 f7 bd
       0.04682762 -0.0065337974 0.16363607 -0.12073773
000370 4b 69 b3 bd 3c d1 65 3e 1c 14 c3 bd 94 e8 d7 3d
       -0.087603174 0.22443098 -0.0952532 0.10542408
000380 bb ec 73 bd 97 dc 12 be 2c 7a 26 be ce 9e c0 bd
       -0.059551936 -0.14341961 -0.16257542 -0.094052896
000390 a0 34 18 3f e4 07 01 3e 17 8a 9e 3d 99 28 96 bd
       0.594553 0.12600666 0.07741182 -0.07331962
0003a0 71 24 dc bd 3c a3 39 3c dc c5 d7 bd 9b 31 9a 3d
       -0.10749138 0.011330422 -0.105357856 0.07528993
0003b0 bd 8f c6 be f3 73 a2 3d 9e bc f9 3c b1 5f a7 3d
       -0.3878154 0.07932272 0.030485447 0.081725486
0003c0 b6 aa 28 3d a3 48 3e 3d 5a 8b 3a 3e 17 06 f5 3d
       0.041178428 0.04645599 0.18217221 0.11964052
0003d0 1d ee 79 3d 2b 0b 68 3d cd e2 ce 3d ba eb 7c 3c
       0.0610181 0.056651276 0.101018526 0.015437061
0003e0 7a 2b 07 bb af 11 ee 3d 4a af d8 bd 5d 60 ab 3e
       -0.002062528 0.11624467 -0.10580309 0.33471957
0003f0 c0 8d f2 3c 8f 0e eb bd 8e d0 25 3e af 7b 2a bc
       0.029608607 -0.11477386 0.16192839 -0.010405465

bias_mu f4 [150]
000000 f7 c9 dd be 47 f5 ec be 8d d5 97 be cf f0 eb be
       -0.4331815 -0.46280882 -0.29655114 -0.4608216
000010 d0 f2 94 3d a1 3b 23 bf 31 bd 92 be c5 a3 1a bf
       0.07272875 -0.6376286 -0.28659967 -0.6040614
000020 d9 3f c8 be 7f 2d 14 3f 52 9f 00 bf 00 e4 38 bf
       -0.39111212 0.5788192 -0.50243104 -0.722229
000030 69 ae 8c bd 6f 5e e8 be 60 85 00 bf dd 05 e8 be
       -0.068692036 -0.45384547 -0.50203514 -0.45316973
000040 9c b8 fe be b4 f1 05 bf 12 a5 75 3e 6c d7 49 3e
       -0.4975022 -0.52321935 0.2398875 0.19711083
000050 95 3c ee be 82 8b 07 bf 44 00 dc be f8 d8 48 3e
       -0.46530595 -0.5294725 -0.42968953 0.19614017
000060 0c ed 24 be c1 34 21 be 8b 67 06 bf 16 24 a5 3d
       -0.16106051 -0.1574278 -0.52501744 0.080635235
000070 8e b5 34 bf cc c7 f2 bd fa a9 d8 be cc 24 f9 3d
       -0.7058953 -0.118545145 -0.42317182 0.121652216
000080 03 92 39 3e 35 c1 9c bc 8f 1b e2 be 6c fc 02 bf
       0.18122105 -0.019135097 -0.4416165 -0.51166415
000090 cb c9 c4 be 22 49 1a bf a8 44 95 3c e6 d0 0a bf
       -0.38435206 -0.6026784 0.018221214 -0.54225004
0000a0 82 d1 c8 be ac 25 ba be 7d 57 0c bf 0a fc 69 be
       -0.39222342 -0.36356866 -0.54820997 -0.22850052
0000b0 80 c4 c1 be e9 da fa be 28 4f d1 be 6f e0 3c 3b
       -0.3784523 -0.4899514 -0.40880704 0.0028820296
0000c0 2f 6a d8 3c a9 3e 9c be 23 e8 0e bf e4 22 51 3e
       0.02641782 -0.30516556 -0.5582296 0.20423466
0000d0 57 d2 8d bd 49 3a c0 be 5e eb b7 be 53 58 fe be
       -0.06924885 -0.37544468 -0.35921758 -0.4967676
0000e0 12 f7 17 be 30 63 16 bf b1 5c 05 bf 06 4c 8d be
       -0.14840344 -0.587451 -0.5209456 -0.27597064
0000f0 31 fd e4 be 54 ac e4 be dc 84 01 bf 61 26 d0 be
       -0.4472442 -0.44662726 -0.5059335 -0.4065428
000100 52 4c 86 3e 6f 14 e5 be f0 00 9c be 50 b7 01 bf
       0.26230103 -0.44742152 -0.30469465 -0.5067034
000110 d3 20 c6 be a1 7a b5 be db b7 e9 be 04 5f a3 be
       -0.38696918 -0.3544512 -0.45648083 -0.3190843
000120 71 f0 a3 be bb fa ec be ed 93 60 3e 55 2d be be
       -0.3201938 -0.46285042 0.21931429 -0.3714396
000130 2d 47 12 bf 03 d5 b5 be d4 0e bb be da f7 0a bf
       -0.57139856 -0.35514078 -0.3653475 -0.5428444
000140 fd bb e5 be d0 a2 11 bf 32 94 14 bf 84 2c e8 be
       -0.44869986 -0.5688906 -0.5803863 -0.45346463
000150 e2 75 b7 be a2 4a 9b 3e 4f 59 04 bf 30 ec a0 3e
       -0.35832125 0.30330378 -0.51698774 0.31430197
000160 d7 54 e2 be fe 65 6a 3c 51 c7 99 be 6e 19 d7 be
       -0.44205353 0.014306543 -0.3003488 -0.4201159
000170 81 7b b8 be c0 88 dc be 72 dc 10 bf 9c ef 0c 3f
       -0.36031726 -0.43073082 -0.5658637 0.55053115
000180 99 83 19 bf 94 40 07 bf a6 20 fa be 18 7b 50 3e
       -0.5996643 -0.52832913 -0.48853034 0.20359457
000190 c8 1f 13 bf 3f e0 c7 be 50 46 15 bf 92 57 d3 be
       -0.5747037 -0.39038274 -0.58310413 -0.41277748
0001a0 76 86 b0 be 86 9c cb be 3d 20 0e bf 76 bd 69 3e
       -0.34477586 -0.39767855 -0.5551794 0.2282618
0001b0 9a 81 d7 3e 6a 70 fe be ab c5 b8 be 9f 90 32 bf
       0.42091066 -0.4969514 -0.3608831 -0.69751924
0001c0 08 d9 be be 6c 40 80 be d0 d3 09 be 13 ef fd be
       -0.37274957 -0.2504915 -0.13459706 -0.49596462
0001d0 83 d7 a8 be 49 e0 00 bf 78 a2 cb be b8 44 e8 3d
       -0.32976922 -0.5034223 -0.3977239 0.11341232
0001e0 2e 0c 17 bf 07 0e 02 bf 09 d5 03 bf 95 65 de be
       -0.5900296 -0.50802654 -0.5149694 -0.43436876
0001f0 1c cf 08 bf 66 f5 d7 be 37 45 68 bd a3 62 03 bf
       -0.53441024 -0.42179412 -0.056706633 -0.5132238
000200 fc 3b 1e bf 8a 05 84 be af 47 f7 be aa 57 89 bc
       -0.6181028 -0.25785476 -0.48296878 -0.016765434
000210 de 98 d0 be b7 17 c7 be 79 cf 47 bf c6 35 0f bf
       -0.40741628 -0.3888528 -0.78050953 -0.55941427
000220 60 6e d4 be 37 3c 8e 3e b1 c9 04 bf ae ed 19 bf
       -0.4149046 0.27780315 -0.51870257 -0.60128295
000230 9d 73 86 3d ae 5e fc be 22 94 2e bf 98 2c ef be
       0.0656502 -0.49290985 -0.6819478 -0.4671371
000240 a8 f4 f4 be de 8e 7a be eb b3 a5 3c 7a 92 05 bf
       -0.47842908 -0.24468562 0.020227393 -0.5217663
000250 e7 38 39 3e 65 2d 69 3e
       0.18088113 0.22771223

bias_sigma f4 [150]
000000 96 d2 8d 3d 7b 9d e3 3d 56 5c 5d 3d 23 4a ce 3d
       0.06924932 0.111140214 0.054043137 0.10072734
000010 89 08 4f 3d b9 f5 aa 3c 5e cf a2 3d 0b 47 48 3d
       0.05054525 0.020869123 0.079497084 0.048895877
000020 f7 29 c3 3c a6 a1 5b 3d 52 55 c9 3d cd 73 1c 3e
       0.023823721 0.053620957 0.09830727 0.1527855
000030 40 e3 5e 3d 53 61 89 bd 2c b9 55 3d be 79 23 3e
       0.05441594 -0.06708016 0.052178547 0.1596441
000040 a8 f3 dc bc 9f 76 6c be 2f cc 24 bd 7f 50 1d bd
       -0.026971653 -0.23092125 -0.040233787 -0.038406845
000050 70 a6 17 3e a2 1a 37 3d c3 4e 27 3e 7a dc 1e bd
       0.14809585 0.044703133 0.16338639 -0.03878448
000060 f6 e0 19 3c 15 8b 3f bc d2 a4 c4 bd 86 98 00 bc
       0.009392014 -0.011690875 -0.096017495 -0.007848864
000070 06 d8 6b 3c 96 35 29 bb 8e e1 2b 3e fb ad ce 3c
       0.014394766 -0.0025819293 0.16785261 0.025229445
000080 d6 0a f0 bb 10 6c 74 3a 26 5a 5b be 8d f4 8b 3d
       -0.0073255105 0.0009323964 -0.21421108 0.06833754
000090 90 2b ce be 58 50 a2 3e dc d1 c6 3c 26 64 b6 3e
       -0.4026761 0.31701922 0.02426999 0.35623282
0000a0 8e 3d 64 3e 6f 10 bf 3c 54 93 81 3c 5a 82 4f 3d
       0.22289106 0.023323266 0.015817322 0.050661422
0000b0 5b 51 01 be ad bf 82 3d ac 05 14 3e 48 43 09 bd
       -0.12628691 0.063842155 0.14455289 -0.03351143
0000c0 0f 7c 29 3d c5 fb 13 3e 55 9b 49 be d2 6b 49 bd
       0.041378077 0.14451511 -0.1968816 -0.04917509
0000d0 a9 1c ef 3b 36 8a 31 3e 12 ea c4 bd 87 05 e0 3b
       0.0072971177 0.1733788 -0.09614958 0.0068365964
0000e0 9f 40 f9 3d 54 47 1f 3e e7 bc e3 3d 7c b7 d7 3c
       0.121705286 0.15554553 0.11120015 0.02633261
0000f0 ab 1b bb 3c e8 25 7e bc 10 1c 92 3c 76 8e 84 3e
       0.022840342 -0.015511967 0.017835647 0.2588994
000100 18 74 bc bc 9b 76 e0 bc 3c b8 0d 3d 14 2b 77 3e
       -0.023004577 -0.027400305 0.034599528 0.24137527
000110 4a 98 98 be 59 06 55 bd f7 fa 18 3c a1 33 62 3c
       -0.29803687 -0.052008007 0.009337178 0.013806255
000120 4e c1 be 3e bb 96 43 3e 2c ad ea 3b 3d d4 a0 be
       0.37256855 0.19100468 0.007161757 -0.31411925
000130 a3 2f 2d bd 21 1e 0a 3f 58 8b 1c 3e dd 12 00 be
       -0.042281758 0.53952223 0.1528753 -0.12507196
000140 83 3b 17 3e e6 ae e9 be 58 14 0b 3e 9d b4 16 3d
       0.14768796 -0.4564125 0.1358198 0.03679334
000150 0c 47 4e 3e 6d 7a ab bb 4a fd c5 3d 04 26 37 bd
       0.2014429 -0.0052331 0.09667452 -0.04471399
000160 c6 2b 54 bd e4 03 35 3c e5 af d4 3d ef d5 4d be
       -0.051799558 0.011048291 0.10385112 -0.2010114
000170 f6 eb cb bc 16 79 bd bc 00 d5 ad 3e 3f 3f fe bc
       -0.024892788 -0.023129027 0.3395157 -0.031036017
000180 17 ac 40 bd c0 fb 12 bd 21 cc 9f be 29 23 59 3d
       -0.047039118 -0.03588462 -0.31210425 0.053012047
000190 ee 9e d1 bd 82 2b 08 3e 4f f4 19 3c f0 69 2a be
       -0.102353916 0.13297847 0.009396627 -0.16641974
0001a0 c7 e5 ca 3d c5 b3 d8 3e 12 b9 43 bd 6e 62 0e 3e
       0.09907108 0.42324653 -0.04778392 0.13904735
0001b0 aa ba 40 3d fb 33 e4 3d d3 49 02 3d 29 98 41 3d
       0.047053017 0.11142727 0.031808686 0.04726425
0001c0 6a 33 84 be 9a f2 84 be 46 c2 be bc 63 67 cc 3d
       -0.25820476 -0.2596634 -0.023285996 0.09980657
0001d0 0d 61 c9 3c 1e 00 1c bd 44 10 85 3d 22 cf 1c bc
       0.02458241 -0.03808605 0.06497243 -0.009570869
0001e0 10 c4 52 be 65 b5 92 be e2 9c 8d 3e b7 c6 bc bd
       -0.20582604 -0.28654018 0.27658755 -0.09217589
0001f0 1b 11 bf 3e 58 a4 36 be 0e e7 1d 3d 43 c9 13 be
       0.37317738 -0.1783613 0.03855043 -0.14432244
000200 63 b7 05 bc 5e 28 af 3d bb e0 b9 bd 10 95 32 bd
       -0.008161399 0.08552621 -0.09076067 -0.04359919
000210 be 7c de bd 60 8a 86 be 55 e5 56 3d 12 11 4b 3e
       -0.108636364 -0.26277447 0.0524648 0.1983073
000220 fc 4b 92 3d 88 c8 09 3c 65 fd 95 bd d8 2b 1e 3f
       0.07143399 0.008409627 -0.07323722 0.6178565
000230 bf e8 13 bc d9 81 25 bd 14 9d 98 3e 97 69 0b be
       -0.009027659 -0.040407035 0.2980734 -0.13614498
000240 7d da a5 3e 05 56 3d 3e 8b b9 b8 3c e7 44 6c 3d
       0.32393256 0.18489845 0.022549411 0.057682898
000250 41 a1 6d 3d f1 5b aa bc
       0.05801511 -0.020795794

weight_epsilon f4 [150, 64]
000000 90 80 25 bf c4 6e ac 3f c7 cd cc 3e 68 bd 9d bf
       -0.64649296 1.3471303 0.40000746 -1.2323427
000010 17 90 75 3f 71 5a 56 bf 3a 2d 8d bf 3f e2 90 3f
       0.9592299 -0.8373175 -1.1029427 1.1319045
000020 9b 94 c4 bf 02 27 6d 3e 10 09 11 bf 90 1b 15 bf
       -1.5357851 0.23159412 -0.56654453 -0.5824518
000030 48 ee cb 3f 3b fb 53 3f 3e 06 b0 3f 89 1d 62 3f
       1.5932093 0.8280522 1.3751905 0.8832632
000040 fe 1a bb 3f de 2a 7f 3f 50 06 84 3f 40 1f 61 3f
       1.4617612 0.99674785 1.0314426 0.8793831
000050 0f 38 67 bf 7b 76 a4 bf 98 2f 6b 3f 44 c0 80 3f
       -0.90319914 -1.2848657 0.918695 1.0058675
000060 3b f8 72 3f 13 0c 0d 3f 0b c1 a3 3f db 02 42 3f
       0.9491002 0.5509655 1.2793287 0.7578561
000070 7a 16 5d 3f e0 21 95 bf 24 fd a0 3f 8f 1c 3c 3f
       0.8636242 -1.1650963 1.2577252 0.73481077
000080 0a 09 62 bf cf 88 3d 3f cf 35 09 bf f7 77 22 bf
       -0.8829504 0.7403688 -0.5359773 -0.634643
000090 96 00 a8 3f de b6 8f bf f7 db 46 3f f7 08 08 bf
       1.3125179 -1.1227682 0.7767939 -0.5313868
0000a0 9c 7e 00 bf 5e ea 73 bf f7 ae 39 3f 0f b0 10 bf
       -0.5019319 -0.9527949 0.725326 -0.56518644
0000b0 61 7c bf 3d 77 79 33 bf ac 95 e4 3f 7d 39 40 3f
       0.09349895 -0.70107216 1.7858176 0.7508772
0000c0 b7 cb ff be ef af 9d 3f b6 8d 3a bf 8f bf b4 3f
       -0.4996011 1.2319316 -0.72872484 1.4120959
0000d0 38 cf 7e bf 16 48 a9 3f 66 34 91 be 8e ae 68 3f
       -0.9953494 1.3225124 -0.2836029 0.9089135
0000e0 ef 5a 94 bf f9 45 07 bf c9 74 73 bf 34 fc b7 bf
       -1.1590251 -0.52841145 -0.95100075 -1.4373841
0000f0 8e 23 77 bf f2 be 68 3f 2f 17 c9 3f 79 91 35 3f
       -0.9653863 0.9091636 1.57102 0.709251
000100 bc 7b aa be 56 9f 31 3f c3 f7 52 3e c5 7c 22 bf
       -0.33297527 0.6938375 0.20602326 -0.63471633
000110 1e f4 fc 3e 01 ce dc be f9 6c 11 bf 8e 3e 15 3f
       0.49404997 -0.43125919 -0.56806904 0.58298576
000120 3a 7f 4a bf 3c 4a f4 3d 8a 66 95 be 6a 98 99 be
       -0.7910038 0.119282216 -0.29179794 -0.29999095
000130 8a 11 52 3f 84 5c da 3e 7c 52 35 3f b8 eb e8 3e
       0.8205801 0.4264871 0.70828986 0.4549234
000140 9d bc 40 3f 73 6c 03 3f 8b ff 07 3f c9 e5 e7 3e
       0.752878 0.51337355 0.531243 0.452925
000150 91 2d ee be a5 69 29 bf ab 43 f2 3e 46 a0 04 3f
       -0.4651914 -0.66176826 0.47317252 0.5180706
000160 47 48 fa 3e d2 4a 91 3e bf ae 28 3f af d9 c7 3e
       0.48883268 0.28377396 0.6589164 0.39033267
000170 ed bd e3 3e eb 9e 19 bf 8a d5 25 3f ee c5 c1 3e
       0.4448084 -0.60008115 0.6477896 0.3784632
000180 9c d6 e8 be 25 3d c3 3e fe 56 8d be c3 5b a7 be
       -0.45476234 0.38132587 -0.27605432 -0.32687196
000190 05 0f 2d 3f 2a 0a 14 bf 26 d8 cc 3e 19 21 8c be
       0.67601043 -0.5782801 0.40008658 -0.27369002
0001a0 a5 5c 84 be b3 41 fb be a1 45 bf 3e dc 0a 95 be
       -0.25851932 -0.49073562 0.3735781 -0.29109848
0001b0 c1 3f 45 3d 4b e0 b8 be e2 76 6b 3f 8d 02 c6 3e
       0.048156504 -0.36108622 0.91978276 0.3867382
0001c0 4b bf 83 be e4 6e 22 3f 14 2b c0 be 33 30 3a 3f
       -0.25731882 0.63450456 -0.37532866 0.72729796
0001d0 3f 3d 03 bf 61 60 2e 3f 2e 93 15 be 56 af ef 3e
       -0.5126533 0.6811581 -0.14606926 0.46813458
0001e0 fe d1 18 bf 3c 58 8b be 94 c8 fa be c8 85 3d bf
       -0.5969542 -0.27215755 -0.48981154 -0.7403226
0001f0 ba 93 fe be 38 c0 ef 3e 8f 24 4f 3f 6e 08 bb 3e
       -0.4972208 0.4682634 0.8091516 0.3652987
000200 08 c6 44 bf 78 03 cd 3f 4c 80 f3 3e 69 8b bb bf
       -0.7686467 1.6016684 0.4755882 -1.465192
000210 14 fb 91 3f e0 da 7e bf 0d da a7 bf 64 42 ac 3f
       1.1404748 -0.99552727 -1.3113419 1.3457761
000220 5b b9 e9 bf 20 fb 8c 3e 89 70 2c bf 04 48 31 bf
       -1.8259691 0.27535343 -0.67359215 -0.6925051
000230 93 76 f2 3f ef 08 7c 3f ae 48 d1 3f 75 6b 86 3f
       1.8942436 0.9845113 1.6350305 1.0501543
000240 6e 75 de 3f c2 b0 97 3f 72 f8 9c 3f 4b d4 85 3f
       1.7379587 1.1850817 1.226332 1.0455412
000250 26 74 89 bf ad 89 c3 bf dc cf 8b 3f 0e 14 99 3f
       -1.0738571 -1.527639 1.0922809 1.1959245
000260 6e 70 90 3f a2 b2 27 3f f5 b1 c2 3f 54 ab 66 3f
       1.1284311 0.6550695 1.5210558 0.90105176
000270 55 6e 83 3f 86 4f b1 bf 4c 68 bf 3f a9 a7 5f 3f
       1.0268046 -1.3852394 1.4953704 0.87365204
000280 46 5f 86 bf bc 58 61 3f c6 22 23 bf b2 2a 41 bf
       -1.0497825 0.8802602 -0.63724935 -0.7545577
000290 fd be c7 3f 70 de aa bf f1 6e 6c 3f 16 bd 21 bf
       1.560516 -1.3349133 0.92356783 -0.6317915
0002a0 fe c5 18 bf 60 00 91 bf 9e c4 5c 3f b8 06 2c bf
       -0.5967711 -1.132824 0.86237514 -0.6719775
0002b0 b4 aa e3 3d ca 62 55 bf 3f e3 07 40 8a 8b 64 3f
       0.111165434 -0.83353865 2.123245 0.8927542
0002c0 60 10 18 bf 64 7b bb 3f 73 cd 5d bf 7f e6 d6 3f
       -0.59399986 1.4647031 -0.86641616 1.6789092
0002d0 47 7a 97 bf 5f 44 c9 3f 0f a4 ac be c8 52 8a 3f
       -1.1834191 1.572399 -0.33718917 1.0806513
0002e0 fe 62 b0 bf 40 d5 20 bf 79 ba 90 bf b6 bf da bf
       -1.378021 -0.62825394 -1.1306907 -1.7089756
0002f0 ee ea 92 bf 86 5c 8a 3f 18 16 ef 3f 12 e0 57 3f
       -1.1477945 1.0809486 1.8678617 0.8432628
000300 37 f4 1c 3f c8 86 a3 bf c5 39 c2 be b3 97 95 3f
       0.6131014 -1.2775507 -0.379347 1.168692
000310 25 e1 68 bf 2a 48 4b 3f 86 e2 85 3f 87 66 89 bf
       -0.90968543 0.7940699 1.0459754 -1.0734414
000320 54 6d ba 3f 45 e7 60 be 56 8b 09 3f fe 67 0d 3f
       1.4564614 -0.21963222 0.53728235 0.55236804
000330 d1 65 c1 bf 51 08 49 bf c5 ee a6 bf bc 6f 56 bf
       -1.5109197 -0.78528315 -1.3041617 -0.83764243
000340 00 71 b1 bf ee fc 71 bf 3e 69 7a bf 96 7e 55 bf
       -1.386261 -0.94526565 -0.97816837 -0.8339628
000350 c6 46 5b 3f e1 f7 9b 3f dc 09 5f bf b9 33 74 bf
       0.85654867 1.2185022 -0.8712442 -0.9539142
000360 93 6b 66 bf 15 c3 05 bf d0 4b 9b bf 8d fd 37 bf
       -0.90007895 -0.52250797 -1.2132511 -0.7187126
000370 27 ab 51 bf fb 6d 8d 3f 79 ac 98 bf 43 65 32 bf
       -0.8190178 1.1049188 -1.1927634 -0.69685763
000380 4c 5c 56 3f b3 be 33 bf 8e 1f 02 3f bb 13 1a 3f
       0.83734584 -0.7021286 0.508294 0.60186356
000390 2f 53 9f bf 9c 4a 88 3f 8f 96 3c bf 40 02 01 3f
       -1.2447261 1.0647769 -0.73667234 0.5039406
0003a0 32 b7 f3 3e 34 51 67 3f c6 17 30 bf ef 36 09 3f
       0.47600704 0.9035828 -0.68786275 0.53599447
0003b0 78 98 b5 bd 60 34 2a 3f 39 c7 d8 bf ce 4b 36 bf
       -0.08866972 0.6648617 -1.6935798 -0.7120942
0003c0 77 95 f2 3e ec 8a 95 bf 03 eb 30 3f a0 69 ab bf
       0.47379658 -1.168302 0.691086 -1.3391609
0003d0 03 a6 71 3f c5 89 a0 bf 6f b4 89 3e ee a9 5c bf
       0.9439394 -1.2542044 0.26895472 -0.8619679
0003e0 51 b1 8c 3f 54 49 00 3f b2 e1 66 3f 78 7b ae 3f
       1.0991613 0.5011189 0.90188134 1.363143
0003f0 c6 5f 6a 3f 79 b9 5c bf 46 b4 be bf b2 30 2c bf
       0.9155239 -0.8622051 -1.4898765 -0.67261803

bias_epsilon f4 [150]
000000 0e 1e 86 3f 69 27 0a 3f 6b 75 9f 3f 63 61 7e bf
       1.0477922 0.53966385 1.2457708 -0.9936735
000010 1d 56 40 3f 46 a2 98 3f 9d 2e 36 3f b4 c7 8e bf
       0.751314 1.1924522 0.71164876 -1.1154695
000020 30 0a 2a bf 79 64 b3 3f d3 da 83 bf e4 ab 86 bf
       -0.66421795 1.4015037 -1.0301155 -1.0521207
000030 fa 79 ab 3f d0 f9 97 bf 35 60 98 3f e6 3e a5 3f
       1.3396599 -1.1873112 1.190436 1.290982
000040 fb 1f 0e bf e6 2e b4 3f 4c 97 05 bf 33 55 7e bf
       -0.5551755 1.4076812 -0.52183986 -0.99348754
000050 34 bc 88 3e c9 19 74 bf 53 50 63 3f 80 5c 34 3f
       0.26706088 -0.95351845 0.8879444 0.70453644
000060 a2 6d 97 bf ab 87 79 3f 51 92 59 3f 69 e6 3c bf
       -1.1830332 0.9747264 0.84988886 -0.7378908
000070 62 3d 6d bf 28 49 2a bf c3 d7 96 3e 9f 9c 1c 3f
       -0.9267179 -0.6651788 0.29461488 0.61176485
000080 59 9d 1f 3f 2b 7d 2a 3f ae d3 7a bf 03 c4 67 3f
       0.6234947 0.6659724 -0.9797925 0.90533465
000090 92 b0 c2 3e 80 f0 20 3f 0e d0 0e 3f dc 50 1a 3f
       0.38025337 0.62866974 0.55786216 0.6027963
0000a0 b8 54 6f bf a6 a5 48 bf 4f a2 55 bf 08 bb 31 bf
       -0.93488646 -0.7837776 -0.8345079 -0.6942601
0000b0 59 c2 27 bf 42 df 5c 3f bc de 9b bf d6 27 89 bf
       -0.65530926 0.86278164 -1.2177348 -1.0715282
0000c0 f4 9c 7a bf c9 4f 5e bf 64 3a 85 3f 3d 95 e5 3e
       -0.9789574 -0.8684049 1.0408444 0.44840422
0000d0 36 ca 2a bf 81 3e 0d 3f 01 ad 8b bf 10 53 a8 bf
       -0.667148 0.551735 -1.0912172 -1.3150349
0000e0 de 1d 79 3f d8 2c 91 bf 44 c4 3e be 5b 0b 15 3f
       0.973112 -1.134181 -0.18629557 0.5822045
0000f0 12 df 68 bf e2 f9 0b 3f 59 0f 60 3f d9 dc 65 bf
       -0.9096538 0.54678166 0.8752342 -0.8979011
000100 b7 88 32 3f 8a 1c c3 bf 3e b5 df be d0 67 94 bf
       0.6973986 -1.5243084 -0.43692964 -1.1594181
000110 f6 89 3e 3f ef 41 7b bf 9c 31 f9 be 0b de 5e 3e
       0.7442926 -0.9814748 -0.4867066 0.2176439
000120 63 88 1d bf de 53 81 bf ac 4d 76 3e f4 f9 24 3f
       -0.61536235 -1.0103719 0.24053067 0.644439
000130 1f a0 10 bf 02 f1 8f 3f 15 0c 97 3f e1 46 9c 3f
       -0.56494325 1.1245425 1.1800562 1.220913
000140 79 26 7c 3f 36 02 46 3f db 9a 46 bf 22 2d 83 3f
       0.98496205 0.77347124 -0.7758004 1.0248148
000150 2a b0 2b bf be 89 90 3f 9f 66 c9 be fd c2 9d bf
       -0.6706568 1.1292036 -0.39336106 -1.2325131
000160 20 c6 43 3f a4 f2 bc bf d6 38 b4 3e 7a dc 74 bf
       0.7647419 -1.4761548 0.35199612 -0.9564892
000170 fc 33 88 bf 42 93 27 3f 63 6c 7f 3f 2a 92 17 bf
       -1.0640864 0.6545907 0.9977476 -0.59207404
000180 10 cb 8d 3f cc 38 84 bf 89 77 d8 bf 9c 90 9a bf
       1.1077595 -1.0329833 -1.6911479 -1.2075381
000190 3d 80 6d 3e 06 c0 bf bf b0 50 13 bf 10 bf 6e 3f
       0.2319345 -1.4980476 -0.57544994 0.9326029
0001a0 3d 24 9d bf c3 3f d0 be 63 ae 67 3f 30 e6 89 3f
       -1.2276684 -0.40673646 0.9050047 1.0773373
0001b0 a2 e3 92 3f 90 28 81 bf 8f 3a bc 3f 55 42 01 bf
       1.1475718 -1.0090504 1.4705371 -0.5049184
0001c0 a6 ec ad bf 99 ed 0a 3f 56 fc a0 3f 0c c6 60 3f
       -1.3587844 0.54268795 1.2577007 0.87802196
0001d0 50 db 78 3f 93 3c 62 be 3b 16 6a bf f9 ed 9e bf
       0.97209644 -0.2209342 -0.9144017 -1.2416373
0001e0 0f a9 79 bf 66 6a a6 bf 26 9b 3e 3f 1f 1c 59 bf
       -0.9752359 -1.300122 0.7445549 -0.84808534
0001f0 c5 d1 41 bf ce 46 33 3f d0 09 a5 bf 47 8e 93 bf
       -0.7571071 0.70029914 -1.289362 -1.1527795
000200 e2 dd 5b bf 23 f9 ac 3f 7e 7c 8a be 39 48 c2 3f
       -0.8588544 1.351353 -0.27048105 1.5178291
000210 ba 68 90 3f a2 95 9c be 82 eb 28 3f a0 10 e9 3e
       1.128196 -0.3058291 0.65984356 0.45520496
000220 96 38 4b 3f f6 49 f4 3e 10 99 38 3f 1b 9f 84 bf
       0.7938322 0.47712678 0.72108555 -1.0361055
000230 39 b7 f6 3e 6f 06 c1 be 51 40 9b bf f3 a7 2d bf
       0.48186663 -0.3770022 -1.2129003 -0.67834395
000240 ee de 9b 3e 7c c0 a7 3f 86 46 6a bf 06 18 a3 bf
       0.3044352 1.3105617 -0.9151386 -1.2741706
000250 26 46 c6 bf 61 a4 a6 bf
       -1.5490158 -1.3018914

weight_mu f4 [100, 150]
000000 34 41 40 3e e6 d9 e7 3d 12 f5 12 3e 81 3e 15 3e
       0.18774873 0.11320858 0.143513 0.14574625
000010 16 cc 18 be 3c 66 55 3e f6 02 e8 bd 0d 62 43 3d
       -0.14921603 0.2083978 -0.1132869 0.04770093
000020 00 4c 42 3e 37 4d 07 be 99 26 48 3e 00 a9 74 3e
       0.18974304 -0.13213049 0.19545974 0.23892593
000030 23 3b da bb d0 c5 77 3e c3 63 35 3e 31 00 78 3e
       -0.0066598817 0.24196553 0.17713837 0.24218823
000040 e5 61 82 3d ec 65 16 3e 06 cd 64 3d bf e4 65 be
       0.06366328 0.14687318 0.055859588 -0.22450541
000050 09 61 7d 3d c2 34 99 3e c0 57 1c 3e df 62 77 bd
       0.061860118 0.29923064 0.15267849 -0.060397025
000060 e3 d3 f1 ba 43 15 ac bd 47 1d d4 3d 05 d0 8b 3c
       -0.0018449988 -0.08402493 0.10357147 0.017066965
000070 e3 af 23 3e 9e 59 e8 bd e8 b8 ea 3d 0d 57 9c 3d
       0.15985064 -0.11345218 0.11461049 0.07633791
000080 79 14 44 3e 57 98 58 bd f3 bf e6 3d 4a 12 4f 3d
       0.19148435 -0.052879658 0.1126708 0.05055455
000090 63 0c 82 bd da 82 4e 3e 73 d3 ba bd 53 d6 26 3e
       -0.06350019 0.20167103 -0.09122362 0.16292696
0000a0 88 6e 5b 3d ba 19 ef 3d da 93 4c 3e 0f a1 e7 ba
       0.053572208 0.11674829 0.19978276 -0.00176719
0000b0 2c af f0 3d 06 fb b5 3e 98 40 2b 3e 58 1e 18 be
       0.117521614 0.35543078 0.1672386 -0.14855325
0000c0 a8 27 25 3d b5 44 3a 3d b3 26 15 3e 8b 8a e8 bc
       0.040321022 0.04547568 0.14565544 -0.028386375
0000d0 04 b5 7a be 0e de 2b 3e 0d ec 71 3e f7 13 57 3e
       -0.24483114 0.16783926 0.23625202 0.2100371
0000e0 12 04 13 bd a3 fe 17 3e 76 de 48 3e 4c 91 09 bd
       -0.035892554 0.1484323 0.19616112 -0.03358583
0000f0 b9 85 e6 3d 15 3e 2a 3e 1e 67 0d 3e 1e cb 5d 3d
       0.11255974 0.16625245 0.13808867 0.054148786
000100 5b 63 13 be 72 2e 8c 3d 13 65 aa 3d b1 ff 3c 3e
       -0.1439337 0.06844796 0.083200596 0.18456914
000110 97 73 a1 3e 66 02 cb 3d 79 e0 fc 3d 39 0a 03 3e
       0.315335 0.09912567 0.12347502 0.12796868
000120 af bb dc 3d 20 d0 63 3e 35 3e 05 3e a3 ac 18 3e
       0.10777985 0.22247362 0.13012011 0.14909606
000130 c1 02 61 3e 72 88 1e 3e 62 66 d6 3d e0 f6 60 3e
       0.21973707 0.15481737 0.10468747 0.21969175
000140 82 ce fb 3d 65 d4 27 3e 04 9b 0d 3e 7a 1b 43 3e
       0.122952476 0.16389616 0.13828665 0.1905345
000150 38 32 0b 3e e8 ac 56 3e 7d c6 79 3e 04 40 84 bb
       0.13593376 0.20964396 0.24392124 -0.0040359516
000160 df b0 2c 3e e8 c5 2c be c3 80 6c 3e cc 0d 0b 3e
       0.16864346 -0.1687237 0.23095994 0.13579482
000170 4b 9c 2a 3e 32 b8 85 3e a4 04 5b 3e 96 04 21 be
       0.16661184 0.26117092 0.21388489 -0.15724406
000180 c9 77 e8 3d a3 63 5d 3e 15 71 dc 3d f9 18 7b 3d
       0.11350972 0.2162004 0.10763756 0.061303113
000190 d5 df d1 3d a6 55 2c 3e 9c fb 46 3e 8a 40 e3 3c
       0.10247771 0.16829547 0.19431919 0.027740736
0001a0 d1 f5 30 3d 50 1d 5b 3e 2a a3 eb 3d 5c 2e ba 3e
       0.04320318 0.213979 0.115057305 0.36363494
0001b0 06 19 19 bd 0d 07 80 3e 7d f3 20 3e 8b 29 4e 3e
       -0.03737738 0.2500538 0.15717883 0.20133035
0001c0 1a fc 2e 3e 68 89 2f 3e 92 59 e9 3d 66 e2 9a 3d
       0.17088357 0.1714226 0.11394037 0.07562713
0001d0 b8 43 87 3d b7 e4 6c 3e f2 3b b9 3d c4 4b 11 3e
       0.06604713 0.23134123 0.09044637 0.14189059
0001e0 cd b6 2d 3e dd d2 8d 3e 78 79 fe 3d e1 2f 18 3e
       0.16964264 0.27699938 0.12425512 0.14862014
0001f0 38 a6 6d 3e 5f 28 84 bd 6f 83 8f be 89 12 2c 3e
       0.23207939 -0.06453013 -0.28029963 0.16803946
000200 fe 45 05 3e a8 69 bf 3d b3 a7 dc 3d 22 f3 f7 bd
       0.13014981 0.09346324 0.107741736 -0.12106921
000210 ae b2 9c 3d dd b3 a6 3c b2 dc 27 3e 65 df c0 3d
       0.07651268 0.020349437 0.16392782 0.09417609
000220 87 1b 42 3e 5b 42 02 be de 7c 4f 3e 7d bc 28 3e
       0.18955813 -0.12720625 0.20262477 0.16478153
000230 ca aa a1 3e 8c 4d 54 3e d4 04 45 3e b0 40 f5 3d
       0.31575614 0.20732707 0.19240123 0.11975229
000240 11 36 91 3e b4 ce 92 3e 9b fc 17 bc 16 ba 43 3e
       0.28361562 0.28673327 -0.009276534 0.19113955
000250 26 6b d7 3d 37 1e bd 3d dd b2 fa 3c bc 67 1c 3e
       0.10518484 0.09234279 0.030602867 0.15273947
000260 f2 2e 1d 3e 58 d9 24 3e 35 4a 97 bd e4 b5 0e 3e
       0.1534994 0.16098535 -0.07387201 0.13936573
000270 51 5b aa 3b db d8 70 3d a4 a6 d9 3d 07 0e c4 bd
       0.005198874 0.05880056 0.10627487 -0.09572988
000280 76 53 80 3e 42 b6 8c 3e f4 de 63 3c 4f 57 0d 3e
       0.25063676 0.27482802 0.013908137 0.13802837
000290 34 fb 44 3e 5d 8e 78 3d a2 2b d8 3d a1 0b 3a 3d
       0.19236451 0.060682643 0.10555197 0.045421246
0002a0 af e0 f4 3c 04 e9 65 3d 73 56 07 3e bc bc 98 3e
       0.029892294 0.056130424 0.13216572 0.29831493
0002b0 4d 39 07 3e 74 24 35 3e 83 d1 b5 bd bd fe 67 3d
       0.13205452 0.17689687 -0.08877852 0.05663942
0002c0 11 e3 a4 3c 78 24 35 be bd b3 77 3e ed 8e 2c be
       0.020127805 -0.17689693 0.24189658 -0.16851397
0002d0 4f 74 bf 3d 5a ba b6 3d 5e 50 60 3e b9 45 54 3d
       0.09348356 0.089222625 0.21905658 0.051824305
0002e0 a8 98 0b 3e 6a b9 8d 3c 50 0e 83 bc 98 41 03 3e
       0.13632452 0.017300326 -0.015998036 0.12817991
0002f0 28 6a 8d bd 0d 09 47 3e f2 5d 24 3e 78 0d 36 bd
       -0.06905013 0.19437046 0.16051462 -0.04444644
000300 df 30 78 3e 69 4b f0 3d 80 64 42 3e cc d5 54 3e
       0.24237393 0.11733133 0.1898365 0.20784682
000310 74 8c e8 bc 97 be d5 3c 6f e1 64 3d 22 34 91 3d
       -0.028387286 0.026091857 0.055879053 0.07090022
000320 0b e3 74 3d d6 8d 3e be d6 9b d3 be a2 34 f4 3d
       0.059786838 -0.18608794 -0.4132983 0.119241014
000330 c2 f0 df 3d a5 a3 81 3e 09 9b bc bd 4c 9c 39 3d
       0.10934593 0.25320163 -0.09209258 0.045315072
000340 18 09 ce 3d 99 da 61 be 1e 01 05 3e 51 6b 83 bc
       0.10060328 -0.22056045 0.12988707 -0.016042383
000350 ed 33 e2 3d 35 eb 07 3e 06 90 3f be ef d2 a9 3d
       0.1104506 0.13273318 -0.18707284 0.082921855
000360 43 02 0a be 72 c0 1b 3e 8b b6 57 3e 9c 0c ce 3d
       -0.13477425 0.15210131 0.21065728 0.10060999
000370 b2 1e 00 3d 3b f4 0b bd 9c b0 8e 3d 7b 5a 3a 3e
       0.031279273 -0.034168463 0.06967279 0.18198578
000380 59 0f 38 3e da 6e b8 bc 84 6e 0f 3e 09 1c 74 3d
       0.17974605 -0.022513796 0.14007002 0.05959705
000390 86 e4 e8 3d 8b 6f 61 3d 30 01 75 3d 9a 3d 21 3e
       0.113717124 0.055038016 0.059815586 0.15746155
0003a0 7b 02 ff 3d a2 51 f3 3d 23 14 7f 3d 91 91 45 3d
       0.12451645 0.118808046 0.062275063 0.048234526
0003b0 9c 38 48 3e 49 47 07 3e f7 f4 36 3d 01 57 d0 bd
       0.19552845 0.13210787 0.04466721 -0.10172845
0003c0 d5 ea 3c 3e 18 9f d0 bc a5 b5 65 3e d6 6f 26 3e
       0.18448956 -0.025466487 0.22432573 0.162536
0003d0 21 9a 34 3e 40 e6 48 be 13 98 dd bb 8e 85 fe 3d
       0.1763692 -0.19619083 -0.0067625134 0.12427817
0003e0 4f 4b 28 3e 78 b0 dc 3d 5e f9 eb 3d 0e f2 27 3e
       0.16434978 0.10775846 0.115221724 0.1640093
0003f0 f9 22 e5 3d 85 ef 7f 3c 90 ef cd 3d 9e 7a 42 3e
       0.11188311 0.015621071 0.100554585 0.18992087

weight_sigma f4 [100, 150]
000000 12 68 91 3e ff 87 f7 bd 91 42 55 3e 78 83 17 3e
       0.28399712 -0.12086486 0.20826174 0.14796245
000010 e0 42 5e 3c 94 3b a4 3d 54 5e 83 be f6 8f 96 3d
       0.013565749 0.08019176 -0.25657904 0.07351677
000020 ab 79 0c be 32 4b 0d bd 81 30 89 be 6d 36 bd bd
       -0.13718288 -0.03449554 -0.26794818 -0.092388965
000030 b7 ff 0d bb 33 2d 30 3e cf 82 87 be b3 4c 50 3c
       -0.002166731 0.17204742 -0.26466987 0.012713599
000040 92 a6 f0 3d 0b 77 86 3c fd 49 12 3c 74 cc 5b bc
       0.11750521 0.016414186 0.008928773 -0.013415445
000050 8a 7a 4c 3e 5b 30 1b 3e 54 15 1e be db a6 a3 bc
       0.1996862 0.15155165 -0.15437824 -0.019977024
000060 8b b5 8a be 07 02 18 3d 21 b3 ec bd fa 7c 29 3e
       -0.2709163 0.03711131 -0.115576036 0.16551581
000070 c7 fb a0 be 5d 82 a9 3c a4 57 9d bd 79 15 22 3c
       -0.3144209 0.020692045 -0.07682732 0.009892815
000080 77 e4 c3 3c 7e 56 5f 3c 7d 75 80 3c 1e 7e 7a be
       0.023912651 0.013631461 0.015681023 -0.24462172
000090 c2 cb a8 3e 40 59 28 3e ac f7 22 bc b6 51 24 3e
       0.32967955 0.16440296 -0.009946745 0.16046795
0000a0 3c 0b c5 3e d4 b5 96 bd e5 65 92 bd f6 65 b3 3a
       0.38485134 -0.073589 -0.07148341 0.0013687003
0000b0 7a 3c 43 be fb 03 8a 3e 92 67 6c 3e 05 1e 81 3e
       -0.19066039 0.26956162 0.23086384 0.25218216
0000c0 57 a0 92 3d 2c 39 08 3d c0 2a a5 3e 31 76 36 bc
       0.07159489 0.03325765 0.32259178 -0.011136577
0000d0 d5 7a 03 be 2c 75 17 3e 3e 93 d1 3d 28 af 5d bd
       -0.12839825 0.14790791 0.10233162 -0.05412212
0000e0 c6 5c 0d bd d7 3e 46 bd b2 a8 c7 3d 6d f3 06 be
       -0.034512304 -0.048399772 0.09748973 -0.13178797
0000f0 d4 9f c2 3d f0 a6 a8 3d 44 97 bf 3c e5 38 49 3e
       0.09503141 0.08234966 0.023387559 0.1965061
000100 42 4c 96 3d b7 df 35 be f7 b2 cf 3d 3c d7 52 3e
       0.07338764 -0.17761122 0.10141557 0.20589918
000110 29 99 9f 3e 2d c5 79 be 64 b0 18 3d 50 1f 92 be
       0.3117154 -0.24391623 0.037277594 -0.28539515
000120 77 1d 06 3d e8 27 98 3d f4 bb 91 3d 83 05 ca 3e
       0.032742944 0.074294865 0.07115927 0.3945733
000130 3c 62 09 be fe be a9 bd c2 36 f3 3d 31 c6 5d 3e
       -0.1341638 -0.08288382 0.118756786 0.21657635
000140 03 b6 b3 bd 4b 72 ce bd 5f 32 a4 be db c6 1b be
       -0.0877495 -0.100803934 -0.3206968 -0.15212576
000150 50 22 27 3b 9e 78 d6 bd 17 17 24 bd 71 7d f9 3c
       0.002550263 -0.10472225 -0.040061083 0.030455323
000160 1b 44 63 be d6 22 23 3c f0 b1 a7 3d 09 9a 42 3e
       -0.22193949 0.009957036 0.08188236 0.19004072
000170 e8 37 9b 3d 7a 5a 8c be 7f 0a e4 3e fa a0 83 3c
       0.07579023 -0.27412778 0.44539258 0.01606797
000180 0e 60 65 3c 3f 7f c7 bd df de b3 bc d7 c9 be 3c
       0.013999952 -0.09741067 -0.02195686 0.023289604
000190 8c 1e 9a 3e a1 f6 8e bd 92 0b 44 3e 2a 69 0c be
       0.3010143 -0.069806345 0.19145039 -0.13711992
0001a0 fd 56 33 3d 7f ae e7 3e 30 8a 6a be 7b eb d6 3d
       0.04378413 0.45250317 -0.22904277 0.10494133
0001b0 1e e3 10 3c e8 ac 7f bd c2 ba 48 3e d0 c4 4d bd
       0.008843211 -0.062420756 0.19602492 -0.050236523
0001c0 c3 4c 82 be c8 3c 2e be bc 0f 8e 3c 74 73 35 3d
       -0.2544919 -0.17015374 0.017341487 0.044299558
0001d0 bb 65 8f 3e 1f 1e e8 bd 3d 43 8b bd 24 4b 2b bd
       0.28007302 -0.1133387 -0.06799934 -0.041819707
0001e0 65 2a 0b be c9 30 6f 3d 3e 45 c1 3c c3 27 09 be
       -0.13590391 0.058396135 0.023592588 -0.13394074
0001f0 3f fe 32 be 01 1e 1e be 0d 3c 20 bd 0c 8e ad be
       -0.174798 -0.15441133 -0.03911977 -0.33897436
000200 f8 91 30 be af 66 08 be 86 56 60 3c 2d 6e 10 3c
       -0.17243183 -0.1332042 0.013692504 0.00881533
000210 2b 1c 94 be d1 7f fd 3d 23 e6 3b bd 9b a7 64 3e
       -0.2892774 0.12377895 -0.045873772 0.22329561
000220 7a fd 6c 3c 81 7e 09 3d 68 3d 3a bd 50 80 64 be
       0.01446473 0.03356791 -0.045468718 -0.22314572
000230 d0 4f a6 3d f0 58 ca bd 15 6a 3b bd ef dc 63 be
       0.08120692 -0.09880245 -0.045755465 -0.22252248
000240 a2 21 f4 3d e1 0d ca 3d b8 12 35 3e 79 68 52 3a
       0.119204774 0.098659284 0.17682922 0.0008026432
000250 75 0b 1e 3d dc 66 05 3e 95 e2 6a bd 24 1b af 3e
       0.038585145 0.13027519 -0.05734499 0.34200394
000260 c2 e5 3c 3e f0 8a 70 3e d6 3e 22 3d 5e 60 f1 bd
       0.1844702 0.234905 0.039610706 -0.11785959
000270 ea c6 20 3e a7 57 60 3e e6 df 05 be 3b a0 20 bd
       0.1570088 0.21908437 -0.13073692 -0.039215308
000280 5e c8 60 3e 53 0a ac 3c ee c5 6b bc e3 4d ef 3d
       0.21951434 0.021001017 -0.014390452 0.116847776
000290 b1 e8 86 3e 2a d0 92 be 16 03 27 3b a5 d5 04 bd
       0.26349404 -0.28674442 0.0025484017 -0.03243031
0002a0 30 5b 0c 3e 25 2d 22 bd 77 bf 4c be 42 20 99 bd
       0.1370666 -0.039593834 -0.19994913 -0.07476856
0002b0 ec b9 98 be c8 b3 6b bd 2e 42 17 bb 0f de 42 be
       -0.29829347 -0.0575445 -0.0023080218 -0.19030021
0002c0 f8 05 45 3b d9 f2 09 3e 47 aa 4c be ca 41 54 bc
       0.0030063372 0.13471545 -0.1998683 -0.012955138
0002d0 5a bf b9 bd 3e 62 64 bd 59 87 18 bd 61 7f 94 3d
       -0.090697005 -0.055757754 -0.037238453 0.07250858
0002e0 d1 0b 51 3d f6 a6 c8 bc 43 d0 a6 bd e9 17 80 3d
       0.05103666 -0.024493676 -0.081451915 0.062545605
0002f0 20 6b 4f be 67 fb 2a 3e 8f 0e 6a 3d 79 9e ab 3d
       -0.20255709 0.16697465 0.05714279 0.08379836
000300 cf 22 94 be e5 1d f5 3e d0 4c a8 3d db 53 57 3e
       -0.28932807 0.4787437 0.08217776 0.21028082
000310 9b 23 4c be d6 ae a4 3d 28 61 4d bd 1c 14 03 3c
       -0.19935457 0.0804116 -0.050141484 0.0080004
000320 d6 4d 33 3d d2 48 95 bd 56 9a db 3d e1 3b 00 3f
       0.043775402 -0.0728928 0.107227966 0.5009137
000330 29 8b d7 bd 7a f7 18 3e 8a 8d 14 be 7a 28 f7 3c
       -0.105245896 0.14938155 -0.14507118 0.030170668
000340 84 e4 74 3d 08 46 22 3d 05 7e 2c 3d 37 e9 3d 3e
       0.059788242 0.03961757 0.04211237 0.18545996
000350 2f 5a 98 3a f1 9f 5c bd 3c c1 84 bd 45 ab a7 bd
       0.0011623556 -0.05386347 -0.06482169 -0.08186964
000360 a6 a1 ee 3b fb 59 8d 3c 5d 3d ea 3b ec 3f e4 3e
       0.0072824536 0.01725482 0.0071484284 0.4458002
000370 2b 5a 11 3d 95 3e 00 be e8 86 cb 3d 3c 8a 91 3d
       0.03548638 -0.12523873 0.09937841 0.07106444
000380 e7 4c 69 3d 97 16 5b 3e e7 d0 90 3e eb f2 51 be
       0.056958105 0.21395336 0.2828438 -0.20502822
000390 13 62 a0 3d f3 00 07 3e a9 4c c0 bd 85 69 35 be
       0.07831206 0.13183956 -0.09389622 -0.17716034
0003a0 5a 82 41 bb 79 ce 33 bd 8d c5 0f 3e 26 2f 37 bd
       -0.0029527158 -0.04389808 0.14040203 -0.0447227
0003b0 f9 ae 01 3e cf 09 a3 bb 1f 3f e0 3d 20 e7 40 3e
       0.12664403 -0.0049755345 0.109495394 0.18838167
0003c0 af 8e 91 3d 11 d4 1d be 2c 4d 98 3d 40 db cc bd
       0.07107293 -0.15412928 0.07436594 -0.10002756
0003d0 ea f6 d7 3d 8a 36 00 bd c0 0d 93 be 2f 3f 9a 3c
       0.10545142 -0.031302013 -0.28721428 0.018828956
0003e0 da 5d 34 bc 54 a7 2d bb d4 77 61 3e 1d 1b a3 3e
       -0.011008704 -0.002649744 0.22018367 0.31856623
0003f0 c3 25 84 be 81 26 2f 3c 4a f8 c0 be 0f b2 77 3d
       -0.2581006 0.010690332 -0.3768943 0.060472544

bias_mu f4 [100]
000000 17 aa fa be ba 74 fd be 46 a8 22 bf c0 b0 a1 be
       -0.48957893 -0.49503118 -0.63538015 -0.31580162
000010 b8 35 6d 3e 28 62 01 bf 12 d1 c8 be aa ce b7 3d
       0.23165023 -0.505404 -0.39222008 0.08974965
000020 e9 76 36 bf 04 7e e9 bc 91 38 8c 3e cd a8 2f 3f
       -0.7127519 -0.028502472 0.27386907 0.68616945
000030 69 bf fd be a2 ec f1 be 0f 1b 85 3e 11 58 89 be
       -0.49560097 -0.4725085 0.25997207 -0.26825002
000040 98 95 29 bf 5f bd d6 3c 63 59 37 be 98 1f e6 be
       -0.66243887 0.026213346 -0.17905192 -0.4494598
000050 0f 88 be 3e 89 39 24 bf 75 81 8f be ff f0 1e be
       0.3721318 -0.6415029 -0.28028455 -0.1552162
000060 5f f9 01 bf 8d b5 10 3e 3e fe 02 bf 6f 96 a5 be
       -0.50771135 0.14131756 -0.5116919 -0.32341334
000070 a1 b1 ba bd 6b 1c 11 bf da 00 80 3e 5a d0 b6 be
       -0.09115911 -0.5668399 0.2500065 -0.35705835
000080 18 2f 26 bf b1 ad fb be 12 97 b2 be 9b 0c 32 bf
       -0.6491561 -0.49155954 -0.34880883 -0.69550484
000090 0f f5 07 bf 4a 27 6e bc 02 cd 37 bf 4b 35 7e 3e
       -0.53108305 -0.014535734 -0.7179719 0.24825017
0000a0 80 3e 1b bf 1e 30 d9 be e7 02 1f bf 41 54 c3 be
       -0.6064224 -0.42419523 -0.62113804 -0.38150218
0000b0 be 1a 13 bf 19 d0 4b 3e 99 86 19 bf a5 a6 eb 3d
       -0.5746268 0.19903602 -0.59971005 0.11506394
0000c0 d5 6f 36 3f 19 de f4 be 86 06 e4 be e1 d4 86 3d
       0.7126439 -0.47825697 -0.44536227 0.06583572
0000d0 ae 6f dc be 17 61 d9 be 59 0a e5 3e 27 81 db 3e
       -0.43053955 -0.42456886 0.44734457 0.42871973
0000e0 6a 7a c6 3e f6 a2 14 3f e8 11 13 bf 35 1b 01 bf
       0.3876527 0.5806116 -0.574492 -0.5043214
0000f0 56 b2 52 3e 12 93 00 bf 6c d6 e1 be 12 90 cc be
       0.20575842 -0.5022441 -0.44108903 -0.39953667
000100 b4 7f e6 be ba ab 00 bf 93 5f 71 3e 37 3f 0d bf
       -0.45019305 -0.50262034 0.23571615 -0.55174583
000110 c9 95 dd be 18 2a bb 3e 1d a0 22 bf 1d 36 a4 3e
       -0.4327834 0.36555552 -0.63525563 0.32072535
000120 2c 3d c8 3c 3a c4 e2 be 44 6f 62 3e 4d c4 f3 be
       0.024443232 -0.44290334 0.22112757 -0.47610703
000130 89 cf a9 3e 60 8f 1c bf 3a 2b e9 3b d7 62 86 3c
       0.3316615 -0.6115627 0.0071157487 0.016404552
000140 e1 0b 3f 3f e1 97 f3 bd 9f 77 c8 be 83 bf b9 be
       0.746275 -0.11894203 -0.39153764 -0.36278924
000150 24 f7 15 bf ec f1 aa be 4a 5f c7 ba 8e eb 02 3f
       -0.5858023 -0.33387697 -0.0015210893 0.5114068
000160 d5 02 0c be 2b 63 96 be 46 1c b8 be b0 2f fb be
       -0.13672955 -0.29372534 -0.3595907 -0.4905982
000170 63 97 af be 22 d1 24 bf b6 15 16 bf 12 60 d5 3e
       -0.34295186 -0.6438161 -0.5862688 0.41674858
000180 46 dc 0a bf 6b 47 f9 be 4e c6 8b 3d 41 15 a4 be
       -0.5424236 -0.486873 0.06824933 -0.32047465
