saved_models/08-11 18:09.pth (torch, 785053 bytes, 23 tensors)

weight_mu f4 [150, 64]
000000 c8 19 83 bc 72 10 ae bd 99 1e 6a 3d 4f 86 05 3e
       -0.016003504 -0.084992304 0.057158086 0.13039516
000010 73 72 7f bd ee d0 d6 3d 12 58 a0 bc 91 d6 bc bc
       -0.062365007 0.10489069 -0.019573245 -0.023051532
000020 e4 3b 19 3e 9a 76 5c bd ba 76 d7 3d 62 b1 61 3d
       0.14964253 -0.053824045 0.10520692 0.055100806
000030 d8 f2 a0 bc 42 80 0f 3d 20 d1 60 3d 19 03 01 3d
       -0.019647047 0.035034426 0.054886937 0.031497095
000040 81 5f c9 3d 79 1d db bd b9 14 80 bc 8d 27 37 3e
       0.09832669 -0.10698981 -0.015634881 0.17886181
000050 8b bb 62 3d 9d 8c 99 3c e5 57 d6 3d 12 6b 6b 3d
       0.055354636 0.018743807 0.10465983 0.057475157
000060 fe 2a a8 bd 8f 1b 89 3d 12 95 ca 3d e1 13 98 bd
       -0.08211325 0.066947095 0.09891714 -0.074256666
000070 43 b3 17 bd e2 74 0a bc 5a 2f a7 3c 98 82 ac bc
       -0.03703619 -0.008450719 0.020408321 -0.021058366
000080 ac 90 cd 3c 47 8e a9 3c de 8f 73 bb 03 cf 09 3e
       0.025093399 0.020697726 -0.003716461 0.13457875
000090 fc fe ea 3c 5b 2c 85 bd 10 2f a4 bd 29 f3 7d 3d
       0.02868604 -0.06502601 -0.08016789 0.061999474
0000a0 85 ad 0d 3e a4 3d d7 bd d2 8b 96 3c 63 12 0c be
       0.13835724 -0.10509804 0.018377218 -0.13678889
0000b0 ea 56 27 be e4 9c d7 3c ab 1b 9e bd ff cf ae bc
       -0.16341749 0.026319928 -0.07720121 -0.021339415
0000c0 0e be 38 3c 99 49 c1 bd 14 df 2a 3e 95 dd 8e bc
       0.011275781 -0.09437866 0.1668666 -0.017439643
0000d0 ba b7 aa bc c1 8e 19 3d 74 d4 21 3c 58 ab b0 3d
       -0.02083956 0.037489656 0.009877313 0.08626431
0000e0 01 27 97 3d 56 e1 78 3d 5f a8 e7 3d 9d 69 f2 3d
       0.07380486 0.060761772 0.11311411 0.118365504
0000f0 1e 1f 24 3e f2 dc 19 be b2 38 0d 3e db b8 27 be
       0.16027495 -0.1502569 0.13791159 -0.1637911
000100 d2 42 ce 3d 15 c9 57 3e a1 b2 a6 bd 46 9c 14 3e
       0.10071339 0.210728 -0.081395395 0.14512739
000110 b5 2f f8 bc 2a 18 eb 3d a6 22 05 3d 9b 5f 30 bd
       -0.030296186 0.11479218 0.032503746 -0.043059926
000120 4c 67 1c 3e 38 c8 e5 3d c6 2c 35 39 b3 80 80 3d
       0.1527378 0.11219829 0.00017278185 0.062745474
000130 28 ce 16 3e 9a eb 19 bd 72 38 2f be b5 51 bb 3d
       0.1472708 -0.037578203 -0.17111376 0.09146444
000140 4c 09 30 bc 1f ec 86 bc b7 3d 63 bd 92 e3 54 3d
       -0.010744404 -0.016470013 -0.055478778 0.05197484
000150 9a e7 12 3d 9b db 2f bd 59 78 18 3e fe 86 d9 bd
       0.035865404 -0.04293404 0.14889659 -0.10621451
000160 db 83 dc 3c ca 71 b1 3d 38 b8 12 3d d3 30 e9 bc
       0.026918342 0.08664282 0.035820216 -0.028465664
000170 f8 bd e6 3d 27 ce 37 3c 54 d4 bf 3c 80 94 de 3c
       0.112667024 0.011218584 0.023416676 0.02717042
000180 7b a6 ff bc bc 02 30 3d 9c d7 2e bd 96 46 c5 3d
       -0.031207314 0.042971358 -0.04268609 0.09632604
000190 39 5e 98 3d 4d fe f6 bd 24 a4 04 be af 9e 49 3d
       0.074398465 -0.12060223 -0.1295324 0.049223598
0001a0 63 11 19 3e 1f 3a d2 bd 72 08 1a be 44 1f 50 bd
       0.14948039 -0.10264992 -0.15042284 -0.050811067
0001b0 04 b7 ad bd f3 8c 9d bd 89 cf 76 3d 88 5e e1 3d
       -0.08482173 -0.076928996 0.060256515 0.110043585
0001c0 89 75 01 3e 38 26 37 bd 0e 7c f1 bd 54 8c 34 3d
       0.12642492 -0.044714183 -0.1179124 0.04407914
0001d0 6a f1 19 3e 59 9a f6 3c 57 71 08 3e 64 83 5f bd
       0.15033498 0.030102896 0.13324486 -0.054568663
0001e0 ed ca 82 3c c3 18 82 b9 43 dd 12 bc 2b c9 17 3e
       0.015965903 -0.0002481398 -0.008963886 0.14822833
0001f0 e5 09 a6 bd 56 77 30 bd bb 0f 9d bd 81 b2 9b 3d
       -0.08107356 -0.043082558 -0.07669016 0.07602406
000200 5e 24 5f bd a2 ca d1 3d 54 6c 80 3d e4 f8 8d 3d
       -0.05447804 0.10243727 0.06270662 0.06932238
000210 f0 02 9f 3b 43 9b 0d 3d f3 aa 87 bd 66 c0 6f bc
       0.004852645 0.034571897 -0.06624403 -0.014633274
000220 3f 4d 84 3c e4 de 0e be 58 7c 2f 3e 14 fa 9d bd
       0.016150115 -0.13952214 0.17137277 -0.07713714
000230 b4 26 90 3d 04 2d 14 bb a5 c7 ac 3d b5 ba f5 3d
       0.07038632 -0.002260984 0.08436517 0.11998502
000240 45 fe 30 3a 49 11 06 bd ba 7c f4 bd 43 9f 0c 3e
       0.00067517563 -0.03273133 -0.11937852 0.13732629
000250 84 37 9b 3c 58 44 08 be 14 f1 9c 3d d3 2b 1b 3e
       0.01894737 -0.13307321 0.076631695 0.15153436
000260 dc 7d bf 3d 20 6b 05 3e f3 de cc 3d 14 e6 c7 bd
       0.09350178 0.13029146 0.10003462 -0.09760681
000270 a8 02 3b bd ca 14 d0 3d cb e0 4f bd f2 89 be 3d
       -0.04565683 0.10160215 -0.05075149 0.09303655
000280 23 95 b6 bc 25 91 8b bd 4a 30 f3 bd 11 7f 6a bd
       -0.02228791 -0.068147935 -0.11874445 -0.057250086
000290 4b e7 28 be 12 5b be bd 39 b2 13 bd e8 f7 da bc
       -0.16494481 -0.09294714 -0.03605864 -0.026729539
0002a0 46 0d 01 3d d9 53 22 be 22 5b a5 3d 83 ed 61 be
       0.0315068 -0.15852298 0.08074023 -0.2206326
0002b0 61 e1 a5 bc 1d 56 4d bd e1 35 89 bd b9 b4 3b bc
       -0.02024907 -0.050130952 -0.0669973 -0.011456662
0002c0 e0 91 3d bc b3 d2 f8 3c 99 b2 24 3d 62 fa 6c 3d
       -0.011570424 0.030373907 0.040209386 0.05785597
0002d0 d7 5a b9 bd f9 3a a5 bb 2e bc d2 3d 7a 83 bd 3c
       -0.090505295 -0.0050424305 0.10289799 0.023133982
0002e0 f8 84 f1 bd c7 d5 18 be 86 c9 d5 3b 97 d0 63 3d
       -0.1179294 -0.149253 0.0065242676 0.05561885
0002f0 11 92 81 bc de f7 ab 3d 19 e3 9a 3d e3 4e 24 bc
       -0.01581672 0.08396886 0.07562847 -0.010028574
000300 0b 77 64 bd ee 22 0c 3e 38 ea 93 3c d5 37 da bc
       -0.05577759 0.136852 0.01805602 -0.02663795
000310 3f c9 4c bd 1f 6a ba bd ab cd ab 3c ac 56 c3 3d
       -0.04999661 -0.09102272 0.020972094 0.09538016
000320 d5 cb c9 3d 77 d4 fd bc b1 40 18 3b 84 21 a5 3d
       0.09853331 -0.0309851 0.0023231918 0.08063033
000330 39 c4 c3 bd 6d cb be bd 4c de 67 bc b8 7b df 3d
       -0.09558911 -0.09316144 -0.014152121 0.10912269
000340 0d 8e e8 3c fb 89 97 bd ba 20 d5 bd 1b c3 cb 3d
       0.028388048 -0.073993646 -0.10406633 0.09949323
000350 f1 7c e4 3c 7d e8 04 3b 68 b3 f5 bd bb 1d a7 3c
       0.027891608 0.0020280175 -0.1199711 0.020399919
000360 fa 77 66 bd bd a9 e2 3d 4e 79 2b bd e5 06 a7 3d
       -0.056266762 0.11067531 -0.041863732 0.08155612
000370 6a 70 8e bc ae 26 b3 bd a6 13 e5 bc 34 f9 ef 3d
       -0.017387588 -0.08747612 -0.02796347 0.117174536
000380 ae 9e a4 bd 84 a5 f6 bd 50 f6 b8 bd f0 5c 26 3d
       -0.08038078 -0.12043288 -0.090313554 0.040615976
000390 8e 08 c4 bc a1 a3 62 bd cf f5 9a bd d8 af ed bd
       -0.02392986 -0.05533183 -0.075664155 -0.11605805
0003a0 db ec 88 3d d6 b6 22 be 3f a1 b4 bd 30 d2 10 3d
       0.066858016 -0.15890059 -0.08819818 0.0353567
0003b0 bb c2 9a bd 37 db b8 bd d5 02 98 bd fb 89 c6 bd
       -0.07556673 -0.09026187 -0.07422415 -0.096942864
0003c0 c8 a6 9f 3d c2 3d 07 3e 3a 75 ca 3d 6d 6c c7 3b
       0.07795483 0.13207152 0.098856404 0.0060859234
0003d0 7d bc 51 bd 47 66 c8 bd 0b f7 99 bb ac 1f ad bb
       -0.051205147 -0.09785133 -0.0046986393 -0.0052833166
0003e0 78 41 06 3d 65 ed 02 bd da ef 98 3c 56 5b c2 bc
       0.03277728 -0.03196468 0.018669058 -0.023725193
0003f0 6b 11 f6 3d f5 81 a1 bd 06 b6 c3 bd 10 af a7 bd
       0.12015041 -0.078861155 -0.095562026 -0.081876874

weight_sigma f4 [150, 64]
000000 2f e8 04 3d ee d7 b8 3d 2d a3 4f 3d f2 b4 53 3d
       0.03244799 0.0902556 0.050692726 0.051686235
000010 e6 55 d6 3d 81 10 96 3d 95 57 13 3d dd f4 3c 3d
       0.104656026 0.073273666 0.035972197 0.046131957
000020 2e 6b d8 3d 49 49 bc 3d 0d 78 c1 3d 81 0b b2 3d
       0.10567318 0.091936655 0.09446726 0.086936004
000030 1b d1 68 3d 1d f2 83 3d 35 05 a9 3d 9c e8 3f 3d
       0.056840044 0.06442664 0.08252946 0.046852693
000040 78 32 84 3d 3b 7a c0 3d 2c 79 48 3d 9a 99 9d 3d
       0.06454939 0.093983136 0.048943684 0.07695313
000050 d6 23 86 3d fa bb 59 3d aa ab 32 3d fe 46 1e 3e
       0.06549804 0.053157784 0.043620743 0.15456769
000060 51 2f f4 3c bf 68 ba 3d 64 6a 4e 3d 2e ab 0e 3d
       0.029807718 0.0910201 0.05039443 0.03483122
000070 5e a4 8b 3d 73 c4 8d 3d 42 6b c4 3c 1c 6c a3 3c
       0.0681846 0.06922235 0.023976926 0.019949012
000080 97 29 1d 3d 71 c2 43 3d f3 ed 1e 3d 07 b3 c0 3d
       0.03836974 0.047792856 0.038801145 0.09409147
000090 f1 eb c7 3d ea 1a 93 3d 0f 45 71 3d a4 12 4c 3d
       0.09761799 0.07182868 0.05890375 0.049822465
0000a0 9d ce 6e 3d 8d 06 41 bc a2 d7 a2 3d e8 29 01 3d
       0.05830251 -0.011781347 0.07951285 0.031534106
0000b0 6a c0 38 3d 7e d1 60 3d 0a 24 59 bb 83 e0 d3 3d
       0.045105375 0.054887287 -0.0033133053 0.103455566
0000c0 38 ae 9f 3d 51 43 10 bc 6a 53 76 3d 2c 86 ae 3d
       0.077969015 -0.008805112 0.060138144 0.08521685
0000d0 f9 11 ad 3d 5c 6b b1 3d 90 e5 a5 3c e5 48 b6 3d
       0.08450694 0.08663055 0.020251065 0.08900622
0000e0 64 b3 84 3d b1 58 da 3a 10 41 02 3d 16 d8 44 3d
       0.064795285 0.0016658512 0.03180033 0.048057638
0000f0 4c 9d 88 3d 63 7a 76 3d 0d cd 33 bc d5 5e 26 3d
       0.06670627 0.06017531 -0.010974181 0.040617783
000100 ab f2 40 3d f4 3d 06 3d 7e 10 a9 3d be a1 55 3d
       0.047106426 0.032773927 0.08255099 0.052156202
000110 5e 60 81 3d c1 69 88 3d 8e eb 1e bc 3c 2b bc 3c
       0.06317209 0.06660796 -0.009699715 0.022969835
000120 93 6a 89 3d dc de ed 3c 67 1a 27 3d c0 4b a4 3d
       0.067097805 0.029036932 0.040796664 0.08022261
000130 83 7b db 3d ce 6f 08 3d 96 16 85 3d f8 d2 b9 3c
       0.10716917 0.03330975 0.064984486 0.022683606
000140 e6 9d f1 3c f2 83 ba 3d c1 e7 8f 3d a7 9b 52 bd
       0.029494237 0.09107198 0.070266254 -0.051417973
000150 01 5b 51 3d 37 41 2b 3c 5b ef 33 3d 7b 90 c3 3d
       0.05111218 0.01045256 0.04392944 0.09549042
000160 3c 68 86 3d e1 1a 80 3d 02 b3 7b 3d 65 4f 80 3d
       0.0656285 0.06255127 0.061450012 0.06265143
000170 a4 d0 71 3d 91 89 1a 3d eb 5e b4 3d 4c e8 88 3d
       0.059036866 0.03772885 0.08807167 0.06684932
000180 23 6f b1 3c 59 3b 46 3d d8 af 73 3d cb 3e e4 3d
       0.02165944 0.048396442 0.05949387 0.11144789
000190 40 da 00 3e 9c 00 65 3d 91 8b 1d 3c 1d bc 89 3d
       0.12583256 0.055908784 0.009615795 0.06725333
0001a0 bf f5 8e 3d 1d e7 59 3d f8 15 b1 3d 2f 6c b7 3c
       0.06980466 0.053198922 0.08646768 0.022390453
0001b0 64 b5 a8 3d 98 96 20 3d f6 4e 88 3d 87 23 6f 3d
       0.082377225 0.039206117 0.066556856 0.05838349
0001c0 9e e8 b8 3d e4 cc e9 3d d2 f7 98 3d 70 ba ca 3d
       0.09028743 0.11416033 0.07469143 0.098988414
0001d0 3b a7 ec 3c f7 25 e4 3d 0d f8 9b 3d 42 93 b1 3d
       0.028888335 0.11140054 0.07615671 0.08670665
0001e0 cd 6d 67 3d 20 55 7e 3d f1 9c ae 3c 0e 13 40 3d
       0.0565012 0.0620929 0.02131507 0.046893172
0001f0 50 70 96 3d 99 c7 8d 3d 5f 94 94 3d 57 8e 8e 3d
       0.07345641 0.06922836 0.07254862 0.06960743
000200 63 e2 21 3e f5 24 82 3c 88 ff 68 3d a3 76 45 3d
       0.15809016 0.015886763 0.05688432 0.048208844
000210 39 1b a2 3d f9 fd 5c 3d 72 00 02 3d c5 f8 64 3d
       0.079153486 0.053953145 0.031738706 0.055901308
000220 e1 4d 53 3d 3d 9b 38 3c d2 1d 84 3d 47 85 f0 3d
       0.051587943 0.01126748 0.06451 0.11744171
000230 d2 11 7b 3d de 65 96 3d d8 7a 24 3d 9c 6e 01 3e
       0.06129629 0.073436484 0.040156215 0.1263985
000240 bb 68 cf 3d 23 e4 af 3d 21 29 90 3d 81 2d a3 3d
       0.101273976 0.085884355 0.07039095 0.079676636
000250 c9 67 02 3e 2f 0a b3 3d 24 07 2e 3d ce 18 90 bd
       0.12734903 0.08742177 0.04248728 -0.07035981
000260 3a 62 76 3d 12 c4 22 3d 36 eb fc 3c 04 71 98 3d
       0.06015227 0.03973777 0.030873876 0.07443431
000270 6a ff 4b 3d 0b 59 ca 3d 7c fd 8b 3d 46 be f7 bb
       0.04980413 0.09880265 0.06835458 -0.007560524
000280 32 0e b3 3d d2 40 88 3d 54 a7 44 3d 38 f6 a4 3d
       0.08742942 0.066529885 0.04801114 0.08054775
000290 4d 68 19 3d b8 86 a9 3d f2 db 0c 3c dd dd 03 3d
       0.037452985 0.08277649 0.008597361 0.032194007
0002a0 4b 43 e8 3d 26 28 72 3b 68 fe 57 3b e3 f7 8f 3c
       0.1134096 0.00369502 0.0032958034 0.017574256
0002b0 4e eb e2 bc 2c f2 2d 3d 33 92 a3 3d 0e a7 d1 3a
       -0.027700093 0.04246728 0.0798687 0.0015995221
0002c0 27 36 9f 3d 9a fd c7 3c f5 b4 de ba ab 08 62 3d
       0.077740006 0.024412919 -0.0016991185 0.055184048
0002d0 1e 3f 26 3d 25 7d cb 3d 77 be ac 3c 64 c3 96 3d
       0.040587537 0.09935979 0.021086914 0.073614866
0002e0 e3 da ab 3c d0 31 e9 3d e1 92 ed bb c0 5f b0 3d
       0.020978397 0.11386454 -0.0072501753 0.08612013
0002f0 43 5e a1 3d 5d b2 12 bd 06 6c 70 3d 45 c1 b5 3d
       0.07879307 -0.03581463 0.05869677 0.08874754
000300 bb d7 c9 3d 80 b0 ae 3c fc d4 af 3d 30 89 e6 3d
       0.098556004 0.021324396 0.085855454 0.11256635
000310 fd 1b b1 3d e4 df a6 3d c7 c0 6b 3d 5d e5 d8 3d
       0.086479165 0.081481725 0.057556894 0.105906226
000320 57 10 b6 3d ed 3a 0a 3e 6b 3c 13 3e eb 68 2d bd
       0.08889835 0.13499041 0.14378516 -0.042336386
000330 db c3 a4 3d a3 93 d7 3c 8b ff bf 3d bd 46 c8 3c
       0.08045169 0.026315516 0.09374913 0.024447793
000340 29 6b cc 3d 0c 52 c1 3d 00 a4 d1 bc 62 f1 81 3d
       0.09981377 0.09439477 -0.025590897 0.06344868
000350 de 31 c9 3c a1 e6 9c 3d 0e df b6 3d c0 e8 19 3d
       0.024559911 0.076611765 0.08929263 0.037575483
000360 02 93 86 3d 39 9d c9 bb 46 c3 8f 3d 1c 74 7a 3d
       0.06571008 -0.0061527756 0.07019667 0.061145887
000370 e0 39 93 3d 02 99 05 3e 9f 7d 76 3d f7 1e 89 3d
       0.07188773 0.13046649 0.060178395 0.06695359
000380 4f 27 af 3d aa 79 00 3e 7c 41 5d 3d 70 d6 0c 3d
       0.085524194 0.12546411 0.05401753 0.03438419
000390 1d c1 0a 3e a3 e7 07 3d f5 0c 48 bc 7b a5 cd 3d
       0.1355023 0.03317989 -0.01221012 0.100413285
0003a0 d8 6a a3 3d 9d 24 9c 3d 97 21 1b 3d bc fa 84 3c
       0.07979363 0.07624171 0.03787383 0.01623284
0003b0 c1 82 d3 3d ef 1d 1f 3e ea a4 cd 3d 2f 23 c7 3c
       0.10327674 0.15538763 0.100412205 0.024308769
0003c0 6c a0 03 3e f6 5f d2 3d 3c ab 07 3e 9f 96 af 3d
       0.12854165 0.10272209 0.13248914 0.085736506
0003d0 fa 1c 1b 3e fe 1b 9a 3d af a8 a3 3c 71 ad b4 3d
       0.15147772 0.0752487 0.019977896 0.08822144
0003e0 39 e3 97 3d 56 70 32 3d 45 48 89 3d f3 77 1c 3d
       0.07416386 0.043564163 0.067032374 0.03820033
0003f0 cb a9 07 3d 5c 6d 1f 3d 16 19 ad 3d 69 46 00 3e
       0.03312091 0.038922653 0.084520504 0.1252686

bias_mu f4 [150]
000000 49 e9 19 be 7c e7 bc bd da 59 6b bd 55 4b c4 bd
       -0.15030397 -0.0922384 -0.057458736 -0.09584681
000010 f1 48 c3 bd dd e2 6c 3d f6 4d 64 3d e3 b2 9d bd
       -0.09535397 0.05783354 0.05573841 -0.077001356
000020 08 65 20 bd ad 31 0c be c2 70 f9 bc 80 ed 53 bd
       -0.03915885 -0.13690825 -0.030449275 -0.05174017
000030 bf 9e b8 3d 73 68 d6 bd 08 f8 13 3d 52 b4 be bd
       0.090146534 -0.10469141 0.036125213 -0.09311737
000040 7d e4 a5 3d 1e c8 d9 bd f2 48 61 bd cc 4c 63 bc
       0.08100221 -0.106338724 -0.055001207 -0.01387329
000050 58 66 ee bd 56 d3 5d 3d 3c 81 84 3d 9e c6 db 3a
       -0.11640614 0.054156624 0.06469962 0.0016767567
000060 52 e1 ef 3c fb 24 e9 3c f4 0d ee 3b fa 56 7f 3c
       0.029282246 0.028460016 0.007264847 0.015584702
000070 57 63 ff ba 24 69 17 bd 83 a2 a6 3a 2b 3e a9 bd
       -0.0019484562 -0.036965504 0.0012713227 -0.08263811
000080 e6 5e 44 bd 20 08 ef 3b e3 2b 87 3c 26 c5 bb 3b
       -0.047942065 0.0072946697 0.016500419 0.005730289
000090 13 88 f1 bd dd 39 cc bd f2 6d 5b bd ca cc 81 bd
       -0.11793532 -0.09971974 -0.05357165 -0.063378885
0000a0 b4 d4 1d be b4 32 1d be fe 9a ed bd bd 3d 19 3e
       -0.15413171 -0.15351373 -0.11601828 0.14964958
0000b0 8a e7 11 be e7 66 24 bd aa 55 8e 3d 7e 15 14 be
       -0.14248481 -0.040137198 0.06949933 -0.14461324
0000c0 72 dd 42 be fb 9b d0 bd 3f 0d e4 bd ec 00 f0 bd
       -0.19029787 -0.10186001 -0.11135339 -0.11718926
0000d0 04 fe b5 3a 72 68 b1 bd 7f 13 14 be e4 d0 0d 3e
       0.0013884907 -0.086624995 -0.14460562 0.13849217
0000e0 46 4e 79 bd f7 16 7a be ad 49 fb 3b 92 5a d8 bc
       -0.060865663 -0.24422823 0.007668695 -0.026410375
0000f0 fe 72 f6 3d 86 bb 29 be ba f6 9e bc fe 9e bf 3c
       0.12033652 -0.16575441 -0.019404758 0.023391243
000100 bf d5 1b 3d c1 42 f8 bb 44 54 00 be 66 d5 1a be
       0.03804564 -0.007576317 -0.12532145 -0.15120468
000110 0b e6 96 bd 5b e2 c4 3d ce 8f 86 bd 56 8b c1 bc
       -0.07368096 0.096134864 -0.06570397 -0.02362601
000120 e3 7b 73 3d 67 e3 5d bd 78 fd 38 bd c8 1d 6f bd
       0.05944432 -0.054171946 -0.0451636 -0.05837801
000130 b1 e4 13 be 67 fc d0 3d a0 41 bd bd 85 cb b9 bd
       -0.14442708 0.10204392 -0.092410326 -0.090720214
000140 52 fa 89 3d ef 96 b5 bd bc 04 f6 3b 29 1d 1a bd
       0.06737198 -0.08866679 0.0075078886 -0.037625466
000150 bf 17 f6 bd c5 d7 a4 bb e2 ae 14 be 43 be 72 bd
       -0.12016248 -0.0050306045 -0.14519837 -0.05926348
000160 03 d8 31 bd 6a 49 e9 bd 06 07 b3 bd 7f 49 32 be
       -0.043418895 -0.11390956 -0.08741574 -0.17410849
000170 38 ba 0a bb 85 1e 12 be b2 06 08 be 87 1d 99 bd
       -0.0021168124 -0.14269455 -0.13283804 -0.07476335
000180 52 5e d2 3d cf 4c 71 bc eb 22 63 3d ed 79 26 bd
       0.102718964 -0.014727785 0.055453222 -0.04064362
000190 c4 0b 05 be 00 ad 5f bd 96 9a c4 bd ef 9e b7 3c
       -0.1299277 -0.054608345 -0.095997974 0.022414653
0001a0 f8 24 81 bb 3f 20 04 bd b1 fb 50 bd 4d d7 1e 3d
       -0.0039411746 -0.032257315 -0.05102128 0.038779546
0001b0 d9 52 81 3d 42 ce d2 bd 32 70 09 be d5 36 8b bb
       0.0631463 -0.10293247 -0.13421705 -0.00424848
0001c0 90 65 cf bd c0 01 dd bd da e3 3e be 4c 77 90 3b
       -0.101267934 -0.107913494 -0.18641606 0.0044087525
0001d0 97 05 41 3d 7f f0 d3 bd 28 b2 83 3d 5c fd 38 bd
       0.04712447 -0.10348605 0.06430465 -0.045163497
0001e0 5a d2 2c 3c d2 be 18 ba 2b 08 53 3d 11 67 d6 3d
       0.010548199 -0.0005826774 0.05152146 0.10468877
0001f0 9b b5 89 3d 50 a6 d4 bd ce 81 0a be f4 95 b8 bd
       0.067240916 -0.10383284 -0.13526079 -0.09012976
000200 37 d3 3c 3d 42 18 e9 bd 95 bf 1f be 01 c9 8d 3d
       0.046099868 -0.1138158 -0.15600426 0.06923104
000210 f0 b6 27 bc 7f 71 81 3d fc fe d7 3d 10 9f ca bc
       -0.010236487 0.06320476 0.10546681 -0.02473405
000220 81 d4 c7 bd c8 b7 47 3c 41 92 04 3d 1b 52 b6 bd
       -0.09757329 0.012189813 0.03236604 -0.08902379
000230 bc 4e bd 3d 0c fe 93 bb 21 26 76 3d 2d b1 ac bd
       0.09243533 -0.0045163687 0.060094956 -0.08432231
000240 7a 68 4d 3d 88 1a ab bd 3c 8d 57 bd 75 14 06 be
       0.050148465 -0.0835467 -0.052624926 -0.13093741
000250 31 88 03 3d bf 51 c5 bd
       0.032112304 -0.096347325

bias_sigma f4 [150]
000000 51 6b b1 3b 5d 2f 8e bd b1 28 b3 bb 4f 8d 45 ba
       0.0054144044 -0.069426276 -0.0054674973 -0.000753601
000010 cc 50 7c 3d 8d 3e 1f 3d 2b 85 95 3c ef 5f 82 3d
       0.06160049 0.038878012 0.018251976 0.06365954
000020 4e 0c ab 3d 8d 8c 9e 3c e3 d6 8c bb b7 17 23 3d
       0.08351956 0.01935413 -0.0042980774 0.039817538
000030 63 46 6c 3c ff 13 76 3d d8 9a d4 3c 6a b6 4d 3d
       0.014421078 0.060077664 0.025952742 0.05022279
000040 54 ba 06 38 17 11 38 3d 06 78 8a 3d 5a a4 99 3d
       3.212162e-05 0.044938173 0.06761174 0.07502051
000050 db 67 e1 3c 6b c0 a1 3d d3 aa 0f 3d 82 e7 e5 3b
       0.027515342 0.07898029 0.03507502 0.0070161233
000060 7b d1 77 3d 5e b7 a5 3d f7 29 e8 bc 15 0e 29 bd
       0.06050251 0.08091615 -0.028340323 -0.041273195
000070 5c f4 24 3d 94 42 72 3d 4e a7 31 3d 42 95 0e bb
       0.0402721 0.059145525 0.043372445 -0.0021756445
000080 86 ff 89 3d 82 c9 76 3d 30 87 7b 3c a3 13 6d 3d
       0.0673819 0.060250767 0.015352055 0.057880055
000090 ca 84 8a 39 d2 2a 3d 3d 3b 84 ad 3c 8c e1 9b 3c
       0.00026420347 0.046183415 0.021181216 0.019028448
0000a0 f3 0d 9b 3d 47 62 06 3c c9 eb 69 bc aa 33 51 3b
       0.0757102 0.008202142 -0.014277407 0.0031921663
0000b0 6a 0e f9 bc 58 f0 31 3d 96 d2 67 bb 43 ab d7 bc
       -0.030402381 0.0434421 -0.0035373322 -0.026326781
0000c0 5b a0 8e 3d 00 3b a1 3d a2 7c bb 3d 72 f6 89 3d
       0.06964179 0.078725815 0.09154631 0.06736459
0000d0 af 95 bb 3d f0 b3 9e 3c e0 a0 47 3d 76 0e a0 3d
       0.09159409 0.01937291 0.048737407 0.07815258
0000e0 71 9c 66 bd ef d1 3c 3d 14 f3 e2 3c f6 db 36 3d
       -0.056301538 0.046098646 0.0277038 0.044643365
0000f0 1c 7c a0 3c f2 4b a5 3c c1 7a e1 3c f0 6a 7c 3d
       0.01959043 0.020177815 0.027524354 0.06162542
000100 ba 7f 63 3d 16 d5 21 3d 5a 96 7d 3d 10 f7 38 3d
       0.05554173 0.039509855 0.061910965 0.045157492
000110 4b 41 5c 3b dd 96 92 3d 6f 08 12 3e 7b 6a 6e 3c
       0.0033608254 0.07157681 0.1426103 0.014551754
000120 a5 dd 25 3d e8 61 27 3d c6 a7 63 3c 50 e1 5e 3d
       0.04049458 0.040864855 0.013894981 0.054414093
000130 85 51 57 3d 43 df 9f bc 1c 82 49 3d 9f d3 54 bc
       0.052567977 -0.01951564 0.049196348 -0.0129899075
000140 59 f3 c5 3d d0 2b b0 3d b1 e6 64 3d 4e 15 b0 3d
       0.096655555 0.086021066 0.055884067 0.085978135
000150 fe 52 0a 3d eb 70 ec bc b5 b1 43 bb 82 e7 92 3d
       0.033770554 -0.028862437 -0.002986056 0.07173063
000160 69 b7 a9 3d 94 21 2c 3d 8a 5d ba 3c 65 2c 6e 3b
       0.08286936 0.04202421 0.022749681 0.003634238
000170 af c7 ec 3c 63 4c 59 3b 98 ef bb 3b 75 fb 94 3d
       0.02890381 0.0033157102 0.005735349 0.07274524
000180 3d e0 50 3c 08 68 c2 3d 33 2e 30 3d 86 b0 a4 3d
       0.012748775 0.09492499 0.04301281 0.08041482
000190 c1 f1 ab 3d 33 49 b3 3c de 5b a1 3d 52 3e 73 3d
       0.0839572 0.02188549 0.078788504 0.059385605
0001a0 74 7c 8d 3d 1c a5 21 3d 99 a2 33 3d a5 07 b7 3b
       0.06908503 0.0394641 0.043856237 0.005585628
0001b0 91 ba 8b 3c ef a7 01 3d ac c5 46 3d ba f5 d0 bb
       0.017056735 0.031654295 0.04852836 -0.006376949
0001c0 14 59 66 3d 76 9e ac 3c 57 c5 11 3d 6d f0 08 3d
       0.056237295 0.021071654 0.03558859 0.033432413
0001d0 a6 14 99 3d dc 22 d6 bc 85 d7 9d 3c 28 61 92 3d
       0.074746415 -0.02613967 0.019267807 0.07147437
0001e0 e6 74 02 3c ab d8 9d 3d ff d3 a2 3d 0b 0a 9a 3d
       0.007962441 0.07707342 0.07950591 0.07521447
0001f0 35 11 08 3c 3d 93 3d 3d b5 07 a7 3d 73 ec 3c 3c
       0.008304884 0.046282995 0.08155767 0.011530983
000200 90 ef 8d 3d 67 8d 82 3d b1 90 38 3d 34 cf a6 3d
       0.069304585 0.063746266 0.045059863 0.081449896
000210 30 89 44 3d 0e fc 16 bc 83 32 a3 3c 41 46 39 3d
       0.047982395 -0.009215368 0.019921547 0.045233015
000220 30 a8 5f 3c 32 a7 0a 3d 93 60 ab 3d a7 3c 72 3d
       0.013650939 0.033850856 0.083680294 0.059139874
000230 0a ea bb 3c aa a5 50 3d 5d b3 83 3d eb 57 82 3d
       0.022938747 0.05093924 0.06430695 0.06364425
000240 7b 99 c1 3d 9a 56 05 bc 00 c8 ef 3b 12 67 90 bb
       0.09453102 -0.008138323 0.007317543 -0.004406818
000250 06 3f b8 3c 7b ae 4c 3d
       0.02249099 0.049971085

weight_epsilon f4 [150, 64]
000000 b7 27 0c 3f e7 45 f1 be ba 7b 0c 3f 55 17 d3 3e
       0.547481 -0.47123644 0.5487629 0.41228738
000010 39 a7 9f bf 69 ff 26 3f 4b f9 8b bf d2 66 97 3e
       -1.2472907 0.65233475 -1.0935453 0.29570633
000020 71 6b 93 3f 71 91 84 be d7 5b 39 bf 40 ae 84 3e
       1.1517164 -0.25892213 -0.7240576 0.25914192
000030 95 de 76 3f a4 d6 4b 3f 19 02 07 3f d3 87 68 bf
       0.96433383 0.7962439 0.52737576 -0.9083225
000040 0f f5 70 bf f0 a9 23 3e 6b 7e 54 3e d3 79 9c 3f
       -0.9412393 0.15982795 0.2075135 1.2224678
000050 a1 3b 91 bf 38 27 0b 3e f6 e3 4c bf a3 5f 81 3f
       -1.1346322 0.1358918 -0.8003534 1.0107311
000060 b1 0d 53 3e 74 16 b1 be 44 79 13 3f 66 19 09 3f
       0.20610692 -0.34587443 0.5760691 0.5355438
000070 ca 61 1f bf 87 63 9c 3f 02 26 7c be d4 0a e3 3e
       -0.6225859 1.2217873 -0.24623874 0.443442
000080 fd be 8a bf 65 05 38 3f 3b 10 c6 3e 1f 32 f2 be
       -1.0839535 0.7188323 0.38684258 -0.47303864
000090 ac 92 0e bf 6f 53 b9 3e af 06 16 3f dd 56 ac 3f
       -0.55692554 0.36196467 0.5860395 1.3464009
0000a0 c0 b6 55 bf 9e 5e 78 bf d8 f0 2e bf b7 88 4d bf
       -0.8348198 -0.97019374 -0.6833625 -0.80286735
0000b0 c2 78 57 3f 77 a2 0f 3f 23 ae 0f bf 20 57 e6 be
       0.84168637 0.56107277 -0.56125087 -0.44988346
0000c0 cb 3a a6 3e e5 19 83 3f 3f f0 18 bf df 4e 21 bf
       0.3246673 1.0242277 -0.59741586 -0.6301097
0000d0 a4 3f ac be 42 64 42 be 89 b0 ec be f7 37 81 bf
       -0.33642304 -0.18983558 -0.46228436 -1.0095204
0000e0 8b 3d 21 3f ea cd 93 3f 2c 2b 8b bf f2 cf 64 3f
       0.6298453 1.1547215 -1.087255 0.893798
0000f0 73 5e 7d 3f 9e e4 17 bf 9f cc 2b bf 80 03 f6 3e
       0.98972243 -0.5933322 -0.671091 0.48049545
000100 c9 69 57 3f f2 69 39 bf e8 ea 57 3f 38 38 22 3f
       0.8414579 -0.72427285 0.84342813 0.63367033
000110 8c 61 f5 bf aa 55 80 3f 70 22 d7 bf dd b2 e8 3e
       -1.9170394 1.0026143 -1.6807384 0.45448962
000120 1d 94 e2 3f 96 c0 cb be db 71 8e bf dc ec cb 3e
       1.770145 -0.3979537 -1.1128496 0.39829147
000130 ef b6 bd 3f 63 a5 9c 3f a8 80 4f 3f 06 b2 b2 bf
       1.4821452 1.2237972 0.8105569 -1.3960578
000140 d1 2b b9 bf 92 8b 7b 3e 2c 4c a3 3e 62 7f f0 3f
       -1.4466497 0.2456496 0.31894052 1.8788874
000150 b5 37 df bf 90 df 55 3e 5b 74 9d bf a7 d7 c6 3f
       -1.7438875 0.20886064 -1.2301134 1.5534562
000160 d0 30 a2 3e af 16 08 bf 5d a9 62 3f 65 b7 52 3f
       0.31677866 -0.5315961 0.8853968 0.8231109
000170 d5 f6 74 bf 1d 5d f0 3f 7b c5 c1 be 4f 7a 2e 3f
       -0.95689136 1.8778416 -0.37845978 0.6815538
000180 5d 3f d5 bf b1 6a 8d 3f 42 35 18 3f 79 1f 3a bf
       -1.6659962 1.1048185 0.59456265 -0.72704273
000190 19 21 5b bf 65 6b 0e 3f a5 95 66 3f 87 70 04 40
       -0.8559738 0.5563262 0.9007209 2.0693681
0001a0 31 3c a4 bf 0f de be bf 52 70 86 bf f7 f2 9d bf
       -1.2830869 -1.4911517 -1.0503027 -1.2339772
0001b0 04 96 a5 3f d6 c2 5c 3f c6 d4 5c bf 23 03 31 bf
       1.2936406 0.86234796 -0.86262167 -0.6914541
0001c0 22 7d ff 3e 61 7f c9 3f 8b 0f 6b bf ae ec 77 bf
       0.49900156 1.5741998 -0.9182059 -0.9684552
0001d0 ae 5e 04 bf e8 62 95 be 3c e4 35 bf ac 9a c6 bf
       -0.5170697 -0.29177022 -0.71051383 -1.5515952
0001e0 0c d2 77 3f 77 2b e3 3f a2 e5 d5 bf 86 d6 af 3f
       0.9680488 1.774764 -1.6710703 1.3737342
0001f0 96 b5 c2 3f 35 74 69 bf 4a 06 84 bf 92 0e 3d 3f
       1.5211666 -0.9119294 -1.0314419 0.7385036
000200 01 8f 66 be 34 73 46 3e 34 19 67 be 02 a0 2d be
       -0.22515489 0.19379884 -0.22568208 -0.1695557
000210 14 51 03 3f 8e 5b 89 be a4 42 e6 3e 33 0f f9 bd
       0.5129559 -0.26827663 0.44972718 -0.12161102
000220 4b 82 f2 be eb 13 da 3d b7 75 98 3e 4e 43 da bd
       -0.4736503 0.1064833 0.2977731 -0.106573686
000230 9a 0d cb be db a8 a7 be 7e 17 5e be 5c 42 bf 3e
       -0.39658815 -0.32746014 -0.21688649 0.37355316
000240 b5 30 c6 3e 90 9d 86 bd 5c c7 ae bd 0c b4 00 bf
       0.38709036 -0.065730214 -0.085341185 -0.5027473
000250 65 e9 ee 3e 0f e9 64 bd 60 86 a8 3e 9c d2 d4 be
       0.4666244 -0.055886324 0.3291502 -0.41566932
000260 14 98 ad bd 23 a8 11 3e 0a 99 72 be 13 88 61 be
       -0.08476272 0.14224295 -0.23691192 -0.22024564
000270 f8 17 83 3e b5 a1 00 bf 2a 65 cf 3d bb be 3a be
       0.25604224 -0.50246745 0.101267174 -0.1823682
000280 99 3d e4 3e 0d 5c 97 be d9 e8 22 be 7f 35 47 3e
       0.44578245 -0.29562417 -0.15909137 0.19454001
000290 33 89 6a 3e cd 6e 18 be ee cb 76 be 4d c0 0d bf
       0.229039 -0.14886017 -0.2410123 -0.5537155
0002a0 41 c8 af 3e 7a 49 cc 3e 14 e4 8f 3e e3 0d a9 3e
       0.3433247 0.39899808 0.28103697 0.33018407
0002b0 65 3a b1 be 4f 48 6c be 82 5b 6c 3e 2d 75 3d 3e
       -0.34614864 -0.23074459 0.23081782 0.1850173
0002c0 d5 b9 08 be 21 aa d7 be 64 96 7b 3e 89 ad 84 3e
       -0.1335214 -0.42121986 0.24569088 0.25913647
0002d0 33 ad 0d 3e b5 e3 9f 3d 19 ae 42 3e 58 91 d4 3e
       0.13835602 0.078071035 0.19011725 0.41517138
0002e0 48 9f 84 be 4a 24 f3 be 8f ef e4 3e 6d 33 bc be
       -0.25902772 -0.47488624 0.4471402 -0.36757985
0002f0 27 66 d0 be 24 de 79 3e 99 4e 8d 3e 67 59 4a be
       -0.40702936 0.24401146 0.27599028 -0.19760667
000300 ed 63 6d bf 90 54 4c 3f 38 f2 6d bf 0e c5 32 bf
       -0.927306 0.7981653 -0.9294772 -0.6983193
000310 31 35 07 40 7e 6d 8d bf 4c 15 ed 3f 3b 38 00 bf
       2.1126215 -1.1049039 1.8522124 -0.500858
000320 de b1 f9 bf 2a 8a e0 3e 36 fa 9c 3f f5 ba e0 be
       -1.9507406 0.4385541 1.2263858 -0.43892637
000330 e0 11 d1 bf a6 a0 ac bf 30 ac 64 bf 2c ed c4 3f
       -1.633358 -1.3486526 -0.8932524 1.5384879
000340 19 10 cc 3f b3 9a 8a be 29 f5 b3 be 56 84 04 c0
       1.5942413 -0.2707115 -0.3514798 -2.0705771
000350 ae fd f5 3f 7a b1 6b be bc 84 ad 3f fe 20 db bf
       1.9218042 -0.2301692 1.3556132 -1.7119443
000360 e3 bc b2 be 07 f9 15 3f 49 c9 79 bf dd 36 68 bf
       -0.34909734 0.5858311 -0.9757276 -0.90708715
000370 64 fa 86 3f 74 71 04 c0 61 8a d5 3e 4d 47 40 bf
       1.0545163 -2.0694246 0.41707137 -0.75108796
000380 ef 00 eb 3f 33 d8 9b bf 9c bc 27 bf 9d 1c 4d 3f
       1.835966 -1.2175354 -0.6552217 0.80121785
000390 4a 7c 71 3f 18 f3 1c bf 06 1c 7e bf 91 f3 11 c0
       0.94330275 -0.6130843 -0.9926151 -2.280491
0003a0 aa fd b4 3f 1c 57 d2 3f 93 27 94 3f 43 10 ae 3f
       1.4139912 1.6432834 1.1574577 1.3598713
0003b0 c6 7a b6 bf a6 48 73 bf 6a 5c 73 3f 53 12 43 3f
       -1.4256217 -0.9503273 0.9506289 0.76199836
0003c0 fb c6 0c bf 12 0e de bf 6a 85 81 3f f9 9b 88 3f
       -0.5499112 -1.7348044 1.011884 1.0672599
0003d0 e6 df 11 3f 8f a0 a4 3e dc 72 48 3f cb dd da 3f
       0.56982267 0.32153746 0.7830026 1.7098936
0003e0 4c 8d 88 bf a9 58 fa bf 2c b8 eb 3f 0a c7 c1 bf
       -1.066812 -1.9558307 1.841558 -1.5138867
0003f0 fb 92 d6 bf c4 a2 80 3f 7e 7e 91 3f 57 58 50 bf
       -1.6763605 1.0049672 1.1366727 -0.81384796

bias_epsilon f4 [150]
000000 33 a6 5e bf 0e 1a ab bf b6 21 b7 3e df 8e bc 3f
       -0.8697235 -1.3367326 0.35767907 1.4731101
000010 bd 57 1d 3f 06 ab b5 3f 74 ae 43 bf 0e 72 12 bf
       0.61462003 1.4192817 -0.7643807 -0.57205284
000020 14 1c 8c bf de aa bf be 6b d8 51 bf 68 87 89 3f
       -1.0946069 -0.3743505 -0.8197085 1.0744448
000030 b4 23 c7 3f e7 bd 43 bf c1 a0 39 be a0 42 c8 bf
       1.5557771 -0.76461643 -0.18127729 -1.5645332
000040 6c da 95 3f e9 af e5 be 2c 72 ae 3e bb 82 1d 3f
       1.1707282 -0.4486077 0.3407148 0.61527604
000050 a0 cf 57 3f a6 1e d0 be c0 e4 3e 3f 28 94 a8 bf
       0.84301186 -0.40648383 0.74567795 -1.3170214
000060 bd 84 5a bf 83 61 88 bf 30 86 53 bf 4c 5a b4 be
       -0.8535879 -1.0654758 -0.8262663 -0.3522514
000070 d7 62 c6 3f 49 93 25 3f 78 8a 32 3f df 11 48 bf
       1.5498914 0.64677864 0.69742537 -0.7815227
000080 9b bc 61 bf 53 e8 79 3f 04 d0 a2 bf 22 6c d6 be
       -0.88178414 0.97620124 -1.2719731 -0.41879374
000090 04 7c a4 3f 81 14 88 bf 75 f1 85 3f 09 5b 98 3f
       1.2850347 -1.0631257 1.0464312 1.1902782
0000a0 b5 25 66 bf 49 87 9f bf a1 7d 6b 3f 66 e2 1c bf
       -0.89901286 -1.2463161 0.9198857 -0.61282957
0000b0 7a 49 92 3f 23 1b 6f bf a2 74 12 3f 48 01 a4 bf
       1.1428673 -0.9340078 0.5720922 -1.2812891
0000c0 6e 88 39 3f 0f 28 8f be 22 b9 7b bf 3b 0e 7b be
       0.724738 -0.2796025 -0.98329365 -0.24517147
0000d0 0b d3 97 bf 2a f3 53 bf da 8a ad bf 44 73 4f 3f
       -1.186128 -0.82792914 -1.3557999 0.81035256
0000e0 b8 60 16 3f fa 50 5c 3f 16 94 45 3f 35 71 9d 3f
       0.5874133 0.8606106 0.77179086 1.2300173
0000f0 e5 56 95 3f b2 1b 10 3f 5c d4 a7 be 1d 05 eb 3e
       1.1667143 0.5629226 -0.32779205 0.4590234
000100 0f 6d 56 bf 9d 91 29 bf 57 1c 78 3f 29 f9 08 bf
       -0.8376016 -0.66237813 0.96918243 -0.5350519
000110 b6 1b 40 3f cf 6c 92 3f c6 ef 52 3f b0 21 91 bf
       0.75042284 1.1439456 0.82397115 -1.1338406
000120 3d 56 84 bf 62 27 9c bf 91 7f 91 bf ac 9a 8e 3f
       -1.0338818 -1.2199519 -1.1367055 1.1140952
000130 f0 6f 05 3f 8e 3d 81 bf a1 2a 96 bf d0 b5 57 3f
       0.5212393 -1.009691 -1.1731759 0.842618
000140 4f 75 9f bf 6f ff 8d 3e 42 ef 49 3f e6 23 e4 3f
       -1.2457675 0.27733943 0.78880703 1.7823455
000150 e7 0c 20 bf da a9 81 3f 47 0e 80 bf d4 bd 89 bf
       -0.6251969 1.012996 -1.0004357 -1.0761056
000160 da 70 2e bf 8a 49 db 3e 93 e4 4c bf 18 ac 84 bf
       -0.6814095 0.42829543 -0.80036277 -1.0365019
000170 39 f8 18 3f fa 5c 06 3f 6b bc 8c 3f e3 86 91 3f
       0.5975376 0.5248562 1.0995001 1.1369289
000180 98 6a a9 3f 32 35 91 bf a3 94 86 bf cc 88 24 3f
       1.3235655 -1.1344359 -1.051411 0.64271235
000190 0c bd 68 bf 72 74 3a 3f b8 39 8b bf b9 68 81 bf
       -0.9091346 0.7283393 -1.0876989 -1.0110084
0001a0 2d f0 65 bf f3 18 12 bf ba 17 71 bf 45 1c 7d bf
       -0.89819604 -0.5706932 -0.9417683 -0.9887126
0001b0 f5 25 1c 3f 66 12 0d 3f cf 16 0e 3e c0 0f 7c 3f
       0.6099542 0.551062 0.13875888 0.9846153
0001c0 4b b1 70 bf f3 4c 52 3f d8 29 7d 3f 91 19 f5 3d
       -0.9402053 0.82148665 0.98891973 0.11967767
0001d0 bf bc 77 bf 79 56 6b 3f ba 9a 49 bf ef a7 10 bf
       -0.9677238 0.9192882 -0.7875172 -0.56506246
0001e0 03 40 2c bf 76 2f 70 bf 26 d7 82 3e a3 81 11 3e
       -0.67285174 -0.9382242 0.2555477 0.14209609
0001f0 e8 a7 b8 be 26 df ca be ce d3 96 3f ed 87 d3 be
       -0.36065602 -0.39623374 1.1783388 -0.4131464
000200 9b 08 74 3f bc 4f 94 be 72 da 86 3e 68 8d 93 3f
       0.9532563 -0.28967083 0.26338536 1.1527529
000210 e5 2b 99 bf f9 0b a7 be bb 9e 06 be c7 cb 01 bf
       -1.196652 -0.32626322 -0.13146488 -0.50701565
000220 69 ea 45 bf ca a6 0a 3f c7 54 ab 3f 8f fc 9e 3f
       -0.77310807 0.5416075 1.3385247 1.2420825
000230 26 e7 3e bf b2 c4 50 bf ca c2 31 bf 5a 12 43 be
       -0.74571455 -0.81550133 -0.6943785 -0.1904997
000240 d7 45 9b 3f 36 2b b9 bf f8 59 97 bf c1 ea 87 3f
       1.2130688 -1.4466312 -1.1824331 1.0618516
000250 2e 1b 83 bf d2 1a 13 bf
       -1.024267 -0.574628

weight_mu f4 [100, 150]
000000 f2 d7 a1 bd ad 0d ac bd 35 43 e0 bc 78 0f bd 3d
       -0.079025164 -0.08401046 -0.027375797 0.09231466
000010 18 9c e3 bb 87 5f d9 bd b3 82 81 3d 99 5a f7 3d
       -0.006946098 -0.106139235 0.06323757 0.12077827
000020 a4 e4 3b bd a3 1c 85 3d 3d d5 bc bd 23 df bd bd
       -0.045872346 0.06499603 -0.092203595 -0.092710756
000030 90 c4 04 3c 75 10 d8 bd 7a 8e 99 bc 79 24 00 3d
       0.008103505 -0.10550014 -0.018744696 0.031284783
000040 ec bd c8 bd ee 2d 0f 3d 23 85 31 3d 80 f8 95 3c
       -0.0980185 0.03495591 0.04333986 0.01830697
000050 4d 66 c7 3d 5a 63 ba bc 5b 4f bd bd 53 f3 78 3c
       0.09736309 -0.022752453 -0.092436515 0.015194732
000060 a4 4e a4 bd ec 49 f6 bc 02 f0 6f 3d 4a 0b 8c bd
       -0.08022812 -0.030064546 0.0585785 -0.06838091
000070 94 42 80 bd 18 ec 6e bd 42 49 6e bd df bf 56 bd
       -0.06262699 -0.058330625 -0.058175333 -0.052429076
000080 e6 99 ba 3d c3 29 2c bd ee e4 13 3c 3d e2 df bc
       0.09111385 -0.042032015 0.009026749 -0.027329559
000090 a9 a5 01 bd 3b f2 e6 3b 5b b5 a7 bd 33 9d ee bc
       -0.031652126 0.007047919 -0.08188888 -0.029127693
0000a0 c4 98 b2 bc ea 8f 8b bd 5d e5 ab 3c c9 28 9e bd
       -0.02180136 -0.06814559 0.020983392 -0.07722623
0000b0 e6 42 43 3d c7 b8 26 3d ed c8 a5 3d 5b 30 4c bd
       0.04767122 0.04070356 0.08094964 -0.049850803
0000c0 8b 88 e6 bb 38 5a b1 3b a1 a3 f8 3c b2 9e 89 bc
       -0.00703532 0.0054123662 0.030351462 -0.016799305
0000d0 37 e7 a8 bd 3e 27 16 bd 63 96 df bc 25 0e ab 3d
       -0.08247226 -0.036658518 -0.02729339 0.08352307
0000e0 6d 37 52 bd 1e f4 e4 3b 30 dd c7 b8 9f fe 60 bc
       -0.05132239 0.006987109 -9.530259e-05 -0.013732581
0000f0 c4 3c 77 bd 85 4c a6 bb d6 07 16 3d f0 27 a7 bd
       -0.060360685 -0.00507504 0.036628567 -0.08161914
000100 b1 81 42 3d f0 80 9a 3d da 3b 06 3e 57 95 bc 3b
       0.047486965 0.07544124 0.13108769 0.0057551074
000110 67 30 9a bd 47 b0 b5 bd d5 de 0b 3e cc 4d e5 3d
       -0.07528763 -0.08871513 0.13659222 0.11196479
000120 70 4d 7e bc 33 2c fc bd d2 5e a4 bd cd 01 c6 3d
       -0.015521392 -0.12313118 -0.08025898 0.09668312
000130 3b bf b6 3d da 36 83 ba a6 c9 e3 3d 30 76 cd 3c
       0.08923193 -0.0010010854 0.11122446 0.02508077
000140 48 06 68 bd c9 38 6f 3d 0c 99 0d bd 00 58 e3 3d
       -0.056646615 0.058403764 -0.034569785 0.11100769
000150 b8 90 fa 3c 9e 86 bd bb bb c9 b6 bc 30 3b a1 3c
       0.030586585 -0.00578387 -0.02231299 0.019681543
000160 ee 2c 05 bd 17 b6 80 bd 7a 4f 03 3d 6b 16 7c 3c
       -0.03251355 -0.06284731 0.032058217 0.015386204
000170 d1 30 2c bd c2 15 1d 3d 42 3f c1 3c b1 d5 0f 3d
       -0.042038742 0.038350828 0.023589734 0.0351159
000180 2e be 50 bd 2a 01 92 bd 3a e3 50 3d 1f 0c 6d 3d
       -0.05096262 -0.07129128 0.05099795 0.057872888
000190 4a 0c c3 3c 66 e1 d5 3c d4 9d dc 3c ae 61 ad 3c
       0.02380957 0.026108455 0.026930727 0.021164741
0001a0 13 bf 75 bd 71 48 85 3d 80 4a 29 bc 42 be 6d 3c
       -0.059996676 0.06507958 -0.010332704 0.014510693
0001b0 a4 4a 62 3d 1a 20 2d bd e2 f5 40 3b 93 68 ba bd
       0.055246964 -0.042266943 0.0029443433 -0.09101977
0001c0 8e 9f e1 3d 7a 77 6e 3d 57 84 ec 3d de 64 a3 3d
       0.11016761 0.05821941 0.11548679 0.07978223
0001d0 91 f3 b0 bc 82 f6 a8 bb 59 a7 b4 bd 42 95 64 3c
       -0.021600517 -0.005156339 -0.088209815 0.013951601
0001e0 8e 9d 76 3d cc 37 1a 3d 18 a0 c8 3d 7f b7 09 be
       0.06020885 0.03765087 0.097961605 -0.13448904
0001f0 cb 9a 14 bd 6e bc 6c bd a2 68 97 bd b1 45 c4 bc
       -0.036280435 -0.057796888 -0.07393004 -0.023959013
000200 fb 21 aa 3b 8e 3a 8a bd b3 06 b3 3c 11 45 2f bd
       0.005192039 -0.0674945 0.02185378 -0.042790476
000210 07 65 4b 3c d6 9e e3 bd d8 ea 4b bd 2f 6b d8 bd
       0.0124142235 -0.1111428 -0.04978451 -0.10567319
000220 34 df f4 3c 95 bc 04 bd 71 14 81 bd 70 9e d1 bc
       0.029891588 -0.03240641 -0.06302727 -0.025588244
000230 f0 70 7c 3d 46 89 e5 3c b1 41 0c 3d 0d f1 95 3d
       0.061631143 0.028019559 0.034242336 0.073213674
000240 74 0a 83 3d 6b 51 6d 3c e6 6b 79 bd 88 8a fa bc
       0.06398478 0.014484744 -0.060893916 -0.030583635
000250 4e 52 03 3d d7 34 99 bc d9 3d 77 3d 9d 82 d1 3c
       0.032060914 -0.018701954 0.060361717 0.025574977
000260 11 b5 d4 bb 1a 37 50 3c bd d4 7b 3d 05 1f 6b 3c
       -0.0064913114 0.01270845 0.06148218 0.014350657
000270 c4 0d a5 bd 54 b3 00 3d a0 ad 09 bd 4f ba 18 bd
       -0.08059266 0.03142102 -0.033612847 -0.037287053
000280 4a f7 5e 3d 49 22 08 bb 6d b2 fa 3b d8 57 7f bd
       0.054435052 -0.0020772389 0.0076506645 -0.062339634
000290 f3 19 aa bd e3 71 8d bc 92 b7 58 bd 7b 8a 30 3b
       -0.08305731 -0.01726622 -0.05290944 0.002693801
0002a0 d1 2a cd bc 42 08 91 3d 5d b9 88 bd 48 81 25 bd
       -0.02504483 0.07081653 -0.0667598 -0.040406495
0002b0 e4 47 8e bd bb a8 40 3d 46 9e c7 3a 83 7e 3b bd
       -0.06947306 0.047035914 0.0015229664 -0.045774948
0002c0 4d 6c 58 3d 30 05 04 bd b3 07 93 3d ef 03 b6 3d
       0.05283766 -0.03223151 0.07179203 0.08887469
0002d0 bf c0 83 bd dc d6 b1 3d cc 51 8d 3d a6 c5 fc bb
       -0.06433248 0.08683559 0.06900367 -0.007713991
0002e0 36 a6 dc 3d 7b 81 f6 3b d4 85 eb bd 98 d1 a6 bd
       0.1077389 0.0075227595 -0.11500135 -0.081454456
0002f0 0d 5c 0f be 4a 9e 8d 3d 84 3c 5b 3d 74 1a 2a 3c
       -0.13999958 0.06914957 0.05352451 0.0103822835
000300 ec e7 a2 bc ba 4c 09 bd 92 8d 03 bd cb ad 7f bd
       -0.01988598 -0.033520438 -0.032117434 -0.0624216
000310 66 bc 05 3d 28 b1 f1 3d ac fb ed 3b cb 25 2f bd
       0.032650374 0.11801368 0.0072626676 -0.04276065
000320 11 48 90 bd 7d 5f cf 3d b6 32 d4 3a 61 af 88 3b
       -0.070449956 0.10125635 0.001618943 0.0041712974
000330 a2 a4 4c 3d ff b5 df 3d 39 9c 26 bd 83 ef b6 3d
       0.049961694 0.10923385 -0.04067633 0.08932402
000340 ae 64 97 3d 63 05 ae 3d ac 7b 49 3d 4e 37 9f bc
       0.0739225 0.08497121 0.04919021 -0.019435551
000350 65 13 19 bc 84 6d 4e 3c d6 dc 89 3d 55 ec 1f bd
       -0.009343003 0.012599353 0.06731574 -0.039043743
000360 46 71 85 3d ad db 58 3d e5 c5 af 3c e0 76 3a bd
       0.06515746 0.052943874 0.021456668 -0.045523524
000370 57 a8 93 bc b6 11 fa 3c b7 17 18 3e 28 93 43 3c
       -0.018024607 0.030526023 0.14852796 0.01193694
000380 c4 35 ba bc 18 eb 39 bd f3 89 07 bd db 00 41 3d
       -0.022730716 -0.04539022 -0.033090543 0.047119956
000390 bb f4 b2 3d ae 6f e1 bd 59 1d 01 bd 4e b9 80 3c
       0.08738085 -0.11007629 -0.03152213 0.01571336
0003a0 d6 7d 09 3c 5b 7b 71 bd 5a 05 93 bc a2 dd 26 bd
       0.008391818 -0.05895553 -0.017946888 -0.04073871
0003b0 4c b2 37 3d 96 33 fc bc 99 c7 db bd a4 1d 77 3d
       0.04484777 -0.030786317 -0.107314296 0.060331002
0003c0 fa 11 2d bd 06 2e 6b bd 24 c8 a1 3c 65 b6 87 3c
       -0.042253472 -0.05741694 0.019748755 0.016566465
0003d0 af 99 bf bd f8 ab fd 3c 0f 41 93 3d 08 01 cb bd
       -0.09355485 0.03096579 0.07190143 -0.09912306
0003e0 cc c1 ba bd 83 68 1f 3d e6 8d a0 3b 81 6e 64 3b
       -0.09118995 0.03891803 0.004899728 0.0034855905
0003f0 e4 10 81 bd 2f be 8b 3b 4c b2 39 3d e8 04 8e bd
       -0.0630205 0.004264615 0.045336053 -0.069345295

weight_sigma f4 [100, 150]
000000 14 10 1e 3d 13 48 03 3d c2 9e 4c 3d 9d 14 62 3d
       0.038589552 0.032051157 0.04995609 0.05519544
000010 08 43 78 3d 88 83 25 3d 2f 13 4d 3d 93 f2 6c 3d
       0.0606108 0.04040864 0.050067123 0.057848524
000020 c6 77 0c 3d f7 95 f8 3c 81 d3 c6 3c ad ee 4a 3c
       0.034293912 0.030344946 0.024270775 0.012386006
000030 65 71 0b 3d e4 51 5a 3d 0f 05 22 3d 23 e0 11 3d
       0.03404369 0.053300753 0.039555606 0.035614144
000040 0f 23 c4 3c c9 fe 25 3b a6 ea 74 3c 37 4a e3 3c
       0.023942498 0.0025328866 0.014948523 0.02774535
000050 89 2b 24 3d 77 99 ce 3c e3 d3 83 3d 9d 27 c6 bc
       0.04008058 0.025219662 0.064368986 -0.024188811
000060 5a 40 f8 3a 56 64 fb 3c 3a 19 11 3d 5a 0f cc 3c
       0.0018940077 0.030687492 0.03542445 0.024909664
000070 ba 6a 56 3b f5 7b 12 3d fd 8f 0c 3d 41 28 4d 3d
       0.0032717423 0.035762746 0.034317005 0.050087217
000080 0b fb ff ba 51 44 9a 3c 10 f2 02 3d 13 a6 06 3d
       -0.0019529773 0.018831404 0.03196913 0.032873224
000090 03 88 4d 3d 61 f0 68 3d 01 74 91 3c 3a b6 3b 3d
       0.05017854 0.05686987 0.01775551 0.04582808
0000a0 56 e4 b6 3d e8 eb 03 3d 54 e1 cf 3d 0d 2f ba 3c
       0.089302704 0.0322074 0.101504 0.022727514
0000b0 58 4d 30 3d cf 46 57 3d b5 05 96 3d 49 9d 1d 3d
       0.04304251 0.052557763 0.07325307 0.038480077
0000c0 d5 ff 27 3d b5 a0 da 3a c8 91 14 3d 14 6e 69 3d
       0.041015465 0.0016679975 0.03627184 0.056989744
0000d0 8d f9 3c 3d 5a 17 c5 3c e2 4f 8b 3d 31 cd 25 bb
       0.046136428 0.024058986 0.06802346 -0.0025299306
0000e0 25 a0 cd 3c ca af 1d bd 56 be aa 3c 7c 53 96 3d
       0.025100777 -0.038497724 0.020842712 0.07340142
0000f0 d4 8b 76 3d 15 e5 12 3c 50 bd e1 3c af 85 36 3d
       0.060191944 0.00896575 0.027556092 0.044561084
000100 85 1a 07 3d ca 6a b5 3c f3 eb 10 3b 24 6c c3 3c
       0.032984275 0.022145648 0.0022113293 0.023855276
000110 16 6a a9 3d ca cf 01 3d 7f f9 91 3d 2b d3 67 3d
       0.082721874 0.031692304 0.07127666 0.05659787
000120 d9 96 b2 3c 21 fa 6d 3c 96 5d e3 3c 19 da 72 3d
       0.021800445 0.014524967 0.027754586 0.059290025
000130 4b 3a bb ba 8f 25 ab 3c b3 ea a0 3d 0a 31 2a 3d
       -0.001428434 0.020891933 0.07857265 0.041550674
000140 60 3a 87 3d b5 8f e2 3c 27 eb 31 3d 12 c9 31 bc
       0.06602931 0.027656415 0.04343715 -0.010851162
000150 4e b7 09 3d aa 7f 36 3d 2c 8a 41 3d 16 fa 5e 3d
       0.03362208 0.044555344 0.04725091 0.05443772
000160 32 b0 36 3c 4c ed 3e 3b b0 12 29 3c 5a ff 14 3d
       0.011150407 0.002913314 0.010319397 0.036376335
000170 83 24 31 3d a2 25 ef 3c ba 9e 41 3d c2 5c 21 3d
       0.04324771 0.02919275 0.047270514 0.0393951
000180 56 dc 88 3b 5d 8f 82 3d d0 a6 99 3c e3 3e 48 3d
       0.0041766567 0.063750006 0.0187563 0.0488881
000190 9f 2e bc bc 99 70 48 3d 14 a3 12 3d 64 2c 73 3d
       -0.02297145 0.048935506 0.035800055 0.059368506
0001a0 e3 87 5b 3d 30 60 00 3d 2f fe a8 3b 7b 7d 34 3d
       0.05359639 0.03134173 0.005157254 0.04406498
0001b0 c2 e3 e5 3c 9a c1 39 3d 0a f4 cb 3c aa 9b 87 3a
       0.028062705 0.04535065 0.02489664 0.0010346074
0001c0 4e 3a 01 3d 8b 70 5b 3d 12 d7 2e 3d 4e 52 ed 3c
       0.031549744 0.053574126 0.042685576 0.02896991
0001d0 6a 00 9d 3d 64 f1 86 3d a2 00 10 3d 2f 1d 20 3d
       0.076660946 0.0658901 0.035156853 0.03909033
0001e0 f6 8e c8 3c 06 85 f2 3c 61 91 ee 3c 25 3e 42 3d
       0.024482232 0.029604446 0.029122056 0.047422547
0001f0 b1 6c 1c 3d 66 f3 1f 3d 5f 53 3e 3d 10 f7 57 3d
       0.038189594 0.039050482 0.046466228 0.05272585
000200 f6 f0 21 3d da 9c 1a 3d 4f f1 0a 3d 39 22 3e 3d
       0.03953644 0.03774724 0.033921536 0.046419356
000210 18 01 40 3d f3 86 de 3c 0b 51 8e 3c c5 ae f1 3b
       0.046876043 0.027163958 0.017372629 0.0073755705
000220 90 ad 2d 3d 82 e7 3f 3d f1 36 92 3d 7e 92 80 3d
       0.04240185 0.046851642 0.071393855 0.06277941
000230 b5 24 36 3b 87 8d 56 3c 8c b8 63 3d c2 ff d0 3c
       0.0027792875 0.013095266 0.05559592 0.02551258
000240 d8 04 12 3d 14 06 e0 3b 2f 61 5f 3d 8e c7 31 3d
       0.03564915 0.006836662 0.05453604 0.0434032
000250 13 48 15 3d cd fb 8b 3d c8 3a 45 3d d5 5b f2 bb
       0.03644569 0.068351366 0.04815176 -0.007396201
000260 01 a6 33 3d a9 bb 3d 3d 28 80 0b 3c d1 7b c6 3d
       0.043859486 0.046321545 0.008514442 0.09691585
000270 a8 a1 0e 3d d3 d9 b5 3c b2 ee 76 3d e4 8c 35 3d
       0.034822136 0.022198593 0.06028623 0.044323817
000280 cd f1 c2 3d 90 6b a0 bc bf b6 85 3d 78 6e 2e bc
       0.09518776 -0.01958254 0.06528997 -0.010646455
000290 c3 07 1d 3c 45 b2 27 3d 50 47 23 bc 00 6f 15 3d
       0.00958437 0.040941495 -0.009965733 0.03648281
0002a0 c9 5e c1 3d 7e de 8c 3c 2f 7f 3c bc c5 07 ac 3c
       0.09441907 0.017195936 -0.011504932 0.020999799
0002b0 c1 d9 ad 3d f9 a8 95 3d 9b 44 28 3d 94 83 2b 3d
       0.08488799 0.073076196 0.041081052 0.04187353
0002c0 ce 75 6e 3d 95 3b a2 bc 69 54 77 3d c2 23 b3 b9
       0.058217816 -0.019803802 0.060383234 -0.00034168182
0002d0 7b a2 3f 3d e6 bc 46 3c 10 f3 76 3d 20 60 00 3c
       0.046785813 0.012129998 0.060290396 0.007835418
0002e0 2b 63 24 3d 7e 20 86 3b 27 5f 3e bc 36 72 ba 3c
       0.040133636 0.004093229 -0.011619366 0.022759538
0002f0 c1 c2 85 3d ea 2c 01 3d bf 1f e4 ba c2 07 62 3d
       0.06531287 0.031536974 -0.0017404481 0.05518318
000300 f2 8b d1 3c 9a ff b5 3d f3 c6 54 3d 8c 75 b7 3c
       0.025579426 0.08886643 0.051947545 0.022394918
000310 9a 8b 23 3d 3d b7 92 3d b1 38 be 3d 6d ec 62 3d
       0.039928056 0.07163856 0.09288157 0.055401254
000320 c6 41 2a 3d ec 1f ca 3a 88 05 80 bc 80 07 19 3d
       0.041566633 0.001542089 -0.015627638 0.03736067
000330 46 ba fc 3c 88 6b 06 bd b0 8f 96 3c a0 68 81 3d
       0.03085054 -0.032817394 0.018379062 0.06318784
000340 26 6d 3a 3d 20 0b 0f bc 64 11 1b 3d 0b 83 99 3c
       0.04551425 -0.00873068 0.037858382 0.018739244
000350 b4 66 68 3d 90 1f 21 3d 22 1f 12 3d 10 48 ff 3c
       0.05673857 0.03933674 0.03567422 0.031162292
000360 0c 6b ba 3c 16 34 4e 3d 59 bb ce 3c fb 25 53 3c
       0.022756122 0.05034264 0.025235819 0.012887473
000370 13 5d 37 3b b2 1c 83 3d b1 d1 ce 3d e1 6a 30 3d
       0.002797906 0.064019576 0.10098589 0.043070678
000380 67 b5 00 ba 5a 49 8f 3d 04 bf 94 bb d1 4e 17 3d
       -0.00049098436 0.069964126 -0.0045393724 0.0369404
000390 db c8 68 3d 0f 37 88 3d 0e a9 fb 3a 03 bc eb 3c
       0.056832176 0.066511266 0.0019200162 0.028776174
0003a0 94 f2 83 3c d2 8c 0e 3d 55 5f 23 3d 0a 29 4a 3d
       0.016106881 0.034802265 0.039885838 0.049355544
0003b0 6b df 9c ba 30 d6 76 3c 3c 16 27 3d eb e0 86 3d
       -0.0011968439 0.015065715 0.04079269 0.065858684
0003c0 5f 4e b7 3c 77 44 f8 3c 80 e0 48 3d 54 64 dd 3c
       0.022376237 0.030306084 0.049042225 0.02702538
0003d0 0e 22 8e 3c 23 f2 8b 3d df 4c f2 bb ac ab 76 3b
       0.017350223 0.06833293 -0.0073944177 0.0037638946
0003e0 37 63 46 3c 80 3e 3c 3d de c0 34 bd 86 4b 2e 3d
       0.012108616 0.045958042 -0.044129245 0.042552494
0003f0 70 82 05 3d 68 f5 f6 3c 2b 43 09 bd 7c 65 bf 3c
       0.032595098 0.030146316 -0.033511322 0.023363821

bias_mu f4 [100]
000000 53 9e 0d be 8d 35 a3 3c b1 e1 e7 bd 16 89 43 ba
       -0.13829927 0.019922996 -0.11322344 -0.0007459087
000010 28 d8 ca bd 05 d4 68 bd 6b 87 ab 3c b2 98 11 3c
       -0.0990451 -0.056842823 0.020938596 0.008886503
000020 eb 00 28 3e 95 61 8d bd d5 7e 16 be 25 04 eb bd
       0.164066 -0.06903378 -0.1469682 -0.114754
000030 f5 c4 45 b9 78 ea 3d 3d 9b 20 10 be 20 fb 33 be
       -0.00018860756 0.046366185 -0.14074938 -0.17576265
000040 e2 3f e1 3d 0c 21 5f bd 11 84 4a be 47 b5 90 bc
       0.10998513 -0.054474875 -0.19776942 -0.017664565
000050 7a 9e e5 bd d7 ce 0c be d6 a0 04 be 1f 1d 80 3c
       -0.11211868 -0.13750778 -0.12951979 0.015638886
000060 c8 52 11 bd ac 83 e8 bd 53 cd c1 3c 66 de 25 be
       -0.035479337 -0.113532394 0.023657477 -0.1619812
000070 0b 04 5c bc 2a d1 2d 3d 78 4e e2 3d 63 75 3b 3d
       -0.013428698 0.042435803 0.11050123 0.045766246
000080 fc 45 45 be 7a 40 69 3c 3e cf 14 bd 06 1d 0d bd
       -0.19264978 0.014236564 -0.036330454 -0.034451507
000090 0e 53 c5 3d 43 ce d5 bd 65 f6 ad bd 36 27 af bd
       0.09634982 -0.10439732 -0.08494262 -0.08552401
0000a0 03 10 f8 bd 00 05 3a 3e 98 e7 18 3e d6 49 98 bd
       -0.12112429 0.1816597 0.14932096 -0.07435958
0000b0 3d 0f c5 bd 1b 4d cf bd 33 e2 af bd 28 b2 0f be
       -0.09622047 -0.101221286 -0.08588066 -0.14032805
0000c0 21 e9 d7 bd ea 62 14 bd 51 e3 ca bc 69 49 61 3c
       -0.10542513 -0.036227144 -0.024766596 0.0137504125
0000d0 e8 43 86 bc e2 f7 18 bd 03 ca 14 3e 30 61 f0 bd
       -0.016389802 -0.037345774 0.14530186 -0.11737287
0000e0 9f 76 f2 bc e9 3c 28 3c 41 df 8d bd 24 9c a3 bc
       -0.029597579 0.010268428 -0.06927348 -0.019971915
0000f0 46 f2 77 bd 24 23 63 bd 13 28 0e bc ee fa 49 bd
       -0.060533784 -0.055453435 -0.008676547 -0.04931157
000100 d7 36 be 3d e8 5e ab bd d9 1e 33 bd 33 66 3e 3d
       0.092878036 -0.08367711 -0.04373059 0.046484184
000110 8d 81 bc bc 2b 95 f1 bd 73 bc 03 3c 70 c5 8c bc
       -0.023010993 -0.1179603 0.008040535 -0.01718399
000120 68 e6 2f bb b8 c9 fd bc 28 fe 4c 3d d7 8d ad bd
       -0.0026840214 -0.030979976 0.05004707 -0.084743194
000130 d4 4f 02 3d 5a 29 1b bc ce ca 4d bd 6d 75 3f 3c
       0.03181441 -0.009470308 -0.050242238 0.011685711
000140 49 c8 93 bd 16 6a fd bd c0 a2 a8 bd b7 93 26 3d
       -0.07215936 -0.1237375 -0.08234167 0.040668216
000150 f7 a0 03 3d a1 6e 88 bd 6f 70 45 bd 94 a2 02 3d
       0.03213593 -0.06661726 -0.04820293 0.031893328
000160 8c 9f 8f bd 92 76 de bd db 68 07 be e4 e0 af bc
       -0.07012853 -0.10862459 -0.13223593 -0.02146954
000170 2f 97 b7 bd cf ea c7 3c e0 79 bd 3c 87 47 5d 3c
       -0.08964383 0.024403958 0.023129404 0.013505823
000180 bd c1 87 bd 27 27 47 bd 00 1f d0 bd 7a be 9d bd
       -0.066287495 -0.048621323 -0.10162163 -0.07702346
