saved_models/08-11 15:25.pth (torch, 500637 bytes, 23 tensors)

weight_mu f4 [150, 64]
00000000: 029c a73c 9f93 883d 27c4 93bd 5756 703d
00000010: dd8d ce3b 8936 80bd 0d25 b1bd 8474 67bd
00000020: 54f0 503d 2499 14be 4f97 47b9 6318 a2bc
00000030: 5c25 d43d 2c8c ec3c 4102 4bbd 30bf a1bd
00000040: cfb2 9bbd b07a 3a37 6bfa ad3d 34fb 14bd
00000050: d5af 5d3d f619 c8bc 6678 10be 0836 553d
00000060: e717 e13d 9c6c f83d 2975 8bbd 70da b7bd
00000070: 4375 06be 9f05 0abe c479 0cbe 4cc4 d6bd
00000080: 3b4c 553d 061c c83d 4100 babc 8b12 66bb
00000090: 4959 283d 9817 ecbd c097 0fbe af87 6a3d
000000a0: 1ec7 743d 0684 73bc 0285 393d 9f36 ac3d
000000b0: f9cb 213d 623d 643d 5165 0a3e bd22 483d
000000c0: 28fb 0dbe cd6b bc3b f3c1 0b3e c4da 98bd
000000d0: dbdc 84bc a881 edbc 02ad 98bd ed91 e4bd
000000e0: a3be 69bc 7f7d f1bd 700c 1bbc 78a9 633d
000000f0: 985b 86bd 06c4 803b 5ab6 1c3d 8d78 9c3b
00000100: fac8 0ebe f27c 8b3d cb17 c3bd 7f4e 143d
00000110: e998 b6bd 1af9 a83d a946 6c3d 06de 56bc
00000120: 766a 8ebd 47af cb3d 2c36 b1bc 1a28 aa3d
00000130: df6b 053e 28f6 803d 7274 cbbd 6291 3a3d
00000140: c39d b03d 87da a93d f09f 01be 8ef4 54bd
00000150: f825 e4bd a7d8 86bd 2cbe 4b3d be84 8fbd
00000160: 2331 e63c 9a86 c13c 9cf2 dcbd ada5 d0bc
00000170: 2d03 39bd ee99 283c bad3 c03d e169 3c3b
00000180: a53c 913d edaf 61bd 482a e53c 319e dd3c
00000190: 1fcd 66bd 23cf dfbd c852 823d 920d b9bd
000001a0: 70c5 e1bd 54e1 ebbd 4ac9 86bd 0962 a63d
000001b0: 861e cabd b780 4d3d 490b a53d 229b 82bc
000001c0: e23d 433d a0bd 813b d0c1 94bd c0cd fa3c
000001d0: 9a7b 08be be39 12bd 2084 b6bd 594b 62bd
000001e0: 0e34 0cbe abbd f8bc 0c01 943b 9759 593c
000001f0: 7fd0 ba3d 0b17 283d cf6b 5e3d f3d9 6a3d
00000200: 5e07 1d3c 5c44 31bd 220c cb3d ea01 bd3d
00000210: 7130 c33d 5692 4e3d 114c aabd 1dcb 87bd
00000220: b520 093d a8f5 5abd 7c06 0f3e 2809 acbd
00000230: 93e0 fb3c 8fe9 d43c 9ab7 873d 7869 a8bc
00000240: 09b4 e93d b912 803c 5738 03bd fcc4 c4bd
00000250: cc05 9c3d 2596 b53c 39cf e0bc 9acf f0bc
00000260: 5a4d 2b3d afed 02be ec51 d23c 8e0f 3abe
00000270: 26a7 2ebd a921 69bc 4f7e 86bd 25ee d33d
00000280: 79f1 f03c 52fd 4bbd 9ab7 9dbc da6e 9b3d
00000290: 1f1d a83d c7bf 06bd 2cc5 8d3c 9684 883d
000002a0: 1176 57bd d506 813d 240b dfbd d84a 79bd
000002b0: f7e6 3d3d f205 7dbd 6624 7dbd e7f4 093e
000002c0: 7d20 933d 982e ea3d 7e19 19bd ec32 ac3d
000002d0: 100e adbd e04e 8bbd 5e15 e53c a512 87bd
000002e0: 86f1 b6b9 4526 04be 24d9 1bbd e65f b8bc
000002f0: b2e9 dfbd 644a 9b3c 55d1 523d 360c ecbd
00000300: 5638 8bbd 0874 893d 2a6c 93bd 5d9c 393d
00000310: 370c b73d 4e4c 87bd 6108 e3bc ad5d 39bd
00000320: b4ac d2bd d745 c33d cc69 f2bd 9fc1 6dbd
00000330: 512c 8dbd 343d e6bd f56a 8c3c 9c44 6d3d
00000340: 2236 6dba c5d0 873d a436 d53c d32c 49bc
00000350: ae19 98bd e9ce c43d 64f7 933d bbfa b1bc
00000360: ae35 e8bd 8f90 a8bc 0030 943d 2183 acbd
00000370: fe99 003d 2d3c 203c 8a88 b03d 0b79 83bd
00000380: 6093 a5bd 7c84 68bd c4d4 6cbd bfe0 b83d
00000390: d35a abbc 3fe0 aa3c df43 91bd 0fa9 773c
000003a0: bda0 babd c4f3 e73d 5435 843c 4b1e f0bd
000003b0: a0ef c83d 381a 04be 2919 a8bd 2de0 633c
000003c0: cbd0 efbd 5926 a4bc 7267 e23c ea25 17bb
000003d0: ec5f cb3d 5781 b0bc cb61 c1bd 709f c03c
000003e0: 44cc b53d 38ec fabd a857 953d 49e8 d13d
000003f0: 886b 9cbd 7512 2fbc 4902 7ebd d865 873d
0.020460133 0.066687815 -0.072151475 0.05867609 0.0063035325 -0.06260402 -0.08649645 -0.056507602
0.051010445 -0.14511544 -0.00019034486 -0.01978702 0.10358688 0.028875433 -0.049562696 -0.07897794
-0.076024644 1.1115029e-05 0.08495029 -0.03637238 0.054122765 -0.024426442 -0.14108428 0.05205348
0.10990887 0.121300906 -0.06809456 -0.089772105 -0.1313067 -0.13478707 -0.13718325 -0.104866594
0.052074652 0.0977097 -0.0227052 -0.0035106267 0.041100774 -0.11527938 -0.14022732 0.057258304
0.059760205 -0.01486302 0.04529286 0.08408856 0.039501164 0.0557226 0.13515212 0.048861254
-0.1386534 0.0057501555 0.13648205 -0.07463601 -0.016218593 -0.028992489 -0.074548736 -0.11160646
-0.014266643 -0.117915146 -0.009463415 0.05558154 -0.06560439 0.003929618 0.03825984 0.004775113
-0.13943854 0.06810941 -0.095260225 0.036207672 -0.08915884 0.08250637 0.057684574 -0.013114458
-0.069538996 0.09945541 -0.021632276 0.0830843 0.13029431 0.062969506 -0.099343196 0.045548804
0.08623841 0.08293634 -0.12658668 -0.051991038 -0.111400545 -0.06584292 0.04974191 -0.070077404
0.028099602 0.023623753 -0.107884616 -0.025469625 -0.045169044 0.010290606 0.09415384 0.0028749632
0.07091645 -0.055099417 0.027974263 0.02705297 -0.056347962 -0.1092818 0.063634455 -0.090357915
-0.11023986 -0.11517587 -0.065813616 0.081241675 -0.09869103 0.05017158 0.08058793 -0.015943114
0.047666438 0.0039593726 -0.07263529 0.030615687 -0.133284 -0.0356996 -0.089119196 -0.05524764
-0.13691732 -0.030363878 0.0045167264 0.013265989 0.09121799 0.0410376 0.054302033 0.05733676
0.009584276 -0.043278083 0.099144235 0.09228881 0.09530724 0.050432526 -0.0831529 -0.06630538
0.033478457 -0.053456932 0.13967317 -0.08400184 0.030746734 0.025990276 0.06626816 -0.020558104
0.11411292 0.015633928 -0.03203615 -0.09607884 0.07618293 0.022166321 -0.027442561 -0.029395867
0.041821815 -0.12785982 0.025673829 -0.18169996 -0.042639874 -0.014229217 -0.0656706 0.10348157
0.029412018 -0.049802132 -0.019252587 0.07589503 0.082086794 -0.032897737 0.017305933 0.06665914
-0.05260283 0.06300131 -0.10890797 -0.060862392 0.046362843 -0.061773248 -0.06180229 0.13472329
0.07183931 0.11434668 -0.037377827 0.0840815 -0.08449948 -0.068021536 0.02796429 -0.06595353
-0.00034893694 -0.12905224 -0.03804888 -0.022506665 -0.10933246 0.01895637 0.051469166 -0.115257666
-0.067978546 0.06711584 -0.07198365 0.045315135 0.08937877 -0.06606351 -0.027713956 -0.04525535
-0.10286847 0.09534805 -0.118365854 -0.05804598 -0.06893218 -0.11242142 0.017140845 0.05792676
-0.0009048899 0.066316165 0.026027031 -0.012278753 -0.07426773 0.096097775 0.072249204 -0.021726003
-0.113383636 -0.020576743 0.07235718 -0.08423448 0.03139686 0.009779972 0.08619793 -0.064195715
-0.0808475 -0.056766972 -0.057820097 0.09027242 -0.020917332 0.020858882 -0.070930235 0.01511599
-0.0911269 0.113257915 0.01613871 -0.11724528 0.0981133 -0.12900627 -0.08207924 0.013908428
-0.11709746 -0.020037817 0.027637217 -0.002306337 0.09930405 -0.021546049 -0.09442481 0.023513526
0.08876851 -0.122520864 0.0729211 0.10249383 -0.076376975 -0.010685553 -0.062013898 0.06611222

weight_sigma f4 [150, 64]
00000000: 78ae 143d 4b37 713d 1400 f43c 81c8 5e3d
00000010: 4aeb 433d f539 9d3d c975 7a3d b012 b23d
00000020: 9888 c33d c169 6f3d 63ad e73c bbbe 8e3d
00000030: ca54 b03d e416 b93d 609b 063e da30 bd3d
00000040: b4f7 fc3c 1212 723d 7ae9 473d 18e1 9f3d
00000050: adcb 903d f0d8 843d 531d 863d 4d74 3f3d
00000060: b601 8f3d 3cdc 9f3d 69db ae3d c66a a63d
00000070: 8a1c 9a3d 1bf1 ba3d 8588 453d 1cf2 303d
00000080: d229 593d 932e 553d caad 913d 7156 7e3d
00000090: b182 1f3d 47a8 9f3d ac90 7a3d 56cd a53d
000000a0: 498a 1c3d 7298 8e3d 36c4 673d d066 8b3d
000000b0: 9c9d 413d 7d72 8e3d 2ed2 0e3d 85fa aa3d
000000c0: 67fa a33c 3551 933d 0326 963d 497b 013d
000000d0: e42d dc3d 09c3 9a3d 18df 743d 3bf8 2d3c
000000e0: ed87 373c 547a 893d db2f 7e3d 27c4 bf3d
000000f0: e30e aa3d 189b a43d 068c 813d 9ae7 9f3d
00000100: f010 a93d a90b 943d 1609 873d e8d9 4a3d
00000110: 420a 1a3d e79f 5b3d 5e01 7b3d 2349 8b3d
00000120: 0254 843d 0779 143d b574 7b3d 4e81 bc3d
00000130: 320e a43d 52b6 9c3d 0761 b73d 3f6e 393d
00000140: cb8e 833d abd7 2f3d 78c5 bf3d ef63 623d
00000150: 30d6 ce3d cb7a 553d 7dda 7e3d 7f45 743d
00000160: 9c10 753d 4fb9 543d 45b3 963d 14cc c43d
00000170: 6ee0 e63c a510 833d d147 9a3d e4eb 643d
00000180: 59dd 8b3d 137a 823d 4672 753d 78ab 863d
00000190: 4c32 493d 8ea1 823d 1645 893d 9e72 8c3d
000001a0: c5ee 513d f231 6a3d 29d8 943d 3c6b 753d
000001b0: 24ab c33d 8681 813d 72fd bf3d 695b 813d
000001c0: c368 133d 126a 5d3d 9b36 8f3d 3214 4c3d
000001d0: 097e 7d3d 79d9 293d 8bc8 213d e87b 533d
000001e0: 7d1f 963d 358f ab3d b882 903d 84d4 563d
000001f0: b031 0f3d 8129 7b3d 8c4f 4a3d f673 a23d
00000200: 19ea a73d ee2b ad3d 3a63 2b3d 1601 983d
00000210: 4d0e 68bc 6189 8e3d 019f 9d3d f4c5 2e3d
00000220: a5d2 3b3d 9f21 593d 0d49 be3d 322a 663d
00000230: de8a b63c b180 a53d 58cb 173d 1b0e 913d
00000240: 0fd3 a33d 6fa6 bd3d c117 673d 48f1 7dbb
00000250: 95ba 263d c06e 773d 6e4b 303d 39bd f23d
00000260: 05c9 853d dbf4 753d 0fb9 743d 9468 523d
00000270: b034 ad3d aec5 083e 5f82 ad3d cfc5 3c3d
00000280: 52ce 7d3d ac4c e23d 7ec2 743d 38f8 8c3d
00000290: 9363 4c3d 4e92 e13d 50a5 c03d 6f9f e53d
000002a0: 9620 083d 3a0e 923c 2566 3b3d 539d c93d
000002b0: 102e 813c dd10 223d a7ea 2d3d 4cc7 d63d
000002c0: a12d b53d e195 df3d f067 1e3d f9fc 313d
000002d0: 9093 9b3d 5ace c63d 02e9 db3d 6a12 403d
000002e0: d1ee 983d 6b8f 1c3d 3f90 843d 5f18 7c3d
000002f0: 90df 093e fd67 583d b892 ce3d 76d1 723d
00000300: 31c3 9d3d 3504 213d 2420 863d 0611 243d
00000310: 0603 7a3d cc87 8a3d 1087 c33d cbd1 203d
00000320: 80b7 a83d 983a 2a3d 7af4 883d 30fe a33d
00000330: a9c0 453d 60ec bd3d 479f 0a3e 0be5 893d
00000340: 9539 af3d b854 193d 35c6 ae3d a605 183c
00000350: 389f 913d e4ca a43d 609d 5f3d 63f0 a93d
00000360: 9ca8 773d 0697 153d 09a2 c83d d840 003d
00000370: 5edf 503d 6a69 623d 95df 283d 9134 ae3d
00000380: b450 dd3d 36d2 2c3d dcaa 6c3d c204 eb3d
00000390: 0e0c 023e 0fb1 a03d f199 8f3d 379a 583d
000003a0: e6ce 743d 8996 3a3d dc0e a13d 1e8b a13d
000003b0: be79 de3c eb40 433d aef6 d03d be22 fd3c
000003c0: e84c a23d 52dd c73d 197a 073d 40d1 9e3d
000003d0: 81de 343d 5e39 bd3d 5ecb 8e3d 82d1 963d
000003e0: 5365 9d3d 64d6 763d 9fe1 b93d fced 923d
000003f0: 6c70 97bb 4bbe 323d b3e3 a63d 970d 6e3d
0.0362992 0.058890622 0.029785194 0.054390434 0.04783181 0.0767707 0.061147485 0.086949706
0.095475376 0.058450464 0.02828092 0.06969973 0.08609922 0.09037569 0.13145208 0.09237833
0.030879833 0.059099264 0.048806645 0.07806605 0.07070098 0.0648669 0.06548562 0.046741772
0.06982748 0.07805678 0.08537943 0.08125834 0.07524975 0.091280185 0.0482259 0.043199643
0.0530184 0.05204637 0.07113226 0.062094156 0.038942996 0.07795768 0.061173126 0.08095805
0.038217817 0.069626704 0.056583606 0.06806719 0.04726945 0.06955431 0.03486841 0.08348564
0.020016862 0.071932234 0.07331469 0.031611715 0.107509404 0.07556731 0.05978307 0.010618265
0.011201841 0.06712785 0.062057357 0.09363585 0.08303621 0.08037394 0.063255355 0.07807846
0.08255184 0.072287865 0.0659353 0.049524218 0.03760744 0.05361929 0.0612806 0.06801059
0.06461336 0.036248233 0.061390597 0.092043504 0.0801052 0.07651962 0.08954053 0.045271154
0.0642372 0.042930286 0.09363836 0.055271085 0.10099447 0.052119058 0.062220085 0.05963659
0.059830293 0.051934537 0.07358412 0.09609237 0.028183188 0.06399659 0.07533229 0.055889025
0.06829328 0.0637094 0.059923433 0.06575674 0.049120232 0.0637847 0.0670263 0.06857799
0.0512531 0.057176538 0.07267792 0.05991672 0.09554127 0.06323533 0.09374513 0.06316263
0.03598858 0.054056235 0.06992837 0.049823947 0.061887775 0.041467164 0.039497893 0.051631838
0.07330225 0.08376924 0.070561826 0.052448764 0.034959495 0.061318878 0.049392268 0.07932274
0.081989475 0.084556445 0.041842677 0.07422082 -0.014163566 0.06959797 0.07696343 0.04266925
0.045855183 0.05301058 0.09291277 0.056192584 0.022283014 0.080811866 0.037059158 0.070827685
0.079992406 0.0926026 0.056419138 -0.003874855 0.040705282 0.060408354 0.043040685 0.118524976
0.06532482 0.060047965 0.059746798 0.051369265 0.08457315 0.13356659 0.08472132 0.046087082
0.06196434 0.1104978 0.059755795 0.068832815 0.04989965 0.110142335 0.09406531 0.1121205
0.0332342 0.01782905 0.04575171 0.0984446 0.015769035 0.039566863 0.04246011 0.104872316
0.08846594 0.10917259 0.03867334 0.043454144 0.07596505 0.09707327 0.10737802 0.04689256
0.074674256 0.03822271 0.06472825 0.06154668 0.13464189 0.052833546 0.10086578 0.05928179
0.077032454 0.039310653 0.06549099 0.040055297 0.06103804 0.067641824 0.095472455 0.039262574
0.08238125 0.041559786 0.06687255 0.08007467 0.04827944 0.092736006 0.13537322 0.067331396
0.08555905 0.03743431 0.08533899 0.00927869 0.07110447 0.08046511 0.054593444 0.08297803
0.060463533 0.03652098 0.09796531 0.03131184 0.05099427 0.055276312 0.04122885 0.0850612
0.108064085 0.04219266 0.05778013 0.11475517 0.12699911 0.07846271 0.07011784 0.052881446
0.059767626 0.045553718 0.07864162 0.078878626 0.02715766 0.047669332 0.102033004 0.030900355
0.07924825 0.097590104 0.033075426 0.07754755 0.04415751 0.092394575 0.06972383 0.07364179
0.07685342 0.060263053 0.09076237 0.07174298 -0.004621556 0.04363851 0.08148899 0.05811843

bias_mu f4 [150]
00000000: ba7e 0d3d a261 d43d e478 ca3d 367a 233d
00000010: 5c01 8dbd 598b c53d 9086 e7bc 53dd b63d
00000020: 30af 09be 921d 79bd 5381 ffbc 5ad0 86bd
00000030: 81c1 2fbd d907 703b 177c 863d 5d30 433c
00000040: 5604 203d 88d5 f13d c24e 223d f2a4 d03c
00000050: 6c6e 10be 3ca3 703c 416d 2cbc 4f3b 69bd
00000060: 3024 04be 6886 19bd 1039 febd 9106 2abd
00000070: ebc7 96bd 16d9 7c3d 310f 293d 9ab2 a93d
00000080: 13c0 08be 50fd 7cbd 3c8d d3bc ee9a aa3c
00000090: 5e64 153d 2c48 6a3d 19e2 8fbd b2bc 95bd
000000a0: b986 e9bd 0b96 c13b dc6b 5f3c 5094 9f3d
000000b0: 3eed c53d 14f2 933d 336f 9fbd 3378 e33a
000000c0: 446c 79bd f845 d1bd 8b12 743d 373b 8e3d
000000d0: 90b1 f7bd 5375 c03d cb3f 0bbd a5f3 b8bd
000000e0: 59f4 c9bc 0005 09be 61e4 9c3d b858 d73c
000000f0: 58a4 fa3d 8282 b7bd 607b 0cbe 1733 cc3d
00000100: d3ba f1bd 2340 983d 13cc fdbd 2296 2ebc
00000110: ab5a 363c ee7a e6bd 71df 94bc e789 d43c
00000120: 399e efbd ed3c d1bd 595e 73bd a4f7 933d
00000130: 8a45 0cbe bb91 acbd a36f a63d 4296 d6bd
00000140: 87aa ea3d 90fb be3b 9531 fe3d ff5b 9cbc
00000150: 9814 cfbc d6da 56bd 274f 5d3d a24b adbd
00000160: 03c2 a13d 27f0 e2bd 6699 d8ba 74e1 b9bd
00000170: 2afc 31bd e549 ddbd 4e9b c03c 33e6 cbbd
00000180: 8100 693d b40c 87bd 7ede ffbd 598b 85bd
00000190: 4344 7a3d cbfb db3d 8b28 19bd 4f7f 9b3c
000001a0: 71a7 303d cf55 9fbc bf82 d23d 58e8 f2bd
000001b0: b4df d63c 15c0 84bc 1e49 81bd e669 ecbd
000001c0: 0062 253d 0721 4d3c 75a7 d83d d67c 993c
000001d0: c4c8 04be e522 fbbc 39fc 09be 14c8 e4bd
000001e0: dda0 37bd 8108 d5bd 3aa1 56bd bb79 93bd
000001f0: 88c9 f9ba c8c4 4f3d 083e 48bd 1f25 c7bd
00000200: 84e9 0bbe 021f 0dbe a496 bf3d 11ea 11bd
00000210: 2d7d f9bc 2d7f a8bd deef 153d 9452 22bc
00000220: 0986 03be ecb3 afbd 6e7b fdbd a014 09be
00000230: 27b1 28bd a4a0 6dbc c22d 35bb bd8d ff3c
00000240: 2655 5a3d 5083 00be 0b03 47bd e83f ed3b
00000250: 5b38 7bbc 45c9 1abe
0.034544684 0.103701845 0.09886339 0.03991147 -0.06885025 0.09645719 -0.028262407 0.08928933
-0.13445735 -0.060819216 -0.031189596 -0.06582709 -0.04290915 0.0036625771 0.06566637 0.011913386
0.039066635 0.11808306 0.03962589 0.025469277 -0.14104623 0.014687356 -0.010524095 -0.056941327
-0.1290443 -0.037481695 -0.124132276 -0.04151017 -0.0736235 0.061730467 0.041274253 0.08286019
-0.1335452 -0.061765015 -0.025824182 0.02082583 0.03647267 0.057197735 -0.070255466 -0.073113814
-0.114026494 0.005907779 0.0136365555 0.0779196 0.09664391 0.07223907 -0.077848814 0.0017354548
-0.060894266 -0.102184236 0.059587996 0.06944888 -0.12094414 0.09397378 -0.033996385 -0.090308465
-0.024652647 -0.13380814 0.07660747 0.026287422 0.12238377 -0.08960439 -0.13718939 0.09970682
-0.11803212 0.07434108 -0.1239244 -0.010655912 0.011130015 -0.11253916 -0.018172951 0.025944663
-0.117001005 -0.10216699 -0.05941615 0.07224968 -0.13698402 -0.084262334 0.08126762 -0.10477878
0.11458307 0.0058283284 0.12411801 -0.019086836 -0.025278375 -0.052454792 0.054030564 -0.084616914
0.07898333 -0.11080962 -0.0016525208 -0.09076205 -0.043453373 -0.1080511 0.023511555 -0.099560164
0.056885246 -0.0659422 -0.12493609 -0.06520719 0.061100256 0.10741385 -0.03739218 0.018981604
0.043128435 -0.019450096 0.10278844 -0.11860722 0.026229717 -0.016204873 -0.06312774 -0.11543636
0.040376663 0.012520081 0.10578815 0.018736284 -0.12967211 -0.030656287 -0.13475122 -0.111709744
-0.044831146 -0.104020126 -0.05239985 -0.072009526 -0.0019057253 0.050724775 -0.048887283 -0.09723877
-0.13663298 -0.1378136 0.09354904 -0.035623614 -0.030455196 -0.08227382 0.03660571 -0.0099073835
-0.12844099 -0.08579239 -0.12377058 -0.13386774 -0.04118457 -0.014503632 -0.0027645682 0.031195516
0.05330386 -0.12550092 -0.048586886 0.0072402842 -0.01533326 -0.1511584

bias_sigma f4 [150]
00000000: 3fb5 093d 671e f93c 569f 2d3d 413a a43c
00000010: 9c45 9f3c 2d10 9a3c b0cd 233d b2b8 373d
00000020: f09f e13c 53b4 573d 3bcf 4c3d 05d1 ff3c
00000030: 9225 563d 6382 143d 120e a23d d3e0 4f3d
00000040: d28d 0c3d 334a 4b3c 941c e73c c10e 673d
00000050: bb74 db3c 5422 293d dc4b 123d 3188 b73c
00000060: bda5 833d 34d7 9d3d 6f62 173d 5bb0 e93a
00000070: f1f8 fe3c 2aee 333d ae97 2a3d ec70 083c
00000080: 1ec7 f43c 1045 d43d 11ad 0b3d cd64 d33b
00000090: 044b 083d eb76 fd3c 60c5 3c3d 4a26 473d
000000a0: ea2a 963c c7c5 4e3d d118 193d f108 c93d
000000b0: ffd4 a93c 7783 6b3d 94c8 de3c b755 a63d
000000c0: 7651 5c3c de1c fe3c 6c5a 063c 62f5 7b3c
000000d0: cc7c 5e3d f0c9 873d 6798 213d b074 343d
000000e0: 1093 3aba 538e 1a3c 38a3 143d eda7 823d
000000f0: 4276 be3d 9788 833c 4f46 213d 0d38 623d
00000100: 4360 1f3d b54e 533d 89b7 3d3d 8491 b53d
00000110: 5131 6d3d 0415 df3c c6a8 8e3d d4cf 6f3d
00000120: 8e92 453d faf9 8e3d 7e6d 5f3d 0b02 003d
00000130: ddfc 513c 3c36 f63c e470 863d 2080 303d
00000140: 7cbc 4b3c 1998 123d 89e9 923c 08d3 5a3d
00000150: 9db0 f63b d1e2 1c3d 79de 0a3d 0a08 9d3c
00000160: e7ac ac3c 95ae ad3d 3f4e b33c 447a 763d
00000170: de87 1c3d 2690 e63c 3510 343d 0eae b03d
00000180: 5134 503d e565 553d 89c1 4b3d eee3 cb3c
00000190: e232 333d 37bc 313d 99b3 c23c 0805 113d
000001a0: ba2f f03c 51c8 3b3d 703e 0f3a ed88 053d
000001b0: b70e d83c 3218 c33c b7d7 113d 54d6 0b3d
000001c0: 5357 733d 2f0d d93c 1a9f 8c3d 81c3 2e3d
000001d0: bf37 fb3c 1386 a3bb 271c 0d3d d89a db3c
000001e0: 5f95 be3c 497d 523d e2eb d4bc 8a83 733d
000001f0: 594c a03c fb21 793d 3e05 343b 60df 1a3d
00000200: 5d3d 893d 55b2 cf3c 7662 7e3d d216 533d
00000210: 094e 113d 05c6 8d3c 1ca4 ed3d 527e 5a3d
00000220: 21fb fb3c fae0 813d cacc 483d 3bde b23b
00000230: f986 c53c 928f a83c 14a3 393d 299c bc3c
00000240: c96b 783d e9fd 993c 44c9 573d df87 d23d
00000250: 645b fe3c a4ae c83c
0.033620115 0.030410005 0.042388283 0.020047309 0.019442372 0.018806541 0.03999108 0.044853874
0.027542084 0.052662205 0.050002318 0.031227598 0.052281924 0.03625716 0.0791284 0.05075152
0.034314938 0.012407827 0.02821187 0.056410555 0.02678906 0.041292503 0.035716876 0.022403808
0.064280964 0.07707062 0.036959108 0.0017829047 0.031124564 0.043928303 0.04164856 0.008327704
0.029880103 0.10364735 0.034100596 0.0064512254 0.033274665 0.030940494 0.04608667 0.0486205
0.01833101 0.050481584 0.037377182 0.098161586 0.020731447 0.05749842 0.027195252 0.081218176
0.013447156 0.031019624 0.008200269 0.015378328 0.054318234 0.066303134 0.039451983 0.044056594
-0.0007117251 0.009433347 0.03628847 0.063796856 0.092999 0.016056342 0.039373692 0.055229235
0.03891016 0.051588733 0.04631761 0.088656455 0.05790836 0.0272317 0.06965785 0.05854781
0.04823547 0.06981273 0.05454778 0.03125195 0.012816635 0.030055158 0.06564501 0.04309094
0.012435075 0.035789583 0.017933624 0.05342391 0.007528378 0.038302246 0.033903573 0.019168872
0.02107854 0.084805645 0.021887897 0.060175195 0.03821551 0.028144907 0.04396077 0.08626948
0.050831143 0.052099127 0.049745116 0.024888959 0.043749698 0.043392386 0.02376728 0.03540519
0.029319633 0.045845333 0.0005464321 0.032601286 0.026374204 0.023815248 0.035606112 0.034139946
0.05940945 0.026495544 0.06866284 0.042666916 0.03066623 -0.004990348 0.034450676 0.026807234
0.023264585 0.051389012 -0.025991384 0.059451617 0.019567655 0.060823422 0.0027468945 0.037810683
0.06701157 0.02535359 0.06210562 0.051535435 0.03547481 0.017306337 0.11603567 0.053343125
0.030759396 0.06341739 0.049023427 0.005458621 0.024112212 0.020576272 0.04532154 0.023023682
0.060649667 0.018797832 0.052682176 0.102798216 0.031049438 0.024497338

weight_epsilon f4 [150, 64]
00000000: 5823 853f eefb 803f 0699 ae3f 9930 213f
00000010: 2a4d a33f 4696 a13f c38c ecbe aedd b83f
00000020: 6c97 ccbf 9a80 09bf 4e5b 953f f51a 9f3f
00000030: 9f36 493f 8808 3dbf 5271 a7bf 8fd8 463f
00000040: b37e 13bf 093d 0ebf b2fe 183f 90b3 763f
00000050: c526 73bf 5b30 cabe 6bba ea3e 324e b53f
00000060: cedc 593e bcdd fa3e bb19 ab3f 46e3 413f
00000070: 1747 abbf 10bf acbf e3f8 d13e 148c 8abf
00000080: b94c 64bf 2be2 a23f 934b a53e a585 6cbf
00000090: ab13 8fbf c3bc a43e 8ecc bcbe e319 693f
000000a0: 375b 34be 4d4c bb3f af66 0a3f 084e da3e
000000b0: a7bf e13e d266 6fbf 19bc 1abf eb1d e0be
000000c0: 7bb2 8e3f d038 6b3f cb9c 2bbf d1de 9dbf
000000d0: ef72 72bf d4e8 69bf 9270 8ebf d943 5f3f
000000e0: 544d ae3f fad4 d4be 1be4 49bf 1ff8 05bf
000000f0: 140d 60bf c266 393f 05db 0cbe 6d7f 8ebf
00000100: ab4a f83e 7d8b f03e 29ce 223f 904d 963e
00000110: 9e45 183f 5fac 163f b992 5cbe 4761 2c3f
00000120: f5c5 3ebf 2237 80be df44 0b3f f75b 143f
00000130: 909f bb3e 1244 b0be 2c22 1cbf 6f6a b93e
00000140: 7488 89be aea1 84be 5aa9 8e3e 000a e63e
00000150: 96ba e2be 6e88 3cbe e0df 5a3e 5b0f 293f
00000160: e025 cb3d 29ec 693e 568b 1f3f e1ca b43e
00000170: a2b5 1fbf 3614 21bf 63ca 433e 8b30 01bf
00000180: 55e1 d4be d9e1 173f 8f21 1a3e 168c dcbe
00000190: d169 05bf 639c 193e 250c 30be 7a5b d93e
000001a0: c92c a8bd d8a5 2e3f ad0d 813e 748f 4b3e
000001b0: 5f80 523e 793b dfbe ac48 90be d9fa 50be
000001c0: 310f 053f bc55 db3e 8c05 a0be 2d35 13bf
000001d0: e612 e2be 711c dabe bbd1 04bf 822f d03e
000001e0: 9487 223f 0875 46be 5541 bcbe 7bd7 79be
000001f0: 26eb d0be 18e1 ac3e 9257 83bd 95df 04bf
00000200: 5e76 b4bf f7d4 aebf b7a8 ecbf 397c 5abf
00000210: ef58 ddbf 0a06 dbbf ec50 203f bc93 fabf
00000220: 36a8 0a40 c360 3a3f 2972 cabf e6a8 d7bf
00000230: 1d5e 88bf e61c 803f edf5 e23f 5ec3 86bf
00000240: 24ec 473f 29cc 403f 9d60 4fbf 3332 a7bf
00000250: 49ca a43f 5d07 093f de14 1fbf 43c0 f5bf
00000260: b5a6 93be c504 2abf 30eb e7bf 2467 83bf
00000270: ac28 e83f 4826 ea3f c24d 0ebf 50cb bb3f
00000280: 89b9 9a3f e8c7 dcbf c60c e0be 194c a03f
00000290: 15ef c13f 324b dfbe 81e8 ff3e 93fa 9dbf
000002a0: e976 743e abdf fdbf a098 3bbf 71f3 13bf
000002b0: effe 18bf b43f a23f 56bc 513f d3e3 173f
000002c0: 5a6b c1bf 886a 9fbf d69c 683f 62fc d53f
000002d0: 6850 a43f d386 9e3f 0312 c13f 0950 97bf
000002e0: 1d42 ecbf ea3d 103f b0d3 883f c796 353f
000002f0: 6ad8 973f 894d 7bbf 4eec 3e3e 2526 c13f
00000300: 7202 7b3f 8f2d 733f 6296 a43f c0f2 173f
00000310: 53f0 993f 9952 983f d3fc debe 5544 ae3f
00000320: 8edc c0bf 6d9e 01bf 24cb 8c3f b5fb 953f
00000330: 55ad 3d3f 0332 32bf b3d7 9dbf 0472 3b3f
00000340: db09 0bbf 5915 06bf 2139 103f a18e 683f
00000350: f135 65bf bf98 bebe 3845 dd3e 1be9 aa3f
00000360: 275f 4d3e ad7b ec3e 6c4a a13f 81c5 363f
00000370: 2e75 a1bf 99d7 a2bf 0bef c53e 919a 82bf
00000380: e135 57bf 778b 993f 79d1 9b3e 1ef6 5ebf
00000390: addf 86bf d84a 9b3e 7af9 b1be 92bc 5b3f
000003a0: 0e04 2abe 418f b03f 5177 023f e2c9 cd3e
000003b0: 41ce d43e 07ad 61bf ffdc 11bf 7744 d3be
000003c0: 0f84 863f 5ebc 5d3f f8c5 21bf b1d1 94bf
000003d0: 6a8c 64bf a67f 5cbf ed45 86bf e676 523f
000003e0: 074f a43f 29a1 c8be df50 3ebf 9a93 fcbe
000003f0: 9834 53bf 8cc5 2e3f a0c7 04be ee53 86bf
1.0401411 1.0076883 1.3640449 0.6296478 1.2757924 1.2623985 -0.46201143 1.4442651
-1.598371 -0.53711855 1.1668489 1.2430102 0.7859897 -0.7384114 -1.3081458 0.7767419
-0.576152 -0.5556188 0.59763634 0.9636774 -0.9498103 -0.39490017 0.4584535 1.4164488
0.21275637 0.48997295 1.3367227 0.75737417 -1.338107 -1.3495808 0.41010198 -1.0823998
-0.8917957 1.2725271 0.3228422 -0.92391425 -1.1177877 0.32175264 -0.36874813 0.91055125
-0.1761292 1.463266 0.5406293 0.42637658 0.44091532 -0.93516266 -0.60443264 -0.43772826
1.1148218 0.91883564 -0.6703612 -1.2333623 -0.94706625 -0.9137089 -1.1128104 0.872129
1.3617349 -0.41568738 -0.78863686 -0.5233173 -0.87519956 0.7242242 -0.13755424 -1.1132637
0.48494467 0.4698142 0.63595825 0.2935605 0.5948123 0.5885677 -0.21540345 0.67335933
-0.7452081 -0.25042063 0.54401964 0.5795283 0.36645174 -0.34426934 -0.6098964 0.36214015
-0.26861918 -0.25904602 0.2786358 0.44929504 -0.4428298 -0.18411419 0.21374464 0.66039056
0.099193335 0.22843994 0.62321985 0.35311034 -0.62386525 -0.62921464 0.19120173 -0.50464696
-0.41578165 0.5932899 0.15051864 -0.43075627 -0.5211459 0.15001063 -0.17192133 0.42452604
-0.08211667 0.6822181 0.25205746 0.19878942 0.20556782 -0.43600062 -0.28180444 -0.20408191
0.51976305 0.42838848 -0.31254232 -0.57503015 -0.44155043 -0.42599824 -0.51882523 0.40661246
0.63488126 -0.19380581 -0.36768594 -0.24398606 -0.40804404 0.33765483 -0.06413187 -0.5190366
-1.4098623 -1.3658742 -1.8488988 -0.853458 -1.7292765 -1.7111218 0.62623477 -1.9576335
2.1665168 0.72803897 -1.5816089 -1.6848419 -1.0653721 1.0008819 1.77313 -1.0528371
0.78094697 0.75311524 -0.81006795 -1.3062195 1.2874233 0.5352686 -0.62141216 -1.9199299
-0.28838125 -0.6641353 -1.8118649 -1.0265851 1.8137412 1.8292933 -0.555874 1.4671421
1.2087871 -1.7248507 -0.43759745 1.2523223 1.5151087 -0.43612057 0.49982074 -1.2342094
0.23873486 -1.9833883 -0.7327976 -0.5779334 -0.59764 1.2675691 0.81928 0.5933201
-1.5110886 -1.2454386 0.9086431 1.6717646 1.2837038 1.2384895 1.5083622 -1.18213
-1.8457676 0.56344473 1.0689602 0.7093319 1.1862919 -0.98165184 0.1864483 1.5089766
0.98050606 0.9499139 1.2858393 0.5935478 1.2026466 1.1900207 -0.43552265 1.3614603
-1.5067308 -0.50632364 1.0999494 1.171744 0.7409261 -0.6960756 -1.2331451 0.7322085
-0.54311913 -0.52376324 0.5633717 0.90842634 -0.89535433 -0.3722591 0.43216872 1.3352388
0.20055829 0.46188107 1.2600837 0.7139512 -1.2613885 -1.2722045 0.38658938 -1.020342
-0.8406659 1.1995686 0.30433252 -0.87094295 -1.053701 0.3033054 -0.34760648 0.8583461
-0.16603109 1.3793718 0.5096331 0.40193087 0.4156361 -0.88154644 -0.5697784 -0.41263172
1.0509051 0.8661555 -0.631927 -1.1626493 -0.89276755 -0.86132276 -1.049009 0.82212675
1.2836617 -0.39185455 -0.7434215 -0.4933136 -0.82502127 0.6827018 -0.12966776 -1.0494363

bias_epsilon f4 [150]
00000000: 6711 893f e39e ff3e 09ca b9bf 9a35 813f
00000010: a5d6 993f e895 89bf 5d55 4abf 3f2f a93f
00000020: 5fc3 98bf 09c9 573f 85e3 553f 4f67 343f
00000030: 92d3 1a3f d517 5cbf e48c 99bf 807c b1bf
00000040: a07e 05bf 2b50 023f 6e15 08bf 0132 18bf
00000050: e695 873f 5c28 3fbf 9b7f 233f 4a85 38bf
00000060: 465e 1ebf 3ffd fc3e ea09 7abf 1fac 4dbf
00000070: dce5 53bf 8b11 c1bf cf34 9dbf 2860 24bf
00000080: 0d8e 90bf cd06 d3be 24db 363f edcc 42bf
00000090: ae87 39bf ad62 c83f 8ee4 983f 2979 4e3e
000000a0: 8d6c b1bf ba98 07bf 9bc6 c03f 1f31 0ebf
000000b0: 1f8f 923f c830 8e3f 4890 463f 356f 3dbf
000000c0: 4093 1e3f 6db4 83bf 3875 073f a0bc f3be
000000d0: 1c82 283f fe7b 053f 36e9 8e3f d0b0 1ebf
000000e0: 8be5 dc3e 9fad 8abf edc4 cfbe 1d88 1e3f
000000f0: d64a a53f d538 2e3f 3c8f 9bbf 28ae cf3f
00000100: c683 903f 7a35 3dbf 7efa adbf 287c c7bf
00000110: 978d 22bf 510f 49bf 98db 223f 61bc 2cbf
00000120: 2a66 163e a694 65bf ef8d 85bf ad94 7a3f
00000130: 945a 9abf 7229 753f 09bf 9d3f e608 293f
00000140: 745e 3b3f fbc3 9bbf 0241 b0be 313a 2cbf
00000150: 2354 0fbf 3786 99be af68 cb3e 084b 243f
00000160: 5aa7 803f b8d3 fdbe 18c2 4b3f f2dd 0d3f
00000170: 8b54 903e 57e6 abbf baaa a6bf 0308 2fbf
00000180: 4068 163f ff9a 5fbf 772c abbf 3d12 05bf
00000190: 65ee 023f 9c72 05bf 8332 75bf 5527 8c3f
000001a0: 61f9 52bf 986b 99bf 4964 e83e 3678 233f
000001b0: d87b 903f e2c8 1c3f 06a2 b23e f0ba 9e3f
000001c0: aa87 89bf 1a0d 833e 9b7f 72bf 5298 943f
000001d0: 2bea 433f e473 c9be 1100 a9bf 909b 603f
000001e0: 2f0e 043f 587b 663e 2d13 043f 99ae 3bbf
000001f0: 3992 6d3f aaf6 91bf 6617 5abf dfb3 4ebf
00000200: c8a6 313f 3b80 68bf 0f03 c53e 95f9 eebe
00000210: c33e 73bf f8c0 e9be 7e3f 18bf 0075 3e3f
00000220: 90bd 953f 9d42 cfbe d613 fdbe 4045 47bf
00000230: 999a 393f a417 77bf 4d20 c0be bdf5 913f
00000240: 96d2 9e3f cd09 8c3f 90af c43e 82a1 613f
00000250: e36f 043f 3970 90bf
1.0708436 0.49925908 -1.4514781 1.0094483 1.2018629 -1.0748873 -0.79036504 1.3217543
-1.1934623 0.8429113 0.8355029 0.70470136 0.6047908 -0.85973865 -1.1996121 -1.3866119
-0.5214634 0.50903577 -0.531577 -0.594513 1.059262 -0.7467096 0.63866585 -0.7207838
-0.618626 0.4941196 -0.9767138 -0.8034076 -0.8277261 -1.5083479 -1.2281741 -0.6420922
-1.129335 -0.41216126 0.7142813 -0.7609394 -0.72472656 1.5655113 1.1944749 0.20163406
-1.3861252 -0.5296742 1.506061 -0.555437 1.1449927 1.1108637 0.77563906 -0.73997813
0.61943436 -1.0289437 0.52913237 -0.47604847 0.6582353 0.5214232 1.116492 -0.61988544
0.43143877 -1.0834235 -0.4057993 0.6192644 1.2913463 0.6805547 -1.2153087 1.6225023
1.1290214 -0.73909724 -1.3592069 -1.5584764 -0.634973 -0.78538996 0.63616323 -0.67474943
0.1468741 -0.89679945 -1.043394 0.9788311 -1.2058892 0.95766366 1.2323924 0.660292
0.73191 -1.2169183 -0.34424597 -0.67276293 -0.5598776 -0.2998521 0.39728305 0.6417699
1.0051072 -0.4957559 0.7959304 0.55416787 0.281895 -1.3429669 -1.3020852 -0.683716
0.5875282 -0.8734588 -1.3372945 -0.51980954 0.5114501 -0.52128005 -0.957802 1.0949503
-0.8241177 -1.198596 0.45389012 0.638553 1.1287794 0.6124402 0.3488924 1.2400799
-1.0744526 0.25595933 -0.9472596 1.1608984 0.76529187 -0.3934623 -1.3203145 0.8773737
0.5158414 0.2250799 0.5159176 -0.7331329 0.92801243 -1.1403401 -0.85191953 -0.8074321
0.69395113 -0.90820664 0.38478896 -0.4667479 -0.9501764 -0.45655036 -0.5947188 0.7439728
1.1698475 -0.4048051 -0.49429196 -0.7784004 0.7250152 -0.9652045 -0.37524644 1.1403118
1.2408016 1.0940491 0.38415194 0.88137066 0.51733226 -1.1284248

weight_mu f4 [100, 150]
00000000: fec2 53bd c05f 61bd 1f43 4dbb 88c9 bcbc
00000010: d7f0 4a3d c40c 203d 97bd 15bd 1324 653c
00000020: 2f91 dabb 04ca 1b3c 18e1 76bd 7a71 39bd
00000030: 36a2 bd3d 6891 0abd da51 89bd 4a03 48bd
00000040: 5463 85bd 0eef 933d 505b 673d e83a 60bd
00000050: 5d42 1bbd b0be 3cbc 3946 663c 3bbb a23c
00000060: 1bd1 5ebd f480 b63d cf45 debb 7501 82bd
00000070: f84f ba3b 1234 babc 9ad3 a9bd 31b1 d3bb
00000080: 361e 69bc dcc6 08bd e385 74bd 0d22 95bd
00000090: 06fc a8bd 1f80 893d 47cb 47bd d1ef 523d
000000a0: e23d 88bd fc88 1a3c e6d0 3bbd 9c4c adbc
000000b0: ee12 7b3d 650e 45bc b686 23bd 5456 08bd
000000c0: 7de1 2dbd be4d 723d 4edd 163d 23c3 85bd
000000d0: 4888 b5bc b286 2cbd 4a49 0dbd a8f9 2cbd
000000e0: 36f7 c5bd 9e36 13bd 0c73 8fbd 0253 36bd
000000f0: e983 8abd 3dae 17bd 8908 703d 4263 923d
00000100: b1ec d63b 6c11 483d bec0 2c3d 457d b0bc
00000110: 232a 7e3d 2002 96bd 4d6c a03c 8cea 75bd
00000120: cb1f 803c 90da 6dbd 4770 26bd 2e24 8d3d
00000130: a0e5 b6b8 feb7 a4bc ce9c 8bbd be9f 653d
00000140: 8ff8 edbd 323e 0fbc 8a65 f0bb 6fd1 9b3d
00000150: d1ad 37ba f848 2ebd daf2 80bd 5a2c 89bd
00000160: a564 823d 4463 6e3d 9889 f93b 7a2b 773b
00000170: 39c6 b73d a045 9c3d a544 47bd 51ae 9a3c
00000180: 5771 f6bc 7a13 153c c445 8e3c 0769 ffbc
00000190: e497 86bd f569 c13c 9122 353d f5ed b6bd
000001a0: 02ca 86bd 7af4 d83c bc87 fdbc 6948 a1bd
000001b0: 6b4a 0bbd 3e6f 99bc 001a 913d 16e7 453d
000001c0: 2ffb 173d 584d 6d3d b64d e4bd e79a 11bd
000001d0: 7282 793d 5086 663d e00a 4c3d 81ec 2d3b
000001e0: 3458 27bd 4ea8 663c 20d2 bbbc a25a 0b3d
000001f0: 9a4c 20bd c80a 783d 6d6e 9cbc fd45 94bd
00000200: 48fd f53c 70d1 acbc 1c68 93bc d85f 34bd
00000210: 5ea0 cd3b b109 443d e0a0 0ebd beaa 593d
00000220: f4a6 2cbd d0d3 9d3d 5afd 03bc 0e1a 603d
00000230: 6f87 63bd d726 c0bc 5e69 7cbd a5d9 ac3c
00000240: 8772 26bc ec0e d1bd 5371 07bd b1d4 8cbd
00000250: 5066 973c 562e ba3d 25aa 4e3c dde5 6ebc
00000260: 1ee0 28b9 da9e a1bd 52f7 d53c c3bd e6bc
00000270: 2197 443d 13f6 62bd 3f06 40bd 4272 f73c
00000280: ec0b 253d 6e45 90bd 52a2 a63d 9187 c4bd
00000290: 055a 4dbc 7f92 b3bd d088 67bd 0463 75bd
000002a0: a074 3fbd 4fc1 59bd c954 7cbc fb9a 413d
000002b0: ea24 48bd 681a 663d 5dda 8abd 431a 2e3d
000002c0: e68d 71bd b284 893c 6cda b7bd 00c3 d43c
000002d0: dab0 7b3d c4b0 5c3d 804d d53b 8890 22bd
000002e0: f9a0 4a3d 3212 52bc 66bc 97bc e4b6 0139
000002f0: cd9f 0cbd 40da 8ebd 18e8 9f3b ebbd 5abd
00000300: ce79 a4bd aa66 06bc 93c0 c13c cc28 353d
00000310: 7222 a1bd 8ba9 003d a34a 0dbc e84b 1a3d
00000320: 3ecd 53bd cce5 4a3c b5d0 643d 9f45 b7bd
00000330: 9ef3 553d 0fcf 0b3d 8c42 67bd 2747 6c3d
00000340: 2912 903d bc55 053d f27d c3bc f527 aabd
00000350: 307b 82bd 0cab ec3c 7b2f 993c af04 46bb
00000360: 8c26 a73c 03ff a13d a381 bdbd 0c8f 56bd
00000370: 9d41 833d 5603 8d3b c4e6 77bd dae4 04bc
00000380: 87dd 25bc 93b7 f939 def3 d23c a80f a4bb
00000390: 4865 2dbd 96e1 523c 7b86 d23c c856 0a3d
000003a0: d00b 503d 99e3 6ebd 1112 513d 3916 613d
000003b0: a9f4 883d feee 53bc f44e 35bc af48 243d
000003c0: a489 0cbd 11b6 463d 14e0 bcbc eba3 eabb
000003d0: 75f9 623c 8293 513d 34a3 dc3c 9348 8a3d
000003e0: 6595 473d 3f5a 8e39 6f0e adbd af74 fc3a
000003f0: 9c20 c23c cb7b 96bd 21b8 273d 13c8 97ba
-0.05169963 -0.055022955 -0.0031320525 -0.023045316 0.04954609 0.039074674 -0.03655776 0.013985652
-0.0066701393 0.0095086135 -0.06027326 -0.045274235 0.09259455 -0.033830076 -0.06705065 -0.04883126
-0.06513086 0.072233304 0.056483567 -0.054743677 -0.037905086 -0.011520073 0.014054828 0.01986467
-0.054398637 0.089113146 -0.006783224 -0.06347934 0.0056858025 -0.022729907 -0.08292313 -0.006460332
-0.014228394 -0.033392772 -0.059697997 -0.07281885 -0.08251195 0.0671389 -0.048777845 0.051498238
-0.06652428 0.009432074 -0.045853518 -0.021154694 0.06129735 -0.012027358 -0.039923392 -0.033285454
-0.04245137 0.059156172 0.036832146 -0.0653136 -0.02215971 -0.042120643 -0.034493722 -0.04223028
-0.09666292 -0.03594076 -0.07004365 -0.044512756 -0.06763441 -0.0370314 0.05860189 0.07147838
0.0065589775 0.04884474 0.042176 -0.021544108 0.062051903 -0.07324624 0.019582892 -0.060038134
0.01564016 -0.058069766 -0.04063442 0.06891666 -8.721207e-05 -0.020107266 -0.068170175 0.056060545
-0.116196744 -0.008742856 -0.007336323 0.07608306 -0.00070067967 -0.042550057 -0.0629632 -0.066979125
0.06366853 0.058200136 0.0076152794 0.0037715123 0.08973355 0.076304674 -0.04864945 0.018881949
-0.030083342 0.009098882 0.017367251 -0.03117801 -0.065719396 0.023610095 0.04422242 -0.089321055
-0.06581499 0.026483763 -0.030948512 -0.07875139 -0.034006517 -0.018729802 0.07085037 0.048316084
0.03710478 0.05793509 -0.11147635 -0.035548117 0.060915418 0.056280434 0.04981506 0.0026538672
-0.0408556 0.014078213 -0.022927344 0.03402198 -0.039135553 0.060557157 -0.019095624 -0.07239912
0.030028 -0.021095961 -0.01799398 -0.044036716 0.006275221 0.047860805 -0.03482139 0.053141348
-0.042151406 0.07706416 -0.008056009 0.054712348 -0.05554908 -0.02345602 -0.061623923 0.021099875
-0.010159141 -0.10207924 -0.03306706 -0.06876505 0.018481404 0.09090869 0.012613808 -0.014581171
-0.00016105219 -0.07891627 0.026118908 -0.028166657 0.04799569 -0.055410456 -0.046880957 0.03020585
0.040294573 -0.07044493 0.08136429 -0.0959617 -0.012533669 -0.08768176 -0.05652696 -0.05990888
-0.04674208 -0.05316287 -0.015401074 0.04726694 -0.04886333 0.056177527 -0.06779931 0.042505514
-0.058973216 0.016786907 -0.089772075 0.02597189 0.061447956 0.053879514 0.006509483 -0.039688617
0.04946992 -0.012821721 -0.018522453 0.00012370531 -0.034332085 -0.06975222 0.0048799627 -0.053403776
-0.08031045 -0.008203188 0.023651397 0.04422836 -0.07867898 0.03141169 -0.008623752 0.037670046
-0.051709406 0.012383889 0.0558631 -0.08948826 0.052234285 0.034133013 -0.05645995 0.057685044
0.07034714 0.032552466 -0.023863766 -0.083084024 -0.063711524 0.028890155 0.018699398 -0.0030215194
0.020404123 0.07909968 -0.09253242 -0.052382514 0.06408999 0.004303376 -0.06052281 -0.008111203
-0.010123617 0.00047629754 0.02575105 -0.005006749 -0.042332917 0.012871167 0.02569889 0.033774167
0.050792515 -0.058322523 0.05104262 0.054952834 0.0668729 -0.012935398 -0.011066187 0.04010838
-0.03431095 0.048513476 -0.023056068 -0.007160654 0.0138534205 0.051166065 0.02693329 0.06752124
0.048726458 0.0002715159 -0.084500186 0.0019260849 0.02369719 -0.073478304 0.040947083 -0.0011580013

weight_sigma f4 [100, 150]
00000000: b0c2 bb3c a6c7 443d cd2f 1f3d 5b3f 383d
00000010: 6c0c 843d 016a 213d beae ab3c a2db 103d
00000020: a144 313d 6be2 a73c 1bfb 7c3d 277c 123d
00000030: 72cf 943c b6af 823d ec86 673d a07e 583d
00000040: c7d7 2e3d f78f 053c e9a6 ab3c d1bf 053d
00000050: d8fa 873c 3c3b 703c 56a7 d33c a855 af3d
00000060: f61f ab3d 07ef 423d ca69 e33c 6f61 503d
00000070: 5014 2b3c ac61 123d d209 0b3d 378b 893c
00000080: eaaa 243c f9c2 9c3c b01f 7d3c 0c85 3e3d
00000090: 2c52 9d3c 7d5c d03c 4326 4f3d ed7e bd3d
000000a0: 0299 b83d ac80 c03c d8d6 223d 45dc 133d
000000b0: d7ac 523d 1aa6 533d a961 503d 7eb2 073d
000000c0: 6751 993c f838 363d 294d 513d e9e2 223d
000000d0: 6c1b 99bb 9704 2a3d c712 ac3c af5d 4a3d
000000e0: 0b1b 6b3d 5302 aa3c a490 533d 94ac 893d
000000f0: ba06 a93c db7f 113d e5c0 2e3a d75f 403b
00000100: 288b 253d 7952 843c bb85 283d f98a 063d
00000110: b3f8 6a3d 4bbf 843c ed5f 963c c835 913b
00000120: 6d10 633d 315f 3c3d 2d02 223d f616 5a3d
00000130: 12c5 e93c b500 3b3d bb48 8d3d 7780 913d
00000140: fdd6 c03d 7821 c33c e244 af3c 3783 5b3d
00000150: 928c 093c d418 493c 8b5b 893d e1f8 0c3c
00000160: c9a6 193d 663f 333d 1afb 953c 5602 0a3d
00000170: 1210 2d3d bffe 023d dbc6 2b3d cdba 8c3d
00000180: aa8d 5e3d 0f1b 363d 2223 723d 7160 5a3d
00000190: ff21 673d 31d9 263d d6e8 613d b378 733d
000001a0: 8bca 103d 8dd1 6fbc 271c f53c 2d37 8c3b
000001b0: becc d63c 9511 133d df7d 063d 6c1b 333c
000001c0: e37b b73c 8ec0 2b3d 119f 4e3d b192 6ab9
000001d0: e7a5 033c c72c aa3c abf8 ec3c 7268 aa3c
000001e0: dcf2 c33d 6372 9c3d 09ec fd3c 5889 6c3d
000001f0: 97b7 123d ca11 453d 1220 293d 47f2 b33c
00000200: 07d9 373d 48a3 893d 1cc6 fe3c 1e67 283c
00000210: 5762 f63c 587e b43c c96a 1e3d 18b5 413d
00000220: 511b 4d3d 6626 563d a0f9 0e3d 267d 783d
00000230: 3680 f63c 4afa 273d 1518 d73c ab87 3c3d
00000240: 39cc b93d 3e0a c83c 1d2d 573c 0e18 6c3c
00000250: c66b 1b3b 5038 523c 5d1b 783c 1899 0e3c
00000260: 23c9 f23c ef12 f93c c936 893d e859 783d
00000270: 9398 ae3c 079b 1f3d e21c 0a3d e464 f83c
00000280: c42f b93c ff78 7c3d 41a5 353d 12b5 2e3d
00000290: 6bc8 143d 77f6 373c 7d9f dd3c 6001 843d
000002a0: ec43 5c3d 1501 433d 07d1 233d c105 1f3d
000002b0: c390 453d 9dfa 0e3d f8db 593d 885a 3d3d
000002c0: af2d 503c 6562 963c fd23 a93c 2ad1 2b3d
000002d0: 596a 153c 6520 4d3d 2ebd c93c 79a0 ae3d
000002e0: e9d4 f33b 4e39 4c3d b1df 273d dbaf 1c3d
000002f0: 2b3a 983c 332b 003d ce8f 663d 6fbe 5c3d
00000300: 65c2 3b3d 1293 063d e9dc 503d 8e7e 083d
00000310: cc75 243d 377e 943d dbef 8c3c 7a30 aa3c
00000320: 445e 733c 3649 543d 83ea 3c3d 375b 1b3d
00000330: ae32 183d c8a7 173d 27e3 0d3d ab4b 3b3d
00000340: 8c03 513d 6c95 b53c 80d3 253d 0c96 453d
00000350: 2444 9f3d dd66 2b3d 81a6 1f3d 53e2 5e3d
00000360: 5531 243d b1f2 923b 4d76 213d 837b 8f3d
00000370: 59dc 233d d640 323d 18da 023d 5aa8 273d
00000380: 2b06 4a3d 4e70 1b3d b468 1a3d a7a0 133d
00000390: ba4c 943d 191c 463d 507a b13d 5595 7f3d
000003a0: b2f4 013d 5eda 433d f3ad 0c3d cb7d e13c
000003b0: fced 1b3d 7918 823c f31c 883c 319b 083d
000003c0: ec80 e13c d936 f23c 3828 923c 9e52 ac3d
000003d0: 958b 503d 60b1 6d3d c697 103d 0422 763d
000003e0: 59bc 093d dfc4 5a3d 4c1b a9bc 0bed 433d
000003f0: 892e 6c3d d3bb 3b3d 7d2a 0b3d fcbc 843d
0.022919983 0.048041962 0.038863946 0.044982295 0.06447682 0.039407734 0.020957347 0.03536571
0.04327834 0.020493707 0.06176291 0.035762932 0.018165324 0.063811705 0.056525156 0.052855134
0.04268625 0.008152 0.020953612 0.032653634 0.016599104 0.01466256 0.025836628 0.085612595
0.083557054 0.047591235 0.027760405 0.05087417 0.010441855 0.03573768 0.033944912 0.016790016
0.010050515 0.019135939 0.015449449 0.046513602 0.019204222 0.025434727 0.0505736 0.09252725
0.09013559 0.023498856 0.039755672 0.036098737 0.051434364 0.05167208 0.050874386 0.033129208
0.018715573 0.044487923 0.051098976 0.03976718 -0.0046724584 0.041508283 0.021005047 0.04940575
0.057398837 0.020753061 0.051651612 0.0672237 0.02063309 0.035522323 0.0006666317 0.0029354
0.040415913 0.016152607 0.04114316 0.03284738 0.057366084 0.016204497 0.018356288 0.00443146
0.055435587 0.04598922 0.039552856 0.053244554 0.028536353 0.04565497 0.06898638 0.07104581
0.09416006 0.02381967 0.02139515 0.053591933 0.008395331 0.012273986 0.067069136 0.008604259
0.037512574 0.043761633 0.018308211 0.033693634 0.042251654 0.031981226 0.04193769 0.06871567
0.05433432 0.0444594 0.059115537 0.05331463 0.056428906 0.040734474 0.05515369 0.05944128
0.03534941 -0.014637363 0.02992065 0.0042790384 0.026220676 0.03590544 0.032834884 0.010931831
0.022397941 0.04193168 0.050444666 -0.00022370626 0.00803516 0.020773305 0.028927168 0.020801757
0.09567806 0.07639005 0.03099634 0.05774817 0.035819616 0.048112668 0.04129035 0.021966113
0.044884708 0.067205966 0.031100325 0.010278491 0.030076189 0.022032902 0.038676057 0.047291845
0.05007488 0.052282713 0.03490603 0.060666226 0.030090433 0.04101018 0.0262566 0.04602782
0.090721555 0.024418946 0.013133314 0.014410032 0.002371536 0.012830809 0.015143243 0.008703493
0.029636925 0.030404536 0.066999026 0.060632616 0.021312987 0.038966205 0.03371895 0.030321546
0.022605784 0.06163883 0.04434705 0.04265315 0.036323946 0.011228195 0.027053589 0.06445575
0.053775713 0.047608454 0.039994266 0.038823847 0.04823376 0.034906972 0.053188294 0.046228915
0.012706204 0.018357465 0.020647043 0.04194752 0.009119594 0.050079722 0.02462634 0.085267015
0.0074411524 0.049859338 0.040984813 0.038253646 0.018582424 0.031291198 0.056289487 0.05389255
0.045839686 0.0328551 0.050991926 0.033323817 0.040151402 0.07250636 0.017204216 0.020775069
0.014854018 0.051827632 0.046122085 0.037928786 0.037157707 0.037025243 0.034640457 0.04572646
0.051028773 0.022165976 0.040484905 0.0482388 0.07776669 0.041846145 0.03897715 0.05441506
0.04008611 0.0044844975 0.03941946 0.0700598 0.04000506 0.043518864 0.03194627 0.040932037
0.04932229 0.0379489 0.03769751 0.036041882 0.07241197 0.04836664 0.086659074 0.062398273
0.0317275 0.047815673 0.03434558 0.027525803 0.038068756 0.01588081 0.016615367 0.033351127
0.027527295 0.029567169 0.017841443 0.084141955 0.050914366 0.058030486 0.035300992 0.060091034
0.033626888 0.053410407 -0.020642899 0.047833484 0.057661567 0.04583342 0.033976067 0.064813584

bias_mu f4 [100]
00000000: 556d 92bd 1f43 93bd 2f37 fc3b 20c2 66bc
00000010: f723 9ebd 7578 243d 0209 00bd ccf0 8f3c
00000020: 6f94 a33c c6c5 df3a 4ebe 4b3d 382b 513b
00000030: f430 153d 57a5 ddbd 5ca9 a0bd d074 03bb
00000040: 68d8 2a3c 1e42 0cbd 9e1f 6b3c 3f86 ce3c
00000050: b21b 4ebd c250 6e3d a84d dabd 5748 223d
00000060: 6ecf 2abc a25b 40bb 4f4f 103d 5969 65bd
00000070: f9ff 8d3d 0ae3 48bd 85c5 1a3d aa39 a7bd
00000080: a8fd 3dbc 1202 d63b 712b 94bd b01a 043d
00000090: 1532 fdbc ca57 0c3d 7d0c 123d 588b 69ba
000000a0: 604f 013d 4cf0 1f3d 10a6 07bd f0ff 0bbd
000000b0: dfbf 113c b6f2 36bc 379b 02bd a78c c9bd
000000c0: 0b79 eabc 37bf c5bc 63e4 fe3c 049b 03bd
000000d0: d971 81bc f3ad dabd a7ee 5f3b 90b4 f23c
000000e0: 555b 2bbc 62a7 d0bd 85e4 ed3c c130 b3bd
000000f0: bff0 0c3c 8f84 4bbd 8ea9 8f3c 7665 a6bc
00000100: 68f6 37bc b812 ad3c cb20 413d ed93 7fbd
00000110: 982d 80bd becf 323d bb65 563d 62d5 69bd
00000120: 7b7c b1bd 9c8c d33c 598b 3dbd be7e 753d
00000130: 459f df3d a4e4 4dbd f90e a53b bd69 023d
00000140: c88f 733d 3862 223d 633e b5bd 6c24 353d
00000150: cca9 03bd 97a8 0bbd fddc 1e3b ed5e b6bd
00000160: 0a1c 433d 8a7f 053c 5f00 c7bd 80a9 6d3d
00000170: 0400 66bd bd97 47bd 0c39 48bd d94b 613c
00000180: 966e 31bd e15a aabd f349 10bc 70da b9bc
-0.0714976 -0.07190537 0.007697008 -0.014084369 -0.077217035 0.04015394 -0.03125859 0.017570876
0.01996824 0.0017072491 0.049742036 0.003191663 0.03642364 -0.10822552 -0.07844803 -0.002005864
0.010427572 -0.03424274 0.0143508 0.025210498 -0.05031938 0.058182485 -0.10659343 0.03961977
-0.010425432 -0.0029351492 0.035231885 -0.05600867 0.069335885 -0.049044646 0.037786026 -0.081652954
-0.011596121 0.0065310085 -0.07234848 0.032252014 -0.03090767 0.03426341 0.03565644 -0.00089090085
0.03156984 0.039047524 -0.033117354 -0.034179628 0.008895843 -0.011166265 -0.031886306 -0.098412804
-0.02862217 -0.02413903 0.031114763 -0.032130256 -0.015801357 -0.106777094 0.0034169347 0.029627115
-0.010458787 -0.10188176 0.02903963 -0.087495334 0.00860232 -0.049686965 0.017536905 -0.020312052
-0.011228181 0.02112709 0.047150414 -0.062396932 -0.06258696 0.04365515 0.05234311 -0.057088263
-0.08666321 0.025823884 -0.04627547 0.059935324 0.1091905 -0.050266877 0.0050371853 0.03183912
0.059463292 0.03964445 -0.0884979 0.044224188 -0.032144353 -0.034096327 0.0024240606 -0.089048244
0.047634162 0.008148083 -0.09716868 0.058022976 -0.05615236 -0.048728693 -0.04888253 0.013750994
-0.043318354 -0.08318115 -0.008806693 -0.022687167

bias_sigma f4 [100]
00000000: c128 9f3c cc7a 113d 1ddf 6a3d ed51 c63d
00000010: d7d5 353d 257f f83c 086a 603d 8b29 723d
00000020: dbe3 863d bb4b 083d b6c5 733d bec6 d93b
00000030: 84c9 6d3d f811 8a3d 43fc 3c3d b877 493d
00000040: 9ca6 743d afac 3a3d a946 803d 25f5 3f3d
00000050: eea6 7a3c 8dcf 583d 3024 953d 069a 273d
00000060: 4686 2c3d 878f 713d 7d74 083d d67d fb3c
00000070: b96f ae3d 6eed 3d3d 32a0 fa3c 3146 583d
00000080: c3b0 8a3d 3c4c 473d 7f9c 8b3c 14f7 383d
00000090: 9262 bc3c 3fdf 613c e13d ff3c f30e 323d
000000a0: 60a5 5c3c 673a b33d 22e1 bf3d dc82 133d
000000b0: 960e 123d c47c 283d 74ea 233d 27d5 293d
000000c0: ce98 983c 47d8 9e3d f8a8 a03d 036e 773d
000000d0: a0f7 233d 3e47 813d bb6f 0c3d c041 2c3d
000000e0: 4ab4 d83c 687e a03d 4aaa 933d 84ee 583d
000000f0: 2477 5f3d 8545 083d 94f8 183d ef63 983d
00000100: e434 323d 4726 1a3d 7143 7f3d c385 303d
00000110: 0955 0e3d b634 343d d5db 8e3d b88e 7c3c
00000120: fd4a a13d 57ac ff3c 8205 863d 79a9 b33d
00000130: 0f8e 8dbb fcd5 af3c 5614 593d 6f89 893d
00000140: e1ac da3d 4789 6b3d 67ce e33c 94ed 333d
00000150: a705 0b3d d0b4 5c3d 8ca2 d73c 23ce 473d
00000160: 7fbe 9d3d b267 7a3d ef5c 603d 9da0 8f3c
00000170: 1edf 4f3d 7b2b 8d3d 6fb9 113d 5cb1 fc3c
00000180: 3643 5fbc d7a0 e33c 88f3 973d 920e 893d
0.019428613 0.0355175 0.057341684 0.09683595 0.044393387 0.030334065 0.05478862 0.05912165
0.06586429 0.033275347 0.059514724 0.0066460064 0.05805351 0.067417085 0.046139013 0.04918644
0.059729204 0.04557484 0.06263477 0.046864647 0.015298588 0.05293231 0.07282293 0.040918373
0.04212024 0.05897477 0.033314217 0.030699652 0.08517403 0.04636901 0.030593965 0.052801315
0.06771996 0.048656687 0.017042397 0.045157507 0.02299622 0.013786136 0.031157436 0.043471288
0.013467163 0.08751374 0.093691126 0.03601347 0.03565844 0.04113461 0.040018514 0.041463044
0.01862755 0.077560954 0.07844728 0.06040765 0.040031075 0.063124165 0.034286242 0.04205489
0.026453156 0.0783661 0.072102144 0.05296184 0.05455698 0.033269424 0.037346438 0.07440936
0.04350747 0.03763416 0.062320177 0.043096315 0.034749065 0.04399558 0.069755234 0.015414886
0.07875631 0.031210108 0.06544019 0.08772559 -0.004319913 0.02146434 0.05299791 0.067156665
0.10677505 0.057503965 0.027808381 0.043927744 0.033940937 0.053883374 0.026322626 0.04878057
0.0770235 0.061134048 0.05477613 0.017532641 0.05074989 0.06893059 0.035577234 0.03084629
-0.013626864 0.027786655 0.07419497 0.06692232
