saved_models/08-11 14:56.pth (torch, 500637 bytes, 23 tensors)

weight_mu f4 [150, 64]
000000 e5 e3 13 be 00 ca 4f 3d 8f 04 33 bc de fb 00 3e
       -0.14442404 0.05072975 -0.01092638 0.1259608
000010 e7 33 ab 3d c3 ee 80 3e 43 09 0d be b0 e9 f7 3d
       0.08359509 0.2518216 -0.13773064 0.12105119
000020 c2 d0 57 3d ba 5f 13 bd ec 6d a8 3d 07 31 0c be
       0.05268932 -0.035979964 0.08224091 -0.13690577
000030 f4 ed 09 be 69 e0 01 be 20 45 13 be f5 a3 85 bb
       -0.13469678 -0.12683262 -0.14381838 -0.004078383
000040 c6 24 e7 3d 6d ef 7b 3b 74 48 96 bd 90 b7 a6 3c
       0.11286311 0.003844227 -0.07338038 0.020351201
000050 12 81 b9 3d e3 da 90 3d 03 74 6f 3d 3d d8 6d 3e
       0.09057821 0.07072999 0.058460247 0.2322702
000060 f2 2e 56 3e ae a2 cf bc 29 db e2 bd 20 7a 1e 3d
       0.20916346 -0.025346126 -0.11076958 0.038690686
000070 49 91 b5 3d 1c 29 cb 3d 39 66 64 3d a2 5c 84 bb
       0.088656016 0.0991995 0.05576155 -0.004039363
000080 70 0e 13 3e 15 62 ff 3d 28 2e 4a 3d 27 3a c9 bd
       0.14360976 0.124698795 0.049360424 -0.09825545
000090 6c ab 96 3b f1 c7 b0 bc 14 05 5c 3d 6d 17 77 3d
       0.004598072 -0.021579714 0.05371578 0.060325075
0000a0 4f cd c6 bd b5 5e 64 3c 05 dd 35 bd c4 83 e2 bb
       -0.09707128 0.013938596 -0.044400234 -0.0069126803
0000b0 a7 c6 44 3d d4 c8 81 3d bf ab 1d be 85 8a b0 3d
       0.048041012 0.06337133 -0.15397547 0.086201705
0000c0 5d c6 8c 3d 11 da 19 3e 8f 21 eb bc 4a 91 53 bd
       0.06873772 0.15024592 -0.028702525 -0.05165223
0000d0 f2 9c eb 3d de 79 93 3d 46 b5 13 be 02 b6 fe 3c
       0.11504544 0.07200979 -0.14424619 0.031092647
0000e0 27 bf 57 3c ec eb 13 bc 44 13 f4 3d 0c 84 2e 3c
       0.013168133 -0.009028416 0.11917737 0.0106516
0000f0 c0 a4 2c bd 10 c3 1b bd 06 82 6c bd f3 0b 6d 3d
       -0.042149305 -0.038027823 -0.057741188 0.057872724
000100 90 29 24 bd 48 8b b4 3d 12 42 c9 bd 09 df 05 3e
       -0.0400787 0.08815628 -0.09827055 0.13073362
000110 50 ad ae 3d 21 84 51 bd 86 60 c8 3b 10 2e fc 3d
       0.085291505 -0.0511514 0.006115022 0.12313473
000120 b8 2e cd bb 2e 07 e7 bd 45 2f b1 3d 10 75 5c 3d
       -0.006261673 -0.11280666 0.08651594 0.053822577
000130 1b 14 d7 3b 5d c9 cf bd 67 cf 1b 3d 80 d9 de bd
       0.006563676 -0.10145829 0.03803959 -0.108813286
000140 72 d1 bf bd c7 d4 c2 bc 40 17 08 be 4a 25 b2 3d
       -0.093661204 -0.0237831 -0.13290119 0.086985186
000150 68 a5 13 bd 88 46 7b bd a7 66 02 be 33 a2 36 bd
       -0.036046416 -0.06134656 -0.12734471 -0.04458828
000160 33 ba 03 3e 74 e3 17 bb f7 14 ea bd a2 a9 b2 3c
       0.12863998 -0.0023176344 -0.1142978 0.021809403
000170 fb f7 4f 3d e8 8d 2c bd ad 14 4c 3d cd 57 27 bd
       0.050773602 -0.04212752 0.049824405 -0.040855218
000180 77 37 ba bd fa ce 52 3d fe a8 d3 bd 07 91 90 bd
       -0.0909261 0.05146692 -0.10334967 -0.07058912
000190 57 a7 0d be 3c 86 31 3d d6 f1 88 bd c9 48 82 3d
       -0.13833366 0.043340907 -0.066867515 0.06361539
0001a0 07 d6 e6 bd 7b 52 e5 bd ff 32 06 3d 90 b0 a8 3d
       -0.11271291 -0.111973725 0.032763477 0.082368016
0001b0 b9 ac e6 bc 72 90 ba 3d 0d c8 6d bd 73 33 88 bd
       -0.028158532 0.09109582 -0.05805211 -0.06650438
0001c0 a9 95 9d 3d 2b 15 f3 b8 f6 35 2c bd 1f 9c a0 3d
       0.07694561 -0.00011591086 -0.04204365 0.07842278
0001d0 7f a9 06 bd f9 21 08 3d b5 71 c0 3d 4c c0 68 bb
       -0.032876488 0.033235524 0.09396688 -0.0035515008
0001e0 72 92 d6 bb d4 d6 9f bd 83 df 79 bd c2 42 12 bd
       -0.0065482194 -0.07804647 -0.061004173 -0.035708196
0001f0 e6 1a 15 be 8d 21 bf 3b c8 94 94 bd c8 31 ef ba
       -0.14561042 0.005832857 -0.0725494 -0.0018249089
000200 6f aa af bd f2 8d 0b 3d 2f 10 ce bd 9e bb b5 bc
       -0.085774295 0.034070916 -0.100616805 -0.02218419
000210 7a 12 8e 3d 2e 82 5f 3d 9b 0f d9 bd c9 6c dd bb
       0.06937118 0.05456751 -0.1059868 -0.006757353
000220 18 1d 3c 3d f7 af 83 bd eb 5f a2 bc 23 8e c2 bd
       0.045926183 -0.06430047 -0.019821128 -0.09499767
000230 ea eb 92 bd 8f 84 ba bd 05 86 02 be ab 40 38 3d
       -0.07173903 -0.09107315 -0.12746437 0.044983547
000240 10 d2 4c 3c b0 6c 5f bd 20 61 fc bd 8e 06 5b 3d
       0.012501255 -0.05454701 -0.123232126 0.053473048
000250 84 28 81 bd 05 70 4d bc 19 1d d5 bd 33 f3 1f 3c
       -0.06306556 -0.012538915 -0.104059406 0.009762573
000260 4b ec 18 be c3 fd 52 3d ff de a6 bc 3e 09 23 3d
       -0.14933889 0.051511537 -0.020370005 0.039803736
000270 9e ec cf bb 0c 6d 9a 3d 68 f2 37 bc f2 6e 7f bd
       -0.0063453456 0.0754033 -0.011227228 -0.062361665
000280 4e e6 8a bd ed 23 2c bc 41 a7 c2 3d 2c 8c 89 3d
       -0.067822084 -0.010506612 0.095045574 0.06716189
000290 aa 6b 83 3c 64 82 b4 3b 17 7e 8b 3d 05 42 01 be
       0.01604255 0.005508708 0.06811159 -0.1262284
0002a0 49 ee a9 bd cc 3a 03 be 92 ca bb bd 1e 84 f6 bb
       -0.082974024 -0.12815398 -0.091694966 -0.007523074
0002b0 1f 60 9e 3d c9 fe 07 be f4 05 24 bd 1d d6 8f 3d
       0.077331774 -0.13280787 -0.04004474 0.07023261
0002c0 c8 90 c4 bd d9 8d 97 3c 0a f4 f4 3d c9 31 dc bd
       -0.09597927 0.018500255 0.11960609 -0.10751683
0002d0 c5 c7 61 bc 14 fb fe bd e1 d4 58 3d b9 37 c1 3d
       -0.013780539 -0.12450233 0.052937392 0.094344564
0002e0 3c 1d 10 bd 81 06 97 bd 4d 06 f7 3c 09 f4 56 bd
       -0.03518413 -0.073742874 0.030154372 -0.052478824
0002f0 13 c3 cd bd c1 b0 47 3d 42 4d a3 bd 99 f0 52 3d
       -0.10046973 0.04875255 -0.0797372 0.051498983
000300 cd 23 06 bd 84 23 07 3d 67 8c 5f bd 4c 5d 0b 3d
       -0.032748986 0.032992855 -0.054577257 0.03402452
000310 fd 34 b5 3d fa e2 1d 3e cf 47 0a bd 58 a6 45 3d
       0.08847997 0.15418616 -0.03375989 0.04825434
000320 5e c4 5b bc 9c 68 b1 3d 68 d4 46 bd 82 7d 6e bd
       -0.013413517 0.08662531 -0.04854241 -0.058225162
000330 95 a9 25 bd 0e 5c 91 3d 2d 4c 91 3d ea d5 53 bd
       -0.04044493 0.07097636 0.070946075 -0.051717676
000340 c0 6c f3 3d d4 48 f3 bd e1 0b 1a bc c9 18 da 3d
       0.11885977 -0.11879125 -0.009402246 0.10649259
000350 81 57 d7 bd 2c 40 a0 bd 35 61 13 3d 3c 55 e8 3d
       -0.10514737 -0.0782474 0.035981376 0.11344382
000360 23 1e 95 bd 87 34 91 3c ef e1 0b be 49 6c 87 3d
       -0.07281139 0.017725242 -0.13660406 0.06612451
000370 ff 60 d1 bc cb 6e 00 3e cd 7f b0 bd ef 8f ec 3c
       -0.025558947 0.12542264 -0.08618126 0.028877227
000380 81 33 bc 3d 8d 49 89 3c bd 13 d3 3d 2b e3 e2 3d
       0.09189511 0.016758705 0.10306499 0.11078485
000390 d6 77 d9 3d 83 0e 04 bd 41 46 1b 3d fe 4f f6 3c
       0.1061856 -0.032240402 0.037908796 0.03006744
0003a0 66 26 01 be 8b 58 d1 bc fa 5e da 3d 68 a4 04 be
       -0.12612304 -0.025554916 0.106626466 -0.12953341
0003b0 55 8d 48 bd db 0f eb 3d d1 cf 7a bd 69 c9 f4 bd
       -0.04896291 0.114776336 -0.061233345 -0.119524784
0003c0 47 60 a6 3d a0 aa 04 3e 2f 86 66 bd 88 cc e4 bd
       0.08123832 0.12955713 -0.05628031 -0.11171824
0003d0 59 7f f5 3d db 6e 6b bd 6e 0e 8f bd ed 1c 13 3e
       0.1198718 -0.057478767 -0.06985174 0.14366503
0003e0 a8 6d 77 3d f8 11 65 3d fc ad 6d 3c 27 90 eb bd
       0.06040731 0.05592534 0.014506813 -0.11502104
0003f0 f3 5a d4 bd 13 ea 3b bc 8d 6f 85 3d 08 44 e2 3c
       -0.1036891 -0.011469382 0.06515417 0.02762033

weight_sigma f4 [150, 64]
000000 bc 7e 08 3d e2 07 37 3d 5c 2a 3f 3d 44 58 fd 3c
       0.03332399 0.044685252 0.046671256 0.030925877
000010 1c b3 95 3d 28 21 fc 3d b3 7b 88 3d c6 53 94 3d
       0.07309553 0.123110116 0.06664219 0.07242541
000020 6a 6b 12 3d f1 7d 84 3d 9a 9f 81 3d 78 bf 3d 3d
       0.03574697 0.06469334 0.0632927 0.046325177
000030 54 fe 44 3d 73 74 32 3d ef 0b 0e 3d c5 80 b4 3d
       0.04809411 0.043568086 0.03467935 0.08813623
000040 b1 15 4e 3d 43 72 2a 3d 4a 4a 79 3d 9f 7b a0 3d
       0.050313655 0.041612875 0.060861863 0.07836079
000050 4a 0b 03 3d e1 80 a2 3d 24 0c 2f 3d 88 e8 64 ba
       0.031993188 0.07934738 0.042736188 -0.00087321596
000060 0c e6 75 3d 4c 62 b8 bb d0 e2 b8 3d ca fd 3a 3d
       0.060033843 -0.0056269523 0.09027636 0.04565219
000070 f8 18 a1 3d df 08 c7 3d aa 49 47 3d dc 41 8f 3d
       0.078660905 0.09718489 0.048654236 0.069949836
000080 5e cd b0 3d b2 28 88 3d 1e cd d2 3c f9 01 38 3d
       0.08632921 0.06648387 0.025732573 0.044923756
000090 dd a4 81 3c 26 af 36 3d 70 1f 8f 3d 6c 69 9c 3d
       0.015825683 0.04460063 0.06988418 0.07637295
0000a0 05 66 af 3d 73 dd 8d 3d e6 cf 67 3d f8 4d 05 3d
       0.085643806 0.06927004 0.05659475 0.03254506
0000b0 89 04 52 3d df 5f 76 3d 4f 56 5e 3d 66 95 0b 3d
       0.051273856 0.060150024 0.05428153 0.034078024
0000c0 63 52 a9 3c ca 12 9f 3d 7f 41 fc 3c 9d e4 09 3d
       0.020669168 0.077672556 0.03079295 0.03366529
0000d0 42 20 8a 3d 66 80 b2 3d 0d 3b 82 3d e6 18 a7 3d
       0.06744434 0.08715896 0.06358919 0.08159046
0000e0 f4 22 cd 3d 30 af 0b 3d 71 6b ea 3d 4c 28 97 3d
       0.100164324 0.03410262 0.11446274 0.07380733
0000f0 71 87 8a 3d 30 2e f9 3d e2 a6 9a 3d 6d 55 62 3d
       0.06764115 0.12167013 0.075513616 0.05525725
000100 7d 5d 89 3d 29 fa 91 3d 7b ee 9a 3d 89 cd 80 3d
       0.067072846 0.071277924 0.07565018 0.06289203
000110 cc 31 9c 3d 58 d6 aa 3d 85 b1 94 3b cb df af 3d
       0.076266855 0.08341664 0.0045377635 0.08587607
000120 4d 96 82 3d 71 47 d7 3c b1 d0 5d 3d ae 8b 30 3d
       0.06376324 0.026279183 0.0541541 0.04310196
000130 e2 08 5b 3d 1b 45 bf 3d a4 a7 9c 3d 13 17 7b 3d
       0.05347527 0.09339353 0.076491624 0.061301302
000140 8c b9 0a 3d 0f 5d e1 3c e8 fa 8f 3d b3 cb 1e 3d
       0.033868358 0.027510194 0.070302784 0.03876848
000150 69 19 c0 3d de 31 8c 3d b1 e2 4b 3d db 11 cd 3d
       0.093798466 0.06845449 0.049776737 0.10013171
000160 a5 c6 9a 3d 78 d7 61 3d 4a 40 15 3d ff 0d e0 3c
       0.0755742 0.055137128 0.036438264 0.027350424
000170 ba bc 28 3d 6b 18 17 3d c3 08 64 3d 86 e2 6e 3d
       0.04119561 0.03688852 0.05567242 0.0583215
000180 c5 a0 00 3d a1 9a 37 3d ae ac cf 3d 62 d3 8b 3d
       0.03140332 0.0448252 0.10140358 0.068274274
000190 f1 ae 40 3d 65 0d 87 3d 5c d4 7a 3d be c9 3a 3d
       0.047041837 0.06594352 0.061237678 0.045602553
0001a0 1c d1 21 3d 7c c8 87 3d d0 9d 5c 3d 85 b1 1b 3d
       0.039506063 0.06630036 0.05386144 0.038011093
0001b0 c3 6c 71 3d 5d 76 3f 3d ab 55 10 3d e0 e3 4a 3d
       0.058941614 0.04674374 0.03523795 0.049533725
0001c0 94 85 7a 3d b6 b5 ab 3d bb 73 b1 3d 6e be 97 3d
       0.061162546 0.08384268 0.08664652 0.074093685
0001d0 96 d0 2d 3d c2 6c 98 3d 22 6e 14 3d 55 cc 1d 3d
       0.04243525 0.07442619 0.036237843 0.038524944
0001e0 9d 14 6a 3d 4a 7f 34 3d 22 1d 9a 3d d4 0d f7 3c
       0.057148565 0.044066705 0.07525088 0.030157961
0001f0 8f c6 25 3d e6 85 a2 3d 69 b6 aa 3d 14 eb 95 3d
       0.040472563 0.07935695 0.08335573 0.07320228
000200 61 ab 95 3d 78 b7 17 3d aa 0a 53 3d bf 60 85 3d
       0.073080786 0.037040204 0.051523842 0.065125935
000210 95 8d 44 3d 22 ca 30 3d 9f 0c 73 3d 15 da 56 3d
       0.047986586 0.04316152 0.05933821 0.052454073
000220 91 5d 8e 3d 36 05 5a 3d 14 1c 87 3d 7c f0 c9 3d
       0.0695144 0.053227626 0.06597152 0.09860322
000230 31 2f 6a 3d 86 39 8e 3d cf 2f 28 3d ca 5d b4 3d
       0.05717391 0.069445655 0.04106122 0.08806951
000240 30 15 7d 3d be e6 6b 3d ad b8 a1 3c 72 47 ca 3d
       0.061787784 0.0575931 0.01974138 0.09876908
000250 de c3 97 3c 28 0b ef 3b 88 03 7c 3d aa 4f c6 3d
       0.018526014 0.007295031 0.061526805 0.096831635
000260 a9 f3 cb 3d 2b f0 02 3d df 5b b4 3d a6 ec 57 3d
       0.09958584 0.031967323 0.088065855 0.05271592
000270 d1 52 6b 3d 80 fa 98 3d 18 09 6d 3d fb fa f1 3d
       0.057452027 0.07469654 0.05787 0.11815449
000280 6f e5 a4 3c 9f e1 9d 3d 5b 20 93 3d 36 f6 83 3d
       0.020128934 0.077090494 0.07183906 0.064434454
000290 09 6a 83 3d 96 4f 5a 3d 08 52 68 3d 55 da 8c 3d
       0.06416709 0.053298555 0.056718856 0.06877581
0002a0 22 f4 2a 3d 8d 6f bb 3c 90 6f fe 3d 88 bd cb 3d
       0.04173673 0.02288034 0.124236226 0.099482596
0002b0 b2 76 7c 3d 12 8e bd 3d c5 c6 76 3d a4 b2 5d 39
       0.061636634 0.092556134 0.060248155 0.00021142751
0002c0 b2 57 6d 3d 8f b4 b5 3d 6d f6 27 3d 77 ea 86 3d
       0.05794496 0.088723294 0.041006494 0.06587689
0002d0 de 2a 18 3d 86 d6 9d 3d c7 92 7d 3d 1f 82 ae 3d
       0.037150256 0.07706933 0.061907556 0.085209124
0002e0 10 0a 1b 3d fa a2 d7 3c bc 99 4a 3d 8f 58 b4 3c
       0.037851393 0.02632283 0.04946302 0.022014884
0002f0 d6 b3 60 3d bb 17 4a 3d 2f 85 85 3d e1 12 dd 3c
       0.054859005 0.049339037 0.065195434 0.026986541
000300 6d 6a 42 3d 52 62 a7 3d 93 9a 33 3d 2b 8f 72 3d
       0.047464777 0.0817305 0.043848585 0.059218567
000310 d5 70 7e 3d 4a b9 4e 3d 65 74 96 3d 9d 58 91 3d
       0.062119324 0.050469674 0.07346419 0.0709698
000320 a3 b8 8d 3d 15 12 79 3d 87 1b 6d 3d cb 8b 58 3d
       0.06919982 0.06080826 0.05788758 0.052867692
000330 b0 cf 66 3d 54 4c 81 3d fd ff 2c 3d 0e 3f 20 3d
       0.05635041 0.063133866 0.042236317 0.039122634
000340 a4 76 95 3d 92 d5 5d 3d ea 58 8c 3d d5 fd 1d 3d
       0.072980195 0.054158755 0.068528965 0.03857215
000350 79 a1 8f 3d fc 36 80 3d 86 f1 8b 3d 42 54 0c 3d
       0.0701322 0.062604874 0.06833176 0.034260042
000360 f0 4c ce 3c b6 47 86 3d 47 77 9e 3d b3 6d ba 3d
       0.025183171 0.065566465 0.07737594 0.09102955
000370 42 e1 85 3d a5 cd 2e 3d 17 77 77 3d 5d 63 83 3d
       0.06537105 0.042676587 0.060416307 0.064154364
000380 17 01 51 3d 4c 8e 02 3d d4 00 1b 3d 87 fc 07 3d
       0.05102643 0.031873986 0.037842587 0.033199813
000390 9d a1 49 3d 88 b8 db 3d 0a df bc 3c 4e a9 95 3d
       0.049226392 0.10728556 0.023055572 0.07307683
0003a0 c9 af 52 3d 06 bc 9c 3d b8 67 82 3d aa 75 61 3d
       0.051437173 0.0765305 0.06367439 0.055043854
0003b0 91 64 4a 3d 98 39 64 3d 50 38 41 3d 3c 57 85 3d
       0.049412314 0.05571899 0.047172844 0.06510779
0003c0 87 2c 90 3d f5 f2 36 3d ae 97 9c 3d 55 a6 6f 3d
       0.07039743 0.044665296 0.07646118 0.058508236
0003d0 77 9f 9d 3d f6 da ec 3b ee 66 40 3d cd c9 6c 3d
       0.07696431 0.0072282506 0.04697316 0.05780964
0003e0 d5 18 49 3d 24 cc 9a 3d 5f fd 81 3d 6f 2d 86 3d
       0.049095947 0.07558468 0.06347155 0.065516345
0003f0 5a fd 87 3d 03 32 84 3d db 6c 7b 3d e6 e8 0c 3d
       0.0664012 0.064548515 0.06138311 0.034401797

bias_mu f4 [150]
000000 c3 51 51 bd c3 90 a5 3d 93 6f af bd 47 cf 87 bd
       -0.051103365 0.08084252 -0.08566203 -0.06631332
000010 57 64 b0 bd 26 fb 9f 3c 9a a4 a7 bd 7e 95 4f 3d
       -0.08612888 0.019528937 -0.08185692 0.050679676
000020 5d 2e cd 3d 22 f2 44 3d 5a d7 05 be 9f 01 01 be
       0.10018609 0.04808248 -0.13070431 -0.12598275
000030 70 64 00 3d a6 29 2f 3c 42 1c f5 bd ad 5c df bd
       0.031345785 0.010691082 -0.119682804 -0.109063484
000040 71 7d b4 3d 4c 7f 3b 3d 4d b3 50 bd 6c 39 e9 3c
       0.088129885 0.045775697 -0.050952245 0.028469764
000050 12 92 bf 3d b6 4e e1 3d fa 38 b4 bc 7f 1f 94 bc
       0.093540326 0.11001341 -0.021999825 -0.018081425
000060 31 0f a2 3d 05 e9 ef bd 7f 96 e6 bc 2a d5 ae 3d
       0.07913054 -0.11714367 -0.028147934 0.085367516
000070 40 96 f1 bd b7 7d ce bc bf 99 0b be 33 ce 86 3b
       -0.11796236 -0.02520643 -0.13632868 0.0041139363
000080 42 34 07 bd 3d 19 0c be a7 51 d7 bd 46 f1 07 3d
       -0.03300882 -0.13681503 -0.10513621 0.03318908
000090 49 80 81 3d e9 40 bf bc 0d dd 98 3d c9 39 51 bc
       0.063232966 -0.023346381 0.07464037 -0.012770125
0000a0 bf fa 7e 3d e8 16 fd bd c9 c6 c7 3d 99 ad 01 bd
       0.06225085 -0.12357885 0.09754712 -0.031659696
0000b0 48 3a 19 bd 3a 48 fe bb 75 ad dc bd bd 51 1a be
       -0.037409097 -0.007760075 -0.10775272 -0.15070243
0000c0 3b ef 30 bd b5 e6 f6 3d 98 e0 d3 3d cc 8c 8d bc
       -0.043196898 0.120557226 0.10345572 -0.017279051
0000d0 98 54 1f bd 6b 40 cc 3d 6f 31 a2 3d d1 8f 36 bd
       -0.038899034 0.09973224 0.07919585 -0.044570748
0000e0 3c 9b 45 bc 7b 40 b1 3b ff bd ae bd ea ea a3 bd
       -0.012060937 0.005409298 -0.08532333 -0.08003791
0000f0 21 84 98 3d 06 2d cc 3d 07 0d 7e 3d 8a f0 ef bd
       0.074470766 0.09969525 0.062024143 -0.11715801
000100 6e 00 ad bd 34 8d 1f bd a8 22 98 3d 2f 83 b4 bd
       -0.084473476 -0.03895302 0.07428485 -0.08814084
000110 3e 78 07 be 25 37 1e bd 6e 4c 00 3e 35 68 9a bd
       -0.13229463 -0.03862681 0.12529156 -0.07539407
000120 88 7a 48 3c 84 46 95 3d d5 50 be bd 9a bf 83 3d
       0.012236245 0.072888404 -0.09292761 0.064330295
000130 ed ef d0 bd 17 b7 65 bd 8d 18 42 bd aa 89 b0 3c
       -0.10202012 -0.05608281 -0.047386695 0.021550018
000140 29 e8 da bd 83 8a 7f 3d 66 36 bf bd d0 b6 b7 bd
       -0.10688812 0.062387954 -0.093365476 -0.089704156
000150 f2 09 ab bd 2d 2f d0 bd 98 f0 07 be 2a b5 ac bc
       -0.08351506 -0.10165248 -0.13275373 -0.02108248
000160 09 7c 97 bc f8 9a 80 3d 63 5b fd bd 9d 0b c8 bd
       -0.018491762 0.06279558 -0.12370946 -0.0976784
000170 09 bf ed bc 71 ab d0 bd 30 f8 2f 3d aa d7 64 bd
       -0.029021757 -0.1018895 0.0429613 -0.055869736
000180 2b 5b 00 be 14 0f d7 3d fa c8 40 3d 6f 8b b7 bd
       -0.12534778 0.10500923 0.047066666 -0.08962142
000190 a3 39 5a 3d 76 fd 31 bd de 59 e7 bd 03 cd 70 3c
       0.053277623 -0.04345461 -0.11296438 0.014697316
0001a0 a5 43 e2 3d 88 16 96 3c 11 c0 2a bd d1 08 7d 3c
       0.110480584 0.01832129 -0.041687075 0.0154439965
0001b0 5b 66 a7 bc 60 1e 3f bd 1e 55 02 3d f8 22 f5 3a
       -0.02043455 -0.046659827 0.031819455 0.0018702438
0001c0 75 7a 62 3d ed 61 bb bd aa f6 ab bd 16 e6 37 bd
       0.055292565 -0.09149537 -0.08396657 -0.04489716
0001d0 3e 81 55 3d c9 e2 9c 3c a6 fb 07 be 8e 71 a4 3d
       0.052125208 0.019151108 -0.1327959 0.08029471
0001e0 07 90 db 3d 11 79 76 bd 1b 9d 75 bd e0 97 b5 bd
       0.107208304 -0.06017405 -0.05996428 -0.088668585
0001f0 86 7c be 3d e6 95 00 be a9 e9 b7 3b 6b bd 92 bd
       0.09301095 -0.12557182 0.0056125713 -0.07165035
000200 8b c5 9f 3d a8 46 21 be 18 73 c2 3d 41 79 9f bd
       0.0780135 -0.1574961 0.09494609 -0.07786799
000210 f0 ed af 3c f2 9e 0a 3c 30 52 86 bd 59 9e 90 ba
       0.021475762 0.008460747 -0.06558645 -0.0011033519
000220 f0 d2 f4 bd 0c ae ed 3c 91 5d 78 bd 14 97 42 bc
       -0.11954296 0.029013656 -0.060636107 -0.01187684
000230 00 2e 11 be ca b3 9b bd cd 47 83 bd 9d 57 02 3c
       -0.14177704 -0.076026514 -0.06410179 0.007955459
000240 40 6f 78 3c f4 17 ca bd 72 8a 9a 3d 16 2f 6a 3d
       0.015163243 -0.0986785 0.075459376 0.05717381
000250 86 91 71 bd c4 32 03 3d
       -0.058976673 0.032030836

bias_sigma f4 [150]
000000 80 8b a1 3d f2 e6 5d 3d 13 db c0 3c 44 d3 5f 3d
       0.07887936 0.054175325 0.023541963 0.054644838
000010 5f 69 8f bb 3d 69 ed 3b 09 9d ef 3d 24 85 88 3d
       -0.004376575 0.0072452114 0.11699874 0.066660196
000020 c2 e1 8a bc 7b 1a 53 3d e2 2b 1e 3d 60 c8 40 3d
       -0.016953353 0.051538926 0.03861607 0.047066092
000030 17 34 9e 3d ae 95 2d 3c 77 ed d6 3c 34 6c af 3c
       0.07724779 0.010594768 0.026236279 0.0214139
000040 4a cb 18 3d 1e e8 e1 3c 40 f3 d4 3c 83 3b 49 3d
       0.037303247 0.027576502 0.025994897 0.04912902
000050 20 90 77 3d 72 00 45 3d b5 23 ae 3d fb e8 7e 3d
       0.060440183 0.048096128 0.08502904 0.062233906
000060 41 8a 2d 3d 24 86 0b 3b f6 e1 a8 3c 13 57 76 3d
       0.042368177 0.002128967 0.02061556 0.060141634
000070 f5 60 19 3d 3b 47 85 3d 5d bd 46 3d 39 c5 d7 3c
       0.03744598 0.06507727 0.048520435 0.02633916
000080 ce 61 22 3d d0 90 9e 3c 85 44 37 3d fa 44 12 3d
       0.039644055 0.019356161 0.04474308 0.035710312
000090 99 88 fe 3b d9 2c 46 3d 41 e3 3d 3d d6 aa d2 3d
       0.0077677486 0.048382614 0.046359304 0.102864906
0000a0 6e 91 53 3d 81 31 84 3d 9a e9 79 3c 9c 94 8b 3d
       0.051652364 0.064547546 0.015253449 0.06815454
0000b0 b5 a7 89 3d d1 6e 7f 3d 14 a3 6f 3c a6 15 1c 3d
       0.06721441 0.062361542 0.014626283 0.038106583
0000c0 c1 e8 da 3c 0f aa 69 3d fc 0a 8e 3d 86 ec 8f 3c
       0.026722314 0.057046946 0.06935689 0.017568838
0000d0 17 f1 06 3d e3 b1 39 3c 39 10 8a 3d 9f 73 47 3d
       0.032944765 0.011333915 0.067413755 0.04869425
0000e0 e9 c7 5a 3d e9 2b 32 3c 7e f1 35 3d 46 53 e5 3d
       0.053413305 0.010874727 0.044419758 0.11197524
0000f0 bd 56 6f 3d ab f4 77 3c 44 a1 a7 3d 31 b0 7c 3d
       0.05843233 0.015134017 0.08185056 0.061691467
000100 1e 2e 2f 3c 66 11 f5 3c 37 13 23 3d f3 2e 3c 3d
       0.010692148 0.029915523 0.039813247 0.04594321
000110 cd f8 0b 3d 11 43 d2 bc 02 ef 2d 3d 3e 5e 0d 3b
       0.03417282 -0.025666745 0.042464264 0.0021571065
000120 b0 71 61 3d 44 1a 62 3d b3 d6 56 3d 99 88 89 3c
       0.05504006 0.05520083 0.052450847 0.016788768
000130 4e 47 75 3d 3e cd e3 3b 90 07 df 3c 80 34 0d 3c
       0.059882455 0.006951957 0.027225286 0.008618474
000140 d0 7f 7b 3d 93 81 3b 3d 17 b9 8d 3d f6 ee 58 bc
       0.06140119 0.04577787 0.06920069 -0.0132405665
000150 30 6a 57 3d 9d 93 0c 3d 20 79 23 3b 38 18 80 3d
       0.052591503 0.034320462 0.0024944022 0.06254619
000160 47 91 e8 3b c2 a1 14 3d 60 3e 8c 3c f7 90 13 3d
       0.0070973965 0.036287077 0.017119586 0.03602692
000170 41 6b e9 3c 24 2f 46 3d 42 4a 36 3d a8 11 15 3d
       0.028493525 0.0483848 0.04450441 0.03639379
000180 43 0e 57 3d 62 f6 8a 3d 56 7c 87 3c c5 05 1f 3c
       0.052503835 0.06785275 0.01653878 0.009705965
000190 0f cf 31 3d f7 f8 72 3d 9e 71 65 3d d6 bd 3f 3a
       0.043410357 0.059319463 0.056016557 0.00073143595
0001a0 08 77 3f 3d 37 25 8c 3d 71 2d cd 3c 30 74 8c 3d
       0.046744376 0.06843036 0.025046082 0.068580985
0001b0 ef 7a 2e 3d 03 45 30 3d 71 cf 8c 3d 31 d5 e7 3c
       0.042597707 0.043034565 0.06875504 0.0282999
0001c0 50 89 dc bc 9e ac e0 3c 99 9e c8 3c 3c cb 99 3d
       -0.026920944 0.02742606 0.024489688 0.07509467
0001d0 a6 58 34 3c c6 54 29 3d 16 6e 90 3d 61 3d 82 3d
       0.011007464 0.041340612 0.07052247 0.06359363
0001e0 14 f4 f7 3c 8c 9c 5c bb 8a 3f fe 3b 5d 97 23 3d
       0.030267753 -0.0033662645 0.0077590393 0.039939273
0001f0 34 56 12 3d 52 52 1b 3d b6 cb 04 3c d2 29 ef 3c
       0.03572674 0.037920304 0.008105209 0.029194746
000200 15 9c c4 3c 26 92 0e 3d 16 df b1 3c 49 0b bc 3c
       0.024000207 0.034807347 0.021712821 0.0229546
000210 65 4a ce 3d c5 3f 81 3d d6 dd 0d 3d 23 87 95 3d
       0.100727834 0.06310991 0.034635387 0.07301166
000220 36 54 69 3d c4 98 cb 3c dd 1e 0d 3d d3 e9 9b 3b
       0.056965075 0.024853118 0.03445326 0.0047580986
000230 df b3 11 3b e6 a0 a1 3d 4b 53 55 3c 25 65 ac 3b
       0.0022232456 0.07892017 0.013020347 0.005261081
000240 0f 38 85 3d e1 38 3c 3d f9 da 9e 3d 80 fa 79 3c
       0.06504833 0.04595268 0.077566095 0.015257478
000250 b5 a9 65 3d 7a f4 53 3d
       0.05607005 0.051746823

weight_epsilon f4 [150, 64]
000000 5e e1 c4 3f 4c ba 40 3f 75 86 a0 bf 8c 03 79 3f
       1.5381277 0.75284266 -1.2541033 0.9727104
000010 26 41 60 be 63 5f 99 bf 77 b4 0f c0 77 9c 86 3f
       -0.21899852 -1.1982235 -2.2453897 1.0516499
000020 20 aa 5d bf 5e 41 9d 3f 5b 37 30 3f eb 2d c2 3f
       -0.86587715 1.2285573 0.68834466 1.5170263
000030 79 b2 a7 be cd 6c df bf 36 13 7a 3f 26 c8 9b 3f
       -0.3275335 -1.7455078 0.97685564 1.2170455
000040 9c 9d 9d bf 52 ac 02 3f 00 86 a2 3f 72 e8 d9 3f
       -1.2313724 0.5104419 1.2697144 1.7024062
000050 f0 d9 f7 3f 7c 5f de 3f 79 7f af bf e6 d3 7a 3f
       1.9363384 1.737289 -1.3710777 0.9797958
000060 3c ba 0e 3f 16 23 59 bf b2 ef 76 3f 4e 2d 7b 3f
       0.5575292 -0.8481916 0.96459496 0.98116004
000070 cf 25 dc 3f 89 e5 18 bf b7 39 da 3e e1 cd bd 3f
       1.7199038 -0.5972524 0.42622158 1.4828454
000080 82 2f 2c bf 9b 46 d3 bd 39 ac 96 bf 38 97 93 3f
       -0.6725999 -0.10316201 -1.1771308 1.1530523
000090 b3 48 52 bf 2b d3 18 bf 0f a5 15 bf a5 76 d1 bf
       -0.8214218 -0.59697217 -0.58454984 -1.6364332
0000a0 d7 0f 9e 3f f0 63 a9 3f e0 b4 ae bf cd b3 39 3f
       1.2348584 1.3233624 -1.3648949 0.7253998
0000b0 4c e3 96 be 0e 7e 02 3f e8 23 8c 3f 70 fa a0 3f
       -0.2947029 0.50973594 1.0948458 1.2576427
0000c0 d8 06 81 3f f7 14 6f bf 4b 8a 95 bf 1f a7 4a be
       1.0080214 -0.93391365 -1.1682829 -0.19790314
0000d0 38 1b c9 bf ae 56 0d c0 5b f2 7e 3f a4 a5 9c bf
       -1.5711432 -2.2084155 0.99588555 -1.223805
0000e0 5f 9d 18 bf e9 bc 56 bf e9 dc 42 3e b4 7e 48 3f
       -0.5961513 -0.83882004 0.19029583 0.78318334
0000f0 f3 15 43 bf 2d 9d 44 3f 58 cc 38 3f 9b 6f 8a 3f
       -0.76205367 0.7680233 0.72186804 1.0815309
000100 f7 2a 6a 3f 8f 3a e5 3e 67 ed 3e bf 67 16 14 3f
       0.9147181 0.4477124 -0.74581 0.57846683
000110 fb 5c 05 be 8b 6b 36 bf e5 eb aa bf fd 1a 20 3f
       -0.1302375 -0.7125785 -1.3353239 0.6254118
000120 af d2 03 bf c6 09 3b 3f 12 97 d1 3e 8f f4 66 3f
       -0.5149335 0.7306179 0.4093557 0.90216917
000130 26 75 47 be b3 de 84 bf f5 b7 14 3f 1e 49 39 3f
       -0.19478282 -1.0380462 0.58093196 0.7237719
000140 7d 77 3b bf e9 6b 9b 3e d5 4d 41 3f c7 96 81 3f
       -0.732292 0.30355766 0.7550939 1.0124139
000150 69 65 93 3f 89 3e 84 3f 5c bc 50 bf 8c 2a 15 3f
       1.1515323 1.0331584 -0.81537414 0.58268046
000160 45 c2 a9 3e 69 21 01 bf 1c da 12 3f b8 5f 15 3f
       0.33156028 -0.50441605 0.5736406 0.5834918
000170 c1 eb 82 3f 9d da b5 be 1b c7 81 3e 65 c0 61 3f
       1.0228196 -0.3551835 0.25347218 0.88184196
000180 cd cb cc be 29 4a 7b bd 7b 35 33 bf 0b 8b 2f 3f
       -0.39999238 -0.06135002 -0.7000348 0.6857154
000190 2a 1c fa be c5 c4 b5 be 79 fc b1 be 53 22 79 bf
       -0.48849612 -0.35501686 -0.34762934 -0.97318
0001a0 5b ff 3b 3f b4 78 49 3f 64 cb 4f bf 71 df dc 3e
       0.73436517 0.78699803 -0.81169724 0.43139222
0001b0 fc 76 33 be e2 34 9b 3e 81 ae 26 3f 5a 77 3f 3f
       -0.17525858 0.30313784 0.6511002 0.7479149
0001c0 9c 76 19 3f 56 2e 0e bf a4 dc 31 bf 98 08 f1 bd
       0.5994661 -0.55539453 -0.69477296 -0.11769217
0001d0 b6 31 6f bf 61 1b a8 bf a1 9d 17 3f 8e 50 3a bf
       -0.9343523 -1.3133355 0.592249 -0.72779167
0001e0 c9 84 b5 be 52 68 ff be b3 c4 e7 3d 8d 77 ee 3e
       -0.3545287 -0.49884278 0.11316814 0.46575585
0001f0 8a 08 e8 be dc d9 e9 3e 26 cc db 3e 92 a7 24 3f
       -0.45319015 0.45674026 0.4292919 0.6431819
000200 94 a9 ad 3e e1 ff 29 3e 3a 98 8d be dc a5 5b 3e
       0.3391844 0.16601516 -0.27655202 0.21449989
000210 f1 ce 45 bd 17 49 87 be 12 84 fd be 25 79 6d 3e
       -0.048293058 -0.2642295 -0.49514824 0.23190744
000220 1b 86 43 be da b5 8a 3e 6a 6f 1b 3e ac 47 ab 3e
       -0.19094126 0.27091867 0.1517922 0.3345312
000230 b9 eb 93 bd a2 13 c5 be 7c 95 5c 3e 1f 69 89 3e
       -0.07222695 -0.3849154 0.21541399 0.26838014
000240 38 07 8b be a2 86 e6 3d 72 5b 8f 3e d6 35 c0 3e
       -0.27153945 0.11256148 0.27999455 0.37541074
000250 58 9f da 3e 14 26 c4 3e 37 cd 9a be 72 3f 5d 3e
       0.42699695 0.383103 -0.30234692 0.21606234
000260 a1 ca fb 3d c1 87 3f be ba d0 59 3e 50 8e 5d 3e
       0.12294508 -0.1870413 0.21271029 0.21636319
000270 96 2f c2 3e 9c dd 06 be 86 7d c0 3d b8 6b a7 3e
       0.3792693 -0.13170475 0.09398942 0.3269937
000280 41 e1 17 be 39 5c ba bc 70 e7 84 be 7a 2f 82 3e
       -0.14832021 -0.022749053 -0.25957823 0.25426847
000290 42 7c 39 be 69 cd 06 be 4e ff 03 be f9 c2 b8 be
       -0.18113807 -0.13164295 -0.1289036 -0.36086252
0002a0 fa 6b 8b 3e 11 6a 95 3e 83 1a 9a be 7a cd 23 3e
       0.27230817 0.29182485 -0.30098352 0.15996352
0002b0 04 18 85 bd 04 35 e6 3d 30 3a 77 3e 87 fe 8d 3e
       -0.06498721 0.11240581 0.2414329 0.2773325
0002c0 18 9f 63 3e 1f e3 52 be b3 e7 83 be 10 c1 32 bd
       0.22228658 -0.20594452 -0.2576271 -0.04364115
0002d0 da 63 b1 be 61 57 f9 be 8e e1 60 3e 7e 2c 8a be
       -0.34646493 -0.48699477 0.21961042 -0.2698707
0002e0 f5 9d 06 be 01 6a 3d be 08 e2 2b 3d ca d9 30 3e
       -0.13146193 -0.18497469 0.041963607 0.1727058
0002f0 57 14 2c be 6e 6d 2d 3e 50 01 23 3e 7e 38 74 3e
       -0.16804634 0.16936275 0.1591847 0.23849675
000300 f8 b3 2a bf 40 1a a7 be 83 2e 0b 3f a3 e7 d7 be
       -0.6668086 -0.32637215 0.54367846 -0.42168912
000310 ff 6f c2 3d e7 fa 04 3f 19 32 79 3f 28 6d e9 be
       0.09494018 0.51945347 0.9734207 -0.45591092
000320 20 31 c0 3e b9 58 08 bf 53 c9 98 be 75 5c 28 bf
       0.3753748 -0.5326038 -0.29841098 -0.6576608
000330 6a 66 11 3e e1 b7 41 3f 2d d3 d8 be a9 11 07 bf
       0.14199224 0.756712 -0.42348614 -0.5276132
000340 b4 a8 08 3f f5 98 62 be 0b ea 0c bf 50 ef 3c bf
       0.5338242 -0.22128661 -0.5504462 -0.7380266
000350 98 e5 56 bf 5f ce 40 bf e3 29 18 3f 3f 7a d9 be
       -0.8394408 -0.753149 0.59438914 -0.4247608
000360 2d 80 77 be 32 44 bc 3e 80 1a d6 be c4 c7 d9 be
       -0.24169989 0.3677078 -0.41817093 -0.42535222
000370 71 e0 3e bf 41 91 84 3e c6 35 3d be 57 91 24 bf
       -0.7456122 0.2589207 -0.18477544 -0.6428427
000380 ac 4a 95 3e 38 2f 37 3d a3 a3 02 3f 14 ef ff be
       0.29158533 0.044722766 0.5103094 -0.4998709
000390 12 53 b6 3e 54 81 84 3e 76 bf 81 3e f2 9c 35 3f
       0.35610253 0.2587992 0.25341386 0.70942605
0003a0 bf 0b 09 bf 3e de 12 bf 3a 7a 17 3f e1 02 a1 be
       -0.5353355 -0.57370365 0.5917088 -0.3144751
0003b0 64 d3 02 3e bb 48 62 be a6 03 f3 be 13 93 0b bf
       0.12775952 -0.22098057 -0.4746372 -0.5452129
0003c0 16 be df be 1e 4b cf 3e 42 a8 01 3f 3e b5 af 3d
       -0.43699712 0.40486997 0.50647366 0.08579491
0003d0 fb 5d 2e 3f 9f 17 75 3f 81 0c dd be b4 d1 07 3f
       0.6811215 0.9573917 -0.43173602 0.53054357
0003e0 af 52 84 3e ae 2f ba 3e 2f f4 a8 bd 46 d6 ad be
       0.25844333 0.36364502 -0.08249699 -0.3395254
0003f0 a3 25 a9 3e d8 78 aa be 32 3a a0 be 12 0f f0 be
       0.33036527 -0.3329532 -0.312944 -0.46886498

bias_epsilon f4 [150]
000000 1b 2f a8 bf 62 09 48 bf a8 59 94 be 79 d2 11 3f
       -1.3139375 -0.7813932 -0.28974652 0.5696178
000010 0a 21 5c bf 5b 7f 73 3f bf 12 4d 3f 83 e4 8e 3f
       -0.85987914 0.95116204 0.8010673 1.1163486
000020 07 33 52 bf 39 f8 5e bf 41 e9 df be 4b 12 58 3f
       -0.8210911 -0.8709751 -0.43732646 0.8440291
000030 1f 51 62 bf a9 75 62 bf 6c 21 70 3f 73 77 e3 bf
       -0.8840503 -0.88460785 0.93801 -1.7770828
000040 32 06 25 3f 11 6b 37 3f 1d 8b a0 3f 12 d4 5a bf
       0.6446258 0.71647745 1.2542454 -0.85479844
000050 d9 b3 d9 3f df 64 d9 be 96 49 1b 3f 20 86 3b bf
       1.700801 -0.4245977 0.6065916 -0.73251534
000060 67 28 6d bf 4a 94 47 3f c5 02 a4 bd 29 a7 d0 3e
       -0.92639774 0.77960646 -0.08008341 0.40752533
000070 eb 19 c5 3f ed 96 17 bf 50 3f 4b 3f b4 04 13 3f
       1.5398535 -0.5921467 0.7939348 0.5742905
000080 34 6a b7 3f 76 80 5c 3f 57 4a 50 bf cf ca 73 bf
       1.4329286 0.86133516 -0.81363434 -0.95231336
000090 8c 7b 46 bf 1b 8a a9 bf 17 5c 45 bf 8c a3 43 bf
       -0.7753227 -1.3245271 -0.7709364 -0.7642143
0000a0 74 bd a3 3e 3d b7 3b 3e 44 b8 98 bf ef 48 93 3f
       0.3198048 0.18331619 -1.1931233 1.1506633
0000b0 14 47 9f 3f c3 6d 4b 3f 98 ed 91 3f 53 07 2d 3f
       1.2443566 0.7946436 1.1400633 0.675893
0000c0 42 25 8b 3f db 25 95 be 91 e0 81 bf 4b 63 a4 be
       1.0870745 -0.29130444 -1.0146657 -0.32107005
0000d0 f2 19 75 3f 6d 47 48 3f 51 fc a0 bf a1 e3 49 3f
       0.95742714 0.7823399 -1.2577001 0.7886296
0000e0 bc 6c 6b 3f f8 aa 12 bf 83 83 7f bf c2 54 01 3f
       0.9196279 -0.5729213 -0.99810046 0.50519955
0000f0 01 7d 71 bf 29 37 95 3f 6e 23 59 bf 80 0c 28 bf
       -0.94331366 1.1657459 -0.84819686 -0.65644073
000100 bb 93 86 3f fc 23 2b 3f 56 1f 74 be 6f b7 a0 3f
       1.0513834 0.6685178 -0.23840079 1.255598
000110 c5 3d 86 bf 82 b0 18 3f c7 7c 51 bf f2 28 c0 bf
       -1.04876 0.5964433 -0.8183102 -1.5012496
000120 9b ed cc bf fd 0a d3 3e 14 74 6a bf 05 1f 68 3f
       -1.6010011 0.4121932 -0.9158337 0.9067233
000130 03 ac 91 3f 8c 58 d4 3e 09 27 18 bf 0e 9f 0a bf
       1.1380619 0.41473806 -0.5943456 -0.5414895
000140 f3 5f 55 bf 99 5d 4a 3f 44 27 67 bf c6 93 9d 3f
       -0.8334953 0.7904907 -0.9029429 1.2310722
000150 17 41 3e 3f 9c 6c b4 bf d7 29 a5 3f 4f 43 97 3f
       0.7431807 -1.4095645 1.2903394 1.1817416
000160 6c 2f f8 3e 1b 19 b5 3f 79 5c 81 bf 8f f0 46 bf
       0.4847368 1.4148287 -1.0106345 -0.77710813
000170 98 50 a7 bf 46 5b c5 3f ef 2a 3a bf 8c bc 8b 3f
       -1.307147 1.541848 -0.7272176 1.0916915
000180 a7 b3 3f bf 69 8c 63 3e 2e 7e c6 3f ab 59 8b 3f
       -0.748835 0.22221531 1.5507257 1.088674
000190 6c df 9c bf bd 24 01 bf 9f 4e 75 3f d2 a7 0f 3f
       -1.2255683 -0.50446683 0.9582309 0.5611545
0001a0 03 51 be bf 10 67 8b bf cf 4d 3f bf e4 93 db be
       -1.4868473 -1.0890827 -0.747281 -0.4288627
0001b0 ba 09 34 bf 1b 75 17 bf 81 9e a7 bf 13 bf 56 bf
       -0.7032734 -0.59163064 -1.3095247 -0.83885306
0001c0 f3 6b ea be 81 30 30 3f 77 ce a6 bf c7 df 99 bf
       -0.45785484 0.6882401 -1.3031758 -1.2021416
0001d0 9f 60 9e bf fc c6 bd 3f 7b 6c 59 bf a6 c2 94 bf
       -1.2373236 1.482635 -0.84931153 -1.1621902
0001e0 ac 05 21 bf b2 06 25 bf 5e a9 b3 be f9 a1 ad bf
       -0.6289928 -0.6446334 -0.35090154 -1.3565055
0001f0 8e 9d 72 3f d1 87 7b 3e 69 68 81 bf 58 88 7e bf
       0.9477166 0.24563529 -1.0109988 -0.99426794
000200 03 a7 b4 3e 42 db 84 bf d9 6b 61 3e e3 86 68 bf
       0.3528367 -1.0379412 0.22013797 -0.9083082
000210 d4 3f 51 bf 62 f7 68 bf 84 bd 8a bf 9c dd 61 3f
       -0.8173802 -0.91002476 -1.0839086 0.88228774
000220 eb e2 01 bf d9 88 8e bf e8 72 d2 3e 7a f7 82 bf
       -0.50736874 -1.1135513 0.41103292 -1.0231774
000230 78 f9 80 3f e8 6e d4 be f5 97 15 3f 37 ca 17 bf
       1.0076132 -0.41490865 0.58434993 -0.5929293
000240 bc 07 83 3f 58 f6 0b bf 82 98 0d 3f 6b 84 b4 3f
       1.0236735 -0.54672766 0.55310833 1.4102911
000250 75 d5 56 bf 55 2a 20 3f
       -0.8391946 0.62564594

weight_mu f4 [100, 150]
000000 2e 1d 2b bd 44 a0 86 bc 58 3f 68 3d aa 73 81 3d
       -0.041775875 -0.016433842 0.056701034 0.06320889
000010 4c 7c ef 3b 04 02 5c bd f0 85 f3 bd 99 a8 e6 3c
       0.0073085185 -0.05371286 -0.11890781 0.028156566
000020 2d af 1c bc 1e 0b f0 bc 9e 39 d9 3c 35 93 71 bd
       -0.00956325 -0.029302176 0.026516732 -0.05897828
000030 0f 61 dd 3c 97 75 9f bd d0 a5 a7 3d 74 01 89 bd
       0.02702382 -0.077861 0.08185923 -0.0668973
000040 b8 57 d1 3c 2c de d2 bc 8f 86 dd 3d ab e9 93 3d
       0.025554523 -0.025740705 0.10816681 0.07222303
000050 d2 47 c6 bc 9d 33 0e 3c 09 5f af 3c 28 b7 10 bd
       -0.024204168 0.008679298 0.021407621 -0.03533092
000060 f8 78 09 3c 07 7c a5 3d d9 94 39 3c 03 5b 48 bc
       0.008390658 0.08080297 0.011326992 -0.01222873
000070 9a 5c c7 bd 99 dd 4a 3d 65 ee de bc c6 6a 75 3d
       -0.09734459 0.04952774 -0.027213285 0.05991628
000080 76 e9 77 3d 52 5b 0e b9 01 d4 b8 bc e2 80 a7 3d
       0.06052538 -0.00013576195 -0.022562029 0.08178879
000090 3b 16 9d 3d e3 0e 69 3d 37 a1 c2 bd 54 56 1e 3d
       0.07670256 0.056898963 -0.095034055 0.038656548
0000a0 e6 8a 4c bc 63 64 01 bd 49 43 41 bb 84 d9 9a bd
       -0.012484288 -0.031589877 -0.0029489568 -0.07561019
0000b0 2e d8 c2 3d 0f cb c3 bd 8b ff 61 3d 17 58 02 3d
       0.09513889 -0.09560215 0.055175345 0.03182229
0000c0 fe a1 1a bd 99 13 4a bd e0 bf 25 3d 26 0f 6f bd
       -0.037752144 -0.049335096 0.04046619 -0.058364056
0000d0 bf c8 00 bd 33 1b 64 bd 55 93 77 bc 97 ae 14 3d
       -0.031441446 -0.05569 -0.01511081 0.036299314
0000e0 81 d0 98 bd 06 b0 55 3d 5f d7 2a bd 5b da c3 3d
       -0.07461644 0.052169822 -0.0417093 0.095631324
0000f0 1e 0c 11 3d 9d 8f 59 3d 43 a1 eb 3c b6 09 c6 3b
       0.035411946 0.053115476 0.028763419 0.006043638
000100 a8 65 71 3c 1b 83 50 3c b0 b2 1f bd 9d a2 e8 3c
       0.014733709 0.0127265705 -0.03898877 0.028397853
000110 43 2c 0b bd 5e ee 2c 3d 15 88 1c bd 7b f7 a9 bd
       -0.03397776 0.042219512 -0.038215715 -0.08299156
000120 9a 43 f3 bc 2d fa 45 3c 7c 2d 0e bd a3 16 1c 3d
       -0.02969532 0.012083572 -0.034711346 0.038107526
000130 53 0b f0 3c cf 91 7a 3d 50 f2 6f bd 2c 97 5c 3d
       0.029302275 0.06117421 -0.058580697 0.053855106
000140 9b 7b 00 3d 74 f8 46 bb d4 6c 4b bb 2c fe 5f 3d
       0.03136788 -0.0030360492 -0.0031040208 0.054685757
000150 18 cf 8f bd bd 78 a1 3c 04 1e d9 ba b2 f6 81 bd
       -0.07021922 0.019710893 -0.0016564731 -0.063458815
000160 3d 43 62 bd f4 3c 5a bd 12 2a 76 3d 23 88 34 ba
       -0.055239905 -0.053280786 0.060098715 -0.0006886741
000170 76 2e 88 3d 01 23 b6 bd d7 09 c7 3c 3d 82 c8 3c
       0.06649487 -0.08893395 0.024296684 0.024476165
000180 5d dd 78 3d d3 50 8b ba 8c 8c d7 bc 1d 16 d5 3c
       0.060757983 -0.0010628946 -0.026312135 0.026011521
000190 a2 8a 80 3d 1b 4c 9e 3d 88 f9 6b 3d 30 d0 d2 3c
       0.06276442 0.0772936 0.05761102 0.025734037
0001a0 bb c0 8a bc 05 ce 6f bd eb 00 db bc 4a 3d 1e 3d
       -0.016937604 -0.058546085 -0.026733836 0.03863267
0001b0 20 f4 ed bc 37 22 51 bd 53 df 8f 3c 24 2a fe 3b
       -0.029047072 -0.05105802 0.017562544 0.0077564884
0001c0 d8 36 73 bd 86 ee 2c 3d 8e d7 82 bd d1 b2 92 bd
       -0.059378475 0.04221966 -0.0638877 -0.07163013
0001d0 a2 97 b3 bc a7 4b 21 bd bf 0a 74 bd 86 a3 9b 3d
       -0.02192289 -0.03937879 -0.05958056 0.07599549
0001e0 15 9c f9 bc b0 bd 18 3d fe 09 ed bb 11 b9 b9 bb
       -0.030469934 0.037290275 -0.007233857 -0.0056678136
0001f0 ca e2 84 3d bf 0f 13 3d e2 a6 81 3c fa 20 69 3d
       0.06488569 0.03590369 0.015826646 0.056916215
000200 52 1d 22 bc 89 19 1a 3d 65 94 d1 bd af 45 76 bd
       -0.009894686 0.03762201 -0.10233382 -0.06012505
000210 22 e1 e5 3c cd 23 a8 bd 39 fb a5 3b a4 9e 3f bd
       0.028061453 -0.082099535 0.0050653485 -0.04678215
000220 31 d9 4b bd af cc 51 bd d6 64 cb 3c be b4 81 bd
       -0.049767677 -0.051220592 0.024828356 -0.06333302
000230 36 13 b6 bb 05 6b 8d 3d e3 02 1e 3d bb d0 9b bd
       -0.0055564893 0.06905178 0.03857697 -0.076081716
000240 2d ac 78 3d b8 6c 90 ba 23 a3 87 bd 8f 58 c8 3c
       0.060711075 -0.0011018729 -0.06622913 0.02445629
000250 9a 66 a9 3d 0a 8a 9d 3d 7d d9 4c 3c 06 07 9a 3d
       0.08271523 0.076923445 0.012503025 0.07520871
000260 46 72 18 bc 15 f8 94 3c 7b b8 3d bd de 6a 1c bd
       -0.009304589 0.018184701 -0.046318512 -0.038187854
000270 95 a5 cc bd 89 61 aa 3d d9 83 02 bd 36 57 35 bd
       -0.0999252 0.083193846 -0.03186402 -0.044272624
000280 95 b1 2a bd 0d 9e 97 bd 59 f9 66 bd df fc 18 bb
       -0.04167326 -0.07403193 -0.05639014 -0.0023344082
000290 56 fa a9 bc 45 c2 06 bd d2 ba 4a bd fb dd 2b bd
       -0.020749252 -0.032900114 -0.049494572 -0.041959744
0002a0 29 4a 6e 3c 1b de 69 bd 48 bc 69 3d f1 00 b1 bd
       0.014544048 -0.057096582 0.057064325 -0.08642758
0002b0 00 6d 57 bd 31 95 73 3d cd 14 70 bd 7b 70 45 bc
       -0.052594185 0.059468452 -0.058613587 -0.012050743
0002c0 03 72 0b bb 75 aa 04 bd cf a7 fb 3c de ee ca bc
       -0.0021277673 -0.032389123 0.030719666 -0.024772104
0002d0 c9 d4 61 3d 72 7e 0f bd 24 ae 8d 3d 75 41 44 3d
       0.05513457 -0.035032697 0.0691798 0.047913987
0002e0 9f 36 29 bd ce 75 88 3d 47 87 c2 bc 5d 50 40 bd
       -0.041311856 0.066630945 -0.023746146 -0.04695164
0002f0 49 1d 70 bd 05 6c cc bd a0 71 bd bd 3c 53 29 ba
       -0.05862168 -0.099815406 -0.09250188 -0.0006459241
000300 f5 22 f4 bc 67 a7 74 bc 53 d7 aa bc 68 94 a4 3c
       -0.029801825 -0.01493249 -0.020854628 0.020090297
000310 ea 4e 36 bd af b1 8a 3d 76 60 b6 3c 64 28 b1 bb
       -0.044508852 0.06772172 0.022262793 -0.0054064263
000320 d8 bd 75 bd ee 2b c5 3c 38 53 bd 3d 74 48 95 3d
       -0.059995502 0.024068799 0.09244388 0.0728921
000330 a4 3e a9 3d 26 9f 49 bc 25 e7 6a 3a 93 a0 ee 3c
       0.08263901 -0.01230601 0.0008960835 0.029129302
000340 77 9c 69 3c c6 42 ef 3d 8b 32 56 bd e5 1b cc 3c
       0.0142584955 0.11682658 -0.052294295 0.024915645
000350 88 0f ab 3c 4c 3e 56 3d 2a eb 96 3c b9 98 8a bc
       0.02088143 0.052305505 0.018422682 -0.016918527
000360 a0 fc bf bd d4 50 2f 3d 7d 0c 66 3d 71 bd 44 3b
       -0.09374356 0.042801693 0.056164254 0.0030020142
000370 08 60 d1 bc 12 07 ce bc ba 08 9c bd 89 27 df 3d
       -0.025558487 -0.025149856 -0.07618852 0.108962126
000380 9b 91 dd 3b 1d ae 68 3d 44 89 8f bc 4a 5b 86 bd
       0.0067617423 0.056806672 -0.017521508 -0.06560381
000390 77 24 ec bc 43 f5 9e 3b 85 7b 86 bd 46 a8 ac bd
       -0.028825982 0.004851015 -0.06566528 -0.08430533
0003a0 0c aa bb 3c bb 28 79 3d df 00 8d bd 4a 35 1b bd
       0.022908233 0.06082986 -0.06884932 -0.037892617
0003b0 ac 9c 89 3d f9 5d b8 ba fc d2 83 3c cd 33 9a bd
       0.06719336 -0.0014066092 0.016091816 -0.075294115
0003c0 28 17 8f bd 07 8b e1 bb a7 6a 53 3d 3b 9a 6c bd
       -0.069868386 -0.0068830284 0.051615383 -0.057764273
0003d0 76 96 4d 3d 8b fd 3b bd ef 7d ac bd ee eb 33 bb
       0.05019232 -0.045896094 -0.084224574 -0.0027453857
0003e0 37 26 c1 39 60 f0 6a bc 44 2a 90 3d d1 3f 00 bd
       0.000368403 -0.014339536 0.070393115 -0.03131086
0003f0 6e 4b a3 bd 8f 27 f4 3c bd 4e a1 bd 8f 02 da 3c
       -0.079733714 0.02980402 -0.07876346 0.026612548

weight_sigma f4 [100, 150]
000000 c0 dc 26 3d d6 01 45 3d ba b6 51 bb 4e a4 ba 3d
       0.040737867 0.048097454 -0.0031999783 0.0911337
000010 6a 41 49 3d 76 c6 b5 bb 96 b9 4d 3c 98 90 99 3c
       0.04913465 -0.00554734 0.012556454 0.018745705
000020 73 47 f2 3c 7d a3 f9 3c ab 93 86 3d 34 84 03 3d
       0.029575085 0.030473465 0.06571134 0.0321085
000030 7d 61 89 3d 1f 0b 5e 3c 2c fa de 3c a9 60 44 3d
       0.067080475 0.013552456 0.0272189 0.047943745
000040 7b 74 3e 3d ec 42 a1 3c 3f fd 3a 3c fd 94 31 3d
       0.046497803 0.019685231 0.011412918 0.043354977
000050 75 a7 0f bc ad d0 66 3d 2e c9 85 3d c0 30 e4 3c
       -0.008767952 0.056351352 0.065325126 0.027855277
000060 63 7e ae 3c 94 98 53 3d d6 20 3c 3d 87 31 59 3d
       0.0213005 0.05165918 0.045929752 0.05302575
000070 58 c5 4c 3d a6 6f f8 3c 8b 70 9e 3c 73 7e 19 3d
       0.04999289 0.030326676 0.019340774 0.037474107
000080 e1 25 8a 3d a7 82 f8 3c de 68 04 3d 4f a4 de 3c
       0.06745506 0.030335737 0.03232657 0.027177958
000090 ed cd f6 3a 63 d2 39 3d 56 29 9a 3d b6 01 4c 3d
       0.0018829681 0.045366656 0.075274155 0.04980632
0000a0 1e e0 4e 3d 59 fa 0b 3d c7 41 a0 3d a1 84 92 3d
       0.050506704 0.034174297 0.07825046 0.07154203
0000b0 87 40 41 3d 09 6b 48 ba 98 ca d8 3c 5d 67 1b 3d
       0.04718068 -0.0007645344 0.026463792 0.03794037
0000c0 a8 63 75 3d 0a 98 3b 3d 44 5d b4 3d 88 62 cb 3c
       0.059909493 0.045799293 0.088068515 0.024827257
0000d0 f5 b4 2a 3d 0c ab 2d 3d 4a 87 f4 3c 13 41 f7 3c
       0.04167648 0.04239945 0.029849667 0.030182397
0000e0 38 fd 46 3d a2 d9 12 3c 12 10 48 3d 4f cf 4f 3d
       0.048581332 0.0089630205 0.04884345 0.050734814
0000f0 7b 45 0a 3d 25 61 83 3d 87 84 90 3c 17 24 c7 3d
       0.033757668 0.06415013 0.017641319 0.097236805
000100 e6 b6 d5 3c 7d ca a6 bb 2f ff f2 3b 5b 4f a0 3c
       0.02608819 -0.0050900565 0.007415674 0.01956909
000110 a3 18 2d 3d 3e a2 1e 3d 22 2d 59 3d d9 f2 4f 3d
       0.042259824 0.038728945 0.053021558 0.050768707
000120 87 66 45 3d 95 99 ed 3b a0 41 9b 3c a9 0c d0 3c
       0.04819348 0.0072509744 0.01895219 0.025396662
000130 72 0f dc 3c 59 cd 37 3d 80 04 0b 3d 5b 79 42 3d
       0.026862834 0.04487357 0.03393984 0.047479015
000140 0b 64 45 3d 13 72 f0 3c 33 0f c8 3c d5 4b 24 3d
       0.04819111 0.02935127 0.02442131 0.04011138
000150 7c 98 10 3d 94 6e 4b 3d d7 c9 77 3d 50 da 14 3d
       0.03530167 0.049666002 0.060495224 0.03634101
000160 e7 41 38 3d 01 ee 66 3d 58 67 2a 3d 64 85 6f 3d
       0.044984724 0.056379322 0.041602463 0.05847682
000170 1b 18 bd 3c 6e 67 42 3d 4d d0 4e 3d fc d9 7b 3c
       0.023082783 0.04746192 0.05049162 0.015371796
000180 62 4c 82 3d ed 8b 55 3d 8b 00 14 3d 7d d7 bd 3a
       0.06362225 0.052135397 0.03613333 0.0014483776
000190 67 2b b4 3c 86 5b d5 3c d5 85 25 3d 1d ba 5c 3d
       0.021993352 0.026044618 0.040410835 0.05388843
0001a0 24 01 a9 3d ea 52 6e 3d dd 62 75 3d 7c 50 53 3d
       0.08252171 0.05818454 0.059908736 0.051590428
0001b0 18 dc 3e 3d 2e a9 22 3d 60 cf 27 3d 3f 71 03 3d
       0.046596617 0.039712124 0.040969253 0.03209042
0001c0 42 30 26 3d 86 13 b1 3d 92 47 1c 3d 92 e5 a2 bb
       0.040573366 0.08646302 0.038154192 -0.0049712146
0001d0 55 43 40 3d 2f 6a 67 3d 2c bd 17 3d 74 dc 23 3d
       0.046939213 0.05649775 0.037045643 0.040005162
0001e0 96 1a 51 3c 51 21 6e 3d b8 b5 5b 3c a4 10 d0 3c
       0.012762686 0.05813724 0.013410024 0.02539856
0001f0 bb bc 8d 3d fc 04 6f 3d b4 f2 89 3d 59 e8 1e 3d
       0.06920763 0.058354363 0.06735745 0.038795803
000200 bd 8b 02 3d b9 38 73 3d 62 76 d8 3c f9 c5 4a 3d
       0.031871546 0.059380267 0.026423637 0.049505208
000210 21 1d e7 3c 78 d6 89 3d e2 67 99 3d 22 43 79 3d
       0.028212132 0.0673036 0.07490517 0.06085504
000220 80 d7 65 3d 92 2f 3d 3d 3a a0 36 3d a5 2f 01 3d
       0.05611372 0.046187945 0.044586398 0.031539578
000230 6c 72 3b 3c 9f c5 8a 3d a9 d4 7c 3d 87 71 e9 bb
       0.0114408545 0.067759745 0.061726246 -0.007124129
000240 d2 73 03 3d 76 68 94 3c 94 9f 48 3d 1f 29 b5 3c
       0.032092877 0.018116217 0.04898031 0.022114335
000250 ca 78 bf 3c 27 2b fe 3c 7c 60 8c 3c 50 4f 67 3c
       0.023373026 0.031026436 0.017135851 0.014118031
000260 fc 6a 90 3c 74 d0 0e 3d d4 74 80 3c 10 4d f3 3c
       0.01762914 0.034866765 0.015680708 0.029699832
000270 fe f8 f9 3c af 63 68 3c 78 bf 98 3b 99 0f 7a 3d
       0.030514237 0.014183923 0.0046614967 0.06105003
000280 9c da 70 3d cf 77 ad 3b ca c4 fb 3c 9d eb 22 3c
       0.058802232 0.0052938233 0.030733485 0.00994387
000290 e8 cb 20 3d 2d 34 6c 3d c0 31 15 3d 41 5d 71 3d
       0.03925696 0.057666946 0.0364244 0.058926824
0002a0 35 b0 8c 3c b5 3c 8c 3d 60 8a 87 3d be 84 1e 3d
       0.017173866 0.068475164 0.0661819 0.03870081
0002b0 cc 83 a9 3c 0c 1a 1c 3d 8c a6 f2 3c 7c 1c 02 3d
       0.020692728 0.038110778 0.029620431 0.031765446
0002c0 c4 74 11 3d 71 79 6e 3d 75 f4 a5 3c e9 e4 d7 3c
       0.035511747 0.058221284 0.020258168 0.02635427
0002d0 b1 36 98 3d af 4e 33 3d e2 d0 36 3d 3f 17 4a 3d
       0.074323066 0.04377621 0.0446328 0.049338575
0002e0 f1 fa c1 3c 4d 8f 6c 3d 33 d8 26 3c 4c 7e 47 3d
       0.023679228 0.05775385 0.010183382 0.04870443
0002f0 db e9 31 3d d4 0f d0 3c 6d e8 5d 3d 3a b9 70 3d
       0.043435913 0.025398172 0.054176737 0.058770396
000300 47 cd 84 3d e3 b7 56 bd 1d e8 25 3c df 09 8c bb
       0.06484466 -0.05242146 0.010126141 -0.0042736377
000310 f2 44 50 3d 55 e9 40 3c 80 5e 99 3c 9c f8 d0 3b
       0.050847 0.011774381 0.018721819 0.006377293
000320 65 bb fd 3c 59 e2 8c 3c 7a 84 85 3d 2b d5 61 3d
       0.030973146 0.017197775 0.065194085 0.055134933
000330 ba 13 78 3d 40 bf e2 3c 11 29 f5 3c 9b 8b 14 3d
       0.060565688 0.027679086 0.029926809 0.03626595
000340 33 75 a1 3a 10 41 f6 3d f7 57 4c 3d 05 c4 c3 3d
       0.0012318253 0.120241284 0.049888577 0.09558872
000350 a1 ea 24 3d ca d0 24 3d 13 af 64 3d 02 34 02 3d
       0.040262822 0.04023818 0.055831026 0.03178788
000360 cf 30 82 3c 64 1c a9 3c 26 21 00 3d 26 31 03 3c
       0.015892414 0.02064342 0.031281613 0.008007323
000370 b3 99 1d 3d b2 53 42 3d 25 57 56 3d 85 d5 9d 3d
       0.038476657 0.0474431 0.0523292 0.07706741
000380 4a b7 10 3d f6 ed d4 3c 3e f2 cb 3c 3d b8 2b 3d
       0.035331048 0.025992375 0.024895784 0.04192375
000390 84 75 5a 3d 9b f7 cd 3c fb 45 29 3d 93 51 69 3d
       0.053334728 0.025142482 0.041326504 0.05696256
0003a0 80 d6 b9 3c d0 4b 2d 3d a0 04 a0 3c 91 27 a8 3d
       0.02268529 0.04230863 0.019533455 0.08210672
0003b0 eb 64 e8 3b 7a ad d8 3c 33 d1 59 3d fd 5c 3c 3d
       0.0070921085 0.026449908 0.053178024 0.045987118
0003c0 cd f4 49 3d dd 60 f9 3c 08 d0 30 3d 88 84 4a 3d
       0.049305726 0.030441696 0.043167144 0.049442798
0003d0 24 dd 5b 3d dc d4 80 3d 4c 5d 2a 3d e2 56 3c 3d
       0.053677693 0.062906 0.04159288 0.045981295
0003e0 de f1 0e 3d 10 80 17 3c 41 39 78 3d 84 08 47 3d
       0.03489863 0.009246841 0.060601477 0.048592106
0003f0 8a 51 2a 3d 56 83 87 3c 4f 56 99 3d 19 ff 08 3d
       0.041581668 0.016542118 0.07487165 0.033446405

bias_mu f4 [100]
000000 d0 ef b2 3c 6b d0 2c bd 01 c6 87 bd 67 09 ac 3c
       0.021842867 -0.04219095 -0.06629563 0.021000577
000010 88 f3 c1 bd 6e 5c 61 bd 5c ba 94 bd 1f 39 a1 bd
       -0.09470278 -0.05501979 -0.07262108 -0.07872223
000020 bc 1d d7 3c 73 02 6d bd 86 2c 53 bc 97 3a 8a 3c
       0.026259296 -0.057863664 -0.012889033 0.016873641
000030 83 54 b8 3d 45 c6 2b 3d 7c 39 5b 3b a8 9f c4 bc
       0.09000494 0.04193713 0.0033451011 -0.024001911
000040 4c 2b c9 3c 42 b5 12 3d 6b bf 7f bc c2 5d 08 3c
       0.024556778 0.035817392 -0.015609602 0.008323135
000050 2c f5 1a be d8 41 b5 bd 73 02 0d 3d 73 82 02 bd
       -0.15132588 -0.08850449 0.034426164 -0.031862687
000060 24 eb 5d 3c 98 a0 9c bd af 81 85 bd 6e 7b d4 bd
       0.013544831 -0.07647818 -0.06518876 -0.10375105
000070 08 fb 4d bd 3e 36 15 3c 14 16 b1 3c 0c 15 49 3d
       -0.05028823 0.009107171 0.021616973 0.049092337
000080 df 91 6b bd 1f 51 32 bd 6b be 89 bd ac ab 9f 3d
       -0.05751216 -0.043534394 -0.067257725 0.07796416
000090 1c f5 cb bc 68 76 4a 3c 5a 7e 6c 3c 28 4a 71 bd
       -0.02489715 0.012357332 0.014434421 -0.05890861
0000a0 13 1e ad 3d 34 34 01 be 7b 4b 11 3d 61 7e 89 bd
       0.08453002 -0.1261757 0.035472374 -0.06713558
0000b0 62 ed f2 bc 4d 99 94 bd a9 89 8c bd 80 80 80 bd
       -0.029654209 -0.07255802 -0.06862194 -0.062745094
0000c0 e1 1c 72 bd 89 4d 87 3b 22 66 5b bd 0b 56 0d 3d
       -0.059109572 0.004129116 -0.0535642 0.034505885
0000d0 ca 86 15 3d 9a 75 09 bd ec 6e 23 3d 0a 1e 5a 3c
       0.036505498 -0.03355942 0.039900705 0.013312826
0000e0 50 59 eb bd 84 cb 7d bd 57 40 57 3c 9c 6d 88 3d
       -0.114916444 -0.061961666 0.013137898 0.06661531
0000f0 04 cb 0c be 39 66 05 3d 92 69 08 bd 8c 41 95 bd
       -0.1374932 0.03256819 -0.033303805 -0.07287893
000100 d6 03 d7 bc ab 81 a2 3b 61 2f 5e 3c a9 39 a1 bd
       -0.026246946 0.0049593053 0.013561101 -0.07872326
000110 74 b8 99 bd 99 62 4d 3d b1 23 3c bd 87 04 c0 bd
       -0.07505885 0.05014286 -0.045932475 -0.093758635
000120 73 db f1 3c a3 1e 13 bd 60 e9 e5 bc 0d 79 74 bd
       0.029523587 -0.03591789 -0.028065383 -0.059685756
000130 9d 9a d8 bd ec 8c 78 bc d1 6c 22 bd d3 7e 37 bd
       -0.10576365 -0.015170317 -0.039654557 -0.044798683
000140 fe b7 c2 3b dd 7f 92 bd 12 1f 9e bc 1f 6a 69 3d
       0.0059423437 -0.07153294 -0.019301925 0.05698597
000150 70 ef 78 3d 6c 38 df 3b 6b e6 69 bd 25 c2 e9 b9
       0.06077522 0.006812146 -0.05710451 -0.00044585872
000160 47 45 cc bd 07 68 81 bc 75 e5 df 3c 94 86 0a 3d
       -0.09974151 -0.015796674 0.027331093 0.03381975
000170 a4 57 5f 3c e0 39 a1 3c 1c 34 c6 bc e1 c8 11 3d
       0.013631735 0.019680917 -0.02419477 0.035591964
000180 6a 66 86 bd 56 6a 88 bc 53 dc c7 bc d9 90 d1 bd
       -0.06562503 -0.016652267 -0.024397051 -0.102327056
