saved_models/08-11 14:48.pth (torch, 500637 bytes, 23 tensors)

weight_mu f4 [150, 64]
00000000: 0aa8 d6bc dda7 1abd 43fe f5bd 3d6d 173e
00000010: f834 0bbe 5877 a63b a8c8 73bc 1d04 e53d
00000020: 41fc e13d 90be 163d e781 9f3d 96e2 ff3c
00000030: 1ebe 733d 0ab8 2a3e 9d20 063d 5d65 b1bc
00000040: 9cb7 223e c900 0f3e e74b f23b 9b14 edbd
00000050: 4cc8 cbbc 0eed 9ebd 0c3a e8bd a7be 00bd
00000060: 37fc 7abd fa86 653d 8964 a73d a430 af3d
00000070: c63c 90bd cf98 66bc 753d afbd a900 003e
00000080: 7bb2 7dbb dc60 be3d 2df9 0c3e 5ec4 73bd
00000090: f0a2 14be b553 4c3c adac 9c39 d6a2 c73d
000000a0: a265 6bbc 0dc3 903c 1a57 66bd a55c 073e
000000b0: 0fa3 a6bd e0bc 36bb 756e 1f3e 422c 803d
000000c0: 9e8b 253e 0aad ae3c 8b3b 54bd 4b25 af3d
000000d0: 4fbc 88bc ede1 3b3d 1e7a ebbc 81ef 07be
000000e0: a00d 823d 58b6 91bd a1ab 1abd ddce 223d
000000f0: f7c8 fc3d 091f bbbd e444 edbd 4a67 2f3d
00000100: 96f6 b43d d5ee 30bd 84a3 b3bd cf92 963d
00000110: 9938 fa3c 300d 803d 3b8f 01be 2c57 00bd
00000120: e6f6 c8bd 2f71 99bd bea1 ff3d b116 af3d
00000130: 7103 013a b9c6 1ebc 8251 c5bd 99b8 9cbd
00000140: ee98 1b3c 59fa 9a3c 911b cabd 7276 d3bd
00000150: 95d5 3d3b ef04 503d 1f87 d9bd 00aa 1bba
00000160: eadf bb3d b976 653d 6824 1a3d 7d25 d43c
00000170: 2fa1 1ebd e0bc 01be b98e a639 fee2 bbbd
00000180: 49dc 103e 11f4 3abc 94ab a13d 478c a83a
00000190: bad7 373d f5c0 58bc 5548 02be 3ab9 5f3d
000001a0: ccdb 923c 9e74 66bd 750b 773c 0045 323d
000001b0: 7ef8 093d 8e5b b83d f7d3 093c 3f0b bfbd
000001c0: 4410 a5bb 694e f3bb 8b68 85bd 2b06 613d
000001d0: bd32 fcbd 6834 2d3c 6f60 86bb 64b9 f6bc
000001e0: 4d48 293d aafa 8d3d e0d6 9ebd 7e94 efbd
000001f0: d4b3 8e3b 2923 f63c cf22 adbd 8740 e63d
00000200: dcc1 bb3d c6c9 d6bd f4d5 acbd 76dc 0b3e
00000210: 28dc 06be 1245 e3bd 5832 353d cf37 b03c
00000220: 4e25 9d3d e52e 04bd 2aaa b4ba 4cf7 533b
00000230: 9133 0a3c d545 f03d fd88 f0bd 47c1 453d
00000240: a95d 953d bd48 d83d cb5d 653d 8140 00be
00000250: c948 0c3e 1d04 d23d 8047 24bd f0b5 313c
00000260: 94da 103e c68c 2abe 237e 13be 1243 643c
00000270: cc74 cdbd 9399 33be 58ad b6bd 0cd2 753d
00000280: 845d fbbc c377 76bd f926 bb3d 1340 25be
00000290: bf25 d0bd 5221 19be d06b dabd 59fb 8a3c
000002a0: 9dde df3d 73f9 5b3d 838f 17bd 1259 80bd
000002b0: 66a7 843d 855c 5fbd 7ad7 313d af0e 1d3e
000002c0: b3dc 0e3e e3e7 e73d e983 72bd 9459 683d
000002d0: 5bdd ac3c 0495 78bd 75a3 a73d 5583 a8bd
000002e0: 7133 94bd 4dcf 6c3c a808 7dbd 1684 97bd
000002f0: 3571 353d 55db b3bd 1609 e7bd 6127 ad3d
00000300: ce45 94bc 2403 a23c a47f 903d 881a 183e
00000310: 329d 85bc c334 853c dd1c cabd 13ba 133e
00000320: 5761 203e 8529 dbbd 7c00 0e3e c927 883d
00000330: 9871 8e3d a991 d53d 50f5 8bbd 2cac 923d
00000340: 1f2c f23d 469f 81bd de0a 00be 0ccc 20bd
00000350: 01d4 64bd 4d95 423d 8fb0 48bd 8c9e ecbd
00000360: 2194 8fbc c982 4c3d 39d0 393d 36a5 0b3c
00000370: 5bf0 51bd eebc a2bd 975e 6c3d ecaa 043e
00000380: 1ebc fd3b 8215 0d3d 0e20 f93d 5903 083d
00000390: 204b 4bbd f700 b6bd a6f1 18be a042 18bc
000003a0: 49b4 423e 8627 a8bd 69e8 b3bc 500f a63d
000003b0: 6900 d5bd 77cb 2cbd 92a6 92bd 3114 9f3c
000003c0: c5f4 0b3e 602b 103e 9ebd adbc 5eae c53d
000003d0: 7799 a2bd bdee 8cbd 2341 34bd 080f 363d
000003e0: 8ec6 adbc d1cf 213e 47de 94bd 0253 07be
000003f0: 999d c63d 016c 9c3c 0049 96bd 2865 143c
-0.026203174 -0.037757743 -0.12011387 0.14787765 -0.13594425 0.005080145 -0.014879383 0.11182425
0.11034442 0.03680283 0.07788449 0.031235974 0.05950748 0.16671768 0.032745946 -0.02165478
0.15890354 0.13965143 0.007394302 -0.11576196 -0.024875782 -0.07760058 -0.113391966 -0.03143182
-0.061275687 0.056036927 0.081734724 0.08554199 -0.070428416 -0.014074518 -0.08556644 0.12500252
-0.003871112 0.09295818 0.13766928 -0.059513442 -0.1451528 0.012471129 0.00029883292 0.09747855
-0.014367493 0.017671132 -0.05623541 0.13218935 -0.0813657 -0.0027883574 0.1556948 0.062584415
0.16166541 0.021322746 -0.051814597 0.08552035 -0.016691355 0.045869756 -0.028744753 -0.13274957
0.06350255 -0.071148574 -0.037761334 0.03974806 0.123430185 -0.09136779 -0.115854055 0.042823114
0.08836095 -0.043196518 -0.087714225 0.0735222 0.030544566 0.06252515 -0.12652294 -0.031333134
-0.09812717 -0.07492291 0.12482022 0.0854925 0.0004921472 -0.009690934 -0.09634687 -0.07652397
0.0094969105 0.018918203 -0.09868539 -0.10325326 0.0028966416 0.050785955 -0.106214754 -0.0005938113
0.091735676 0.056021426 0.037632376 0.025896782 -0.038727935 -0.12669706 0.00031768324 -0.09174155
0.14146532 -0.011410729 0.07894054 0.0012859189 0.044883467 -0.013229598 -0.12722905 0.054620005
0.017927073 -0.05626356 0.015078415 0.043522835 0.033684246 0.09001838 0.008412353 -0.09328317
-0.0050373394 -0.0074251187 -0.065140806 0.054937523 -0.12314365 0.010571577 -0.0041008512 -0.030117698
0.041328717 0.06932576 -0.07755828 -0.116982445 0.0043549333 0.030046063 -0.08453905 0.11242776
0.09167835 -0.10487704 -0.08439246 0.13658318 -0.1316992 -0.110971585 0.044237465 0.021510987
0.07673131 -0.032271285 -0.0013783623 0.0032343445 0.008435146 0.117320694 -0.117448784 0.048280027
0.07293255 0.10560749 0.05599765 -0.12524606 0.1369964 0.10254691 -0.04010725 0.0108466
0.14145881 -0.16655263 -0.14403586 0.013932006 -0.10032043 -0.17539053 -0.089197814 0.06001477
-0.03068424 -0.060172807 0.09138293 -0.16137724 -0.101634495 -0.14954117 -0.10665095 0.016965555
0.10931132 0.05370469 -0.037002098 -0.06266989 0.06477241 -0.054531593 0.043418385 0.15337633
0.13951378 0.11323526 -0.05920783 0.056726053 0.021101644 -0.060688987 0.08185474 -0.082281746
-0.07236374 0.014453721 -0.061775833 -0.0739824 0.044297416 -0.08782069 -0.1128103 0.084547766
-0.018099692 0.019776888 0.070555955 0.14853871 -0.016310308 0.01626051 -0.098687865 0.1442645
0.15662132 -0.107012786 0.13867372 0.066482134 0.0695526 0.10428173 -0.06833899 0.071617454
0.11824822 -0.06329207 -0.12504146 -0.039257094 -0.055866245 0.047505666 -0.048996504 -0.11553678
-0.017526688 0.049929414 0.045364592 0.008523276 -0.05125461 -0.07946192 0.057707395 0.12955827
0.0077433726 0.03444434 0.12164317 0.033206318 -0.04963219 -0.08886903 -0.14935932 -0.009293228
0.19014086 -0.082106635 -0.021961408 0.081083894 -0.10400469 -0.042186227 -0.07160677 0.019418808
0.13667591 0.14079046 -0.02120858 0.096523985 -0.07939427 -0.06881473 -0.04400743 0.04444793
-0.021212842 0.15801932 -0.072689585 -0.13215259 0.09698028 0.019094469 -0.073381424 0.009057321

weight_sigma f4 [150, 64]
00000000: 31c4 a43d edca af3d 8490 693d 0378 453c
00000010: 130d 9d3d 35b4 e53c b916 653d 60f0 e73d
00000020: 5a9d 793a bf6d 7b3d 622b cb3d eadd 3e3d
00000030: 0657 d43d 696e 643d 33b0 5c3d cf88 983c
00000040: c36c e53c 23eb 783d 9931 693d c3c7 423d
00000050: 5f6c 703d 69ad 543d f5a2 063d 66b1 a33d
00000060: a43b 823d 05e9 843d 9b55 7e3d 1e56 bb3d
00000070: 4331 0e3d 47a4 7c3d d601 983d f490 ca3d
00000080: b8fb 5e3d 372d 783d a2e4 9e3d c748 7a3d
00000090: 5b45 803d cdfe 873d e289 623d fabe fe3c
000000a0: 7444 6e3d 955d bf3d 0c1e 053d 7ec1 893d
000000b0: 4556 c83d 20c3 b03d eaa1 993d 7ab0 a03c
000000c0: bcfc c83d 1fb5 e83d a582 533d 8d7c b33d
000000d0: 833b 8d3d f09d 093d ae90 8d3d eb04 8a3c
000000e0: 992b d03d 1159 733d b4af e13c 1dca 183d
000000f0: 402e 753d 2c0d ca3d b1c0 1e3d 70c1 d73d
00000100: 841c 313d 6c26 a73d 8af5 013d 2a47 803d
00000110: 6683 373d 98bf 663d 6f3e 263c 29d7 1d3e
00000120: a948 8b3c 833c 8e3d 6f41 7d3d fe3c 9e3d
00000130: 270c 623d e1cf ae3d d482 173d d280 8f3d
00000140: 0ee4 003e 47cf b13d 45b7 e03d 6eaa 973d
00000150: 9bfd 083a 7318 5f3b 08b7 693d eb04 db3d
00000160: 66b7 8c3d 9548 b63d 5fa0 e03c f42b 763d
00000170: 5676 a33d fbbe 473d 4c01 3c3d cf80 793c
00000180: d744 0a3e dbe3 3b3d 2ee2 163e 4481 793d
00000190: d246 5a3d 9e5e ca3c bdd6 883d 395a 7a3d
000001a0: caeb 5f3d 9364 0b3d ad2c 153d 1a1d 6bbc
000001b0: b74e 203d 7d6c 923d 5331 9e3d b14e be3d
000001c0: 56b2 2b3d 0c65 993d 4f56 f33d 01b6 b63d
000001d0: a0e4 893d d45e 2e3d 4047 723d 0d27 3c3d
000001e0: 9dc0 543d b723 b83d 64ab d53d 0063 503d
000001f0: 2035 d53d ae9d ae3d d7b7 193d b11a 253c
00000200: 0962 3a3d 4480 2b3d 1ac1 943d a960 8a3d
00000210: 9d7c 483d 4570 2c3d c8bb 993d 426b c13d
00000220: 2c2f 6d3d 0781 433d 96da 7f3d d6d0 2b3d
00000230: a2f7 053d cc0a 6c3d d2ae f53d 833b 3c3c
00000240: 150a 133d 6edb 323d c6a4 e53d a9fe 003d
00000250: 6539 9c3d 8e44 d93c bef2 bf3d ea4d 883c
00000260: 9e82 763d 77e4 a43d 4c87 ce3c cbbf a53d
00000270: 8315 8b3d ee91 d9bc 1a7a a33d d385 c43d
00000280: 94f6 773d ef5e 4f3d 36f6 863d 3b41 a43d
00000290: ca08 653d fab3 713d c744 bc3d 4b52 d53d
000002a0: 383c b23d e552 fa3a a12f 953c a1be a03c
000002b0: 62f7 a53d 3ed6 813d ba63 f93c e768 0d3d
000002c0: 5015 08bb 27b5 6e3d 4195 7c3c f6b3 d83c
000002d0: 4125 453d 267a 823d 2fcd 573d b203 813d
000002e0: 793b 5bbc c26a 793d d1ef e83d e533 ec3d
000002f0: e3ca 7c3d be99 3f3d c319 043d 46a7 a03d
00000300: ba52 a93d 6c7a 373d b35c 5f3d 24a4 503d
00000310: 4792 8e3d 6f80 5c3d d312 a83d c6f3 913d
00000320: f067 123d bfc2 403d f80b 903d 27e3 2e3d
00000330: e40c 3c3d a2c6 483d db2b 383d 6ee5 993d
00000340: b9cc 713d 315b 9c3d 8043 9b3d d761 7a3d
00000350: 100a b93d cbb8 b53c 9988 413d 0233 4b3d
00000360: bd86 443d 0ec8 9c3d b1f2 543d 92e6 3b3d
00000370: ff7d 813d aba3 653d e857 483d dbc9 f93c
00000380: 1148 873d a3e9 c53d 3216 643d 6c2b 8e3d
00000390: 8450 3a3d 35ed b03d 9691 913d a404 b23d
000003a0: d152 753d 2778 543d bf93 b43c be16 923d
000003b0: ec22 763d edfa 603d 1dcd 893d b892 a63d
000003c0: 1ffb 903d 4b48 733d 39da 463d d6f8 e13c
000003d0: 84df 933d e43e b23d a4e5 9c3d d60e 613d
000003e0: 5702 1c3d e5e8 953d 34e1 8b3d 1896 013d
000003f0: 78ee a13d 0fcb 8e3d 5924 2a3d e4ed 433d
0.08045233 0.08583627 0.057022586 0.012052539 0.07668509 0.028040031 0.055929873 0.11325145
0.00095220434 0.06138396 0.09920384 0.046598352 0.10368161 0.055769358 0.053878974 0.018619923
0.028005963 0.06077112 0.056932066 0.04755379 0.0586971 0.05192319 0.03287025 0.079928204
0.06359032 0.064897574 0.06209336 0.09147285 0.03471495 0.061680105 0.07422225 0.09890929
0.054439276 0.060589995 0.07758452 0.061104562 0.062632285 0.06640396 0.055307277 0.031096924
0.05817075 0.09344021 0.032499358 0.06726359 0.097820796 0.08630967 0.07501586 0.0196154
0.0981383 0.11362671 0.051638264 0.087639906 0.068961166 0.033597887 0.06912361 0.016848048
0.101645656 0.059411112 0.027549602 0.037302125 0.05985856 0.098657936 0.038757984 0.10534942
0.043240085 0.08161625 0.031728305 0.062635735 0.044803046 0.05633506 0.010146721 0.15414108
0.01700242 0.069451354 0.06182998 0.07726477 0.05518737 0.085357435 0.03699 0.070069924
0.12586996 0.08682113 0.10972456 0.07405554 0.00052257784 0.0034041672 0.057059318 0.106942974
0.06870918 0.08900563 0.02742022 0.06010051 0.07981555 0.048766118 0.045899674 0.015228464
0.13502823 0.045871597 0.14734718 0.060914293 0.053290196 0.02470332 0.06681583 0.0611212
0.054668225 0.034031462 0.03641956 -0.0143502 0.03913757 0.07149599 0.077242516 0.09292353
0.04191812 0.07489976 0.118816964 0.08921433 0.0673306 0.042570904 0.05914998 0.04593568
0.051941503 0.08991187 0.10433081 0.050875664 0.104105234 0.08526169 0.03752884 0.0100771645
0.04550365 0.04187037 0.07263394 0.06756718 0.048946965 0.042099256 0.075065196 0.09444286
0.057906315 0.047730472 0.06246432 0.04194721 0.032706864 0.057627484 0.11996235 0.011488798
0.035898287 0.043666296 0.11213069 0.031492863 0.07628135 0.026521947 0.09372471 0.016638715
0.06018316 0.08051389 0.025210999 0.08093222 0.067912124 -0.026558843 0.079822734 0.095958374
0.06053789 0.050627645 0.0658993 0.08020254 0.055916585 0.05900953 0.09192806 0.10416087
0.08702892 0.0019098191 0.018211188 0.019622149 0.08103825 0.063396916 0.030443061 0.03452387
-0.0020764656 0.05827823 0.015416444 0.026453 0.04813123 0.06370954 0.052685913 0.06299533
-0.013380879 0.060892828 0.11373866 0.115333356 0.061716925 0.04677748 0.03225113 0.07844405
0.08267732 0.044794485 0.054531764 0.050937787 0.06961494 0.05383342 0.082067154 0.07126574
0.035743654 0.047060724 0.07033533 0.042697098 0.04591073 0.049017556 0.0449637 0.07514463
0.05903313 0.07634581 0.07581234 0.061128464 0.090351224 0.022182843 0.04724941 0.04960919
0.04798006 0.07655345 0.05198926 0.045874186 0.0632286 0.05606429 0.04891196 0.03049176
0.066055425 0.09663703 0.05568523 0.06941876 0.045486942 0.08638994 0.071078464 0.086922914
0.059893433 0.0518724 0.022043107 0.07133244 0.060091898 0.0549268 0.067285754 0.08133453
0.070791475 0.059395116 0.048547957 0.027584475 0.072203666 0.08703402 0.07660988 0.05494579
0.03808817 0.07319812 0.068300635 0.03163728 0.079068124 0.06972324 0.04153857 0.047834292

bias_mu f4 [150]
00000000: e0f1 a3bc e260 a43d dcd0 8abd dc19 5e3b
00000010: 802e 52bb fd3d 773d 87cd 04be ff44 5b3d
00000020: 68b4 063e e960 61bd edb8 0cbd db09 01be
00000030: eae2 98bd d961 10be cf58 ccbd dbc2 243d
00000040: c08d c13d 9cca f93d b57d 20be 2184 da3d
00000050: 57f4 04be 113c e7bd 2bac 1b3d ddf1 18be
00000060: b10d eb3b 398e 363d a522 483d 8021 f53c
00000070: 687f 81bd ee41 773d ea7a 3dbc 8a62 e83b
00000080: 0dbd 923d 77f4 5abd f6b0 b0bd 24dc 25bd
00000090: 7d82 503b 14d1 afbd 4c26 ef3c 4a81 d0bd
000000a0: 65c5 bdbd bf09 44bc 4202 05be bff3 27bd
000000b0: 8dfe ddbc a011 823d 876a 8abd 9961 a73d
000000c0: d3e6 fdb9 c6c7 b3bd 5bba 45bb 986c 5d3d
000000d0: a6be 1cbd e24d 25be f915 80bd db76 0cbe
000000e0: 097f 03be f79b 8f3d fbd3 9a3d 95e3 f43c
000000f0: 0d0c a0bd 8982 9d3d 87aa b0bd 567d c6bd
00000100: d09c acbd f94b df3c c3a5 10bc 4ad9 ec3b
00000110: 16b8 26be 7a8a 6e3d f8d4 a83d 8b48 913c
00000120: f073 81bc 2e0e 28bd ff02 1fbe 364f 05be
00000130: eae7 443d c3b7 08be 21f1 d23d 1fac 7dbb
00000140: b5a7 08be 07d7 fe3d 2bd6 6abd 113d 4e3d
00000150: 9fba bc3c 7fa8 0d3e 040b 763d 3e0f 7f3d
00000160: f228 10be 0489 0bbe aa8f 893d cc02 dcbc
00000170: 6cf1 913d 9482 c2bd b6e9 bc3c d632 61bd
00000180: 1b71 c83c f42a 223c 47a6 b5bd c85e 693c
00000190: afc9 33bd 7802 86bb bc43 e8bd 64b0 7b3d
000001a0: 6963 023d f7da 01bd c479 f9bc 9ea5 243d
000001b0: ace9 aabd c821 3ebd 8dc7 6b3d 6b3f 9bbd
000001c0: 3bc4 d7bd acf4 913d 341e 16bc 9d27 c9bc
000001d0: fa44 ad3d 6003 adbd 99e4 45bd 33fa 0dbe
000001e0: d569 60bd 1413 29ba 42d8 67bd 8c5a dfbd
000001f0: a74e d0bd 6e70 253c c228 a03d 3a0d fabd
00000200: e240 b1bc ad9b dcbd 910e 053d eee1 4bbd
00000210: 14b4 603c 097c 4cbd 0cae 9fbd e84e 263d
00000220: 13c7 043d 246c 1d3d ff8c 1cbb e288 b63d
00000230: f8af 69bb 7bac 653d 8452 a23d 7250 403d
00000240: f131 c0bd 1b04 443c 4bad f2bb 4f47 2bbd
00000250: ce3a bc3d 3812 793d
-0.020012796 0.080262914 -0.06778118 0.0033889925 -0.0032071173 0.06036185 -0.12969027 0.053532597
0.13154757 -0.05502406 -0.034356046 -0.12601416 -0.074651554 -0.14099826 -0.099778764 0.04022489
0.09450865 0.12196848 -0.15672953 0.10669733 -0.12983833 -0.11290754 0.03800599 -0.14936014
0.007173263 0.044569228 0.048861165 0.0299232 -0.06323129 0.06036561 -0.0115649495 0.007091825
0.07164965 -0.053455796 -0.086275026 -0.040493146 0.0031816058 -0.085848 0.029193066 -0.1018091
-0.09266166 -0.011965214 -0.12989143 -0.04100394 -0.027098918 0.06351018 -0.067586 0.08172912
-0.00048427898 -0.08778338 -0.003017089 0.05405864 -0.038267754 -0.16142991 -0.06254191 -0.13717215
-0.12841429 0.0701217 0.07559963 0.029893676 -0.078147985 0.07690913 -0.086262755 -0.09691875
-0.08428347 0.027257906 -0.008828583 0.0072280513 -0.1628116 0.05823753 0.082437456 0.017734786
-0.015802354 -0.041029148 -0.15528487 -0.13018498 0.048072733 -0.1335135 0.10299898 -0.0038707328
-0.13345225 0.12443357 -0.057333153 0.050351206 0.023038207 0.13833807 0.0600691 0.062270395
-0.1407812 -0.13626486 0.06716855 -0.026856802 0.07126126 -0.09497562 0.02306066 -0.05498012
0.024467995 0.009897936 -0.088696055 0.014243789 -0.043893512 -0.0040896498 -0.11341044 0.061447516
0.031833086 -0.03170296 -0.03045357 0.040197007 -0.083453506 -0.046418935 0.057563353 -0.075804554
-0.10535475 0.071267456 -0.009162474 -0.024555022 0.08460422 -0.08447909 -0.04831371 -0.13864975
-0.05478843 -0.0006449681 -0.056602724 -0.10905942 -0.10171252 0.010097606 0.07820274 -0.12209554
-0.021637384 -0.1077188 0.032484595 -0.04977601 0.013714809 -0.049922977 -0.07796869 0.040602595
0.032416414 0.03843321 -0.002388775 0.08912827 -0.0035657864 0.056072693 0.07925895 0.04695172
-0.093845256 0.011963869 -0.007405912 -0.041816052 0.091909036 0.06080839

bias_sigma f4 [150]
00000000: 9937 363d ecba b33c f5df 9e3b b837 873d
00000010: aba3 7b3d 252e 083d 9d68 d33d 9c20 62bc
00000020: d7bc 7d3a bf5e f03c d4f3 aa3d b2f4 c43c
00000030: 4d97 2b3d 4224 083d 39e0 913d 0ae8 403d
00000040: bada 923d 7bd8 af3b 8c2f 083d 61ad 8bbc
00000050: 536b 99bc c5cd b73d b564 c73c db6d 573c
00000060: 33d7 4c3d 7268 803d f629 bc3d 66c4 273d
00000070: 7413 983d f433 afbb 4cc9 f83d 5f2b 1d3d
00000080: 7a6d 6c3d 42d1 2b3d ef13 b53c 83ec f03c
00000090: 60eb c33d a6e1 393d d1e5 513d f993 573d
000000a0: 250b 9b3d d591 ac3d 7ffc 4e3d c195 2f3c
000000b0: a9e0 953d 51a0 bd3c 2c04 073d 9991 5e3d
000000c0: ea04 573d 80fd 303d e4fc 393d d514 d83c
000000d0: 330f 2d3d 63fd 3d3d 21ea 293d 6b52 853d
000000e0: 9f8c ed3c 2931 213d 5c36 81bb a688 14ba
000000f0: ceae 1f3d cf72 a13d 8252 a0bb b810 3b3d
00000100: 10d2 353d b348 3bbc afc1 a93d ae65 903d
00000110: 9c42 94bc aca2 733d b7ae 693d 75e4 733d
00000120: a2b3 5f3d 915e 103d d97c 513d e553 3b3d
00000130: d58f ce3d 18db 34bd 857a 1e3d 2abd 0d3d
00000140: cf5b 9e3d 53d6 c73c a272 5d3d 6dae ba3d
00000150: 898b 2f3d 4a84 0d3c 9f4a bb3c 4a0b b83c
00000160: 9c7f 793b 6a54 a53c 434d 543d 2f62 b43d
00000170: e921 2d3d 703c 6a3d 73be 873c 9032 613c
00000180: 6a4c 97bb 594a 393c 3fe8 80bc 5026 f83c
00000190: 1b85 683c 855b 8f3c b8f8 b63c 1a07 d73c
000001a0: 68b8 973d 1128 3f3d 397a 733d eaa1 033d
000001b0: caf7 b2bb 5264 4a3c 765a a43d 6311 5f3d
000001c0: 0839 6e3d b557 af3d 91b9 8e3d 388b 963d
000001d0: a4e2 503b 6200 823d 7742 b33c ded3 bb3c
000001e0: 8173 7b3b 2791 243d cb40 0e3d abb8 a03d
000001f0: c5f2 913c 3f49 b93d 83a6 eebb d8a1 523d
00000200: 5eb5 a63d 173c 913b 970b 7b3d 9171 2e3d
00000210: 2e8c 733d 7ef4 283d 3285 5d3d 2e9e f3bc
00000220: 344f 923d 7896 b53c d752 513d 0add 623c
00000230: c1af f93b 678b 833c 7584 843d d091 4a3d
00000240: 0b7a 753d 2fe3 133c 0fe0 da3c f155 7f3a
00000250: 1472 4a3c d821 493d
0.044486616 0.021939717 0.004848475 0.066024244 0.061435383 0.03324713 0.10322688 -0.01380172
0.00096793234 0.029342053 0.08347288 0.024042461 0.04189234 0.033237703 0.07122845 0.04709629
0.07170625 0.0053663827 0.03324847 -0.017050447 -0.018727934 0.08974794 0.024340013 0.01314875
0.050009917 0.06269921 0.09187691 0.040958785 0.074255854 -0.0053467695 0.12147769 0.03837144
0.057721592 0.04194761 0.022104232 0.029409653 0.095663786 0.04538121 0.05124456 0.052631352
0.07570485 0.08426253 0.050533768 0.010716856 0.07318241 0.023147734 0.032962963 0.05433807
0.05249492 0.043210506 0.04540719 0.026377121 0.042250823 0.046384227 0.04148305 0.065098606
0.028997717 0.039353523 -0.0039432477 -0.0005666114 0.038985066 0.07883226 -0.004892648 0.04567024
0.044389784 -0.011430907 0.08288895 0.07050644 -0.018098168 0.059481308 0.057051387 0.059544045
0.05461467 0.035246436 0.051144455 0.045734305 0.100860275 -0.044154257 0.038691062 0.03460423
0.07732355 0.02439419 0.0540644 0.091153 0.04285768 0.008637497 0.02286273 0.02246632
0.0038070446 0.020181853 0.051831495 0.088077895 0.042268667 0.057186544 0.016570305 0.013744965
-0.0046172636 0.01130923 -0.015735744 0.030291706 0.014191891 0.017499695 0.022335395 0.026248503
0.074082196 0.04666907 0.059442732 0.032136835 -0.0054616677 0.01235302 0.080250666 0.05445994
0.058159858 0.08561651 0.06968988 0.073507726 0.003187337 0.06347729 0.021882279 0.022928175
0.0038368406 0.04017749 0.03472976 0.078477226 0.017815957 0.09047174 -0.0072830333 0.051423877
0.08140062 0.004432212 0.06129035 0.042588774 0.059459858 0.04124879 0.054082103 -0.029738512
0.07144013 0.022166476 0.051104393 0.013846645 0.0076198285 0.016057683 0.06470577 0.049455464
0.059930842 0.009026333 0.026718168 0.00097402843 0.0123563 0.04910454

weight_epsilon f4 [150, 64]
00000000: df58 9cbf 4595 183f e839 553f 3843 4b3f
00000010: 4742 ffbf ed34 293f 9f4f aebf 09e8 dabf
00000020: 67a7 b7bf bbf6 87bf 9ec8 423f 454f 5dbf
00000030: f9d6 c23e 3bf8 283f 41b7 b73f 94a1 873f
00000040: d80b a83f c6a1 c03f 9265 433f 7c6f 693e
00000050: 93cc 3f3f 1953 053f be0d 96bf 692f 923f
00000060: 0ba3 b83f ea72 0bbf c499 a2bf 2697 2b3f
00000070: 41b1 a3bf 81cf cfbf ea14 9bbf 5d3f a53f
00000080: 2bfc d73f 29b2 103f 3920 a73f e5ab a0bf
00000090: 96fb 933f f7af 883f e0ff 83bf 58d0 743f
000000a0: 50b2 a83f 96fb 41bf df7e 22bf 620e a13f
000000b0: f53c 203f 4a3a a1be 84fd 10bf d6f0 9b3f
000000c0: ea3c e7bf d243 8ebf ab2d b8bf e5db 97bf
000000d0: 4ae1 87be 117b 9bbf 551c 993f 217d bd3f
000000e0: 5b61 623f bc78 c0bf 3140 ebbf 2db5 2c3e
000000f0: 791b a43f 0315 1a3f 6ace 75bf 7f97 ffbe
00000100: 5e70 943f 82dd 10bf e370 4abf 37fb 40bf
00000110: fd58 f23f e8a5 20bf 817e a53f 77d5 cf3f
00000120: 4f5d ae3f 2a16 813f 68ee 38bf 941d 523f
00000130: 09fc b8be 486c 20bf 5c6c aebf 52c5 80bf
00000140: da8b 9fbf 6ce3 b6bf 6c83 39bf c8a0 5dbe
00000150: 0219 36bf 6a29 fdbe bb76 8e3f 7eca 8abf
00000160: 384c afbf 3865 043f 4960 9a3f 43e9 22bf
00000170: a369 9b3f 9c4c c53f cb3c 933f 9ce3 9cbf
00000180: 6c0f cdbf 8760 09bf 25ac 9ebf 658b 983f
00000190: 647f 8cbf 08c6 81bf 48a5 7a3f 4e6e 68bf
000001a0: e629 a0bf bf2b 383f c046 1a3f e7e8 98bf
000001b0: 1122 18bf 9712 993e 11a8 093f 980d 94bf
000001c0: aa8a db3f a911 873f c8dc ae3f 822d 903f
000001d0: cf01 813e c79d 933f bc5d 91bf 7be7 b3bf
000001e0: 02ee 56bf 77bc b63f fb59 df3f d3f8 23be
000001f0: 7cce 9bbf d649 12bf 855f 693f e5a9 f23e
00000200: cb61 8bbf c006 083f d116 3e3f e634 353f
00000210: 968f e3bf a1d8 163f 8865 9bbf 2827 c3bf
00000220: c9b9 a3bf bd6b 72bf d5a5 2d3f a24b 45bf
00000230: a1b2 ad3e 85a2 163f eac7 a33f e9d3 713f
00000240: c8cf 953f c2ba ab3f c131 2e3f 031b 503e
00000250: b2fc 2a3f 19b7 ed3e 7cc5 85bf 9d52 823f
00000260: 1e9a a43f 7ba2 f8be f9f4 90bf a2f8 183f
00000270: 22ee 91bf da42 b9bf fc40 8abf 0b51 933f
00000280: 708c c03f bcfe 003f bafd 943f b13c 8fbf
00000290: dbec 833f 01b6 733f 445a 6bbf cc3f 5a3f
000002a0: 3064 963f 0cef 2cbf ffdc 10bf 7e94 8f3f
000002b0: cbd9 0e3f a3bb 8fbe e941 01bf 0c05 8b3f
000002c0: 7c25 cebf d8a7 7dbf 7b31 a4bf 7d61 87bf
000002d0: 8145 72be 0e9c 8abf 287f 883f 6ded a83f
000002e0: ded0 493f 2d96 abbf 4bb9 d1bf a0f7 193e
000002f0: d44c 923f da5c 093f 4c22 5bbf 8edb e3be
00000300: 8051 64bf 53d2 de3e b4b0 1b3f 486a 143f
00000310: 8c61 babf fc18 f73e 308d 7ebf 75d6 9fbf
00000320: fd18 86bf 4c8d 46bf 6339 0e3f ae97 21bf
00000330: de43 8e3e 59c0 f63e 9024 863f f110 463f
00000340: 2667 753f 2da7 8c3f fdab 0e3f 4572 2a3e
00000350: 820b 0c3f a6b2 c23e b820 5bbf 837a 553f
00000360: bad0 863f 2da4 cbbe 5573 6dbf 1b94 fa3e
00000370: 7a0b 6fbf 67bc 97bf 6a78 62bf d950 713f
00000380: 64b4 9d3f c34d d33e 0f0f 743f 1ea2 6abf
00000390: 851a 583f cc9b 473f 45c3 40bf 23c1 323f
000003a0: 3f5a 763f aea3 0dbf 0e4c edbe f131 6b3f
000003b0: 1c00 ea3e 1072 6bbe cdbb d3be 93b9 633f
000003c0: 80d7 a8bf efc0 4fbf 067b 86bf 9dc3 5dbf
000003d0: fb6d 46be 970d 63bf 8e97 5f3f a85b 8a3f
000003e0: 7f4b 253f 3789 8cbf 95c5 abbf ce35 fc3d
000003f0: 98a6 6f3f b602 e13e a67a 33bf c59f babe
-1.2214621 0.5960277 0.8329148 0.7939944 -1.9942101 0.66096383 -1.3618048 -1.7102062
-1.4347962 -1.0622171 0.7608737 -0.8644908 0.38054636 0.6600377 1.43528 1.0596185
1.3128614 1.5049369 0.7632686 0.22796434 0.7492153 0.5207992 -1.1722944 1.1420718
1.4424757 -0.5447222 -1.2703176 0.6702751 -1.2788469 -1.62352 -1.2115757 1.2909962
1.687383 0.5652185 1.3056709 -1.2552458 1.1561153 1.06787 -1.0312462 0.9563041
1.3179417 -0.75774515 -0.6347484 1.2582514 0.62593013 -0.31489784 -0.56636834 1.2182872
-1.8065464 -1.1114447 -1.4388937 -1.1863981 -0.2653907 -1.2146932 1.1961771 1.4803811
0.884298 -1.5036845 -1.8378965 0.16865988 1.2820884 0.6018831 -0.9601809 -0.4992027
1.1596792 -0.56587994 -0.790785 -0.75383323 1.8933407 -0.6275315 1.2929231 1.6237019
1.3622226 1.0084889 -0.7223878 0.8207638 -0.36129788 -0.62665224 -1.3626819 -1.0060217
-1.2464554 -1.4288154 -0.7246616 -0.21643364 -0.7113191 -0.4944566 1.1129984 -1.0843046
-1.3695135 0.5171695 1.2060634 -0.6363718 1.2141613 1.5414004 1.1502928 -1.2256961
-1.6020331 -0.53662914 -1.2396284 1.191754 -1.0976377 -1.0138559 0.9790845 -0.9079331
-1.2512786 0.7194175 0.60264206 -1.1946076 -0.5942698 0.29896995 0.53772074 -1.1566648
1.7151692 1.0552264 1.3661127 1.1263888 0.25196692 1.1532525 -1.135673 -1.4055017
-0.8395692 1.4276265 1.7449335 -0.16012888 -1.2172389 -0.57143915 0.91161376 0.47395244
-1.0889219 0.531353 0.74253565 0.7078384 -1.7778194 0.589243 -1.214036 -1.5246325
-1.2791072 -0.94695646 0.67831165 -0.7706853 0.33925346 0.58841735 1.2795384 0.94463974
1.1704035 1.3416369 0.6804467 0.20322804 0.6679183 0.46428755 -1.0450892 1.0181462
1.2859533 -0.48561463 -1.132476 0.59754384 -1.1400797 -1.4473526 -1.0801082 1.1509107
1.5042858 0.50388694 1.1639931 -1.1190397 1.0306658 0.9519959 -0.9193461 0.85253596
1.1749325 -0.67552257 -0.56587213 1.1217191 0.55801076 -0.28072843 -0.50491196 1.0860915
-1.6105189 -0.99084234 -1.28276 -1.0576626 -0.23659326 -1.0828874 1.0663805 1.3197457
0.7883433 -1.3405205 -1.6384672 0.15035868 1.1429696 0.53657305 -0.8559921 -0.44503444
-0.8918686 0.4351984 0.608165 0.5797467 -1.4561019 0.4826125 -0.99434185 -1.2487322
-1.0476376 -0.7755935 0.55556315 -0.6312207 0.27786154 0.48193625 1.0479908 0.773696
0.9586052 1.0988518 0.55731183 0.16645153 0.5470506 0.38026923 -0.855968 0.83390063
1.0532448 -0.39773694 -0.9275411 0.4894112 -0.93376887 -1.1854371 -0.8846499 0.9426399
1.2320676 0.41270265 0.9533548 -0.9165362 0.84415466 0.779721 -0.7529796 0.69825953
0.96231455 -0.5532788 -0.46347088 0.9187308 0.45703208 -0.2299273 -0.41354218 0.8895504
-1.3190765 -0.8115377 -1.0506294 -0.8662661 -0.19377892 -0.8869261 0.8734063 1.0809221
0.6456832 -1.0979375 -1.3419672 0.1231495 0.93613577 0.4394738 -0.7010902 -0.3645002

bias_epsilon f4 [150]
00000000: 684f 9a3f 4781 92bf e990 893f fd57 613f
00000010: 7016 f6be fd0e 7cbf 6395 063f c03e 893f
00000020: 4374 8bbf c427 5c3f d6b1 a43f 99fe e93e
00000030: 2625 0c3f ef7e 2e3f 17b3 17bf 2fb6 33bf
00000040: 12ac 8e3f e71a 1cbf 11ea a7bf 0906 32bf
00000050: 8400 4f3f 71de 393f 9730 9a3e 0867 913e
00000060: 8df1 48bf 20a6 87bf ffd8 e93e 1e4c 85bf
00000070: f80b 74bf 7ab6 a7be b0aa 0dbf 1f50 8dbf
00000080: 48df b8bf 5b93 e2bf 136f 803f 6cb0 163f
00000090: 2281 c1be ac51 8d3f 9854 543f 1647 0d3f
000000a0: 0a9e 76bf 0eb2 0b3f d0ad 223f 2d07 083f
000000b0: e622 a83f fb6b f8be 85eb ecbe 9e39 91be
000000c0: 476b 803f 4ed9 583f 307f 27be f2e7 8f3f
000000d0: 444a a8bf f41e a4bf 4b90 a6bf 5a30 44bf
000000e0: f2d2 833f d540 1e3f d309 febe c2be d23e
000000f0: 6111 ac3f 910c 4bbf c6ca 833f 24e6 6f3f
00000100: dab5 7e3f f80d 46bf 1107 753f 6f1f a5bf
00000110: 3837 18bf a0d0 08bf 7321 59bf 93df 4d3f
00000120: f0a2 8bbf 0450 753f bfd1 583f 1f88 563f
00000130: e2a5 2b3f aa19 a2bf fdea 45bf 23b0 853f
00000140: a6e7 273f 7de1 e3be 97f6 793f 4ad6 8e3f
00000150: e94c ad3f 5234 17bf 36b3 14bf aec3 cabf
00000160: ddef a4bf 0ec5 f33f df64 293f cf2b 53be
00000170: 0827 123f ab28 863f ec0a 29bf ef6c 603f
00000180: 1f18 bfbe a95f 76be 78a4 9fbf b491 1ebf
00000190: 6eb3 53bf 4fba 98bf 2405 b1bf 6c1a 793f
000001a0: ddb3 babf 5853 9e3e a59c 23bf 1101 563f
000001b0: 9b6d 76bf f816 04bf 51e8 b0bf 8514 363f
000001c0: a6a9 c93f d48d f23e 64bd 5abf cc19 87bf
000001d0: 749b 9fbf a5d8 a3bf d675 30bf 1851 3e3f
000001e0: 5c82 953f 5264 e93f 915c 56bf 7dab 3f3f
000001f0: 2ca2 293e 9704 95be e41e 80bf 3bf1 e03e
00000200: e6d4 af3f d91f 123f 5111 92bf 9a35 b03f
00000210: f4f9 a2bf 76c5 b23e dc5a 24bf 1351 40bf
00000220: 5252 bc3f c1e8 7abf 3cb6 29bf 5653 2a3f
00000230: 2d7b a3bf 325b 90bf 2601 56bf a19a 82bf
00000240: f447 863e 95b7 263f 842d 80bf 968a a2bf
00000250: 8776 893f 4be0 863f
1.2055483 -1.1445702 1.0747348 0.88024884 -0.48063993 -0.9846037 0.52571696 1.0722275
-1.0894855 0.8599818 1.2866771 0.45702055 0.54744184 0.68162435 -0.59257644 -0.70199865
1.1146262 -0.6097855 -1.3118306 -0.6954046 0.8086016 0.72605044 0.30115196 0.2839892
-0.7849358 -1.0597572 0.45673367 -1.0413854 -0.9533076 -0.32756406 -0.55338573 -1.1040076
-1.444314 -1.7701219 1.0033897 0.5886295 -0.37793833 1.1040549 0.8294158 0.55186594
-0.963349 0.54568565 0.63546467 0.5313595 1.313565 -0.48519883 -0.46273437 -0.2836427
1.0032738 0.8470658 -0.16357112 1.1242659 -1.3147664 -1.2821946 -1.3012785 -0.7663628
1.029875 0.61817676 -0.4961687 0.41161162 1.3442804 -0.7931605 1.0296257 0.9371054
0.99496233 -0.77365065 0.9571391 -1.2900218 -0.5945926 -0.53443336 -0.84816664 0.8041927
-1.09091 0.9582522 0.8469505 0.83801454 0.6704999 -1.2664082 -0.7731169 1.0444378
0.6558784 -0.4450797 0.9764189 1.1159146 1.3539096 -0.5906421 -0.58085954 -1.5840967
-1.28857 1.9044511 0.6616954 -0.2062218 0.57090807 1.0481161 -0.6603229 0.8766622
-0.3732309 -0.24059929 -1.2472067 -0.61941075 -0.8269566 -1.1931857 -1.3829694 0.9730594
-1.458614 0.3092296 -0.63910896 0.8359538 -0.96260995 -0.5159755 -1.3820897 0.7112506
1.5754898 0.4737383 -0.8544524 -1.0554748 -1.2469316 -1.280049 -0.68929803 0.7434249
1.1680408 1.823374 -0.83734995 0.74871045 0.1656577 -0.29105064 -1.0009427 0.43934044
1.3736846 0.57079846 -1.1411535 1.3766358 -1.273253 0.34916276 -0.6420114 -0.7512371
1.4712622 -0.98011404 -0.6629369 0.6653341 -1.2771965 -1.1277831 -0.835955 -1.0203439
0.2622677 0.65123874 -1.001389 -1.2698543 1.0739297 1.0537199

weight_mu f4 [100, 150]
00000000: 3e65 b23b d35e 4a3d 9a8e 2e3d e0e6 2d3d
00000010: 39b7 643d ccff adbc 05bc a7bd 98e7 ca3c
00000020: bd6d 0abd 84e1 e3bd d5bb f23c dfcf 3bbd
00000030: 24aa cf3b f7cb 083d f25b 753d 25eb 2ebb
00000040: 299d 383d 839a f1bd f7be abbc 0b7c a0bc
00000050: cfa8 efbc cdfc 6cbd d425 e83c 66c8 0c3d
00000060: b89d 3bbd 8278 893d fdab 7bbc c2a6 273c
00000070: 264a 21bd 71e2 18bc e726 1bbd 5725 77bd
00000080: d082 95bd 4fe2 f93b e1fc fd3c b940 1a3d
00000090: 86cf 123d 1b08 2e3c 403c 0d3d 0cc7 3e3d
000000a0: d095 38bc 0d6b c23d 2be9 133d 5560 1abd
000000b0: d1ca 5cbd 2ed8 8a3c 5073 41bd 3d52 523d
000000c0: 953f 4a3d c2ac e7bc 2ed8 dd3c 5e2f 923d
000000d0: 1e7b 853d 42d2 68bd 67c5 853d 0ed5 81bd
000000e0: 600c e23c a01b 653d 6ea8 973c 52bf b7bc
000000f0: 11f5 32bd 7f99 3b3d b54e 24bd 2e08 a8bd
00000100: a287 293c ece8 a93c 08d2 1c3d 8f07 01bd
00000110: 331b af3d 4d96 773d c46f 073c 7861 8a3c
00000120: 6fff aebd f480 e63c e8f1 c53c 3c28 f43c
00000130: bb8d 3a3d e716 22bd 516c 173c 8e8b a5bd
00000140: dbd3 e2bb ec2c 77bd 9a10 d43c ce19 b73c
00000150: 1fee ce3c ead0 03bd 5188 8cbd 1d52 1cbd
00000160: 991c 7a3d 17dd 82bc 62bc cb3c 5ec9 fb3a
00000170: b86d c4bd fa14 6cbc 1f61 92bd 0677 b1bc
00000180: c1c1 a1bd 4d36 53bc 142e edbd c95a 74bd
00000190: 1cd2 e13c e6c7 13bd c509 883c 077f 323d
000001a0: 565c 85bd 5b44 e1bd d028 663d 3264 6c3d
000001b0: e0e1 5c3d 98cc 2f3d 8e0b 203d 6b2e 7d3d
000001c0: 152d 94bd fe76 433d 22ab a53d 0049 2b3c
000001d0: 01a5 83bd e4eb 8ebd ee6b 65bd a34b ab3d
000001e0: fc58 9dbd 723b 91bc 6b62 c23c 3fdf b93d
000001f0: 55e2 d4bc 7a66 b23d 52b0 e8bb fb58 fcbc
00000200: fe41 3bbc ef83 8ebd c17b 713c e22c b1bd
00000210: 703f 5b3d 8026 8abd 87d1 7b39 33cf a8ba
00000220: 3f4b 673d cdbd 07bd 9db8 1cbb fe85 39bd
00000230: e13e 103c b2b0 8b3b 6798 113d 583a 3c3d
00000240: e8c9 e83a f5cb b03b ea49 34bc 15b1 c7bd
00000250: e817 d93c 95fa e93c 8717 d3bd cd9e 4e3d
00000260: 3725 9e3d 2995 4abd 3b20 12bd a57d aebd
00000270: c83a 7d3d 98d2 8d3c 034a 9e3c 91cb 3cbd
00000280: 508b 053d f4f1 9fbd 829c 0ebd 01d9 98bd
00000290: 9bad 323d 9b0a efbc 18f0 26bd ab4f 77bc
000002a0: 04e5 73bd 3957 67bd 5dcc 833d 0a82 32bc
000002b0: c4e7 83bc e045 45bd 809a 543d 2ad1 7a3d
000002c0: 1a19 a43d 7a3c 3c3c b6c9 abbd 58e2 bb3d
000002d0: a856 4b3d d156 b0bd 539f a1bd dd32 b23d
000002e0: bdb7 c2bb 343d 313d 7069 51bd 82f7 4dbd
000002f0: ff97 4f3d ce09 913c 5b17 ffbc fb17 cb3d
00000300: 5c9a cbbc 86ab 903c 03ea 5bbd f38f 30bd
00000310: cdb1 333c 0b70 7ebd a44d 89bd c6fe 8b3d
00000320: 511d 52bd 0eba 35bd 90f9 3a3d d209 aabc
00000330: 1217 39bd 12db a9bc 4b7c 873d 8df6 9ebd
00000340: a0c4 55bc 4c15 043b 0e73 6a3d d44c 8abd
00000350: 0ac9 5dbd dc08 65bd 7450 7a3d 8747 a6bc
00000360: 5980 c5bb ac45 98bc e12c 863d d2b3 973d
00000370: b968 78bd 568d 613a 8ee8 1fbd 5449 b03d
00000380: b96f 0dbd 357f 45bd 9f24 b2bc ed84 ce3c
00000390: 24fc b1bd cd95 92bd a13b e2bc 3777 9ebb
000003a0: 0011 9ebd a57b 8ebc 9c8a 46bd abef 83bd
000003b0: a892 9b3c f4f9 59bc 28d5 103b 6b5b d5bc
000003c0: 4ba1 87bc 73da f9bc fa55 36bc dc53 5abb
000003d0: c3a3 9fbc a61b 4cbd d906 003d 7c63 aebc
000003e0: f346 21bd 88e2 b0bd 712b b1bc f8ff 6a3d
000003f0: 7115 03bb af84 14bd 4318 1f3d aa54 e4bc
0.005444198 0.049406838 0.042616464 0.042456508 0.055838797 -0.021240138 -0.08190159 0.024768636
-0.03379606 -0.11126998 0.02963058 -0.04585254 0.006337421 0.03339764 0.05990214 -0.002669045
0.045071755 -0.11797049 -0.020965083 -0.019590398 -0.029255299 -0.057858277 0.02833835 0.034370802
-0.04580471 0.06712438 -0.015360829 0.010232629 -0.039377354 -0.009331332 -0.037878897 -0.060338344
-0.07300341 0.007625855 0.031004371 0.03765938 0.03584244 0.01062205 0.034481287 0.046576545
-0.011266187 0.094930746 0.03611104 -0.037689526 -0.05390436 0.016948786 -0.04722911 0.05134796
0.049377043 -0.02828062 0.027080622 0.07137941 0.06517623 -0.056841142 0.06531792 -0.06339465
0.027593791 0.05593455 0.01851293 -0.022430096 -0.043690745 0.045800682 -0.040114123 -0.08204685
0.010347279 0.020740949 0.03828624 -0.03150135 0.0855011 0.060446072 0.008266393 0.01689218
-0.08544814 0.028137662 0.024163201 0.029804341 0.04554532 -0.039572623 0.009242133 -0.080832586
-0.006922228 -0.060345575 0.025886822 0.022351172 0.02526003 -0.032181658 -0.06861938 -0.038164247
0.06106243 -0.015974564 0.024870101 0.0019209792 -0.0959124 -0.014409298 -0.07147431 -0.0216632
-0.07898284 -0.012891364 -0.11581054 -0.059656892 0.027566008 -0.03607931 0.016606221 0.043578174
-0.06511752 -0.10999366 0.056191266 0.05771274 0.05392635 0.042919725 0.03907352 0.061811846
-0.07235161 0.0477209 0.080892816 0.010454416 -0.06427956 -0.06978586 -0.056011133 0.08364036
-0.07682988 -0.017728541 0.02372857 0.09075784 -0.02598683 0.08710952 -0.007101097 -0.030804148
-0.011429308 -0.06958758 0.014738978 -0.08651139 0.053527296 -0.067456245 0.0002401528 -0.0012879133
0.056468245 -0.033139993 -0.002391375 -0.0452938 0.008804054 0.004263007 0.035545733 0.04595408
0.0017760368 0.0053954073 -0.011003951 -0.097505726 0.026500657 0.02856187 -0.10307222 0.050444413
0.07721942 -0.049458656 -0.03567527 -0.085200585 0.061823636 0.017312333 0.0193224 -0.046092574
0.032603562 -0.07809821 -0.034817226 -0.07463265 0.043622594 -0.029179862 -0.040756315 -0.015094678
-0.05954458 -0.056479666 0.064354636 -0.010895262 -0.016101725 -0.04816234 0.051905155 0.06123463
0.080126 0.011489028 -0.08388083 0.09174031 0.04964319 -0.08610309 -0.07891717 0.08701108
-0.0059423135 0.04327126 -0.051125944 -0.05028487 0.050682064 0.01770487 -0.031139066 0.09916683
-0.024853878 0.017659914 -0.053689968 -0.04310603 0.010967684 -0.06211857 -0.06704262 0.068357036
-0.05129749 -0.04436689 0.045648158 -0.020756636 -0.045188017 -0.020734344 0.06615504 -0.077618696
-0.013047367 0.0020154295 0.05723863 -0.06752935 -0.054146804 -0.055916652 0.061111882 -0.020297779
-0.006027263 -0.01858791 0.06551529 0.07407345 -0.060646746 0.00086041295 -0.03904014 0.08607736
-0.034530375 -0.048217017 -0.021745978 0.025209868 -0.0869067 -0.071574785 -0.027616324 -0.004835989
-0.07718086 -0.017392943 -0.048472032 -0.064421974 0.01899083 -0.013304222 0.0022099707 -0.026044568
-0.016556403 -0.030499673 -0.011128897 -0.0033314144 -0.019487267 -0.049831055 0.03125653 -0.021287672
-0.039374303 -0.086369574 -0.02162716 0.057373017 -0.0020001794 -0.03625935 0.038841497 -0.027872402

weight_sigma f4 [100, 150]
00000000: 615f 923d bf27 f83c 9250 433c 680a 1f3d
00000010: 39c9 803c 779c 6f3d 7dd9 d63c 8dcc 4c3d
00000020: c24f 423d 3ef0 053d 256c 623c 83e4 883c
00000030: 3afe 373d 8b2e 163d e42f 0e3d eaf1 493d
00000040: 33b3 b63c 751d c63c 593c 403d 89cf 2f3d
00000050: 7d0c 563d 85e0 5a3c 2a84 7d3d e796 cf3c
00000060: a584 663d 0f07 773d 3fba 643d 68bc f03c
00000070: 64a8 7a3d 50c4 4b3d c1ff 173d b6a2 0b3d
00000080: d7ab 363d 0333 7a3d 6893 313d 7661 4f3d
00000090: 37a5 7dbb 8eb1 3b3d a2ee 3f3d 075b 053d
000000a0: 84cb ba3c 6cae 833d 285b 093d 5a51 b73d
000000b0: 8d02 543d bee7 893c df61 3e3d 85c5 f93c
000000c0: ab20 4b3d 06ea 553b a2ac 013d 9bdd 6e3d
000000d0: 1ab9 343d 287f 123d 3987 063d 47db 893c
000000e0: 8fec 1c3d 1ccf 483d 8476 813d 634d 003d
000000f0: 1810 5f3d 4906 583d 4d41 7b3d f89a 7e3d
00000100: db58 6c3d 33fa b73c fa78 ab3c a2cc 163d
00000110: 1bd3 0a3d ba50 223d 0a22 2b3d c3c0 873d
00000120: 9e58 263c bbcc 0b3d 81bd ce3b 4f27 4b3d
00000130: dc92 cc3c f533 fb3c c275 583d 2a75 603d
00000140: f20e 6b3d d36b 1a3b aa74 b73c 335a d33c
00000150: 776d 913c c1d8 913d 918b 0f3d 7c64 6c3d
00000160: 4428 d93c 8ab1 0e3d 9676 0c3d 7928 8b3d
00000170: 3a56 073d b749 5b3d ba19 df3c 0954 98ba
00000180: c68d 2e3c c8ac 3d3d 7356 543d 77de b03c
00000190: f1a6 2bbc dab7 3e3d 86c2 e13c 705c 833d
000001a0: 40dc 7f3d e320 6f3d a249 0b3b e1b9 143d
000001b0: 9060 103d a376 f23c 6d0b 5d3d fb1a 073d
000001c0: a1b6 523d b821 373d 6f84 5b3d 4010 2c3d
000001d0: ae67 033d 490c 6c3d d2fd 613c afa7 cc3c
000001e0: f1c5 a23c 204b 053d 9b9c 0e3d 3c25 873c
000001f0: 875f 563d 8c40 ce3c f2e3 c93c 6390 1f3d
00000200: 013b 0d3d 40bb 483d 5fde 693d 5875 6d3c
00000210: e0a8 bb3d ca35 093d bb41 593d d15a 613c
00000220: 1abd af3c 4688 593d 469c 763d ce38 073d
00000230: 4b92 9c3c f4e8 123d b856 073d 40a1 163d
00000240: a9d0 ed3c 4e33 b53d 4d56 8a3d d6ac 283d
00000250: b87c 4a3d 6e54 d83d 4bfa 093d c730 ea3c
00000260: c54d ee3c 0676 263d bdb8 313d 9356 343d
00000270: 1fa4 343d fb4b 083d 3ca1 ec3c afa0 3c3d
00000280: 20f5 ed3c 6c63 823d d963 4c3d c053 4f3d
00000290: 743d 803d 0947 243d 4117 313d 8077 723d
000002a0: e084 d03c c5fb 813d 16c9 873d 74fb 1f3d
000002b0: 09d3 0d3c a132 303d 9175 dc3c 1f91 ab3d
000002c0: 363e 0b3d 6ccf b63c 9fd1 033d 9535 403d
000002d0: c223 4f3d eafb 5d3d 0bca 293d 7ea1 873d
000002e0: e039 5e3d 1d89 633d daf7 113d 0d46 b03c
000002f0: 9538 073d b05e 0c3d dc8c 2c3d 6fda ab3d
00000300: 8667 3c3d 0a17 0f3d 7e75 303c 561a 593d
00000310: 1cdc a93c 45c1 62bc b8c6 143d 373e 4c3d
00000320: 0791 953d 8741 8a3c ce9a 2e3d 173a e13c
00000330: 6e26 033d 3485 153d 45e4 4e3d a6b3 483d
00000340: 860b c23c d596 0c3d 6998 023d 7df5 853c
00000350: 2353 e43c d239 363d 1cb1 2a3d 64a7 7d3c
00000360: 6352 bd3c c1a0 1a3d 38bb 293d a765 e93c
00000370: 0762 193d 48f7 833d c826 8a3d 7ad6 053d
00000380: ad9e f33c 7cfd 113d 9ec4 373d 1d47 e73c
00000390: 9726 4a3d c08a fc3c dac2 4b3d c7c6 f63c
000003a0: 25ce bc3c 50db 343d 2897 3b3d 9b5f 953c
000003b0: 61ec 5e3d f843 28bd b905 ec3c 1c9d 2f3d
000003c0: f00a 123d f078 853d 2169 213d 49c8 1d3d
000003d0: 9e45 8d3d 0eab 703d 2091 233d 28ea b93c
000003e0: c68c 493d 479e 093d ca59 0b3b 3489 f13c
000003f0: 0bb4 2b3d e2cd e63c 52a8 d93c 1dc4 293d
0.07147098 0.03029239 0.011921065 0.038828284 0.01572095 0.058498826 0.026226753 0.049999762
0.047439344 0.032699816 0.013819729 0.016710525 0.044920184 0.03666548 0.03471364 0.049302973
0.022302246 0.024183968 0.046932552 0.04292253 0.052258004 0.013359194 0.06189362 0.02534051
0.056278843 0.060309466 0.05584168 0.029386714 0.061195746 0.049747765 0.03710914 0.03409072
0.044597473 0.061083805 0.04335347 0.050630055 -0.0038703212 0.045823626 0.046858437 0.032557514
0.022802122 0.06429753 0.0335342 0.089510635 0.051760245 0.016834136 0.046480056 0.030489692
0.0495917 0.003264071 0.031658776 0.05831681 0.04412184 0.035765797 0.032843802 0.016828192
0.038311537 0.04902564 0.06321433 0.0313238 0.054458708 0.05274037 0.061341573 0.06215951
0.057701927 0.022458171 0.02093171 0.036816247 0.033892732 0.039627768 0.04178051 0.06628563
0.010152964 0.034130793 0.0063092117 0.049598034 0.024972372 0.030664423 0.052846678 0.054799236
0.0573873 0.0023562803 0.022394497 0.025799846 0.017752392 0.07121421 0.03504521 0.057713017
0.026508458 0.034837283 0.03429278 0.06794829 0.033041216 0.053537097 0.027233947 -0.0011621724
0.010653919 0.046307355 0.051840257 0.021590455 -0.010476814 0.046562053 0.027558576 0.064141154
0.062465906 0.058380973 0.0021253605 0.03631008 0.03524834 0.029597586 0.053965975 0.032984715
0.0514437 0.04470989 0.053593095 0.042007685 0.0320813 0.057628904 0.013793426 0.024982302
0.019869776 0.032542348 0.03481732 0.016497247 0.052337196 0.025177263 0.024644826 0.038956057
0.0344801 0.0490067 0.057096835 0.014493309 0.0916307 0.033498563 0.0530412 0.0137545625
0.021452475 0.053108476 0.060207628 0.033013158 0.019112727 0.035866693 0.033041686 0.036774874
0.029030161 0.08847676 0.06754742 0.041180454 0.049435347 0.10562979 0.033685964 0.028587712
0.029089818 0.0406399 0.04338907 0.044027876 0.04410183 0.033275586 0.028885476 0.046051677
0.029047549 0.063666195 0.04989991 0.05061698 0.06261721 0.040106807 0.043235067 0.059195995
0.025453985 0.06346849 0.06630151 0.039058164 0.008656272 0.043017033 0.026911529 0.08377289
0.033994876 0.022315703 0.032182332 0.0469261 0.05057121 0.054195322 0.04145245 0.06622599
0.054254413 0.055550683 0.03563676 0.021517778 0.033012945 0.03426999 0.04212652 0.08391272
0.045997165 0.03493408 0.0107702 0.05300363 0.02073484 -0.013840024 0.036322325 0.04986402
0.073030524 0.016876949 0.042628102 0.02749352 0.03201907 0.036503986 0.050510664 0.04899945
0.023687135 0.034323532 0.03188363 0.01635241 0.027871674 0.044488735 0.04167281 0.015481804
0.023110574 0.037750963 0.04143831 0.028490854 0.037447 0.064436495 0.06745678 0.032675244
0.029738748 0.035642132 0.044865243 0.028232152 0.04935321 0.03082788 0.04974637 0.030124081
0.023047516 0.044154465 0.04579845 0.018234065 0.054424647 -0.041080445 0.028811323 0.04287444
0.035654962 0.065172076 0.0394069 0.038521085 0.06898044 0.05875688 0.039933324 0.022694662
0.049206518 0.03359821 0.0021263235 0.029484369 0.04191975 0.028174344 0.02656952 0.041446794

bias_mu f4 [100]
00000000: ee92 70bd ee92 e7bd a864 4abd 6507 d9bc
00000010: d0dc 15bd da82 33bc 1747 6bbc 1728 fdbd
00000020: a4bc 23bd 972a 7e3c 7b8d 133c bca0 20bd
00000030: 9bb9 27bd 0a9c 80bd bc67 f1bc b1ec 3d3c
00000040: 2f1e 22bc e898 97bd 4e20 a23a e081 11bd
00000050: 747e 4a3c 64eb eebd ebb5 453c 509c d1bd
00000060: 7769 d7bd 0c02 bebd 5c77 07be fdcb 0fbd
00000070: af3a 9d3c 5c0d 8c3b 3e9c a6bd d485 cf3c
00000080: d9ad 32bd 187d d6bd a329 9dbc 526d eabd
00000090: 41aa 05be ab89 9bbd 41b6 01bc 0368 89bd
000000a0: a122 a0bd ee7b 30bd b645 843c 6eb5 89bd
000000b0: 1182 c4bd 05a4 ad3c 2d9f ea3c 9ac7 49bd
000000c0: bc54 9fbc 3bde 6fbd 16b8 87bd cc94 a33c
000000d0: 7745 023a 1da1 acbc 4a4b 033c 6864 f1bd
000000e0: f26e 93bd c7d7 42bd 5482 c2bd e001 cfbd
000000f0: 8d41 b0bc d823 1ebe bd95 f9bc 1643 ccbd
00000100: 00a7 67bd f338 91bd 55e4 d3bc 8409 e6bc
00000110: c3b9 a1bd c545 fc3c dc41 51bd c992 c2bd
00000120: ecc3 27bc 02a3 c93c a9a6 b7bd e9b7 0bbd
00000130: 5692 ab3c 9a16 b0bd d042 02bd 918a a93c
00000140: b0ab 21bd 8845 cebc 8103 e2bd c315 16bd
00000150: 18df 02be 9855 e2bb 358b f0bc 73d2 4ebd
00000160: a798 25bd c685 8dbd 8e3b 64bd e26f d6bd
00000170: 27f3 c53c 20d9 29bd a9a2 62bd 12b7 a8bd
00000180: 23ef 4dbc 67c8 b8bc 229f b83d 2fc7 02be
-0.058733873 -0.113073215 -0.0494124 -0.026492784 -0.036587536 -0.01095649 -0.014360211 -0.12361162
-0.039974824 0.015513084 0.0090059 -0.03921579 -0.04094849 -0.06279762 -0.02946841 0.011592076
-0.009894892 -0.074022114 0.0012369247 -0.03552425 0.01235925 -0.11665991 0.012067298 -0.10234892
-0.10518163 -0.09277734 -0.13229126 -0.035106648 0.019193022 0.0042740535 -0.081352696 0.025332369
-0.043622825 -0.104730785 -0.019184893 -0.114466324 -0.13053228 -0.075946175 -0.007916988 -0.06709292
-0.07819105 -0.04308694 0.016146522 -0.06724058 -0.09595121 0.021196375 0.028640354 -0.04926262
-0.019449584 -0.058561545 -0.066269085 0.019968413 0.00049694575 -0.021072919 0.008013556 -0.11786729
-0.071988955 -0.047569063 -0.09497514 -0.101077795 -0.021515632 -0.15443361 -0.030466909 -0.09973733
-0.056555748 -0.0709094 -0.025865713 -0.02808071 -0.07896759 0.030794987 -0.0510882 -0.09500653
-0.0102395825 0.024613861 -0.08967335 -0.034110937 0.020943802 -0.08598061 -0.031802 0.020695956
-0.039470375 -0.02517964 -0.110358246 -0.036641847 -0.12780416 -0.006907176 -0.029363254 -0.05049367
-0.040428784 -0.06910281 -0.05572086 -0.10470559 0.024163796 -0.041466832 -0.055330906 -0.08238043
-0.012569222 -0.022556497 0.09014727 -0.12771295

bias_sigma f4 [100]
00000000: 3d35 763d 16c2 8a3d b48c 733d 6c74 453d
00000010: c521 b33d 9fd2 193d c835 80ba 3190 c8bc
00000020: f75d da3b 4202 443d e87e 953b 91ba 4abc
00000030: 7ed2 913c 13a7 8c3d 016e 6b3d 6699 d9bb
00000040: d4b4 da3b d20a 973d 3979 0b3c b1cb d33c
00000050: 608a 9b3d 0f8c 563d 2d96 813d ffe3 193c
00000060: d2dc 883d d792 a93c 7c7b b83c 8c7c 6c3d
00000070: 9f95 b03d f0c4 caba bba8 dd3d 2e62 d13b
00000080: 02f1 793c dafe c03d fcfe ab3c 8bef 413d
00000090: ae32 a53d 8839 ac3d 207d 2b3d d323 693d
000000a0: 8492 1a3b fb59 833d 6345 fc3d eb72 303d
000000b0: 0f51 5d3d a5ce 573d f0d2 a83d 6023 c83c
000000c0: 61d2 143d 44a6 4b3d f99a c33c 9370 a93d
000000d0: dca2 223d c41c 3d3d 899b 573d 3d08 f73c
000000e0: d947 473d 63af bd3d 7575 8d3d 2c54 863d
000000f0: a200 3f3d 9413 1c3d 4740 983c cc25 c93d
00000100: e389 703d 5922 983c 4162 cb3c 3316 aabc
00000110: 0262 da3d 13a7 323d 650c d53c 6223 cc3c
00000120: 2ad8 a13d c234 223d 7a75 443d ae32 a33d
00000130: 383a 163d 14c7 603c 7206 1ebc 5af0 9e3d
00000140: c7b4 883d 7dbc a23d 7dd3 0a3d 835a ce3c
00000150: 1997 363d 4387 773c 17d4 ac3d b37c 023d
00000160: f439 23bc 8d96 4c3c 41c0 083d 11ff 243d
00000170: 1253 b83d 3b9e bc3b 3d1c 8a3d ccee bc3c
00000180: 6736 5d3d 4423 5b3d 1b97 473d c2d0 233d
0.060109366 0.067753 0.059460357 0.04820673 0.087466754 0.03755438 -0.0009781653 -0.024482818
0.0066640335 0.047853716 0.0045622475 -0.012373582 0.017800566 0.068678044 0.057477955 -0.006640601
0.0066743884 0.07375111 0.008512788 0.025853964 0.07594752 0.052379664 0.06327472 0.009392737
0.06682743 0.020699902 0.02251982 0.057735965 0.08622288 -0.0015470069 0.108231984 0.0063898778
0.015255215 0.09423609 0.02099561 0.047347587 0.08066307 0.08409411 0.041867375 0.05691893
0.0023585865 0.06413647 0.12317922 0.043078344 0.05403238 0.052687306 0.08243358 0.02443093
0.036333445 0.04971911 0.023877608 0.08273425 0.039706096 0.04617001 0.052638564 0.030155296
0.048652504 0.09261968 0.06907169 0.06559023 0.046631463 0.03810461 0.018585337 0.09821662
0.05872525 0.018571066 0.024827125 -0.020762539 0.10663225 0.043616366 0.026006887 0.024919216
0.07902558 0.039601095 0.047963597 0.07968651 0.036676615 0.013719339 -0.009645091 0.07760687
0.066751055 0.079461075 0.033893097 0.025189644 0.04457769 0.0151079325 0.084388904 0.031857204
-0.009962548 0.012487066 0.033386473 0.040282313 0.090002194 0.005756167 0.06743667 0.023063086
0.05400696 0.05350043 0.04872809 0.03999401
