saved_models/13:44/actor.pth (torch, 25223 bytes, 10 tensors)

l1.weight f4 [64, 4]
000000 6a 9f a5 bd d0 b7 a1 3d 5a f4 b7 3f ce 80 e8 3d
       -0.080870464 0.078963876 1.4371445 0.113526925
000010 f3 81 26 be d1 09 26 3f e4 bb a7 bf 11 57 aa bf
       -0.16260509 0.6485873 -1.3104215 -1.330782
000020 42 70 10 bf 47 4e b1 be 64 26 52 40 15 42 a5 3d
       -0.5642129 -0.34630033 3.2835932 0.08069245
000030 34 81 65 3f 80 d4 38 bf aa c9 96 c0 0b 22 92 bf
       0.89650273 -0.7219925 -4.712117 -1.1416639
000040 45 7c 11 bf f6 53 16 bf d0 86 4f 40 2e bf 5c 3f
       -0.56830245 -0.58721864 3.2426033 0.8622922
000050 6f 1a 0e 3e 10 3a f0 3f 67 52 19 3f d2 05 26 3f
       0.13877271 1.8767719 0.5989136 0.6485263
000060 ac 1b af 3e f4 d8 b1 bf ee 7a c8 40 d1 34 9c bf
       0.342008 -1.3894334 6.265006 -1.2203618
000070 b5 50 6b 3d 46 46 60 bf ea 4b 68 40 37 6b 15 40
       0.057450015 -0.8760723 3.6296334 2.3346689
000080 ae 2f 7a bd 12 8f ae 3d 2d dd c9 be eb 9f 25 40
       -0.061080627 0.08523382 -0.39426556 2.5878856
000090 2e 54 8d 3f 85 fa a4 3f c4 d3 80 3f f2 26 a7 3e
       1.1041315 1.2888952 1.0064626 0.326469
0000a0 da 78 67 3f 80 97 73 be 07 48 dd 3f 9d ef 53 be
       0.9041878 -0.23788261 1.7287606 -0.20696874
0000b0 68 ec 1e 3f c3 8d 70 bf 83 9e a2 c0 8e 93 f0 bd
       0.6207948 -0.9396631 -5.0818496 -0.11746894
0000c0 57 1d a4 3c dd 88 9d bd 36 51 1b 40 9d 4e d1 bd
       0.020033522 -0.0769212 2.4268317 -0.102200724
0000d0 ca 56 a3 bf 3e f9 9e 3e 08 1b 98 40 49 d5 88 bf
       -1.2760861 0.31049532 4.7532997 -1.069009
0000e0 1c eb 02 bc d0 d2 ac be a7 17 94 40 ee f4 23 3f
       -0.007990625 -0.33754587 4.6278872 0.6404561
0000f0 29 81 5a be 04 ff b7 be 53 35 3b 40 b6 a6 48 3f
       -0.21338333 -0.3593675 2.9251297 0.7837938
000100 5e ce e8 bf 3e 07 2a 3f 3c b7 ae be 20 b7 68 bf
       -1.8187978 0.664173 -0.34124172 -0.90904427
000110 f4 a9 8a 3f d1 d8 e1 be a1 00 72 40 7b fb f0 3f
       1.0833116 -0.4411073 3.7812884 1.8826746
000120 f6 09 a1 be 66 9a b4 3f fd 87 bc be 72 6a 78 bf
       -0.31452912 1.4109619 -0.368225 -0.9703742
000130 0d ee 41 bf b6 68 3c bf f5 9a 9b 40 57 02 87 3e
       -0.7575386 -0.73597276 4.8626657 0.26368973
000140 7e ed 23 3f a0 da 2c c0 d2 e5 1e bf 85 c7 64 be
       0.6403426 -2.7008438 -0.6206943 -0.22341736
000150 b0 a8 71 3f a9 7b 01 3f 1e 2b bd c0 05 5b 83 bf
       0.9439802 0.50579315 -5.9115133 -1.0262152
000160 52 61 1d c0 6e 3e c0 bd 1a 09 4b bf 5d 3b 30 3e
       -2.459065 -0.093869075 -0.7931076 0.17210145
000170 0a 4b 6f bf ea 46 99 bf 57 4a 1a c0 72 8b 02 c0
       -0.93473876 -1.1974766 -2.4107873 -2.039761
000180 76 0b 33 3f 21 f4 b2 bf d7 c9 31 40 9f 90 38 3f
       0.69939363 -1.3980752 2.7779443 0.72095674
000190 a5 00 10 bf ab 4f b2 3e a4 77 45 be d4 d0 ce be
       -0.56250983 0.34826407 -0.1928392 -0.40393698
0001a0 36 6f ea be d2 99 a1 be 09 45 64 40 a1 4c 1f 3f
       -0.45787972 -0.31562668 3.5667136 0.622263
0001b0 3e b6 7e 3e cc 0e 3b bf bf e1 07 bc 1e 08 58 c0
       0.24874207 -0.73069453 -0.008293568 -3.3754954
0001c0 ac df 8e 3f 94 3e 02 3f 1e 09 78 40 0c c0 37 3f
       1.1162009 0.50876737 3.8755565 0.71777415
0001d0 f0 0d d2 be 2a b1 71 bf 41 1e 63 40 20 8d 31 3f
       -0.41026258 -0.94410956 3.5487216 0.69355965
0001e0 55 dd a3 3d 79 ed a8 3f 79 2c 63 40 bb 49 6e bf
       0.080012 1.3197471 3.5495894 -0.93081254
0001f0 f1 86 12 3e a2 3c 29 be 41 eb 60 be cd a2 93 be
       0.14309289 -0.16527036 -0.21964742 -0.28835145
000200 5b f2 b4 bd 03 e1 23 3e b8 24 65 3f 84 94 ef 3d
       -0.08835288 0.16003804 0.89509153 0.11698249
000210 1e 83 15 3f 34 ee 32 bd 08 aa 34 41 ba 6f c6 3e
       0.58403194 -0.0436842 11.291512 0.38757116
000220 d2 f0 00 3f f0 51 86 3f b9 42 80 c0 1f de 37 bc
       0.5036746 1.0493755 -4.008145 -0.011222391
000230 56 a5 d7 bf 40 25 78 bf 4f 64 8a bf 6a 7f 9d bf
       -1.6847332 -0.9693184 -1.0811862 -1.2304509
000240 76 9d 9c bd d1 1f 99 3e f2 63 8c 3e 83 17 29 40
       -0.07647221 0.29907086 0.27420002 2.64206
000250 5f 88 09 3e 2a 02 58 be ac 5a cc be 8d c6 d2 bd
       0.13430928 -0.21094576 -0.39912927 -0.10291777
000260 cb c4 a8 3d d7 d0 2b bd bd e3 d3 be 13 ba 9b 3c
       0.0824066 -0.041947212 -0.41384688 0.019009626
000270 a3 af 99 be b9 12 0a 3b 4e 69 6d 3f 9c 90 3a be
       -0.30016813 0.0021068288 0.9273881 -0.18219227
000280 35 0e 3f 3e 7f 6d ca bd 57 0a 06 3f c1 2e 86 bd
       0.18657763 -0.09884166 0.5235953 -0.06551886
000290 0f af a2 3e 43 28 fb bf ad a5 09 c0 09 58 3c 3e
       0.31774184 -1.9621662 -2.150737 0.18392958
0002a0 f4 85 7a 3f d9 a6 5b bf 6e df 36 3f e4 60 e5 3f
       0.97860646 -0.85801464 0.71434677 1.7920194
0002b0 41 71 a6 be 8a a5 17 3e ee d3 bd 3f 8d fa 6b bb
       -0.3250828 0.14809242 1.4830301 -0.0036007494
0002c0 38 cb 35 3e d5 4e 35 3e c9 c3 f6 be 7b 22 8c 3d
       0.17753303 0.17705853 -0.48196247 0.06842514
0002d0 4e e1 fd bd b8 ea 8b 3d 3b ba 6f 3f 76 b9 f0 bd
       -0.12396489 0.068318784 0.9364354 -0.11754124
0002e0 03 9c 2f be 65 74 20 3f e9 2a 8b c0 52 2b e5 3d
       -0.17149357 0.62677604 -4.348988 0.11189903
0002f0 01 3f d7 3d be c9 b3 3f 75 b7 29 40 89 3f d0 3e
       0.10510064 1.4045942 2.6518223 0.40673473
000300 f8 98 04 bf 16 64 de 3f f2 0a be 3f 79 91 76 3f
       -0.5179591 1.7374294 1.484709 0.96315724
000310 d5 c9 b4 bf ff ee 2e 3f 3a e2 b2 3f 13 2d 61 3e
       -1.4124094 0.6833343 1.3975289 0.2198985
000320 ee d3 02 be ae 31 b2 bf 79 88 a2 be b1 47 e0 bf
       -0.12776157 -1.3921411 -0.31744745 -1.7521878
000330 f3 0d a8 be ae 18 f5 3e 00 f9 b2 40 7f 99 8e 3f
       -0.32823142 0.47870392 5.5928955 1.1140593
000340 68 06 01 be 34 1b eb 3d df fc 47 3d c8 9f d2 bc
       -0.126001 0.11479798 0.04882514 -0.025710955
000350 43 90 15 3f 90 04 ac bf 02 7c f7 3e 9f 58 ea bd
       0.5842325 -1.3438892 0.48336798 -0.114426844
000360 9f 0e be bc 73 ea 78 3e 87 a2 a4 3f e1 36 5b 3e
       -0.023200331 0.24308185 1.28621 0.21407653
000370 6a 7a 87 3d 47 99 a9 3e 7c 12 82 3f 3a c0 6a 3d
       0.066151455 0.33124754 1.0161891 0.057312228
000380 f9 65 3c 3f 41 7b 1e bf 8a dc 81 bf 82 37 d1 3f
       0.735931 -0.6190682 -1.0145428 1.6345065
000390 54 57 b2 bb ae e5 c5 bd 49 64 8a bc 7d 9e fd bc
       -0.005442539 -0.096629485 -0.016893523 -0.030959362
0003a0 4c 2a 0e bf a4 5c a0 3f cc b9 c7 3f f3 06 9a be
       -0.5553329 1.2528272 1.5603576 -0.30083427
0003b0 2c 78 2b bf f1 30 13 bf 99 3f 2b 40 46 ed c0 3e
       -0.6698024 -0.57496554 2.6757567 0.37681025
0003c0 1a bb 4c be 8b 53 0f 3f c0 d2 db 40 d0 60 9b 3f
       -0.19993249 0.5598685 6.8694763 1.213892
0003d0 12 c2 75 3d 51 36 36 be 09 fa 1f 3f e7 ca c1 be
       0.059999533 -0.17794158 0.624909 -0.37850115
0003e0 d3 a1 da 3e b4 40 d9 bf b4 2d 81 c0 c0 49 c3 be
       0.42701587 -1.6972871 -4.036829 -0.38142204
0003f0 60 01 47 bf 4d d4 e3 3c 09 80 52 40 ed 3a 9f 3e
       -0.77736473 0.027811194 3.2890646 0.31099644

l1.bias f4 [64]
000000 a4 35 28 bf 08 66 a4 bf 40 fa a5 bf 5c 6a 33 bf
       -0.6570685 -1.2843637 -1.2966995 -0.70084167
000010 80 b2 90 bf 56 48 43 bf ac b8 a7 3e 9d 8e 47 3c
       -1.1304474 -0.7628225 0.3275808 0.012179998
000020 bf 0f 28 3d 9d 61 f3 3d 1d 04 c8 bf 93 21 f7 3b
       0.04103064 0.11883853 -1.5626255 0.007541844
000030 7f 7c 9b bf 60 ba 90 3d a0 d0 a6 bf 95 16 9d bf
       -1.2147368 0.07066798 -1.3032417 -1.2272516
000040 62 ac da be e9 4c d8 bd f6 35 a1 bf cf 61 85 bf
       -0.42709643 -0.105615444 -1.2594593 -1.0420474
000050 2e 2d cb bc c1 81 a0 be 29 32 e6 3b 90 00 63 bf
       -0.024801817 -0.31348994 0.0070250225 -0.88672733
000060 2a 0e 99 be 21 f8 ce bf 85 4c c1 bf 14 65 9a bd
       -0.2989362 -1.6169473 -1.5101477 -0.0753881
000070 d2 86 93 bf df 57 9f bf 17 bd 69 bf e1 c5 4e bf
       -1.1525519 -1.2448691 -0.91304153 -0.8077069
000080 a5 66 f9 be 0c f4 ed 3d bf f3 61 bf ad 5e 22 bf
       -0.48711124 0.11618814 -0.8826255 -0.63425714
000090 25 24 d5 bd bb 2e 5a bf 0e 58 ee be 64 83 61 bf
       -0.10407285 -0.85227555 -0.46551555 -0.8809111
0000a0 6e 75 02 bf 54 21 38 bf a6 46 97 bf e6 e3 99 bf
       -0.50960433 -0.71925855 -1.1818435 -1.2022674
0000b0 7c fe 82 bf ef 4d a4 be a6 3e 84 bf d2 39 a4 3e
       -1.0233912 -0.3209071 -1.0331619 0.32075363
0000c0 17 90 7a bf 47 b1 88 bf 3c 71 45 be d6 47 0c bf
       -0.97876114 -1.0679101 -0.19281477 -0.5479711
0000d0 bc 83 01 bf 91 cd b2 bf 0f 27 76 bf bb bc b4 bf
       -0.50591636 -1.3968984 -0.9615335 -1.4120096
0000e0 70 1e 7c bf ef f8 bd be 56 d4 84 bf e1 51 92 bf
       -0.98483944 -0.37103984 -1.03773 -1.1431237
0000f0 fd 22 90 be 31 15 3c bf 7e 58 b3 be e7 b5 71 bf
       -0.28151694 -0.73469836 -0.35028452 -0.94418186

l2.weight f4 [64, 64]
000000 52 7b eb bd 00 1f 14 bd 26 38 06 3d b7 00 9f bd
       -0.11498131 -0.036162376 0.03276839 -0.07763808
000010 bf b4 18 be a8 05 48 3d 47 fc 61 bd b3 9f e6 3c
       -0.14912699 0.04883352 -0.05517223 0.028152322
000020 9a a9 2d be 09 1c f6 bd d5 ab 39 be 06 a1 bd bc
       -0.16959229 -0.12017066 -0.18131955 -0.023148071
000030 af a2 18 3a 98 ea 6f bc 85 33 78 bd 78 ca cf bd
       0.00058225816 -0.014643334 -0.060596008 -0.1014604
000040 c2 c7 81 bd 89 55 8c 3d 0f 24 89 3d 46 e8 f9 bd
       -0.06336929 0.06852252 0.06696331 -0.12202506
000050 45 a2 8b 3d dc c3 83 3c b7 75 85 bd 76 12 0a ba
       0.0681806 0.016084604 -0.06516593 -0.0005267033
000060 1f bd 2a be 83 d1 37 be d7 91 49 3c 78 10 ef bc
       -0.16673706 -0.17951016 0.012302837 -0.029182658
000070 a6 b2 26 bd 33 26 0c bd f2 c9 c1 bd c0 27 a7 bd
       -0.040697716 -0.034216117 -0.09462346 -0.081618786
000080 76 00 c7 3d 0d 50 9f bd 55 01 a3 bb 22 66 e7 bd
       0.09716885 -0.0777894 -0.004974524 -0.11298777
000090 86 2a 76 bd ea 47 9c bd 16 41 1e 3d 6a 7d da bd
       -0.060099147 -0.07630904 0.03863629 -0.10668452
0000a0 85 99 c5 3c 08 35 c8 bd 76 e3 89 bd 1a c2 76 bc
       0.024121055 -0.0977574 -0.06732838 -0.015060926
0000b0 34 9c ed 3d 18 38 a7 3c 89 73 46 bc f2 b3 f3 bd
       0.11602059 0.02041249 -0.012112507 -0.11899556
0000c0 05 16 9a bd 69 d1 26 be a9 3b 00 be 86 32 3e bd
       -0.07523731 -0.16290821 -0.12522759 -0.0464349
0000d0 80 31 2d be fe 00 83 bd 20 cd 8d bd 25 19 0d be
       -0.16913414 -0.063966736 -0.0692389 -0.13779123
0000e0 3c 34 92 3d f8 5d 06 be de 14 04 bd c6 a6 0e be
       0.07138869 -0.13121784 -0.032246463 -0.13930807
0000f0 28 2d 48 be 34 05 b0 3d 84 8b 12 bd 4e a6 72 bd
       -0.19548476 0.085947424 -0.035777584 -0.05924063
000100 df 72 0c be 5a 43 b0 bd 07 20 88 be 7c c9 61 be
       -0.13715695 -0.08606596 -0.26586935 -0.22049516
000110 2c 8b 48 be 1c 62 45 bd ae 29 9e bd 4b fc 86 3e
       -0.1958434 -0.048189268 -0.077227935 0.2636436
000120 12 22 fe bd 2b 62 34 3c ba 9e 6c bb a5 9d 2e be
       -0.12408842 0.011009733 -0.003610535 -0.17052324
000130 ea 95 64 bd aa c9 61 be 0b 54 ab be fe 52 b5 be
       -0.05580703 -0.22049585 -0.33462557 -0.3541488
000140 75 d5 e3 3d 9e 9a 70 3d bb dc 35 be 2d 2d 49 bf
       0.11124698 0.058741204 -0.17759983 -0.7858456
000150 ff 4a 9e bd 6b 02 8e be ae 3b a6 be ed 7a 18 bf
       -0.07729148 -0.2773622 -0.32467407 -0.5956257
000160 d2 af fe bd 76 03 62 be ff 58 17 bf cf 4b 06 3a
       -0.12435879 -0.22071633 -0.5912017 0.00051229907
000170 15 2f 17 be 18 76 0d be 77 f5 51 be c7 c2 a1 3e
       -0.14764054 -0.1381458 -0.20503794 0.31593916
000180 33 96 f6 3d b3 91 67 be 0a 5a 1f be d4 59 68 bd
       0.12040367 -0.22614174 -0.15561691 -0.05672629
000190 6e 23 1d 3d 09 5f 0c 3e eb ac ad bd 32 63 0c 3c
       0.038363867 0.13708128 -0.08480247 0.008568572
0001a0 d2 6d 4d bc e3 0a 5b bf 91 7e 04 bd 99 18 11 3e
       -0.01253839 -0.85563487 -0.032347266 0.1416954
0001b0 b7 ae 80 3d dd bb da 3e 31 11 31 bf 42 07 40 be
       0.06283324 0.42721453 -0.69166857 -0.18752769
0001c0 17 bc 33 3d f9 88 09 3c 6f 6f 63 bd bf 1c 18 c0
       0.04388055 0.008394473 -0.055526193 -2.3767545
0001d0 11 56 ab 3e b5 87 a8 be 4a 5b 00 3e 10 f6 3b be
       0.334641 -0.32916036 0.12534824 -0.18355584
0001e0 23 e4 8a 3e b3 88 53 3d 9b 3a 85 bc 89 fc e0 bd
       0.2712718 0.05164404 -0.016263297 -0.10985667
0001f0 e2 db 2d 3c 80 96 b0 3b 10 c3 a9 3c d0 16 4e bf
       0.010611506 0.0053890347 0.020722896 -0.8050356
000200 44 b3 95 3c 61 52 ac bc 07 ff 11 ba a4 0e 10 be
       0.018273957 -0.021035375 -0.0005569313 -0.14068085
000210 5e a9 f8 bc 88 3d 1a bd bf f0 d7 bd 46 97 8c 3c
       -0.030354198 -0.037656337 -0.105439655 0.017161977
000220 ce c0 63 be 90 ec 91 bd 3b 82 07 bb 91 c9 34 be
       -0.22241518 -0.07125199 -0.0020676989 -0.17655016
000230 65 7f 16 3e 54 df 4a be 00 f4 6c 3c 0c a5 4f bd
       0.14697035 -0.19811755 0.014462471 -0.05069451
000240 4e ec 18 be 99 1e 33 be b9 2e 49 bc 01 20 18 3d
       -0.14933893 -0.17492141 -0.012279206 0.037139896
000250 0f 44 a9 bd 84 f4 32 be 92 99 6a 3d a6 53 a1 3d
       -0.08264934 -0.17476088 0.057275362 0.07877283
000260 9c 52 1a be cc d4 35 be fe 70 47 be e8 e0 ee bd
       -0.15070575 -0.17756957 -0.19476697 -0.11663991
000270 7e 7a cb bc b2 aa 50 be fa d6 14 be 5e 0a 62 bd
       -0.024838682 -0.20377615 -0.14535132 -0.05518567
000280 a7 98 4d bd c9 9b 34 be 72 6e 0c be 4d 5f 53 be
       -0.05019441 -0.17637552 -0.13714007 -0.20641823
000290 ca af 9f bc 7e bf 74 bb 72 4e d8 3d ce d9 ee bd
       -0.019493002 -0.0037345584 0.10561837 -0.11662637
0002a0 e8 d7 d6 bd 8f e2 2e bd 3e 8d 00 be 5b 59 08 bd
       -0.104903996 -0.04269653 -0.1255388 -0.03328834
0002b0 c0 d7 57 bd 83 f0 35 be 0d 7c fb bd bb 94 bc bd
       -0.05269599 -0.17767529 -0.1227952 -0.092080556
0002c0 1b fe 33 bc 6a 97 66 bd 2b c3 a9 bc df 9a a5 bd
       -0.010985876 -0.056296743 -0.020722946 -0.0808618
0002d0 8e 75 82 3d d6 65 cd bd aa 47 a9 bd 07 9b 4c bd
       0.06370078 -0.10029189 -0.08265622 -0.049952533
0002e0 9a 36 d0 3c a0 23 8d 3d 5b c3 92 bd 13 5e a3 bd
       0.025416661 0.068915606 -0.07166167 -0.079769276
0002f0 fc 9a 8e 3d 00 d5 b1 3a 11 62 80 bd bd 9d 20 be
       0.06963155 0.0013567507 -0.06268705 -0.15685172
000300 dc b1 84 be 95 f2 00 bd 68 0e 11 3f 03 f3 0d c0
       -0.25916946 -0.031481344 0.5666261 -2.2179573
000310 ad 80 13 bf dc 49 09 c0 c4 df 84 bf 91 26 89 3f
       -0.5761822 -2.145133 -1.0380788 1.0714895
000320 61 4f c2 3f d6 ac ae 3f 51 e2 db 3d f6 df 15 c0
       1.5180475 1.3646495 0.10736526 -2.3417945
000330 68 97 01 bb fd a8 2b c0 04 8b 9b bf 3c e4 9f bf
       -0.0019774083 -2.6821892 -1.2151799 -1.2491527
000340 92 6c 14 c0 cc 01 94 3f cb f0 30 c0 02 8c 1f 3f
       -2.3191266 1.1563048 -2.7646968 0.6232301
000350 ea 7c 01 3e fb de e6 bf 83 d2 a0 3f 42 13 df bf
       0.12645307 -1.8036798 1.2564243 -1.7427752
000360 c8 9e cf 3f db 05 86 be 95 f2 1a bf ea 65 8e 3f
       1.6220331 -0.26176342 -0.605264 1.1124852
000370 f9 68 b9 be 70 9b 71 bf 23 d9 32 c0 08 b6 4f 3d
       -0.362129 -0.94377804 -2.794503 0.050710708
000380 b6 47 87 bd 87 c9 19 bf ec aa be bf a6 1f 80 3f
       -0.06605475 -0.6007313 -1.4895911 1.0009658
000390 db 8e ff 3f a4 16 42 3e 12 bb 37 bd 9e d0 23 be
       1.9965471 0.18953949 -0.04485614 -0.1599755
0003a0 87 55 37 3c 90 49 95 3e 1d 32 de 3f ea 7a c7 bc
       0.011189825 0.29157686 1.7359043 -0.024350602
0003b0 8e 6d 42 3e 61 f7 b9 3c 06 14 67 bd 99 0c 04 3e
       0.18987104 0.022700967 -0.05641558 0.1289543
0003c0 e7 92 5a c0 d7 3d 7a 3f 97 85 29 3f b9 29 21 3f
       -3.4152162 0.9775061 0.66219467 0.6295429
0003d0 7c 98 ab 3e 75 c2 c5 bf 91 01 f8 be a8 20 f0 bf
       0.33514774 -1.5449969 -0.48438695 -1.8759966
0003e0 94 2f cd 3f 7d 23 9c bd 9e 2f 17 bf e7 f7 a2 bf
       1.6030145 -0.07623956 -0.59057033 -1.2731904
0003f0 f1 4d cb 3d 35 e9 c8 3e 06 0a 8d 3d 10 f4 a9 3f
       0.099269755 0.39240423 0.068866774 1.3277607

l2.bias f4 [64]
000000 f3 ca 92 bd c8 97 55 be 61 e6 15 be b5 00 a0 be
       -0.07167616 -0.20858681 -0.14638664 -0.3125054
000010 9c 40 09 be 06 57 1f 3f 17 81 a9 be 57 9f 78 bd
       -0.13403553 0.6224216 -0.331063 -0.060698833
000020 81 a1 ce be 26 14 db bd 2c da 8d bf 7c a4 63 bd
       -0.40357593 -0.106972024 -1.1082206 -0.055576786
000030 a9 05 88 be fa de 54 bf 63 32 9e be a4 9a 3d be
       -0.26566818 -0.83152735 -0.30897817 -0.18516022
000040 ee 14 e0 bd 9c ca 76 3f 6a f3 6d be ac 31 12 be
       -0.10941492 0.9640291 -0.23237386 -0.14276761
000050 c0 ff 1a be c7 4e 89 bd 44 af c0 bd bb 9d 1e be
       -0.15136623 -0.06704479 -0.09408429 -0.15489857
000060 26 7e 6f be a1 20 4e bf b0 82 b9 bf 9c dd 37 be
       -0.23387966 -0.8051854 -1.4493008 -0.17955631
000070 c4 bb 6f bf 2a ce 60 be 59 76 8d bf 0d cf 11 be
       -0.9364588 -0.21953645 -1.1051742 -0.1423914
000080 59 64 a1 3e 5e d1 81 be b3 87 ea bc 94 b9 e5 bd
       0.31521872 -0.25355047 -0.02862916 -0.11217037
000090 1b f3 1b be fd 6b 0b be da 6b 8e bd 67 27 5d be
       -0.15229456 -0.13615413 -0.06954165 -0.21597062
0000a0 7d 67 8c bf 87 93 57 bd 91 d4 7e be 40 8c de be
       -1.0969082 -0.052630927 -0.24885775 -0.43466377
0000b0 4f a5 16 be 31 43 e7 be 22 8c 36 be e2 9d b2 bf
       -0.14711498 -0.4516845 -0.17826894 -1.3954432
0000c0 43 dd b4 be c8 c2 75 3f ab c9 36 be 8a 3b 0e bf
       -0.3532506 0.9600034 -0.17850368 -0.555596
0000d0 e8 a2 32 be 56 ec 7b bf ec c8 9d be 78 d0 3b be
       -0.17444956 -0.98407495 -0.30817354 -0.18341243
0000e0 77 09 d8 3f d5 4f 8a be e6 65 c5 bd 09 1e 40 be
       1.6877888 -0.27014032 -0.09638576 -0.18761458
0000f0 7c 9b 82 bd 56 d3 58 be 43 42 84 bf 0a 0f 69 be
       -0.063773125 -0.21174368 -1.0332721 -0.22759643

l3.weight f4 [16, 64]
000000 34 79 5a 3e 6e 38 ba bd 50 1f 8c 3e 1c 51 71 bf
       0.21335298 -0.09092794 0.2736764 -0.9426439
000010 34 e1 d3 bc cf c5 1a bf 86 9a e6 be 95 9f 9b bd
       -0.025864221 -0.6045808 -0.45039767 -0.07598797
000020 06 fc 7a bd a8 e9 61 bd 9c fd 78 be d5 d2 2f 3c
       -0.061275505 -0.055154473 -0.24315494 0.010731419
000030 54 e4 a8 be 96 33 58 3d 61 51 2a be b7 ad c4 bb
       -0.329867 0.05278357 -0.16632606 -0.0060021537
000040 93 0e 11 3c 51 6f 8b 3e 2c 2c b3 bd bb 03 36 3e
       0.008853572 0.27233365 -0.087486595 0.1777486
000050 8f b5 05 bc 09 2e ee 3d 63 b8 37 be 12 10 a0 3d
       -0.008160963 0.11629874 -0.17941432 0.07815565
000060 47 c5 22 3d 23 4f 1b bf 35 4a ab be cb 9d 0a 3e
       0.03973892 -0.6066763 -0.33455053 0.13536756
000070 21 38 8f bf 49 41 a8 bc b8 16 a2 be 59 f9 1e 3e
       -1.1189004 -0.020538943 -0.31657958 0.15524806
000080 f9 a5 3d be 3e 52 64 bd 87 ff 0d be 27 de 68 bd
       -0.18520345 -0.055742495 -0.13867007 -0.056852486
000090 f4 ba 17 bf a0 54 89 bf 23 0a c5 bd 77 6b 37 3c
       -0.5926964 -1.072895 -0.09621074 0.011195055
0000a0 22 b6 4b bf a2 f2 e4 3d 99 a0 51 3d 22 05 91 be
       -0.7957479 0.11179091 0.05117855 -0.2832423
0000b0 22 f1 8c 3d a3 bf aa 3d bd ec a5 bd 01 fe ce be
       0.0688193 0.08337333 -0.08101795 -0.40428165
0000c0 6d 8a 8b bf 02 ca d9 be 74 ee f6 3d ad 8a 0c bf
       -1.0901619 -0.42536932 0.120572 -0.548991
0000d0 3d a5 0c 3e d7 99 59 3f 6d 2a 4c bf aa a4 d1 bd
       0.13734908 0.85000366 -0.79752237 -0.10236485
0000e0 d7 19 7d be 18 81 7b 3d 47 d1 81 bd 9a af cd 3c
       -0.24716888 0.06140241 -0.063387446 0.025108147
0000f0 70 99 af bd a4 5d a5 3d 96 9b a0 bf a7 c8 4a be
       -0.08574188 0.08074501 -1.2547481 -0.19803105
000100 9f 61 6f 3d 33 97 2b 3d 61 1a 95 3d 59 3a a7 be
       0.058442708 0.04189224 0.07280422 -0.32661703
000110 59 02 1d bd 72 54 20 be 80 d4 e4 bd 1f 13 86 3d
       -0.038332317 -0.15657213 -0.11173344 0.06546616
000120 75 ed e3 3d 98 6b a0 bd b3 cb 83 3f f8 22 1d bd
       0.11129276 -0.07833022 1.0296539 -0.038363427
000130 cd 2a f5 3e ff 67 b6 be fe 1a 7e 3d 6b 4a 8c 3d
       0.47884217 -0.35626218 0.06203746 0.068501316
000140 dd 64 a9 3c 34 96 f9 3c 29 4c ae bd 24 08 78 be
       0.020677978 0.03046713 -0.0851062 -0.24221855
000150 4e 32 64 3d 6a 1d a7 bd eb 8f 3c 3d 49 85 22 bd
       0.055712037 -0.08159907 0.04603569 -0.039677892
000160 28 97 43 3e 6a f7 30 3d 2f 76 07 bf 08 f3 51 be
       0.1910063 0.043204702 -0.5291471 -0.20502865
000170 82 eb a0 3e fd e0 8d bd f4 b6 81 bf 8b 7b c7 3b
       0.31429678 -0.06927679 -1.0133958 0.0060877255
000180 4e 95 1f 3e e3 f5 da bb 73 02 b1 39 f8 33 77 3d
       0.15584299 -0.006682144 0.00033761896 0.060352296
000190 26 6e ba be dd a9 4f c0 34 f6 40 bd a5 f5 6f 3c
       -0.36412162 -3.2447426 -0.047109798 0.014645969
0001a0 5c 0b 81 3e 18 0c 95 bc 47 16 22 3e 50 31 9a 3a
       0.2520398 -0.018194243 0.1582881 0.0011763964
0001b0 6f d7 3c 3d d3 27 55 be 53 25 3c 3e bc 9c 2d bf
       0.04610389 -0.20815973 0.18373613 -0.6781728
0001c0 eb fa e2 3e e3 9d 89 be b5 00 27 be 71 4c 04 bf
       0.4433206 -0.2687827 -0.16308863 -0.5167914
0001d0 aa b7 e8 3d 02 8a 3e bd 83 7d d8 be f4 1b e4 3d
       0.11363156 -0.046518333 -0.42283258 0.11138144
0001e0 27 5a d4 3d d5 47 78 bc 37 1c f7 3d eb 69 f0 3c
       0.10368758 -0.015153845 0.120659284 0.02934738
0001f0 5a 6e 70 3e e9 9e 19 3c 68 be 25 3f 3b eb 14 bd
       0.23479596 0.009376266 0.6474366 -0.036357146
000200 d4 dc 4f bd 0b 2b fa bd 9c c7 ff bd 5e db 0f 3d
       -0.050747707 -0.12215241 -0.12489244 0.035121314
000210 34 8e a5 3d 70 c1 11 bf 06 ac d5 3d 9e a2 73 3c
       0.08083764 -0.5693579 0.104332015 0.014870314
000220 24 c8 18 3d a7 f8 a8 3d ba 44 6e bd 3b 7e b7 bd
       0.037300244 0.08250552 -0.05817101 -0.089596234
000230 51 4d ef 3c fa a6 77 3d f9 5d 48 3d b7 a3 c9 3d
       0.029211672 0.060461976 0.048917744 0.09845679
000240 08 f3 6e bd 58 be db 3c 2c 9f 28 bd e6 f4 87 bb
       -0.05833724 0.026824161 -0.041167423 -0.004149067
000250 28 1c 15 be 28 22 44 bd 9a 33 b8 bd e0 3c 26 3d
       -0.14561522 -0.047884136 -0.08994217 0.0405854
000260 cf 5e fc 3c 05 57 89 bd 24 fb 9f bd 1a d7 85 bc
       0.030806927 -0.06706051 -0.07811573 -0.01633792
000270 ab fc 91 be 69 5c 1e bc 95 6a 07 be 70 36 1e bc
       -0.28513083 -0.009665587 -0.13224252 -0.009656534
000280 cb 6a a9 3d 3d 3e 44 3d 4f 0e 9f 3d 7f 1b 02 be
       0.08272322 0.047910918 0.07766401 -0.12705801
000290 d1 f0 ff bb 24 ab d1 be 84 fc 68 bb f4 11 49 3d
       -0.00781069 -0.40950882 -0.0035550902 0.049089387
0002a0 a9 01 cc bd be 25 03 bd 2a 6e f3 bd 68 df 82 3d
       -0.09961254 -0.032018416 -0.118862465 0.063902676
0002b0 6f 56 4a 3c 1b 94 67 be 90 58 af bd ce 39 b1 bd
       0.012349709 -0.22615092 -0.08561814 -0.086536035
0002c0 30 ac 6d bd 71 e8 32 bf d5 8f 7d 3d 10 3f e1 3c
       -0.05802554 -0.6988593 0.061904747 0.02749589
0002d0 e6 01 43 3d 5f 95 42 be 74 35 b3 3b d2 21 a6 bd
       0.047609232 -0.19002293 0.0054690186 -0.081119195
0002e0 f8 6c 1b bf 10 35 62 bc 44 30 20 be c0 66 f3 bd
       -0.6071315 -0.013806596 -0.15643412 -0.118848324
0002f0 62 f9 f3 bc a2 9b 4a bd 9c b2 88 bd 04 f9 66 bd
       -0.029782 -0.04946483 -0.06674692 -0.056389824
000300 65 e2 44 3e 00 62 8c 3e 03 75 3d 3e cd de ce bf
       0.19226988 0.27418518 0.18501668 -1.6161743
000310 41 c7 8c bc 7f cc 03 3f c8 14 7c 3e 16 dc b0 3d
       -0.017184855 0.5148391 0.24617302 0.08635728
000320 81 d4 21 3d fd 5c 12 3e 1a 3b 7d bf ba 5b 73 3d
       0.0395093 0.14293285 -0.98918307 0.05941365
000330 e4 79 12 3e 8e ce 81 3c 53 e0 84 be 4e a7 a9 bd
       0.1430431 0.015845563 -0.25952396 -0.08283864
000340 ba 67 02 bd bd aa 6d be ea a4 3a 3e 7a 3f b9 be
       -0.031837203 -0.23209663 0.18226972 -0.3618124
000350 28 f1 c4 bd c3 f8 1a 3e 3a 71 59 3d 7b bf 00 bd
       -0.096163094 0.15133958 0.053086497 -0.03143261
000360 51 4c de 3a 74 17 5b be 65 c7 6f bd 57 d3 4c 3d
       0.001696 -0.21395665 -0.058539767 0.050006237
000370 a1 b6 6d be c5 de 85 bd df 58 13 bf 6a cf d4 bb
       -0.23214199 -0.065366305 -0.5755748 -0.0064944522
000380 28 75 af 3e af 8a 14 bd 80 9d 04 be 0b 62 75 3d
       0.3426907 -0.03626507 -0.12950706 0.059907954
000390 30 2d 48 bf e4 8f 9a bf f9 16 63 bc 62 9c 02 3e
       -0.7819395 -1.2075162 -0.013860458 0.12754968
0003a0 e8 59 26 bf 7c 85 5f 3d 38 ed 19 be dc 1c fb bd
       -0.64980936 0.05457066 -0.15031898 -0.12261364
0003b0 b4 ef 58 bd 75 2d 14 bf 27 83 e5 3d 19 85 0e c0
       -0.052962974 -0.5788186 0.11206656 -2.2268736
0003c0 bb c0 f7 bc 8f c0 c5 be f1 35 66 bc 58 02 37 3e
       -0.030243268 -0.38623473 -0.014050947 0.17871988
0003d0 77 f0 80 3d d4 49 41 be d8 ca 8f 3e 24 66 b3 3d
       0.06295865 -0.1887582 0.28084445 0.08759716
0003e0 14 ae 45 bf 7f bb 85 3e 19 f1 dd bc 2a 45 83 3d
       -0.7721875 0.2611961 -0.027092503 0.064096764
0003f0 a6 7d 24 be bd 5f 20 bd 4d b1 be be 66 1b 7f bd
       -0.16063556 -0.039153803 -0.37244645 -0.06228199

l3.bias f4 [16]
000000 04 8b a4 bf 70 c1 9f bf 9a cf 59 bf 7c 66 08 bf
       -1.2854924 -1.2480907 -0.850824 -0.5328138
000010 22 27 9b bf a0 c8 89 be b5 ba 4f be a2 f5 4b bf
       -1.2121317 -0.26910877 -0.20286067 -0.7967168
000020 b0 9f 33 3f 51 5a c9 be 03 b0 04 3f 30 07 e3 3e
       0.7016554 -0.39326718 0.5183107 0.4434142
000030 22 16 af be ac a7 10 be ac d3 93 3e 80 08 9b bf
       -0.34196573 -0.14126462 0.2887243 -1.2111969

mu.weight f4 [3, 16]
000000 fd 98 ef be ab 5e 56 bb 04 41 0f 3e 98 56 55 be
       -0.46796408 -0.0032710235 0.13989645 -0.20833814
000010 1e b0 9a 3f a5 6f 80 be de 90 3e bb 88 3b 79 3e
       1.2084997 -0.25085178 -0.0029078047 0.24339116
000020 81 44 4d 3f fe e9 b3 bf 17 16 1a bf 3e 06 4d 3f
       0.80182654 -1.4055784 -0.60189956 0.8008765
000030 3e 64 98 bd 95 cf 7d bd d0 0f 06 c0 88 34 bc be
       -0.07440995 -0.061965544 -2.094715 -0.36758828
000040 ae 86 f3 bd cf 1d d1 3e 51 5c 6e be 4e ed 09 bf
       -0.118909225 0.40843055 -0.23277403 -0.53877723
000050 a5 98 d2 3e 20 4e 06 bf 51 21 bf 3d 42 38 0c 3f
       0.41132084 -0.5246296 0.093325265 0.5477334
000060 ef 32 0d 3e 9d cc 66 bf 43 1c 39 be 88 9a aa bd
       0.13788961 -0.90155965 -0.18077187 -0.08330256
000070 1f 35 ea 3e 66 65 2d be 10 f7 90 3e 49 74 13 3c
       0.45743653 -0.16933212 0.28313494 0.0089998925
000080 d7 72 33 be d6 87 cf be 43 6a ef 3b 70 76 a4 bd
       -0.17524277 -0.40533322 0.0073063686 -0.08030403
000090 22 66 66 be 34 c8 2f bf 12 24 82 3c 03 aa 1e bd
       -0.22499898 -0.6866486 0.01588634 -0.038736355
0000a0 56 33 ac 3e 32 9f e8 be ad e6 4b 3f eb 33 87 bf
       0.33632916 -0.45433956 0.7964886 -1.0562719
0000b0 87 ab 6b be 83 03 33 3e 76 36 cd 3f 69 58 da 3e
       -0.23014651 0.17481808 1.6032245 0.42645577

mu.bias f4 [3]
000000 30 40 86 3f a4 c7 07 bf e1 70 e6 3d
       1.0488338 -0.53039 0.11251999

std.weight f4 [3, 16]
000000 66 e1 5b 3e 8c e1 88 3f 3f ff 76 3d 02 d9 95 3e
       0.21472701 1.0693831 0.060302015 0.29267126
000010 a2 cd 4e 3e 9e 03 4d 3e fb 17 d3 3d 58 38 d0 3d
       0.2019563 0.20020911 0.10307308 0.10166997
000020 34 74 b0 3c 18 84 21 3d c0 64 93 3e 33 22 3f 3e
       0.021539785 0.039432615 0.28787804 0.1866539
000030 74 98 10 3e 6d 1d b9 3e 84 b1 f4 3d fe 1f c7 3e
       0.14120656 0.36155263 0.11947921 0.38891596
000040 ae 54 4d 3e ac b7 e3 3e eb a3 78 3e f7 cf 24 3e
       0.20051834 0.44476068 0.2428128 0.16094957
000050 f8 df 03 3e 00 ae 5f 3e 83 b5 b0 3d d4 68 57 3d
       0.12878406 0.2184372 0.086283706 0.052590206
000060 ce f6 5b 3e 3f 19 a7 3e 4e 75 a5 3d d3 81 fb 3d
       0.21480867 0.3263645 0.08079015 0.122806214
000070 1b 25 69 bd 41 13 ea 3e af 55 22 3e 8e 61 75 3e
       -0.056920152 0.45717815 0.15852998 0.23962995
000080 90 10 9a 3e 82 8c 05 3f ef 4f 10 3e e4 b0 6e 3b
       0.3009076 0.5216752 0.14092992 0.0036421353
000090 4c 6f ed 3d 6e fd 02 3e c1 bc 58 3e 42 b7 16 3d
       0.11593494 0.12791988 0.21165754 0.036795862
0000a0 c3 4d d9 3d 44 a3 cc 3e a1 0a 57 3e d6 6d 91 3e
       0.10610535 0.39968312 0.21000148 0.2840411
0000b0 90 4d e8 bc 40 2c a0 3e b0 25 44 3d 94 53 dd 3e
       -0.028357297 0.3128376 0.047887504 0.43227828

std.bias f4 [3]
000000 94 32 3b 3f d9 eb 72 3f ed bc 53 3f
       0.7312405 0.94891125 0.8271015
