saved_models/13:44/critic_2.pth (torch, 16519 bytes, 9 tensors)

v1.weight f4 [32, 4]
00000000: 4234 383f 0b43 18bf 3334 1fbf 045a 0dbe
00000010: a4a2 d7bc 6b97 0ac0 9b5c abc0 0191 c5bf
00000020: aaa8 aa3c b8f2 3c3e 8773 9bbf 55e3 593f
00000030: 15e3 b53d 2b0f 2abf 59f3 d9bf 9939 4ebe
00000040: 2159 eb3c 9728 b6bf a493 e740 4980 e7be
00000050: 1fe3 2c3f 1212 aebe ce65 fd40 2816 cc3e
00000060: dccf 6f3f 1526 0b3f 619b cdc0 2d4a 3a3c
00000070: 022d 573f abad 0f40 07c0 3b41 5410 da3f
00000080: c736 07bf 67e1 8e3f 879b dbc0 dbdb c73e
00000090: 63d3 f2be 6444 7ebf 8aac 9ec0 3406 b83f
000000a0: 82de 033f aa60 4440 050c 37c0 4fbd 0140
000000b0: bb29 3a3f e3d1 76bf 07ca f140 4795 21bf
000000c0: 392f f43f b681 1dc0 e69a b83f 4673 0b3f
000000d0: 4e97 333f 3828 af3f 4d56 063f 490f 6740
000000e0: 7215 323f a5b2 a93f c8de 8e3f 1883 2b3f
000000f0: 6a48 903f 943f 34bf aac6 c740 89bf 85bf
00000100: 6437 8fbd 667a 123f ef8a 1541 a2c3 893f
00000110: 3f84 8abf 0412 7a40 3c9f c43f ad9d 883f
00000120: 31e4 c83e e495 92be dad2 86bf a75f bcbe
00000130: d244 3540 77b6 0b3f 0f45 e740 8372 0c3f
00000140: 6e1a 42bd 620c abbd 9034 ad3e 6fa8 12bf
00000150: 1ea1 65be b33f 9b3f 6710 0cbf b405 643f
00000160: afd1 1dbe 6763 d23f 44f8 c8c0 7705 843f
00000170: 86d7 3b3e dddc a5be f2d0 afbf 9214 13bf
00000180: 310d 75bf f051 983f 34f1 9f3f 45c0 933f
00000190: fd1a 663e 5eeb 3b3e 474b 68bf af4b a43e
000001a0: 768c 86bf e38b f2be 9714 9a40 1245 38c0
000001b0: 97ba e8be 376d f63e c2cf ae3e f4dd abbe
000001c0: 75d4 09bd bde7 6e3e 3475 16c1 8236 953d
000001d0: e9c3 96be 02c7 813d 5440 67bf aae1 26bf
000001e0: d23d d23e 903a 98bf de96 a2bf 7de0 21bf
000001f0: 158a 7bbe 1af1 bb3e 3344 5cbf 4ad6 fb3e
0.7195474 -0.594773 -0.62189025 -0.1380387 -0.02632267 -2.1654918 -5.3550544 -1.5434877
0.020832378 0.18451965 -1.2144631 0.85112506 0.08881203 -0.66429394 -1.7027389 -0.2013916
0.028729023 -1.4231137 7.2367725 -0.4521506 0.6753406 -0.33998162 7.9186773 0.39860654
0.93676543 0.54354984 -6.425217 0.011370224 0.8405305 2.2449749 11.734382 1.7036233
-0.5281796 1.1162537 -6.8627353 0.39034924 -0.474269 -0.99323106 -4.958562 1.4376893
0.51511395 3.0684 -2.8601086 2.0271795 0.72719926 -0.9641401 7.5559115 -0.63118404
1.9076911 -2.461042 1.4422271 0.5447277 0.7015275 1.3684149 0.52475435 3.610308
0.6956397 1.3257643 1.1161737 0.6699691 1.1272099 -0.7040951 6.243001 -1.0449077
-0.06992987 0.57218015 9.346419 1.0762827 -1.0821608 3.9073496 1.5361094 1.0673119
0.39236596 -0.28629982 -1.0533097 -0.36791727 2.8323255 0.54575294 7.22718 0.5486223
-0.047388487 -0.08351971 0.33829165 -0.5728826 -0.22424743 1.2128814 -0.5471253 0.890712
-0.15412019 1.6436585 -6.280306 1.0314168 0.18343934 -0.32395068 -1.373564 -0.5745326
-0.95723253 1.1900005 1.2495484 1.1543051 0.22471233 0.18351504 -0.90739864 0.32088992
-1.0511615 -0.4737235 4.8150134 -2.8792157 -0.45454857 0.481302 0.34142882 -0.33567774
-0.03364988 0.23330589 -9.403614 0.07285787 -0.29446343 0.06336786 -0.9033253 -0.65188086
0.4106279 -1.1892872 -1.2702291 -0.63233167 -0.24564393 0.36707383 -0.86041564 0.49186927

v1.bias f4 [32]
00000000: 5aea 303f fdc0 9ebe 81e2 7b3f 2494 353f
00000010: 7afa cebc 5312 b7be 366f f0be 8bbb 123f
00000020: e4a5 243d 6593 673d 1a89 b93c 7eca 2a3d
00000030: d511 fcbd 975b 373e c526 c13e d381 88bf
00000040: d2ea b1bb c924 92be 6ea1 5d3f d80e d43d
00000050: 6fc9 493f e104 3d3f 224d 52be b252 5d3f
00000060: 7f83 0d3f fd48 363f 4563 cebf ea3d 613f
00000070: 1ba5 1abb b8d2 443f acff ab3e 43f1 5a3f
0.6910759 -0.31006613 0.9839249 0.7092917 -0.02526592 -0.35756168 -0.46959847 0.5731742
0.040197268 0.05653705 0.022648383 0.041697018 -0.12308089 0.17906033 0.3772489 -1.0664619
-0.005429604 -0.2854369 0.8657445 0.10354394 0.7882299 0.7383557 -0.20537236 0.8645431
0.5527877 0.7120512 -1.6124045 0.879851 -0.0023596946 0.7688403 0.335935 0.85524386

a1.weight f4 [32, 3]
00000000: e6b9 fd3b 692d ffbc 3dbe 66bb 5992 473c
00000010: da25 90ba 5088 eb3b 42e3 fa3b 4bbf cfbc
00000020: 39e4 87bb 2e38 5d3c 82be 75bc 8154 233c
00000030: 7f05 ff3a 8d6e 3ebb 2360 9bbb 1feb a63b
00000040: 7b90 00bd c080 5339 951a e43b e74e 7bbc
00000050: 6881 563a e8ba 833b 21ac 23bc 1d20 9c39
00000060: e24a 623b 2895 4dbc ea25 33bc d774 5dbd
00000070: 77b9 dfbb 8659 85bd 4d9b 8d3c 7b6d 25bc
00000080: 76b1 293b 0253 2cbc 57ad d83b 3f83 babc
00000090: e3b3 633c 4176 8cbc 1d6e 1d3c 324f 7d3b
000000a0: 7f5b 59bc 066d dfbc 2acd 3f3b d80f bfbb
000000b0: 02e9 8fbc bdd4 65bc b98c 8d3c 7a53 ec3a
000000c0: b2f2 8cbc 2063 4cbd dc1c 9dbd 7dd9 bf3b
000000d0: e7fc b6bb d77c 373b b8cd 45bc 6a1d ce3b
000000e0: d1f5 d43b 3f3c 46bc 4455 89bc b633 043b
000000f0: 028f 8f3c a832 e5bc cff8 5ebc 14a8 52bc
00000100: 1e6a 3dbc 4da1 49bb f492 d13b 8fb7 4abc
00000110: b847 0bbc 18d8 e7b8 4302 0b3c 8696 333b
00000120: c8da a83b aaae 74bc f537 34bc a65f b43b
00000130: 1d97 9abb e972 3dbb a0ea 31bc 58b9 e6bc
00000140: 9699 c3bb 8b8b 553c 80a5 babc f5a4 3cbc
00000150: 54f7 113c a040 49bc 0721 2ebc 59a9 713c
00000160: 0e9a c6bb 2e8f b53c fdc9 9bbb 2f0b d6bc
00000170: 811f 63bb bb8f 66ba e2ef b3bc 173a 7bbc
0.007743108 -0.031149583 -0.0035208606 0.012180888 -0.0010997609 0.0071878806 0.007656486 -0.02535977
-0.0041470793 0.013502164 -0.014999034 0.009968878 0.0019456594 -0.0029057593 -0.004741685 0.0050939466
-0.031387787 0.00020170491 0.0069611766 -0.015338636 0.0008182735 0.0040200837 -0.009989769 0.00029778565
0.0034529497 -0.012547769 -0.010934332 -0.054066505 -0.006827529 -0.06511216 0.017285967 -0.010096903
0.0025893128 -0.0105178375 0.0066124606 -0.022767661 0.013897869 -0.017146232 0.009608773 0.003865194
-0.013266443 -0.027273666 0.0029266574 -0.005830746 -0.017567161 -0.014027772 0.017279016 0.0018030249
-0.01720557 -0.04989922 -0.0767152 0.005854784 -0.0055843475 0.0027997994 -0.012072973 0.0062901275
0.00649903 -0.012099325 -0.01676429 0.0020172424 0.017524246 -0.027978256 -0.013609125 -0.012857456
-0.011560945 -0.0030766309 0.006395692 -0.012372865 -0.008500986 -0.00011055189 0.008484426 0.0027402951
0.005153034 -0.014934221 -0.010999669 0.0055045662 -0.004717721 -0.0028907603 -0.010859162 -0.02816455
-0.0059692366 0.013033758 -0.022783995 -0.011513938 0.008909065 -0.012283474 -0.0106279915 0.014749848
-0.006060845 0.022163 -0.0047543035 -0.02612838 -0.003465623 -0.0008795221 -0.021964971 -0.015333674

a1.bias f4 [32]
00000000: 2492 92c0 f10c 4fc0 847d 7cc0 8a37 73c0
00000010: 84e8 a0bf 49fc 90c0 6533 2fc0 6c49 4cc0
00000020: 6ced 66c0 fe25 16bf cdd0 9cc0 66ea 83c0
00000030: 2a16 7dc0 67f3 90c0 b254 80c0 e0e7 82c0
00000040: 4dde 81bf 092b 82c0 6b23 86c0 e578 8fc0
00000050: 5352 bec0 61b0 89c0 5b3f 50c0 90e1 b8bf
00000060: 90ef 48c0 b36d 1ac0 b5ed 92c0 736e 9ac0
00000070: a605 6fc0 a891 90c0 ec63 85c0 5c67 90c0
-4.5803394 -3.2351649 -3.9451609 -3.8002648 -1.2570958 -4.5307965 -2.7375119 -3.1919813
-3.608241 -0.5865172 -4.9004884 -4.122363 -3.9544778 -4.529712 -4.010339 -4.090805
-1.0145966 -4.0677533 -4.1918235 -4.4835076 -5.9475493 -4.3027806 -3.253867 -1.4443836
-3.1396217 -2.4129455 -4.591517 -4.8259826 -3.7347198 -4.5177803 -4.1684475 -4.512617

l2.weight f4 [32, 64]
00000000: 9eff 1fbe 7845 e93c 1b5a 2cbe 3470 8ebe
00000010: 834b cfbd 7bf5 82bd 209f 8dbd 2f89 8bbd
00000020: d2bc abbd db95 e8bd 407d 0bbe 8f6b 57be
00000030: 40ca c4bc c4d8 2cbe 4c65 1abe 1620 97bd
00000040: 0b24 55bd 4708 37be 8479 89be a4c8 a0bd
00000050: 499f efbd 7e5f 8fbe 5dc9 17bd d86c 0fbe
00000060: 499c 08be e5d1 0fbe 44a0 23be 744a 7abe
00000070: 6788 3dbe 2ec3 90be 99e4 30be 21dd 4bbe
00000080: 9818 08be 30ab 3fbc 8109 4ebe 7e43 b1bd
00000090: 5e86 c0bd 98e9 c3bd 8052 92bd f0cc 553d
000000a0: 91e1 04be efd5 ea3c 5ae6 8ebd dd8a 9bbd
000000b0: f077 1bbc 31c1 ebbc e037 d1bd 9f9d da3a
000000c0: af1f 0fbe 17b1 3cbe 48db 29bd ea0f e8bd
000000d0: 68fc 81bc 0012 fa3c 00ea 02ba a23e c1bd
000000e0: 37ce 01be 601a 363d d06a c3bc aa56 b2bd
000000f0: f436 58bd d0b7 2cbd 6ece bfbd c12f 02bd
00000100: eb67 fbbd a518 cbc0 8c2c 333f 6e3a 95bd
00000110: 37e3 73c0 3341 c5bf 9d69 53c0 751c 5e3e
00000120: e424 0440 a885 ad3f 25e8 9dc0 414e 6dbf
00000130: 8cf2 37c0 a583 9d3e 0c1f cf3e 76df 72be
00000140: a42b 4340 e4ad 883e aa52 e23d 3abd 6ebe
00000150: 4bc4 cebe 07cd 403f 5eb1 cc3f 7586 c1bd
00000160: a6da eb3e f030 e73e 7884 95c0 1c18 d43c
00000170: 5d87 e73f bc05 12be 7199 a1bf a164 013f
00000180: 12a2 b53d 1687 efbd 426c 8abe eb47 a2bd
00000190: 2a17 233e a767 143e 1c9d 98bd f56e bcbd
000001a0: 2c73 c0bc 2dcd 2abe 45c7 5d3d 21cc 143e
000001b0: 49ee e3bc 452e 493e c6fd eb3d 7e8e 4dbb
000001c0: 52fd 7b3e 8c6d e03d cc30 943d 42e3 c63e
000001d0: 75dd 7bbf 2272 a5bd c45f dabd ca73 a3bd
000001e0: e4b9 653e ef9b f3bd fafc 883c 7854 823d
000001f0: 75aa 8ebe 5926 49be f96d b3be 75a8 d53e
00000200: da9d 03be 2379 b93f 3e73 653e e001 c63e
00000210: 7b0c 7d3d 5a3a 86bf ec9a e9c0 2edf d1be
00000220: b6cb 973f fff3 1b40 2231 dfc0 0305 8f3e
00000230: 9df2 f6bf 96ea 463f 8550 85be 74ee 89c0
00000240: 60ab d23f 1f47 65bf b194 1bbe 15cf df3f
00000250: e69e 473e de50 693d 10c3 e83e e097 313e
00000260: cc5d 56bc e6ca 00be 5397 b8c0 6ef1 b33c
00000270: b710 51c0 a2f6 f63e 5901 fb3d c1db b53e
00000280: 5d23 d3bc bdfa 843c 0700 42be 0fec 9f3d
00000290: 95bf 213d b614 973d 89b2 403e ab67 29bc
000002a0: 3923 243d b49f 42bc cd8a 8e3d 2886 553e
000002b0: b0e5 54be 4b12 1f3d 684c dbbc 8820 513d
000002c0: 119e 783e 8445 3cbd 2274 053e 0d03 1ebd
000002d0: 3f59 20be 863d 3ebd 5467 d83c b6e1 3abd
000002e0: 36c0 c53d 2ef2 313e 0c16 0dbc a682 23be
000002f0: 8711 19bd 80f0 5ebd 68ed 99bc 3a3f 9b3c
00000300: 7401 aa3d 1abf 2bbf 581b f9bd 1776 b33d
00000310: bb2a 63c0 22ad 3b40 6824 1340 10fe 9bc0
00000320: 52f0 79bf b9b2 e23e 1c83 15c0 2e87 6bc0
00000330: 7a61 42c0 d0da 49bf 22b2 52c0 aada 56bd
00000340: 6c4b aebf aeb7 a83e c891 193d b4f1 61bf
00000350: a06d 0e3f 0d94 f33d 2a2b 41c0 dcce c63e
00000360: 4f47 d33e 8f2a 053d fa79 773f 92d3 133f
00000370: 3711 31c0 1e46 1e3f ca18 353f 7f3e dc3c
00000380: 6466 85be b9a7 95be 88f4 1dbe 78ce a5bd
00000390: a902 b23c df25 48bf e3fc b2bd da04 7bbe
000003a0: af71 cbbc ad4f 46be 7484 6f3d c60e 7bbe
000003b0: fb20 94bd 3963 b5be 9be1 b2be 1e1f a6bd
000003c0: 5160 82bd c7ab dc3c 179e 91be 9a2c 99be
000003d0: 4213 a43d 6f2f 093d 6623 3fbe ff59 d73d
000003e0: e573 0b3c 720b fdbd 4350 783d a076 8bbe
000003f0: 5d69 72be 023c 343e 9ad3 4bbe 3334 0dbf
-0.15624854 0.028475508 -0.16831248 -0.2781998 -0.101218246 -0.06394478 -0.06915116 -0.06813275
-0.08385624 -0.11356708 -0.13621998 -0.21037124 -0.024022222 -0.16879565 -0.15077704 -0.07379167
-0.052036326 -0.17874251 -0.26850522 -0.07850769 -0.11700303 -0.28002542 -0.03705727 -0.14006364
-0.13340868 -0.14044912 -0.15979105 -0.24442464 -0.18509065 -0.2827391 -0.17274703 -0.19908573
-0.13290632 -0.011698529 -0.20120813 -0.08655451 -0.094006285 -0.09566039 -0.07144642 0.052197397
-0.12976672 0.028666465 -0.0697753 -0.075948454 -0.009489045 -0.028778644 -0.102157354 0.0016679055
-0.1397693 -0.1842693 -0.04146889 -0.1133116 -0.015867427 0.030526161 -0.0004993975 -0.094357744
-0.12676321 0.044458747 -0.023854643 -0.08707936 -0.052786782 -0.042167485 -0.09365545 -0.031783823
-0.1227568 -6.3467584 0.6998985 -0.07286535 -3.810743 -1.5410522 -3.3033211 0.21690543
2.0647516 1.3556414 -4.934588 -0.9269753 -2.874179 0.307645 0.40453374 -0.23718056
3.0495386 0.26695168 0.11050923 -0.23314372 -0.40384135 0.75312847 1.5991628 -0.09449474
0.46065253 0.45154524 -4.6724205 0.025890402 1.8088185 -0.1426 -1.2624952 0.5054417
0.08868803 -0.116956875 -0.2703572 -0.079238735 0.15926805 0.14492665 -0.07451841 -0.09200851
-0.023492418 -0.16679831 0.054145116 0.14530994 -0.027823584 0.19646557 0.11523013 -0.003136545
0.24608353 0.109583944 0.0723587 0.3884526 -0.9838479 -0.0807841 -0.10662797 -0.079810694
0.22434193 -0.11894976 0.016722191 0.063637674 -0.27864423 -0.19643535 -0.3504484 0.41730085
-0.12853184 1.4490093 0.22407243 0.38673306 0.06177948 -1.0486557 -7.3001614 -0.40990585
1.1859043 2.4367673 -6.9747477 0.2793351 -1.929279 0.777017 -0.26037994 -4.310358
1.645855 -0.8956165 -0.1519344 1.7485071 0.19494209 0.056961887 0.4546132 0.17343092
-0.013083886 -0.125774 -5.768472 0.021965709 -3.2666452 0.4823504 0.122561164 0.3551922
-0.025773698 0.016232843 -0.18945323 0.078086965 0.039489347 0.07376997 0.18818106 -0.010339658
0.040072653 -0.0118788965 0.06960068 0.20851958 -0.20790744 0.038835805 -0.026769832 0.051056415
0.24279048 -0.045964733 0.13032582 -0.03857713 -0.15659045 -0.046445392 0.026416458 -0.04562541
0.09655802 0.1737754 -0.008611213 -0.15967807 -0.03737023 -0.054428577 -0.018789962 0.018951047
0.083010584 -0.6708847 -0.121634185 0.08762758 -3.549483 2.9324422 2.299097 -4.8747635
-0.97632325 0.4427698 -2.3361273 -3.6801257 -3.0371995 -0.78849506 -3.2921224 -0.052454628
-1.3616767 0.32952636 0.037492543 -0.88259435 0.55636024 0.11893473 -3.0182595 0.38829696
0.41265342 0.03251129 0.96670496 0.57744706 -2.7666757 0.6182574 0.7074095 0.02688527
-0.2605468 -0.29229525 -0.15425313 -0.080960214 0.021729784 -0.78182787 -0.087396406 -0.2451357
-0.024834482 -0.19366331 0.058475927 -0.24517354 -0.07232853 -0.35427263 -0.34937748 -0.08111404
-0.06366027 0.026937379 -0.28440925 -0.2991684 0.08011486 0.0334925 -0.18665847 0.10515212
0.008511518 -0.12355699 0.06062342 -0.2723894 -0.23673005 0.17601016 -0.19904938 -0.55157775

l2.bias f4 [32]
00000000: f734 e8bd 4725 143f 5093 163f 4ed2 4c3f
00000010: 1756 b43f 4183 d43d 19a9 20be 1ae7 edbd
00000020: c3ad 8cbd fed6 41be f0aa 24be e79a 6b3f
00000030: b365 48be dc29 663d 6433 3dbe e4dd ed3f
00000040: ec3c dfbe 3589 533f 7a1b a73f d90e acbe
00000050: 71e0 25bf 2d45 8abe 8ece 47be 42b3 f7bd
00000060: 2197 4cbf 8fb6 cd3e 5759 2dbd 4f05 1a3f
00000070: a308 63be c0fe 21bf c8e4 713f a5f9 0abe
-0.11338227 0.5786938 0.5881853 0.800084 1.4088773 0.10376597 -0.15689506 -0.11616345
-0.0686908 -0.1892967 -0.16080832 0.9203324 -0.19570045 0.056192264 -0.18476635 1.8583341
-0.43601167 0.82631236 1.305526 -0.33605078 -0.64795595 -0.27005902 -0.19512388 -0.120947376
-0.79918104 0.40178344 -0.04232153 0.6016435 -0.22171263 -0.6327934 0.9448972 -0.13571794

l3.weight f4 [32, 32]
00000000: 8fb7 a13b 14a2 683e 5d7f 603c 2b15 5d3f
00000010: 9b8e a13e 0371 0b3f f345 173e d6f1 f43d
00000020: 861d bd3c 12a2 0bc0 67b1 90be b323 af3e
00000030: 42ff 5cbc f0d6 b4bf 95e3 c4bb cafe 033f
00000040: 4957 f9be 675c a83e 3448 04bf 7c6e d7bc
00000050: ae93 e6be e977 efbc fd2d a43d 52c3 9bbd
00000060: c76d a9bf f002 b63e 4493 623c 68dd 2640
00000070: 6189 623c 35d7 9bbe 2eee b4be e657 da3d
00000080: ec3b f73d 0041 693d 65f6 04bf dbb3 efbd
00000090: e75c 35be e41d ebbd ed12 903d 6672 053c
000000a0: ffdc 563d f4c5 57be 0cf6 e1bd fdcb c1be
000000b0: 480f ddbd d568 143e 422d 463e 40a3 a9be
000000c0: eada 6cbc 9add 4bbe 771e 2fbe 8b5d 773d
000000d0: 1a18 89be da1b f2bc 1856 023e 64c9 e6bd
000000e0: a1da ffba e860 6b3b 2985 0abd 288a fbbd
000000f0: fff5 f63d 46de 16be 395a 32bc 5c04 b43c
00000100: d8f3 f3bd a978 74be c9c8 cd3d 41c2 843e
00000110: 2a0e 173f 2f30 383e 078c ef3d 40ad 1a3e
00000120: 131d 33be cd47 0bbf b45c 20bf 7fb7 9a3f
00000130: 19ed 12bd fa92 c5bf df14 713d af76 3a3f
00000140: 65cc b0bf abbd 1e3f 202a 86bf 4599 f6bd
00000150: 722e 98bf d784 24be 2861 133e a50f b0bd
00000160: 630c 52be 0f0d 28be 549b 8a3c 4d28 cabf
00000170: 686d 59be 3dc3 e8be b786 ea3c 5324 1e3d
00000180: b5f3 193e 9341 893f 2184 e03e af95 e7bd
00000190: ce7e d03f b75e eabe 8b91 7ebd dc27 8ebd
000001a0: f477 aebc acfe 3bbd 7da9 c4bf b924 733f
000001b0: 2866 bf3d 729a e4bf e70d 203e 1108 bd3f
000001c0: 968a 953e 8d25 e83e e95b cd3f 44da 07be
000001d0: 5f24 9fbf 6cc8 ba3d aa16 0d3c c51d f3bc
000001e0: 4b4d 623f d7e1 33bf d6cc 803e bf60 7fbf
000001f0: a491 fb3d 7016 823f bf15 483f bc7b 1bbd
00000200: a1a9 763d c083 47bc 30f1 34be e5dd 693c
00000210: b47f 96bd 8dea f9bd 96e5 8bbc 6eb5 38be
00000220: 90ad 0bbe 846e 2dbe 2b8a bc3c 1b9e 05bd
00000230: 8e46 f63d fb33 9cbd bc68 003e d5e2 97bc
00000240: 295c f3bd 9325 85be d0d3 96bc a601 1cbe
00000250: 00ba 70bc b88d 373b 6275 1ebe d6c6 8ebd
00000260: 0812 a6bd 6ac1 62bd 3f5c 143e cdd4 38be
00000270: 2346 39bd b1e3 d1bd 4e0c 75bd 1a4c f6bd
00000280: 77f8 34bd df6d 27c0 faf2 efbe 6a68 69bf
00000290: 7404 3ebf 2d69 883e 0249 793e bae5 62bd
000002a0: c3cc 223e 722d 0b3c e9bb e13e 79d5 ebbf
000002b0: 9007 a53d ccb5 f2be 02bb 623d e77e 5fbf
000002c0: f11e 92be 9066 2f3f d47f d43e 8ecc 56bd
000002d0: bc9d 8bbf a1a2 debd 6d65 a73e d3b3 3a3e
000002e0: 145d e1be d2fb 96be 52a5 e6bd 5a61 26bf
000002f0: 5dad b7bd 5b6a f9bf b6a9 b13f dac7 103e
00000300: 32b7 013e 41d2 1940 cf08 b93f 72cc 26bf
00000310: 6221 38be 75d2 1abf dd29 d83c be5b d33e
00000320: 55dd 8a3c 85e7 e43f 3eb7 0fc0 aa7c ef3f
00000330: 72ba e9bd d2be 0e3f 2a99 973c 418b 22bf
00000340: 908f 4bbf 5363 c53d c52a 8abe 7c30 923d
00000350: ef24 24be c472 9f3d 8436 c5bd 15bb 513e
00000360: c262 503f 4cfa a23f 3538 87bd 62d9 17be
00000370: 70fe 613d beb0 103e 9fc8 6abd f015 ce3d
00000380: 50b0 613d c755 4b3f 87fe ac3c 579c 9b3e
00000390: 550a 8d3f 3a04 a23e 6337 f2bc 81c0 513d
000003a0: e2cc ad3c 891b 173f 8823 203d a8ee 1e3f
000003b0: 669d 4a3e c210 ae3e 9ed4 213d c593 ce3f
000003c0: df8d 47bf 4196 ff3e ba8e 7b3e b961 713d
000003d0: 3b5e 27c0 57af f23c a921 f7bd 6226 f7bd
000003e0: 939b 41bf 0d05 8f3c 581b debd 9907 1840
000003f0: 534d 62bc 7dee 7bbf 7e26 5f3e ac78 a7bd
0.004935212 0.22718078 0.013702241 0.86360425 0.31554112 0.5446932 0.14772777 0.11960189
0.023085367 -2.181767 -0.28260347 0.34206924 -0.013488593 -1.4128094 -0.006008575 0.5156065
-0.48699406 0.32882997 -0.51672673 -0.0262978 -0.45034546 -0.029231982 0.08016584 -0.07605614
-1.3236626 0.35549116 0.013829056 2.6072636 0.013826699 -0.30437627 -0.35337967 0.106612965
0.12071976 0.056946754 -0.5193847 -0.117042266 -0.1771122 -0.114803106 0.0703486 0.0081449505
0.052456852 -0.21071607 -0.11033258 -0.37850943 -0.1079393 0.14493115 0.19353202 -0.33132362
-0.01445649 -0.19908753 -0.17101465 0.060391944 -0.267762 -0.029554296 0.12728155 -0.11268881
-0.0019520113 0.0035915915 -0.033818398 -0.122822106 0.12058639 -0.14733228 -0.010885769 0.021974735
-0.11911744 -0.23874153 0.10048062 0.25929454 0.5900599 0.1798713 0.1169663 0.15105152
-0.1749156 -0.54406434 -0.62641454 1.2087249 -0.035870645 -1.5435479 0.058857795 0.72837347
-1.3812376 0.6200816 -1.0481606 -0.120409526 -1.1889174 -0.160663 0.14392531 -0.08596734
-0.20512538 -0.16411231 0.01691977 -1.5793549 -0.21233141 -0.45461455 0.02862869 0.03860886
0.15034373 1.0723137 0.43850806 -0.11307847 1.6288698 -0.45775387 -0.06215052 -0.06941196
-0.021297432 -0.04589717 -1.5364224 0.9497791 0.09345657 -1.7859633 0.15630303 1.4768087
0.29207295 0.4534115 1.6043674 -0.13266855 -1.2432975 0.09120259 0.008611361 -0.029677281
0.8839919 -0.7026648 0.25156277 -0.99757 0.12283638 1.0163097 0.7815818 -0.0379598
0.060220364 -0.012177408 -0.1767013 0.014274095 -0.07348576 -0.1220294 -0.017077249 -0.1803796
-0.13640428 -0.1693669 0.023015102 -0.032621484 0.12025176 -0.07627102 0.12539953 -0.01854078
-0.118828125 -0.2600523 -0.018411547 -0.15235004 -0.014692783 0.0028008055 -0.15474465 -0.06971519
-0.08108908 -0.055360235 0.14488314 -0.18049927 -0.045232903 -0.10248507 -0.059826188 -0.12026234
-0.044182267 -2.616081 -0.46865064 -0.9117495 -0.74225545 0.26642743 0.24344257 -0.055394866
0.15898423 0.008494722 0.44088677 -1.8424522 0.08058083 -0.47404325 0.055354126 -0.8730301
-0.2853923 0.6851587 0.41503775 -0.052441172 -1.0907512 -0.10870863 0.3269457 0.1823266
-0.44016325 -0.29489 -0.11262001 -0.64992297 -0.08968613 -1.9485582 1.3879917 0.14138737
0.1266754 2.4034579 1.4455813 -0.6515571 -0.17981485 -0.6047738 0.02638715 0.4128093
0.016951242 1.7883154 -2.2455592 1.870992 -0.11412515 0.5575992 0.018505652 -0.63493735
-0.79515934 0.09638085 -0.26985756 0.07138154 -0.16029714 0.07785562 -0.09629539 0.20481522
0.8140069 1.2732635 -0.066025175 -0.14829019 0.05517429 0.14129922 -0.057320233 0.10062778
0.055099785 0.7942776 0.021117462 0.30392715 1.1018778 0.3164385 -0.029567426 0.051208977
0.02121586 0.5902639 0.039096385 0.6208291 0.19786605 0.3399716 0.03950941 1.6138846
-0.77950853 0.49919322 0.24566165 0.058931086 -2.6151264 0.029624624 -0.12066967 -0.12067868
-0.7562801 0.017458463 -0.10845059 2.3754637 -0.013812381 -0.9841078 0.21792027 -0.08177313

l3.bias f4 [32]
00000000: 4279 a13f e075 cabe c102 853f 3b31 5040
00000010: b239 d8be 7bf4 2a40 0700 55c0 aa83 1540
00000020: 65b7 46bf 70c5 34bf b61e 873f b060 bc3e
00000030: 769d 5fbf 0ca3 e4bf 1593 bc3f ece5 e13e
00000040: a193 5f3f 953c ce3f 87ee cdbf 40e9 1340
00000050: 1fc4 123f c659 b5be e406 8fbe 9b30 5340
00000060: 1518 54be a100 3b40 2db3 7d3f c864 50bf
00000070: 71bd bc3f 2a71 a53f b836 e83f e439 3fc0
1.261513 -0.39543056 1.0391465 3.2530048 -0.42231518 2.671172 -3.3281267 2.3361611
-0.7762359 -0.70613766 1.0556247 0.36792517 -0.8734964 -1.7862258 1.4732386 0.4412073
0.8733464 1.6112238 -1.6088418 2.3111115 0.5733051 -0.35420054 -0.27934945 3.2998416
-0.20712312 2.9219134 0.99101526 -0.8140378 1.4745313 1.292516 1.8141699 -2.9879084

q.weight f4 [1, 32]
00000000: 3029 3a3e c625 32be b0f4 f63e 2cb1 c03f
00000010: 0b0f 263c 7b5b 4cc0 7fb0 49bf 2877 a93f
00000020: cc0d b2be 96b1 0ac0 b333 2d3f f8f0 053f
00000030: b4ba e0be 0698 9dbf 7cb4 3b3f 4e5f aebf
00000040: 1f7a f63e 4eff d6bf e12c 8cbf bad3 e13f
00000050: d583 15bf 5f98 fcbf e928 47bd a1a6 8f3f
00000060: 612d 10bf 026d b33f a895 193f 9aa2 9bbf
00000070: 4058 d53f 897f eb3e d8fc 673f 737e 80bf
0.18179774 -0.17397222 0.48233557 1.5054069 0.010135422 -3.1930835 -0.78784937 1.3239489
-0.3477615 -2.167089 0.6765701 0.52320814 -0.43892443 -1.2312019 0.7332227 -1.3622835
0.48140046 -1.6796663 -1.0951196 1.7642739 -0.58404285 -1.9734 -0.048623 1.1222726
-0.5631924 1.4017642 0.5999398 -1.2158997 1.6667557 0.4599574 0.90620184 -1.0038589
