saved_models/13:44/critic_1.pth (torch, 16519 bytes, 9 tensors)

v1.weight f4 [32, 4]
0.19243832 -3.1107607 2.354998 -2.0662038 0.6243263 -0.7935218 -2.4541664 -0.32268295
0.24687913 -1.1340127 7.642206 -0.46411255 0.35726818 0.44873527 1.3569102 0.74224615
0.9918686 -0.6552817 -9.6042185 0.12562937 -1.2783283 3.6891358 -1.3194371 0.42507482
-1.2305578 -1.0725074 -0.85801244 -0.6784226 0.46142626 4.0171156 -2.402865 2.5804124
0.01910062 0.13933995 -8.694006 -2.9264078 -0.59550464 1.1193146 -6.723325 0.5249036
0.01786527 -0.10826504 8.995777 0.5103848 0.73390526 -0.3416779 7.640805 0.12617846
0.27979538 0.08693822 0.16044256 0.033408128 -0.79905695 1.6974915 1.1147184 0.9037999
0.33930185 -0.088776186 7.6292334 0.31740686 0.010396497 1.3105431 -6.933373 0.37230372
0.18752727 0.44691297 1.1812687 0.44075117 0.35683888 -1.0097533 -3.761485 -1.0041019
0.39074 0.06376539 -0.17225394 -0.24732564 0.89263946 0.51698923 -7.955456 -0.35322833
0.2817489 0.020833412 0.26112333 0.14662975 0.21122475 0.16301705 0.6627868 -0.76441026
-0.8645695 -2.2431688 -1.9066899 -0.61379385 -0.12487586 1.7832543 -6.246142 1.208806
0.9160421 -1.1253643 6.9473925 -0.8239558 0.19048005 0.34034914 0.42601177 0.37798396
-0.16826485 -0.012940444 -0.7697141 0.66005325 -1.2496146 -0.21287811 4.162752 -2.8940332
1.9469637 -0.9985983 -1.7359285 0.73667574 0.3955185 0.11908111 0.7458106 -0.13809031
-0.04300138 0.3260601 -10.755916 0.10751604 0.1048581 0.2867701 8.810679 0.28387558
00000000: 8d0e 453e b416 47c0 4ab8 1640 af3c 04c0
00000010: d9d3 1f3f 3f24 4bbf 1011 1dc0 b336 a5be
00000020: e2cd 7c3e 5427 91bf f48c f440 29a0 edbe
00000030: dbeb b63e a1c0 e53e 3caf ad3f d803 3e3f
00000040: 1aeb 7d3f 8bc0 27bf e1aa 19c1 fca4 003e
00000050: 43a0 a3bf cd1a 6c40 51e3 a8bf 68a3 d93e
00000060: eb82 9dbf ec47 89bf b4a6 5bbf 1aad 2dbf
00000070: 1040 ec3e 368c 8040 8ac8 19c0 7a25 2540
00000080: e778 9c3c 22af 0e3e a61a 0bc1 444a 3bc0
00000090: fe72 18bf b345 8f3f 7a25 d7c0 1560 063f
000000a0: 305a 923c 10ba ddbd b4ee 0f41 94a8 023f
000000b0: 37e1 3b3f 68f0 aebe 7981 f440 ed34 013e
000000c0: 5741 8f3e aa0c b23d 0e4b 243e f6d6 083d
000000d0: ff8e 4cbf 6747 d93f 18af 8e3f 6e5f 673f
000000e0: f9b8 ad3e 4ad0 b5bd ae22 f440 2783 a23e
000000f0: 1256 2a3c e0bf a73f 31de ddc0 989e be3e
00000100: 2607 403e c7d1 e43e d033 973f 23aa e13e
00000110: 96b3 b63e 993f 81bf 2cbc 70c0 6986 80bf
00000120: 130f c83e 6e97 823d 5663 30be ef42 7dbe
00000130: 0584 643f 6859 043f 1893 fec0 58da b4be
00000140: 6441 903e d5aa aa3c f5b1 853e 1c26 163e
00000150: 4d4b 583e f1ed 263e 65ac 293f 64b0 43bf
00000160: 6d54 5dbf 1490 0fc0 6a0e f4bf 9821 1dbf
00000170: eabe ffbd ad41 e43f 65e0 c7c0 28ba 9a3f
00000180: bc81 6a3f f00b 90bf 0a51 de40 c4ee 52bf
00000190: 340d 433e 3e42 ae3e 371e da3e 1d87 c13e
000001a0: 9f4d 2cbe 2804 54bc fc0b 45bf 40f9 283f
000001b0: 5ff3 9fbf b8fc 59be 4435 8540 d737 39c0
000001c0: 1b36 f93f 23a4 7fbf e832 debf c896 3c3f
000001d0: 6781 ca3e cce0 f33d 72ed 3e3f 8c67 0dbe
000001e0: 3722 30bd 59f1 a63e 3b18 2cc1 5f31 dc3d
000001f0: d8bf d63d 88d3 923e 8bf8 0c41 2458 913e

v1.bias f4 [32]
0.014803811 0.3829423 -0.21073362 0.7535833 -0.24087724 -0.42669126 0.15277842 0.10888763
-0.05777171 -0.03109541 -0.0005904018 -0.38412106 1.088106 1.0937191 -0.38197207 0.14911243
0.96077865 0.8278271 1.2854933 -0.62106687 0.9407234 0.85335094 0.04990058 -0.26991194
0.051530387 1.0284675 0.764517 -1.6478728 0.54959494 1.2298753 -0.01658725 0.052036498
00000000: af8b 723c 0311 c43e 8eca 57be d6ea 403f
00000010: 86a8 76be 4777 dabe f271 1c3e 7a00 df3d
00000020: 07a2 6cbd cdbb febc 32c5 1aba 84ab c4be
00000030: 0f47 8b3f fdfe 8b3f d891 c3be eeb0 183e
00000040: 97f5 753f 7aec 533f 0b8b a43f 3dfe 1ebf
00000050: 40d3 703f 3575 5a3f 8d64 4c3d e631 8abe
00000060: 8711 533d d3a4 833f 63b7 433f 7fed d2bf
00000070: 41b2 0c3f 8e6c 9d3f fce1 87bc 3924 553d

a1.weight f4 [32, 3]
-0.0005325568 -0.0153643405 -0.0048222994 0.015153324 0.005899707 -0.020930434 0.005014281 -0.021376526
-0.06129278 -0.005901543 -0.020563414 -0.016992569 -0.0027735953 -0.019802105 0.0063460222 0.0073578814
-0.0074718418 -0.0022302277 -0.014127204 -0.007031047 -0.010656426 0.015826603 -0.013755132 -0.011399319
0.00947262 -0.014106154 -0.012289367 0.011846617 -0.0141442 0.013087867 -0.00039946503 -0.015507298
-0.012328277 0.0018841567 -0.0304346 0.004246218 -0.01851568 0.007510075 0.0048251343 0.012219735
-0.020011013 0.0027103908 -0.000542264 -0.0038510687 -0.02317108 -0.01349416 -0.016721526 0.0012177378
0.017435184 -0.024473434 -0.0007037124 0.027180836 -0.019695504 0.0008561489 -0.0037297627 -0.017421639
0.012508366 0.002048775 -0.030343441 0.0040695965 0.006764383 -0.010006387 -0.006540348 0.02622275
-0.028693747 0.0015988734 -0.0047696284 0.013297075 -0.013836115 0.0006108437 -0.013355149 -0.00065897027
0.0064923945 -0.02445348 0.0016956779 -0.0018358837 -0.011514003 0.013327107 0.013577963 -0.008587044
0.00741647 0.006930238 -0.0036946724 0.033230964 -0.0039135953 -0.011319512 -0.012713433 0.010067425
-0.0117303 0.0067887316 -0.008712352 0.0013346188 0.09305567 0.0043303682 0.020148402 -0.011652544
00000000: 489b 0bba b7ba 7bbc 6104 9ebb a645 783c
00000010: 5452 c13b 4d76 abbc d64e a43b d31d afbc
00000020: 230e 7bbd bb61 c1bb 9b74 a8bc 0034 8bbc
00000030: 35c5 35bb 0638 a2bc 4bf2 cf3b 621a f13b
00000040: 5ad6 f4bb 0329 12bb ca75 67bc b264 e6bb
00000050: 4a98 2ebc cba6 813c 355d 61bc 36c4 3abc
00000060: 0c33 1b3c 801d 67bc 5759 49bc 5018 423c
00000070: 13bd 67bc 7e6e 563c 4a6f d1b9 5212 7ebc
00000080: 8bfc 49bc cff5 f63a fb51 f9bc dc23 8b3b
00000090: 32ae 97bc 1317 f63b 291c 9e3b 4935 483c
000000a0: 23ee a3bc d0a0 313b b926 0eba 3662 7cbb
000000b0: 47d1 bdbc 9c16 5dbc 95fb 88bc 809c 9f3a
000000c0: 3bd4 8e3c 837c c8bc 5779 38ba 58aa de3c
000000d0: 7758 a1bc 2e6f 603a 096f 74bb d3b7 8ebc
000000e0: e4ef 4c3c be44 063b cf92 f8bc 405a 853b
000000f0: c2a7 dd3b d4f1 23bc 6a50 d6bb 18d1 d63c
00000100: 260f ebbc 4a91 d13a 8b4a 9cbb fadb 593c
00000110: dfb0 62bc 0721 203a 8ecf 5abc bfbe 2cba
00000120: 27be d43b aa52 c8bc 8241 de3a 09a2 f0ba
00000130: 3ba5 3cbc f059 5a3c 1b76 5e3c acb0 0cbc
00000140: dc05 f33b 0d17 e33b 5122 72bb 311d 083d
00000150: 9e3d 80bb 7975 39bc 014c 50bc d7f1 243c
00000160: 7230 40bc 0274 de3b 41be 0ebc 60ee ae3a
00000170: f993 be3d c3e5 8d3b 430e a53c 50ea 3ebc

a1.bias f4 [32]
-2.913155 -4.3157034 -1.409242 -4.351362 -3.4337873 -3.9827273 -3.2620592 -4.6312604
-3.9350135 -3.7282503 -4.090502 -3.6429439 -4.530801 -3.6895852 -3.5900443 -4.12795
-5.2279596 -5.3156476 -4.077448 -3.766442 -3.0091903 -6.2660546 -3.6429644 -2.0004218
-3.7153184 -3.8224158 -3.1021693 -4.531974 -2.959914 -4.0657463 -3.856804 -5.6466527
00000000: 2271 3ac0 3e1a 8ac0 0b62 b4bf 5c3e 8bc0
00000010: 2cc3 5bc0 01e5 7ec0 94c5 50c0 4933 94c0
00000020: 43d7 7bc0 a79b 6ec0 64e5 82c0 fe25 69c0
00000030: 52fc 90c0 2a22 6cc0 49c3 65c0 2b18 84c0
00000040: 724b a7c0 c919 aac0 747a 82c0 630d 71c0
00000050: 9396 40c0 8583 c8c0 5426 69c0 e906 00c0
00000060: c7c7 6dc0 76a2 74c0 f189 46c0 ee05 91c0
00000070: 3b6f 3dc0 981a 82c0 e0d5 76c0 61b1 b4c0

l2.weight f4 [32, 64]
2.2950225 -1.2573944 0.3199384 0.7036568 -1.5173864 -0.21023712 -0.63785994 2.5740356
-0.8999755 -1.0109954 4.28191 2.7650237 -0.14077985 1.4474363 3.0742786 1.6527418
0.50496256 -2.7043016 -0.64432037 -0.13606234 -0.056704737 -0.21069188 0.07276627 -0.87974447
2.7254055 0.13803469 0.2028971 0.22614682 -1.4335173 -0.12990464 2.520245 2.5910363
-0.0074422006 -0.05194788 0.12864982 0.10479876 0.32846475 0.0023553965 -0.057852007 -0.0700951
-0.20350352 -0.25005722 -0.020636627 -0.17345378 -0.11154712 0.05440182 -0.29938236 0.21946189
0.027633844 -0.116173916 -0.08688593 -0.032324273 -0.4595761 -0.046367418 -0.27363092 -0.009668587
-0.1372338 0.083863966 -0.012650825 -0.2658436 -0.15999162 -0.23022127 -0.07611798 -0.36670595
-0.08015795 -0.30939537 0.005405903 -0.11684166 -0.10683043 -0.23655878 -0.2678766 -0.13979785
-0.15649962 -0.21409313 -0.012051612 -0.09628196 -0.07616979 -0.29499063 0.120339245 -0.103885636
-0.21316035 -0.13113008 -0.18723278 -0.11599954 -0.11881086 -0.089505054 -0.2091107 -0.24688554
0.021528974 -0.08328857 -0.23457542 -0.0018116016 -0.12820081 -0.30773196 -0.21376885 -0.07992491
-0.089010626 -0.00034332275 -0.18936262 8.687418e-05 -0.076903045 -0.16355857 -0.20887013 0.030648857
-0.20663364 -0.032571193 -0.023382252 0.057445526 -0.08987539 -0.10023063 0.0015958273 -0.06417289
-0.109913185 -0.1085193 0.048537895 -0.050871775 -0.104295835 -0.0030514274 -0.027781392 0.11935538
-0.06818734 -0.1897279 -0.016885579 -0.07030779 -0.09546761 -0.049227186 -0.1963895 -0.025896844
-0.059402578 -0.12434111 -0.16055949 -0.21226934 -0.09197545 -0.21522766 -0.12912557 -0.0019699242
-0.2361787 -0.1962962 -0.21494313 -0.23314942 -0.3487439 -0.1280226 -0.061787616 -0.1621592
-0.20592278 -0.13042761 -0.23283453 -0.14329861 -0.0832589 -0.16510713 -0.15592149 -0.218046
-0.021664718 -0.25989687 -0.22013038 -0.005676264 -0.17060755 -0.287252 -0.09653074 -0.1285822
-0.027129792 -0.016792392 -0.13774826 -0.05948512 -0.24942409 -0.23558806 -0.1978045 -0.07441252
0.0493366 -0.029437238 -0.07298309 -0.037956998 -0.017222745 -0.22587056 -0.21329267 -0.18086958
-0.14392345 -0.088527694 -0.056312762 -0.12630945 -0.08129199 -0.12446172 -0.18920709 -0.025094632
-0.022030765 -0.0025676764 -0.17623924 -0.12023155 -0.030776592 -0.046167556 -0.18099546 -0.068826094
-0.0050717057 -0.18103306 -0.099335894 -0.17828374 -0.12806816 -0.0018245504 -0.051291075 0.00034130772
-0.14141977 -0.07505991 -0.040565345 0.015527397 -0.18967332 -0.044505503 -0.032102186 -0.14497577
-0.026227072 -0.025307862 -0.014909761 -0.049007762 -0.22140619 -0.25510898 0.06296155 -0.058302637
-0.037940755 -0.14704612 -0.14565638 -0.14453508 -0.033761647 -0.13256705 -0.026597654 -0.07017004
-0.019802764 0.021137923 -0.21185662 -0.020515976 -0.23689532 -0.055456366 -0.21950662 -0.11642723
-0.19661102 -0.20978376 -0.059969142 -0.103943795 -0.046869222 -0.024963554 -0.20454827 -0.09176204
-0.05490085 -0.18032435 -0.13726848 -0.098904714 -0.24113214 -0.07570553 -0.019273665 -0.104394816
-0.15286276 -0.03892509 -0.130815 -0.13545232 -0.15576719 -0.024251187 -0.013324723 -0.0140096815
00000000: a6e1 1240 4df2 a0bf f7ce a33e da22 343f
00000010: b839 c2bf 6648 57be ca4a 23bf 00bd 2440
00000020: cb64 66bf 4c68 81bf 6805 8940 26f6 3040
00000030: 9828 10be 9845 b93f fbc0 4440 0b8d d33f
00000040: 3a45 013f 4713 2dc0 2ef2 24bf ed53 0bbe
00000050: 3a43 68bd 9dbf 57be 7b06 953d ef36 61bf
00000060: 0b6d 2e40 f758 0d3e 42c4 4f3e 0893 673e
00000070: 7f7d b7bf b905 05be b24b 2140 8ad3 2540
00000080: b4dd f3bb 4dc7 54bd c7bc 033e bba0 d63d
00000090: 882c a83e ff5c 1a3b 3af6 6cbd 058e 8fbd
000000a0: 3a63 50be 8007 80be 250e a9bc de9d 31be
000000b0: d172 e4bd 71d4 5e3d a548 99be 9eba 603e
000000c0: 5f60 e23c 97ec edbd 40f1 b1bd 7566 04bd
000000d0: 8f4d ebbe c3eb 3dbd 5a19 8cbe fe68 1ebc
000000e0: 0487 0cbe dfc0 ab3d 6845 4fbc a71c 88be
000000f0: d8d4 23be 20bf 6bbe bee3 9bbd e2c0 bbbe
00000100: da29 a4bd 1269 9ebe 0024 b13b ae4a efbd
00000110: eac9 dabd 773c 72be 1f27 89be 2b27 0fbe
00000120: 7041 20be 3b3b 5bbe 2074 45bc 7a2f c5bd
00000130: e8fe 9bbd 0309 97be 6c74 f63d fec1 d4bd
00000140: b546 5abe f746 06be f3b9 3fbe 2b91 edbd
00000150: 1c53 f3bd 6d4e b7bd 1e21 56be 90cf 7cbe
00000160: 885d b03c 3393 aabd 8a34 70be 4373 edba
00000170: 1347 03be 0b8f 9dbe 39e6 5abe acaf a3bd
00000180: 344b b6bd 0000 b4b9 46e8 41be 3830 b638
00000190: 587f 9dbd e67b 27be 0de2 55be 5013 fb3c
000001a0: c597 53be 5f69 05bd 238c bfbc 004c 6b3d
000001b0: 9710 b8bd b745 cdbd 142b d13a 136d 83bd
000001c0: 2a1a e1bd 5e3f debd accf 463d ec5e 50bd
000001d0: 0e99 d5bd 75fa 47bb cd95 e3bc 9870 f43d
000001e0: cea5 8bbd 0848 42be a053 8abc 88fd 8fbd
000001f0: 8684 c3bd 72a2 49bd 541a 49be 9e25 d4bc
00000200: 1e50 73bd 8da6 febd b569 24be 225d 59be
00000210: a05d bcbd a464 5cbe 7e39 04be d819 01bb
00000220: d4d8 71be df01 49be 0d1a 5cbe b9be 6ebe
00000230: 8f8e b2be 5b18 03be 0315 7dbd 100d 26be
00000240: 6cdd 52be d18e 05be 2d6c 6ebe dfbc 12be
00000250: a483 aabd d811 29be e2a9 1fbe 7347 5fbe
00000260: 357a b1bc 3411 85be dc69 61be f4ff b9bb
00000270: bfb3 2ebe b212 93be e9b1 c5bd 0dab 03be
00000280: 4c3f debc 3390 89bc e10d 0dbe aba6 73bd
00000290: 0769 7fbe ff3d 71be 438d 4abe 9765 98bd
000002a0: 2d15 4a3d 5d26 f1bc 2978 95bd cc78 1bbd
000002b0: b716 8dbc 9d4a 67be 6569 5abe e035 39be
000002c0: ab60 13be 024e b5bd 36a8 66bd 4457 01be
000002d0: 6a7c a6bd c9e5 febd 81bf 41be 4293 cdbc
000002e0: dd79 b4bc 7646 28bb 0f78 34be f53b f6bd
000002f0: 311f fcbc 311a 3dbd e056 39be b2f4 8cbd
00000300: 8d30 a6bb bb60 39be 9e70 cbbd 0390 36be
00000310: 4d24 03be c125 efba 9716 52bd 8cf1 b239
00000320: 58d0 10be 03b9 99bd d927 26bd a066 7e3c
00000330: b939 42be 674b 36bd 957d 03bd 8774 14be
00000340: 28da d6bc 6f52 cfbc 1248 74bc 5dbc 48bd
00000350: 4eb8 62be a59d 82be fcf1 803d bfce 6ebd
00000360: c467 1bbd 4293 16be f226 15be 0101 14be
00000370: a749 0abd a8bf 07be 53e3 d9bc 4fb5 8fbd
00000380: 6839 a2bc 7029 ad3c f1f0 58be 1f11 a8bc
00000390: b094 72be 3726 63bd 58c6 60be 6671 eebd
000003a0: 6654 49be 8ed1 56be 34a2 75bd 7ce0 d4bd
000003b0: f1f9 3fbd 5e80 ccbc 1a75 51be bded bbbd
000003c0: b7df 60bd f2a6 38be 1c90 0cbe 8e8e cabd
000003d0: 58eb 76be 800b 9bbd cee3 9dbc f3cc d5bd
000003e0: 0e88 1cbe ea6f 1fbd 5ef4 05be 03b4 0abe
000003f0: 6f81 1fbe 6daa c6bc f04f 5abc dd88 65bc

l2.bias f4 [32]
-0.71295875 -0.28214172 -0.12606455 -0.1815937 0.77636355 0.89957803 -0.25228888 -1.168626
0.52770805 -0.19684981 -0.9982825 -0.06374816 -1.0978444 -0.37178418 1.6833668 -0.16375639
-0.68807113 -0.23645838 0.7205589 1.2523007 -0.5397751 -0.15288045 1.1593168 0.5858261
-0.021184977 0.5481831 -0.20843382 -0.088205434 -0.9575891 -0.18260993 0.66470546 1.801378
00000000: 7784 36bf e174 90be 1117 01be b3f3 39be
00000010: c3bf 463f bf4a 663f 022c 81be 8995 95bf
00000020: e017 073f ff92 49be 718f 7fbf 658e 82bd
00000030: 2a86 8cbf 7f5a bebe 9078 d73f c1af 27be
00000040: 6e25 30bf 2522 72be 8c76 383f 644b a03f
00000050: b32e 0abf b18c 1cbe 7e64 943f b3f8 153f
00000060: 1e8c adbc ba55 0c3f ad6f 55be 0da5 b4bd
00000070: 8f24 75bf 19fe 3abe 232a 2a3f 8e93 e63f

l3.weight f4 [32, 32]
-0.05378388 -0.12331561 -0.07901986 0.07814453 -0.14486633 -0.2421484 0.058440294 -0.22200398
-0.1943101 -0.06407065 -0.019652134 -0.036748525 -0.0025051734 0.15000339 -0.07389366 -0.07018599
-0.18849337 -0.1699287 -0.0569862 -0.118860856 -0.26980516 0.075510465 -0.22522847 0.14846678
0.114990845 -0.24942084 0.123907454 -0.069172084 0.054075543 -0.10887783 -0.06866635 -0.16852462
-0.25038818 0.0063771973 0.0084517915 -0.034214158 -0.44153875 -0.19163497 -0.089133464 -0.41315758
-0.20375647 0.01741358 -0.18439724 -0.22942086 -0.113021515 0.15318048 0.06414995 -0.08327722
-0.13590524 0.14081879 -0.31914058 0.09801278 -0.32959944 0.0073895017 -0.40161842 0.07107358
-0.10971128 -0.44348255 -0.15587465 0.086790435 0.13439894 -0.060519397 -0.19502798 -0.077621035
-2.376671 -0.07770376 -0.10853204 -0.089968055 0.13947204 0.10638075 0.047534205 -1.279683
-0.8891846 0.090035595 0.06774351 1.0037221 -1.4863396 0.27916896 -0.2943008 -0.046869803
0.8491898 -0.011222399 -1.2438079 0.2685313 -0.25386152 -0.03517538 0.5181729 -1.3684525
0.07059494 2.2669868 -0.000859311 0.04653388 -0.12990868 -0.058691192 -1.270827 -0.53376055
-0.17587501 -0.043114666 0.011636832 0.074582234 -0.40548792 -0.1191345 -0.035239674 -0.21868992
-0.25701347 -0.11962148 -0.31227097 -0.31290385 -0.25469735 -0.041601848 0.06851134 0.12437434
-0.024017364 -0.0058741327 -0.119438045 -0.5656267 -0.19814222 -0.08766865 -0.63027453 0.155222
0.14251412 -0.11493864 0.10848577 -0.16265409 -0.09934082 0.01955742 0.019403782 -0.01116379
0.3746839 -0.00925438 -0.0950653 -0.04069403 0.54669535 0.83933634 -0.04257981 2.4017901
0.27914065 0.048602104 0.20432714 -2.0939279 -1.2256659 -0.03187044 -1.2948169 0.15432508
1.3913242 -0.06386496 -3.6732635 -0.14601153 -0.012557282 0.22289445 -0.8475514 0.2810741
0.10674232 0.76374876 -0.13577005 -0.07289778 0.14382462 0.09985465 0.4166788 -0.101143315
-0.02318259 0.16752683 0.0070547103 -0.12159095 -2.0353234 -0.19851644 -0.022442576 -0.8771308
-0.58791476 0.08132676 -1.6625412 0.4709372 -0.6978888 -0.12489838 -0.3539546 0.062386684
-1.0410088 0.06694525 0.25700998 -0.11806022 -0.53157544 -0.06874727 -0.41952482 0.35028046
-0.07873954 -0.12976363 -0.07410319 -0.111486204 -0.21334454 -0.09175688 -0.86566776 -0.6948065
-0.2582026 0.018875087 0.017556943 -0.03182095 -2.4740884 -0.40199602 -0.08199831 -0.8877525
-0.6937373 -0.057205964 -1.1825248 0.5338853 -1.429704 0.0629348 -0.42726496 -0.011885237
-0.45699218 -0.062638715 0.06815099 -0.08457712 -1.0607212 0.024223259 -0.4371991 0.484447
0.099377 -0.124032564 0.043923255 -0.08568858 -0.22493069 -0.06187855 -1.1653911 -0.6445088
-0.117654964 0.020466447 0.03614128 -0.10230597 -0.25159773 -0.46418002 -0.21073818 -0.19600296
-0.61395043 -0.11973506 -0.47177237 0.4095926 -0.19759613 -0.1627961 -0.5675185 0.09033686
-0.5526452 -0.12885006 -0.5073136 -0.39179835 -0.6562236 0.065277904 0.17870085 -0.55332965
-0.0075169327 -0.594779 -0.019096399 0.15790442 0.15855649 -0.07792562 -0.82103676 -0.032784786
00000000: 7c4c 5cbd e58c fcbd 2ad5 a1bd 3d0a a03d
00000010: d757 14be c0f5 77be 175f 6f3d 0355 63be
00000020: 3af9 46be 7937 83bd 83fd a0bc 9f85 16bd
00000030: d62d 24bb 7d9a 193e 8f55 97bd acbd 8fbd
00000040: 6804 41be ca01 2ebe 5d6a 69bd 526d f3bd
00000050: e723 8abe 3ba5 9a3d 4ba2 66be ad07 183e
00000060: 5280 eb3d 2d68 7fbe 31c3 fd3d 18aa 8dbd
00000070: 517e 5d3d 57fb debd f1a0 8cbd b891 2cbe
00000080: e132 80be cff7 d03b 6279 0a3c 2524 0cbd
00000090: 5e11 e2be f53b 44be 9b8b b6bd 6489 d3be
000000a0: 89a5 50be eda6 8e3c a1d2 3cbe 4ded 6abe
000000b0: d377 e7bd 58db 1c3e 0d61 833d 3f8d aabd
000000c0: be2a 0bbe cd32 103e 6566 a3be edba c83d
000000d0: 42c1 a8be a223 f23b eea0 cdbe 068f 913d
000000e0: 4fb0 e0bd 2510 e3be 9b9d 1fbe 2fbf b13d
000000f0: e09f 093e 30e3 77bd 6ab5 47be c7f7 9ebd
00000100: 611b 18c0 2623 9fbd 0c46 debd 2c41 b8bd
00000110: c2d1 0e3e 27de d93d 3ab3 423d a7cc a3bf
00000120: 9aa1 63bf 9564 b83d 1cbd 8a3d f779 803f
00000130: 6040 bebf 3cef 8e3e 98ae 96be 8dfa 3fbd
00000140: 8164 593f 27de 37bc 1935 9fbf ef7c 893e
00000150: 23fa 81be 0f14 10bd fba6 043f 7429 afbf
00000160: 1494 903d 5016 1140 6343 61ba 4f9a 3e3d
00000170: c806 05be 2d66 70bd 76aa a2bf 88a4 08bf
00000180: 9418 34be 0199 30bd 69a8 3e3c 92be 983d
00000190: 1d9c cfbe cafc f3bd 7a57 10bd 40f0 5fbe
000001a0: 4597 83be 1bfc f4bd fbe1 9fbe ef34 a0be
000001b0: b167 82be b366 2abd ac4f 8c3d f9b7 fe3d
000001c0: 10c0 c4bc cc7b c0bb ef9b f4bd e9cc 10bf
000001d0: cbe5 4abe 9f8b b3bd ac59 21bf 84f2 1e3e
000001e0: 39ef 113e f364 ebbd ca2d de3d cb8e 26be
000001f0: 3373 cbbd e236 a03c aef4 9e3c 54e8 36bc
00000200: 91d6 bf3e af9f 17bc 99b1 c2bd c8ae 26bd
00000210: 3af4 0b3f bfde 563f 2b68 2ebd eeb6 1940
00000220: 86eb 8e3e 0013 473d 223b 513e ea02 06c0
00000230: 9fe2 9cbf 948a 02bd 8fbc a5bf 6507 1e3e
00000240: e916 b23f a2cb 82bd c016 6bc0 0c84 15be
00000250: 0fbd 4dbc 713e 643e 21f9 58bf f2e8 8f3e
00000260: b89b da3d 0a85 433f 4e07 0bbe 6e4b 95bd
00000270: c346 133e 9880 cc3d ec56 d53e 3a24 cfbd
00000280: 6ae9 bdbc 278c 2b3e 332b e73b ad04 f9bd
00000290: bd42 02c0 e547 4bbe 7ed9 b7bc a58b 60bf
000002a0: 9581 16bf a58e a63d 26ce d4bf ae1e f13e
000002b0: d7a8 32bf b9ca ffbd 8a39 b5be 2e89 7f3d
000002c0: c73f 85bf 971a 893d d096 833e 8ec9 f1bd
000002d0: 5415 08bf 5ecb 8cbd f5cb d6be f657 b33e
000002e0: 3242 a1bd c2e0 04be 6ac3 97bd e152 e4bd
000002f0: fe76 5abe 08eb bbbd 679c 5dbf d7de 31bf
00000300: 2233 84be ed9f 9a3c 94d3 8f3c af56 02bd
00000310: 7757 1ec0 6cd2 cdbe bbee a7bd bf43 63bf
00000320: c598 31bf cd50 6abd f95c 97bf b5ac 083f
00000330: 8a00 b7bf f6e3 803d 79c2 dabe 4cba 42bc
00000340: e1fa e9be ba48 80bd bf92 8b3d c536 adbd
00000350: b6c5 87bf db6f c63c 8fd8 dfbe 7009 f83e
00000360: 2b86 cb3d c904 febd dfe8 333d 7f7d afbd
00000370: 3b54 66be 5d74 7dbd 892b 95bf 87fe 24bf
00000380: 16f5 f0bd 40a9 a73c e108 143d cb85 d1bd
00000390: 6bd1 80be 01a9 edbe c0cb 57be 00b5 48be
000003a0: db2b 1dbf a837 f5bd 268c f1be 1fb6 d13e
000003b0: a456 4abe 05b4 26be e448 11bf 8802 b93d
000003c0: 287a 0dbf 45f1 03be 4edf 01bf cb99 c8be
000003d0: 45fe 27bf 6cb0 853d 5bfd 363e 03a7 0dbf
000003e0: 9a50 f6bb 7043 18bf 0d70 9cbc b2b1 213e
000003f0: a25c 223e 7897 9fbd 772f 52bf 5749 06bd

l3.bias f4 [32]
-0.35728386 -0.47017756 -1.2538658 -0.42979628 -3.224851 -0.26200393 -0.4659744 0.03111043
-0.51334584 -0.43071833 -0.18597016 0.22724876 -0.13831387 -0.66319865 2.9880743 -1.0519005
1.0499725 1.3102646 0.561673 -0.60692716 -0.5489939 2.1961274 -0.23283401 -1.5740108
-0.44147325 3.6487975 -0.44701782 3.4979944 -0.31790623 1.4705303 -0.29133335 -0.15933594
00000000: e9ed b6be 1dbb f0be ad7e a0bf 420e dcbe
00000010: f563 4ec0 6125 86be 3294 eebe 4ddb fe3c
00000020: a26a 03bf 1d87 dcbe f66e 3ebe e6b3 683e
00000030: 27a2 0dbe 63c7 29bf 9c3c 3f40 ada4 86bf
00000040: 8065 863f c0b6 a73f cdc9 0f3f 945f 1bbf
00000050: dd8a 0cbf 5a8d 0c40 0a6c 6ebe 3079 c9bf
00000060: c808 e2be e685 6940 85df e4be 24df 5f40
00000070: 9bc4 a2be 563a bc3f a529 95be f628 23be

q.weight f4 [1, 32]
-0.007880575 -0.09334947 -0.87520206 -0.1009032 -1.0365752 0.024827007 0.28184918 -0.17490183
0.13815683 0.019847041 -1.4360479 1.026523 -0.024500076 -0.4610853 2.2787926 -1.2275802
-0.075198926 0.9522425 1.4780914 -0.044394817 -0.018679926 0.17288256 0.059593633 -0.77050275
0.41549122 1.1690785 0.08776843 1.2348266 -0.0022323367 0.9659363 0.07650277 -0.069816984
00000000: 871d 01bc 022e bfbd 3e0d 60bf 56a6 cebd
00000010: 7fae 84bf 0262 cb3c 894e 903e 7719 33be
00000020: fc78 0d3e 4396 a23c 6bd0 b7bf 1b65 833f
00000030: 62b4 c8bc 5f13 ecbe bdd7 1140 5921 9dbf
00000040: e501 9abd 2ac6 733f 1932 bd3f 57d7 35bd
00000050: a506 99bc 2008 313e 7418 743d ab3f 45bf
00000060: 44bb d43e 5da4 953f efbf b33d cc0e 9e3f
00000070: 654c 12bb 9a47 773f 7cad 9c3d 35fc 8ebd
