saved_models/13:44/target_critic_2.pth (torch, 16519 bytes, 9 tensors)

v1.weight f4 [32, 4]
000000 18 cd 37 3f d4 23 18 bf dc a2 1f bf 56 a8 05 be
       0.71797323 -0.5942967 -0.6235788 -0.13052496
000010 43 f9 78 bc 55 68 09 c0 e0 ed ab c0 84 70 c6 bf
       -0.015196147 -2.146993 -5.3727875 -1.5503087
000020 53 a7 9f 3c 6a 30 3d 3e ea 1a 9b bf f1 6c 5a 3f
       0.019488966 0.184755 -1.2117589 0.8532248
000030 d2 8c b2 3d e1 01 29 bf 85 91 d9 bf b6 22 52 be
       0.087182656 -0.6601849 -1.6997534 -0.20521054
000040 b3 d8 d9 3c c5 7c b5 bf 88 b8 e7 40 f5 ce ee be
       0.026592588 -1.4178702 7.241276 -0.4664227
000050 e3 63 2d 3f e1 73 b2 be b1 c4 fc 40 6c 21 c6 3e
       0.6773054 -0.34854034 7.89901 0.38697374
000060 06 34 70 3f bf 0a 0c 3f 09 ed cd c0 c3 59 81 bb
       0.9382938 0.547039 -6.435185 -0.003947468
000070 76 f1 57 3f 40 41 0e 40 51 1e 3c 41 c3 9b dc 3f
       0.84352815 2.2227325 11.757401 1.7235035
000080 1e fa 06 bf 7f cc 8e 3f e1 14 db c0 5b 95 ca 3e
       -0.527254 1.1156157 -6.8462987 0.39567074
000090 c4 eb eb be b5 ab 81 bf 84 5f 9e c0 54 ac b8 3f
       -0.46078312 -1.0130526 -4.9491596 1.442759
0000a0 14 43 04 3f 39 06 44 40 5c 25 39 c0 5a 89 01 40
       0.51664853 3.0628798 -2.8929052 2.0240083
0000b0 d8 eb 3a 3f 50 c9 76 bf 23 c2 f1 40 21 99 22 bf
       0.7301612 -0.9640093 7.5549483 -0.63514906
0000c0 d5 ed f3 3f 09 79 1d c0 13 de b7 3f 8f 39 05 3f
       1.9056956 -2.4605124 1.4364647 0.5204095
0000d0 c8 36 32 3f 7c a2 ae 3f 28 2e 04 3f 5e 73 67 40
       0.6961484 1.3643336 0.5163293 3.6164165
0000e0 cd c7 32 3f 9e 62 a9 3f 2a 1e 91 3f 89 2b 31 3f
       0.6983612 1.323322 1.133733 0.69207054
0000f0 34 9f 90 3f f4 2c 33 bf 7d 78 c7 40 48 41 87 bf
       1.1298585 -0.6999047 6.233458 -1.0566797
000100 7d a7 92 bd 67 9b 0f 3f 45 78 15 41 d2 72 8b 3f
       -0.07160852 0.560965 9.341863 1.0894415
000110 5e 48 8a bf 6b ea 79 40 b7 74 c2 3f 38 7c 84 3f
       -1.0803335 3.9049327 1.5191869 1.0350409
000120 4d c5 c8 3e 5d 29 91 be 3b dd 86 bf c0 48 b9 be
       0.3921303 -0.2835187 -1.0536264 -0.36188316
000130 39 40 35 40 79 55 07 3f 61 10 e7 40 a0 8b 10 3f
       2.8320448 0.52864796 7.2207494 0.5646305
000140 d2 db 4d bd 39 e9 a7 bd 39 e8 ac 3e 14 e6 11 bf
       -0.050258465 -0.081987806 0.33770922 -0.56991696
000150 12 a8 63 be ce fc 9b 3f ec 0e 0a bf f6 62 65 3f
       -0.22232082 1.2186525 -0.5392902 0.8960413
000160 55 40 20 be 5f 37 d2 3f a0 7a c8 c0 49 37 85 3f
       -0.1564954 1.6423148 -6.264969 1.0407497
000170 37 3c 3a 3e 11 0f a4 be 35 a8 af bf 3e 72 13 bf
       0.18187033 -0.32042745 -1.3723208 -0.57596195
000180 b7 f0 73 bf 45 58 99 3f ab 28 a2 3f 78 4b 93 3f
       -0.95289177 1.1980063 1.2668661 1.1507406
000190 e3 70 63 3e ca 2e 3a 3e 93 54 68 bf ad e1 a6 3e
       0.22211032 0.18181911 -0.9075405 0.32594052
0001a0 20 ab 86 bf ab f5 ed be 98 b0 9a 40 c8 db 39 c0
       -1.0520973 -0.46476492 4.834057 -2.9040394
0001b0 c9 fb ec be 38 ca f7 3e ce 7e af 3e ec aa a9 be
       -0.46285847 0.48396468 0.34276432 -0.33138216
0001c0 8f 78 00 bd 27 73 6b 3e e4 5f 16 c1 c5 aa a1 3d
       -0.031364974 0.22993146 -9.398411 0.078939
0001d0 b2 50 98 be 3c b7 87 3d eb 6c 66 bf b1 f8 26 bf
       -0.29749066 0.06626746 -0.90009946 -0.6522322
0001e0 c5 e7 d2 3e f6 4d 97 bf 3b 7e a4 bf b3 b2 23 bf
       0.4119245 -1.1820667 -1.2851022 -0.6394455
0001f0 5f 8f 7d be d1 ee bb 3e fa 3f 5b bf b3 44 fd 3e
       -0.24761723 0.3670564 -0.85644495 0.49466476

v1.bias f4 [32]
000000 25 f0 30 3f 8b de 97 be c7 94 7b 3f fc 7d 35 3f
       0.6911643 -0.29661974 0.9827389 0.7089536
000010 1c 34 c4 bc d6 a7 b8 be e1 d9 f2 be f5 5d 0f 3f
       -0.023950629 -0.3606555 -0.47431853 0.5600274
000020 3e 71 03 3d 7f f1 33 3d 52 03 c4 3c d9 8b 2e 3d
       0.032090418 0.04393148 0.023927364 0.042613838
000030 96 a0 06 be 4b 24 37 3e 80 c7 bc 3e 73 d9 87 bf
       -0.13147196 0.17884938 0.36870956 -1.0613235
000040 e8 a4 19 bc 56 ad 9d be d9 99 5d 3f 6b b0 d9 3d
       -0.009377696 -0.30796307 0.8656288 0.10629352
000050 2f c7 49 3f 9d 37 3c 3f 87 a8 53 be 0f 40 5d 3f
       0.78819555 0.7352236 -0.20669757 0.8642587
000060 c3 c0 0b 3f 9f 43 36 3f 64 61 cd bf 81 85 60 3f
       0.54591006 0.7119693 -1.6045346 0.8770371
000070 06 42 af bb 60 cc 44 3f 32 b2 a9 3e 76 a2 5a 3f
       -0.005348447 0.7687435 0.33143765 0.85404146

a1.weight f4 [32, 3]
000000 5b ba fd 3b 3b 2e ff bc c2 be 66 bb 10 93 47 3c
       0.0077431626 -0.031149974 -0.0035208915 0.0121810585
000010 fd 25 90 ba c3 87 eb 3b 04 e3 fa 3b 08 c0 cf bc
       -0.001099765 0.007187815 0.007656457 -0.025360122
000020 b4 e4 87 bb 79 38 5d 3c 9b be 75 bc ee 54 23 3c
       -0.0041471366 0.013502234 -0.014999057 0.009968979
000030 9b 05 ff 3a 37 6f 3e bb 35 60 9b bb ae eb a6 3b
       0.0019456627 -0.0029057988 -0.0047416934 0.005094013
000040 ba 90 00 bd 32 80 53 39 33 1a e4 3b 9b 4f 7b bc
       -0.031388022 0.00020170285 0.006961131 -0.015338804
000050 f2 80 56 3a 14 bb 83 3b 6e ac 23 bc 9e 1f 9c 39
       0.00081826665 0.004020104 -0.009989841 0.00029778195
000060 b2 4b 62 3b 58 95 4d bc 27 26 33 bc e8 13 44 bd
       0.0034529981 -0.012547813 -0.010934389 -0.047870547
000070 0a b9 86 3a a1 88 73 bd fc 9b 8d 3c a6 6d 25 bc
       0.0010278535 -0.05945647 0.017286293 -0.010096943
000080 d6 b1 29 3b 46 53 2c bc 32 ad d8 3b 4f 83 ba bc
       0.0025893352 -0.010517901 0.0066124434 -0.022767691
000090 a2 b4 63 3c 04 77 8c bc c5 6e 1d 3c 8c 4e 7d 3b
       0.013898047 -0.017146595 0.009608929 0.0038651554
0000a0 31 5c 59 bc 51 6d df bc 70 cc 3f 3b 27 10 bf bb
       -0.013266609 -0.027273806 0.0029266141 -0.005830783
0000b0 0c e9 8f bc 63 d4 65 bc 5d 8c 8d 3c e3 52 ec 3a
       -0.01756718 -0.014027688 0.017278844 0.0018030073
0000c0 20 1b c6 bc b0 e3 4b bc bd 26 86 bd b7 d9 bf 3b
       -0.024182856 -0.012444422 -0.065503575 0.005854811
0000d0 f7 fc b6 bb 50 7c 37 3b 29 cd 45 bc 49 1d ce 3b
       -0.005584355 0.002799768 -0.01207284 0.006290112
0000e0 a2 f5 d4 3b 19 3c 46 bc 74 55 89 bc 65 33 04 3b
       0.0064990083 -0.012099289 -0.01676438 0.0020172235
0000f0 34 8f 8f 3c 72 33 e5 bc e9 f8 5e bc 91 a8 52 bc
       0.01752434 -0.027978633 -0.0136091495 -0.012857572
000100 47 6a 3d bc a0 a1 49 bb 39 93 d1 3b c0 b7 4a bc
       -0.011560983 -0.0030766502 0.006395724 -0.012372911
000110 e4 47 0b bc 03 d8 e7 b8 95 01 0b 3c e0 95 33 3b
       -0.008501027 -0.00011055174 0.008484264 0.0027402565
000120 fe da a8 3b bb ae 74 bc 5f 38 34 bc 37 60 b4 3b
       0.005153059 -0.014934237 -0.010999768 0.0055046338
000130 6d 97 9a bb e0 72 3d bb 4f eb 31 bc 12 ba e6 bc
       -0.0047177584 -0.0028907582 -0.010859325 -0.028164897
000140 e0 99 c3 bb a1 8b 55 3c af a5 ba bc a0 a4 3c bc
       -0.005969271 0.013033778 -0.022784082 -0.011513859
000150 9d f7 11 3c f9 3f 49 bc c6 21 2e bc 13 aa 71 3c
       0.008909133 -0.012283319 -0.010628169 0.0147500215
000160 a0 9a c6 bb 57 8f b5 3c ae c9 9b bb c1 0b d6 bc
       -0.006060913 0.022163076 -0.0047542667 -0.026128652
000170 32 20 63 bb 1b 8f 66 ba 7f f0 b3 bc 83 3a 7b bc
       -0.003465664 -0.0008795128 -0.021965263 -0.0153337745

a1.bias f4 [32]
000000 86 91 92 c0 59 0c 4f c0 2c 7d 7c c0 f4 36 73 c0
       -4.580264 -3.2351286 -3.94514 -3.800229
000010 d7 e7 a0 bf 0e fc 90 c0 37 33 2f c0 51 49 4c c0
       -1.2570752 -4.5307684 -2.737501 -3.1919749
000020 db ec 66 c0 51 54 14 bf 2e d0 9c c0 f5 e9 83 c0
       -3.6082065 -0.57941157 -4.9004126 -4.122309
000030 84 15 7d c0 ae f2 90 c0 2f 54 80 c0 5d e7 82 c0
       -3.9544382 -4.529624 -4.0102763 -4.0907426
000040 37 5b 78 bf 4d 2a 82 c0 b5 22 86 c0 8d 78 8f c0
       -0.9701418 -4.0676637 -4.1917367 -4.4834657
000050 50 52 be c0 15 b0 89 c0 62 3f 50 c0 58 e1 b8 bf
       -5.947548 -4.3027444 -3.2538686 -1.444377
000060 81 ef 48 c0 3e 6d 1a c0 b6 ed 92 c0 06 6e 9a c0
       -3.1396182 -2.4129176 -4.5915174 -4.8259306
000070 83 05 6f c0 06 91 90 c0 4d 63 85 c0 d6 66 90 c0
       -3.7347114 -4.517703 -4.1683717 -4.512553

l2.weight f4 [32, 64]
000000 06 ff 1f be 78 45 e9 3c 87 59 2c be b5 6f 8e be
       -0.15624627 0.028475508 -0.16831027 -0.278196
000010 d9 4a cf bd 6d f5 82 bd 1d 9f 8d bd bd 88 8b bd
       -0.10121698 -0.063944675 -0.06915114 -0.0681319
000020 7f bc ab bd db 95 e8 bd 05 7d 0b be 52 6b 57 be
       -0.08385562 -0.11356708 -0.1362191 -0.21037033
000030 c9 c9 c4 bc 17 d8 2c be a6 64 1a be 16 20 97 bd
       -0.024022 -0.16879307 -0.15077457 -0.07379167
000040 ba 23 55 bd e8 07 37 be 65 79 89 be 97 c8 a0 bd
       -0.052036025 -0.1787411 -0.2685043 -0.078507595
000050 a3 9e ef bd c5 5e 8f be ae c8 17 bd d5 6c 0f be
       -0.117001794 -0.2800199 -0.037056617 -0.1400636
000060 4d 9c 08 be 9d d1 0f be ef 9f 23 be e4 49 7a be
       -0.13340874 -0.14044805 -0.15978979 -0.2444225
000070 f8 87 3d be 06 c3 90 be 08 e4 30 be b9 dc 4b be
       -0.18508899 -0.2827379 -0.17274487 -0.19908418
000080 45 18 08 be 30 ab 3f bc f9 08 4e be 58 43 b1 bd
       -0.13290508 -0.011698529 -0.2012061 -0.08655423
000090 61 86 c0 bd 91 e9 c3 bd 3e 52 92 bd f0 cc 55 3d
       -0.09400631 -0.09566034 -0.07144593 0.052197397
0000a0 d5 e0 04 be 6a d6 ea 3c 5a e6 8e bd 66 8a 9b bd
       -0.12976392 0.028666694 -0.0697753 -0.07594757
0000b0 f0 77 1b bc cb c0 eb bc e0 37 d1 bd 11 9e da 3a
       -0.009489045 -0.028778454 -0.102157354 0.0016679188
0000c0 7d 1f 0f be 20 b1 3c be 48 db 29 bd ea 0f e8 bd
       -0.13976856 -0.18426943 -0.04146889 -0.1133116
0000d0 68 fc 81 bc 00 12 fa 3c 00 ea 02 ba a2 3e c1 bd
       -0.015867427 0.030526161 -0.0004993975 -0.094357744
0000e0 1d ce 01 be 68 1a 36 3d d0 6a c3 bc aa 56 b2 bd
       -0.12676282 0.044458777 -0.023854643 -0.08707936
0000f0 f4 36 58 bd d0 b7 2c bd 6e ce bf bd c5 2f 02 bd
       -0.052786782 -0.042167485 -0.09365545 -0.031783838
000100 fc 45 fc bd 97 85 cb c0 11 5c 32 3f 7b db 9e bd
       -0.12318036 -6.3600574 0.6967173 -0.07756706
000110 32 3f 73 c0 4f a3 c5 bf 1d 06 53 c0 c2 5c 67 3e
       -3.8007321 -1.5440463 -3.2972481 0.22593978
000120 23 5e 02 40 dd 7f ab 3f 90 69 9d c0 1d 0a 6f bf
       2.0369956 1.3398396 -4.919136 -0.93374807
000130 e8 4a 38 c0 ec ee 9d 3e 98 1f d2 3e 74 df 72 be
       -2.879572 0.30846345 0.4103973 -0.23718053
000140 f9 ec 42 40 b2 2e 83 3e 99 58 db 3d 99 84 73 be
       3.0457137 0.25621563 0.10710258 -0.2378105
000150 05 32 d2 be a6 10 3f 3f c2 12 cb 3f b0 e6 cc bd
       -0.41053787 0.7463478 1.58651 -0.10004938
000160 10 79 e5 3e 1a e0 e5 3e 02 a0 96 c0 4b 15 84 3c
       0.44818926 0.44897538 -4.707032 0.016123435
000170 2d 4f e5 3f ae 2f 1c be 0f 7f a1 bf ac 75 ff 3e
       1.7914788 -0.15252563 -1.26169 0.49894464
000180 df a2 b5 3d 6b 86 ef bd 5c 6c 8a be 67 47 a2 bd
       0.08868956 -0.1169556 -0.27035797 -0.07923775
000190 36 17 23 3e 0e 67 14 3e 66 9c 98 bd 7f 6f bc bd
       0.15926823 0.14492437 -0.07451706 -0.09200954
0001a0 d9 72 c0 bc a6 fe 1d be aa c6 5d 3d 9d cc 14 3e
       -0.023492264 -0.15429172 0.05414454 0.14531179
0001b0 ab ed e3 bc 01 2e 49 3e bb fd eb 3d 18 8f 4d bb
       -0.02782329 0.19646455 0.115230046 -0.0031365808
0001c0 92 14 7f 3e 5a 6e e0 3d 5e 30 94 3d 10 e4 c6 3e
       0.2491019 0.10958548 0.07235788 0.38845873
0001d0 cb dd 7b bf 8f 71 a5 bd 92 5f da bd 67 73 a3 bd
       -0.98385304 -0.080783 -0.1066276 -0.079809956
0001e0 d3 b9 65 3e 83 9c f3 bd 2c fd 88 3c 7d 54 82 3d
       0.22434168 -0.118950866 0.016722284 0.06363771
0001f0 4d aa 8e be 31 26 49 be 40 6d b3 be 89 a8 d5 3e
       -0.27864304 -0.19643475 -0.3504429 0.41730145
000200 25 df 07 be 6f 20 b9 3f 03 7c 61 3e 00 03 c4 3e
       -0.13268717 1.4463023 0.22019963 0.3828354
000210 2f 95 99 3d 87 c0 83 bf 9e 1c ea c0 78 04 d0 be
       0.07499158 -1.029313 -7.3159933 -0.4062841
000220 e8 90 92 3f 20 7c 1c 40 db 39 df c0 a4 d6 96 3e
       1.1450472 2.445076 -6.9758124 0.29460633
000230 f3 4d f3 bf 81 b5 46 3f 7e c7 81 be 9f e1 87 c0
       -1.9008163 0.77620703 -0.25347513 -4.2462916
000240 a8 5e d3 3f ee da 61 bf 48 4f 20 be ca 60 e2 3f
       1.6513262 -0.88224685 -0.15655243 1.7685788
000250 4c b5 44 3e 94 2e 54 3d af fb c2 3e 69 c9 2c 3e
       0.19209784 0.051802233 0.38082644 0.16873707
000260 00 c7 59 bc da c5 04 be 12 28 b8 c0 1d 52 9b 3c
       -0.013292074 -0.129661 -5.7548914 0.018960053
000270 f3 2d 53 c0 66 cd f4 3e ca e9 f3 3d 6e eb b3 3e
       -3.2996795 0.47812957 0.11909826 0.35140556
000280 01 24 d3 bc 9d fa 84 3c 80 00 42 be 7e eb 9f 3d
       -0.025774004 0.016232783 -0.18945503 0.078085884
000290 77 bf 21 3d 36 14 97 3d e8 b2 40 3e 9f 67 29 bc
       0.039489236 0.07376902 0.18818247 -0.010339647
0002a0 f6 23 24 3d c2 52 3c 3c 45 8a 8e 3d f1 86 55 3e
       0.040073358 0.01149434 0.069599666 0.20852257
0002b0 3a e5 54 be 4e 12 1f 3d 4a 4c db bc 62 20 51 3d
       -0.20790568 0.038835816 -0.026769776 0.051056273
0002c0 01 39 87 3e 50 45 3c bd b5 73 05 3e 6e 02 1e bd
       0.26410678 -0.04596454 0.1303242 -0.038576536
0002d0 df 58 20 be ff 3d 3e bd e2 66 d8 3c 10 e1 3a bd
       -0.15658902 -0.046445843 0.026416246 -0.045624793
0002e0 a8 c0 c5 3d 57 f2 31 3e 64 16 0d bc 3f 82 23 be
       0.09655887 0.17377602 -0.008611295 -0.15967654
0002f0 95 11 19 bd 19 f1 5e bd 1e ed 99 bc 9e 3e 9b 3c
       -0.037370283 -0.054429147 -0.018789824 0.018950757
000300 29 de 98 3d 20 06 29 bf 36 19 f8 bd eb 9f b4 3d
       0.07464249 -0.6602497 -0.121141836 0.088195644
000310 45 e1 62 c0 bf ad 3b 40 5e e0 11 40 26 c2 9b c0
       -3.5449994 2.9324796 2.2793193 -4.8674498
000320 3f 3c 76 bf 7f 0c e7 3e c4 13 13 c0 6d 74 6d c0
       -0.9618568 0.4512672 -2.2980814 -3.710231
000330 71 f5 40 c0 86 d6 46 bf 0b ee 50 c0 c9 da 56 bd
       -3.0149806 -0.77671087 -3.264529 -0.052454744
000340 a7 3d a9 bf e5 1f b7 3e d1 0e 06 3d 28 60 5c bf
       -1.322194 0.3576652 0.032728974 -0.8608422
000350 ec 59 0f 3f dc 98 00 3e 88 66 3e c0 b2 c9 c6 3e
       0.55996585 0.12558311 -2.975008 0.38825756
000360 92 09 d9 3e 2c 1d e4 3c 70 71 7a 3f 63 bb 15 3f
       0.42390114 0.027845941 0.9782934 0.58489054
000370 66 f2 30 c0 34 e5 1f 3f 67 df 33 3f bd 04 02 3d
       -2.7647948 0.6245911 0.7026276 0.0317428
000380 34 67 85 be 5e a7 95 be 25 f5 1d be bf cd a5 bd
       -0.260553 -0.29229254 -0.15425546 -0.080958836
000390 f8 01 b2 3c 29 25 48 bf 87 fd b2 bd 9c 04 7b be
       0.021729454 -0.781817 -0.08739763 -0.24513477
0003a0 78 72 cb bc 85 0d 43 be da 84 6f 3d c4 0e 7b be
       -0.024834856 -0.19048126 0.058476306 -0.24517351
0003b0 be 20 94 bd 97 63 b5 be 68 e1 b2 be ff 1e a6 bd
       -0.072328076 -0.35427544 -0.34937596 -0.08111381
0003c0 3d aa 56 bd d9 ab dc 3c c6 9d 91 be 26 2c 99 be
       -0.052408446 0.026937412 -0.28440684 -0.29916495
0003d0 8e 13 a4 3d f4 2f 09 3d af 23 3f be 21 5a d7 3d
       0.08011542 0.033492997 -0.18665956 0.105152376
0003e0 6c 74 0b 3c 23 0c fd bd 6b 50 78 3d fd 75 8b be
       0.008511644 -0.123558305 0.060623568 -0.27238455
0003f0 b4 68 72 be 47 3c 34 3e 59 d3 4b be dc 34 0d bf
       -0.23672754 0.17601119 -0.19904841 -0.5515878

l2.bias f4 [32]
000000 fb 34 e8 bd 49 e3 12 3f 31 ab 15 3f 80 69 4d 3f
       -0.1133823 0.5737806 0.5846434 0.80239105
000010 17 0d b4 3f f5 3e b7 3d 8f a8 20 be cb e6 ed bd
       1.4066495 0.08947555 -0.156893 -0.11616286
000020 b5 ad 8c bd 9c 12 39 be f7 40 25 be d5 06 6b 3f
       -0.068690695 -0.18073505 -0.16138063 0.918073
000030 39 65 48 be 46 52 73 3d d0 32 3d be 20 ac ed 3f
       -0.19569863 0.059404634 -0.18476415 1.8568153
000040 ef 66 d8 be 00 a0 54 3f 73 7f a6 3f 87 0e ac be
       -0.42266032 0.8305664 1.3007644 -0.33604833
000050 a5 76 25 bf 85 44 8a be 71 ce 47 be 9c b2 f7 bd
       -0.6463416 -0.270054 -0.19512345 -0.12094614
000060 46 ed 4c bf d5 6d d0 3e ff 58 2d bd c0 e4 18 3f
       -0.8004955 0.40708795 -0.0423212 0.59724045
000070 fb 07 63 be 03 96 22 bf 9b eb 71 3f fd f8 0a be
       -0.22171013 -0.6351015 0.9450013 -0.13571544

l3.weight f4 [32, 32]
000000 a6 b7 a1 3b 9a b2 66 3e ab 97 a4 3c 53 05 5c 3f
       0.0049352227 0.22529069 0.020091852 0.85945624
000010 e2 a5 a2 3e cf 89 0d 3f 6e 45 17 3e 24 f1 f4 3d
       0.31767184 0.55288404 0.14772579 0.119600564
000020 86 1d bd 3c f9 70 0a c0 b2 07 99 be 80 99 b0 3e
       0.023085367 -2.1631453 -0.29888684 0.3449211
000030 71 ff 5c bc 78 fe b3 bf 58 e4 c4 bb a9 98 04 3f
       -0.013488636 -1.4062033 -0.006008666 0.5179544
000040 dd a9 0b bf b0 0f a9 3e e2 22 04 bf 72 6e d7 bc
       -0.54556066 0.3301978 -0.51615727 -0.026297782
000050 68 e2 f1 be 5a 78 ef bc 57 2d a4 3d a6 c2 9b bd
       -0.47243047 -0.029232193 0.080164604 -0.076054856
000060 43 23 aa bf 71 71 b3 3e 92 93 62 3c 62 31 27 40
       -1.3292011 0.35047486 0.013829129 2.612389
000070 32 8a 62 3c 31 31 9a be 80 8d b3 be c2 57 da 3d
       0.013826894 -0.30115655 -0.35068893 0.1066127
000080 ec 3b f7 3d f3 40 69 3d ed f5 04 bf bb b3 ef bd
       0.12071976 0.056946706 -0.5193775 -0.11704203
000090 90 5c 35 be 83 1d eb bd 3d 13 90 3d 25 72 05 3c
       -0.17711091 -0.11480238 0.070349194 0.00814489
0000a0 ff dc 56 3d f2 c5 57 be c3 f5 e1 bd 61 cb c1 be
       0.052456852 -0.21071604 -0.110332035 -0.37850478
0000b0 48 0f dd bd 65 69 14 3e 41 2d 46 3e ff a2 a9 be
       -0.1079393 0.1449333 0.193532 -0.3313217
0000c0 d3 da 6c bc 81 dd 4b be 1f 1e 2f be 8b 5d 77 3d
       -0.014456469 -0.19908716 -0.17101334 0.060391944
0000d0 bd 17 89 be da 1b f2 bc 0d 56 02 3e 64 c9 e6 bd
       -0.26775923 -0.029554296 0.12728138 -0.11268881
0000e0 1c da ff ba 7a 61 6b 3b 29 85 0a bd 34 8a fb bd
       -0.0019519958 0.0035916255 -0.033818398 -0.122822195
0000f0 ff f5 f6 3d 15 df 16 be 40 5a 32 bc 5c 04 b4 3c
       0.12058639 -0.14733537 -0.010885775 0.021974735
000100 3c f3 f3 bd a0 e6 78 be aa 9c c8 3d 84 22 7d 3e
       -0.11911628 -0.24306726 0.09795506 0.24720198
000110 e8 d1 16 3f c9 6c 3d 3e aa 8c ef 3d 86 ac 1a 3e
       0.5891404 0.1849853 0.116967514 0.15104875
000120 c8 1c 33 be 89 ed 12 bf b3 84 24 bf ac f6 9a 3f
       -0.17491448 -0.573937 -0.6426498 1.2106528
000130 ee ec 12 bd e3 e3 c2 bf dc 14 71 3d 12 1b 3a 3f
       -0.035870485 -1.5225796 0.058857784 0.72697556
000140 d0 cb b0 bf 4e ce 1d 3f 17 2d 86 bf 94 98 f6 bd
       -1.3812199 0.6164292 -1.048251 -0.12040821
000150 a3 ae 99 bf d7 84 24 be 8e 60 13 3e 4f 10 b0 bd
       -1.200642 -0.160663 0.14392301 -0.085968606
000160 6c bd 4d be 4e 22 38 be 04 9c 8a 3c cc 17 c6 bf
       -0.2009179 -0.17981836 0.016920097 -1.5476012
000170 62 6d 59 be 92 7c df be 06 93 ea 3c 06 24 1e 3d
       -0.21233132 -0.43649727 0.02863456 0.038608573
000180 5e f3 19 3e 3c 4f 88 3f e7 ad df 3e 20 4d f1 bd
       0.15034243 1.064918 0.43687364 -0.117822886
000190 c1 6b d0 3f fc 7b ec be fb 91 7e bd 9c 28 8e bd
       1.6282884 -0.46188343 -0.062150937 -0.069413394
0001a0 b7 77 ae bc 04 6a 2e bd 39 0b c7 bf 15 84 73 3f
       -0.021297319 -0.042581573 -1.55503 0.95123416
0001b0 df 66 bf 3d e4 62 e4 bf df 0d 20 3e af e0 bc 3f
       0.09345793 -1.7842679 0.15630291 1.4756068
0001c0 25 e7 8b 3e 5e 84 e1 3e 8f 96 cd 3f 8c da 07 be
       0.27324787 0.440463 1.6061572 -0.13266963
0001d0 86 c9 9f bf 10 c8 ba 3d 65 16 0d 3c f3 1d f3 bc
       -1.2483375 0.0912019 0.008611296 -0.029677367
0001e0 ae d2 61 3f 7c 90 32 bf 4d cc 80 3e bd d2 7e bf
       0.88212097 -0.69751716 0.2515587 -0.9954031
0001f0 03 92 fb 3d 1c 92 82 3f 2c 5e 48 3f 55 7c 1b bd
       0.12283709 1.0200839 0.78268695 -0.03796037
000200 a1 a9 76 3d 38 84 47 bc c0 f0 34 be fa dd 69 3c
       0.060220364 -0.0121775195 -0.17669964 0.014274115
000210 fe 7e 96 bd 94 ea f9 bd ed e4 8b bc d0 b4 38 be
       -0.073484406 -0.12202945 -0.017076934 -0.18037724
000220 90 ad 0b be 84 6e 2d be d7 8a bc 3c e5 9d 05 bd
       -0.13640428 -0.1693669 0.023015423 -0.032621283
000230 8e 46 f6 3d ee 33 9c bd bc 68 00 3e 76 e2 97 bc
       0.12025176 -0.07627092 0.12539953 -0.018540602
000240 29 5c f3 bd 95 25 85 be 5e d3 96 bc a6 01 1c be
       -0.118828125 -0.26005235 -0.018411335 -0.15235004
000250 74 b9 70 bc b8 8d 37 3b 62 75 1e be d6 c6 8e bd
       -0.014692653 0.0028008055 -0.15474465 -0.06971519
000260 b7 11 a6 bd e3 c0 62 bd 3f 5c 14 3e d8 d4 38 be
       -0.081088476 -0.055359732 0.14488314 -0.18049943
000270 23 46 39 bd b2 e3 d1 bd 4e 0c 75 bd 1a 4c f6 bd
       -0.045232903 -0.102485076 -0.059826188 -0.12026234
000280 77 f8 34 bd db fa 26 c0 7d d6 f1 be ec e4 5d bf
       -0.044182267 -2.609061 -0.47233954 -0.8667743
000290 7b 58 35 bf b1 a2 89 3e dc 48 79 3e 9b e5 62 bd
       -0.70838135 0.26881936 0.243442 -0.05539475
0002a0 c3 cc 22 3e c8 06 a2 3c 5b 2f ea 3e c9 28 e3 bf
       0.15898423 0.019778624 0.45739254 -1.7746822
0002b0 90 07 a5 3d af b7 00 bf 6a bb 62 3d 07 8c 58 bf
       0.08058083 -0.5028028 0.055354513 -0.84588665
0002c0 ae 1e 92 be 3b f2 33 3f db b0 d7 3e 8e cc 56 bd
       -0.28539032 0.7029149 0.42127118 -0.052441172
0002d0 d4 9d 8b bf a1 a2 de bd 8e 65 a7 3e 87 b4 3a 3e
       -1.090754 -0.10870863 0.32694668 0.18232928
0002e0 c4 a8 e8 be af ff 96 be fb a4 e6 bd f2 10 22 bf
       -0.45441258 -0.29491946 -0.11261936 -0.63307106
0002f0 5d ad b7 bd 20 0a f9 bf 9d e0 b3 3f da c7 10 3e
       -0.08968613 -1.9456215 1.4052922 0.14138737
000300 74 b7 01 3e 22 ef 19 40 cf 4b b9 3f 67 3e 20 bf
       0.12667638 2.4052205 1.447626 -0.6259522
000310 52 52 2c be 80 b8 1c bf 2a 29 d8 3c 41 5c d3 3e
       -0.16828278 -0.61219025 0.026386816 0.41281322
000320 dd dc 8a 3c c8 ee e4 3f c3 a6 10 c0 d9 25 f0 3f
       0.016951019 1.788537 -2.2601783 1.876155
000330 d2 ba e9 bd 2d c6 10 3f 06 99 97 3c 32 a8 1f bf
       -0.11412586 0.5655239 0.018505584 -0.6236602
000340 f0 b1 46 bf 73 8b d1 3d b7 ab 88 be a5 30 92 3d
       -0.7761526 0.10231676 -0.26693508 0.071381845
000350 ab 38 22 be 2d 73 9f 3d 61 36 c5 bd d9 bb 51 3e
       -0.1584193 0.0778564 -0.096295126 0.20481814
000360 e6 71 50 3f dc 6e a1 3f d4 38 87 bd b1 3c 1c be
       0.81423795 1.2611957 -0.06602636 -0.15257527
000370 5b fe 61 3d 5f fb 0d 3e 35 a2 49 bd 79 15 ce 3d
       0.055174213 0.13865422 -0.04922696 0.10062689
000380 02 b1 61 3d bc 9a 49 3f d0 85 b9 3c 46 d7 99 3e
       0.05510045 0.7875173 0.022646815 0.30047053
000390 ca 02 8d 3f c3 f0 9f 3e 7b 37 f2 bc 8a c0 51 3d
       1.1016476 0.31238374 -0.02956747 0.05120901
0003a0 66 cd ad 3c 47 8f 16 3f 67 7e b1 3c 6f c3 1f 3f
       0.021216106 0.58812374 0.021666719 0.62407583
0003b0 31 9d 4a 3e a7 92 b0 3e 8f d4 21 3d 36 4b ce 3f
       0.19786526 0.34486887 0.039509352 1.6116703
0003c0 a4 62 59 bf 38 1d fb 3e 85 02 7d 3e 6c 61 71 3d
       -0.8491614 0.4904573 0.24707992 0.0589308
0003d0 b5 07 27 c0 cb af f2 3c 13 22 f7 bd c3 26 f7 bd
       -2.6098454 0.02962484 -0.12067046 -0.1206794
0003e0 eb dc 43 bf f6 90 ce 3c 0a 1b de bd 4f 33 19 40
       -0.7650897 0.025215607 -0.10845001 2.3937566
0003f0 43 4d 62 bc c4 2c 7c bf 60 56 5b 3e 16 79 a7 bd
       -0.013812366 -0.98505807 0.21419668 -0.08177392

l3.bias f4 [32]
000000 ce 90 a1 3f 59 75 ca be df a5 84 3f 6b e0 4f 40
       1.2622316 -0.39542654 1.036312 3.2480724
000010 92 39 d8 be 7e 86 2b 40 97 30 54 c0 a4 3b 15 40
       -0.42231423 2.6800838 -3.3154657 2.3317652
000020 88 b7 46 bf 0f c1 35 bf 27 43 86 3f 6f 61 bc 3e
       -0.77623796 -0.7099771 1.0489243 0.36793086
000030 fa 9c 5f bf 17 82 e3 bf cf 22 bc 3f e5 52 e2 3e
       -0.873489 -1.7774075 1.4698123 0.44203869
000040 b4 1f 62 3f 96 37 cf 3f f4 19 cd bf f4 50 13 40
       0.88329625 1.6188838 -1.6023545 2.301816
000050 66 4d 14 3f 9d f7 ad be 7d 06 8f be f8 e0 52 40
       0.579306 -0.33977976 -0.27934638 3.294981
000060 c2 17 54 be c8 2d 3a 40 25 b5 7e 3f b7 e9 4a bf
       -0.20712188 2.9090443 0.99495155 -0.7926287
000070 cc 8d bb 3f 0f d2 a5 3f 66 c1 e7 3f f9 7b 3f c0
       1.4652648 1.295473 1.8105896 -2.9919417

q.weight f4 [1, 32]
000000 64 a2 43 3e e7 25 32 be 7c 31 f7 3e 81 cc c0 3f
       0.19104916 -0.17397271 0.4827994 1.506241
000010 97 0e 26 3c 59 94 4c c0 72 5c 48 bf f8 7b a9 3f
       0.010135314 -3.1965544 -0.7826606 1.3240957
000020 b0 0d b2 be e9 4d 0a c0 a9 bc 2c 3f 7c f1 05 3f
       -0.34776068 -2.1610053 0.6747537 0.523216
000030 ea ba e0 be ca a3 9d bf 38 fe 3b 3f 1b 08 ad bf
       -0.43892604 -1.231561 0.7343478 -1.3518099
000040 34 1a f9 3e 90 5a d7 bf 74 2d 8c bf 2a 0e e2 3f
       0.48652804 -1.6824512 -1.0951371 1.7660573
000050 9b 13 13 bf bb 8b f9 bf 98 29 47 bd fd bd 8f 3f
       -0.5745179 -1.9495767 -0.04862365 1.1229855
000060 cd 2d 10 bf 89 8c b2 3f ad a0 19 3f a1 ba 9c bf
       -0.56319886 1.3949138 0.60010797 -1.2244455
000070 17 8e d4 3f ac 1d ee 3e c4 dc 67 3f c7 40 80 bf
       1.6605862 0.46507013 0.90571237 -1.0019768
