saved_models/13:44/target_critic_1.pth (torch, 16519 bytes, 9 tensors)

v1.weight f4 [32, 4]
0	0x3e4209ca	0.18949047
1	0xc0471a68	-3.1109867
2	0x4018b9df	2.3863447
3	0xc0039469	-2.0559332
4	0x3f1da81e	0.6158465
5	0xbf4c9863	-0.79920024
6	0xc01d93e6	-2.462152
7	0xbea158dd	-0.3151311
8	0x3e7e0456	0.24806342
9	0xbf91ee0b	-1.140077
10	0x40f35066	7.6035643
11	0xbef4896c	-0.47761095
12	0x3eb46b20	0.3523798
13	0x3ee80903	0.45319375
14	0x3faf96c7	1.3717889
15	0x3f43e4c2	0.7652093
16	0x3f7ff081	0.99976355
17	0xbf26fd65	-0.652304
18	0xc119798b	-9.592174
19	0x3dfcf50c	0.123514265
20	0xbfa3f35b	-1.2808641
21	0x406c1fb6	3.6894355
22	0xbfa85b42	-1.315285
23	0x3edd5e44	0.4323598
24	0xbf9d6881	-1.2297517
25	0xbf894070	-1.072279
26	0xbf5d4003	-0.864258
27	0xbf2e87ae	-0.6817578
28	0x3eef8ecf	0.46788642
29	0x408045c9	4.0085187
30	0xc01a4e81	-2.4110415
31	0x40263c09	2.5974143
32	0x3c6db53a	0.01450854
33	0x3e0a312e	0.13495323
34	0xc10af539	-8.684869
35	0xc03bc156	-2.9336753
36	0xbf1733fb	-0.5906369
37	0x3f8f472b	1.1193594
38	0xc0d6f075	-6.7168527
39	0x3f0a1f44	0.5395396
40	0x3c8ed5c3	0.017435914
41	0xbddf4836	-0.10902445
42	0x410ff0d3	8.996295
43	0x3f050d21	0.5197316
44	0x3f3b9d93	0.73287314
45	0xbeb2df79	-0.3493612
46	0x40f4052b	7.625631
47	0x3e038ea5	0.12847383
48	0x3e8e66c9	0.27812794
49	0x3db300bf	0.08740377
50	0x3e27af47	0.16375457
51	0x3d386eb2	0.045027442
52	0xbf4eb944	-0.8075144
53	0x3fd81c1f	1.6883582
54	0x3f8d601e	1.1044958
55	0x3f6905f8	0.9102473
56	0x3eaeb093	0.3411909
57	0xbdb46da7	-0.08809977
58	0x40f3f273	7.623346
59	0x3ea11fc2	0.31469542
60	0x3c330152	0.010925608
61	0x3fa70ff3	1.3051742
62	0xc0de1372	-6.9398737
63	0x3ebe7e38	0.37205672
64	0x3e3f3f55	0.18676503
65	0x3ee4ef9c	0.44714057
66	0x3f980830	1.1877499
67	0x3ee8c67a	0.45463926
68	0x3eb7aa1a	0.35871965
69	0xbf814a9d	-1.0100895
70	0xc0710c37	-3.7663705
71	0xbf804245	-1.0020224
72	0x3ec7b373	0.39004096
73	0x3d8404a8	0.064462006
74	0xbe2ec75d	-0.17068239
75	0xbe731890	-0.23739839
76	0x3f657f2f	0.8964719
77	0x3f010b99	0.5040832
78	0xc0ff59f0	-7.9797287
79	0xbeb7e15f	-0.35914132
80	0x3e8f9d8f	0.28049895
81	0x3cb06377	0.021531804
82	0x3e878cad	0.26474515
83	0x3e220cc9	0.1582519
84	0x3e571664	0.21004635
85	0x3e28196f	0.16415952
86	0x3f29b4ac	0.6629131
87	0xbf403abc	-0.7508962
88	0xbf60a33c	-0.87749076
89	0xc00edc6d	-2.2322037
90	0xbff4934a	-1.9107449
91	0xbf1cc613	-0.6123974
92	0xbdfb4442	-0.122688785
93	0x3fe3d2a9	1.7798663
94	0xc0c763d2	-6.230935
95	0x3f9a9a87	1.2078408
96	0x3f6a3808	0.91491747
97	0xbf8fe269	-1.124097
98	0x40de16cf	6.9402843
99	0xbf54a73c	-0.8306768
100	0x3e42770c	0.18990725
101	0x3eaf4549	0.34232548
102	0x3edd93f3	0.4327694
103	0x3ec84486	0.3911478
104	0xbe2ea32c	-0.17054433
105	0xbc469998	-0.012121581
106	0xbf44073d	-0.76573545
107	0x3f2a0464	0.6641295
108	0xbfa05862	-1.2526972
109	0xbe4a8970	-0.19778991
110	0x40862269	4.1917005
111	0xc0396f4f	-2.8974187
112	0x3ff8b0ce	1.9428957
113	0xbf7de74f	-0.99181074
114	0xbfdcd286	-1.7251747
115	0x3f3eb8f8	0.7450099
116	0x3eca2b30	0.39486074
117	0x3df8e2de	0.121526465
118	0x3f3fcffa	0.7492672
119	0xbe00dd8b	-0.12584512
120	0xbd27f5d0	-0.04100591
121	0x3ea302fd	0.31838217
122	0xc12bffff	-10.749999
123	0x3de0e9ea	0.109821156
124	0x3dd9a048	0.10626274
125	0x3e95394e	0.29145283
126	0x410cc80a	8.798838
127	0x3e85f85d	0.2616605

v1.bias f4 [32]
0	0x3cae1d9a	0.02125435
1	0x3ec68682	0.38774496
2	0xbe5b9da7	-0.21446858
3	0x3f410d36	0.75410783
4	0xbe7d7431	-0.24751355
5	0xbee1340c	-0.4398502
6	0x3e1ab32b	0.1510741
7	0x3dc25b54	0.09490076
8	0xbd6ec971	-0.05829758
9	0xbd07e006	-0.03317263
10	0x3b34f582	0.0027612154
11	0xbec35422	-0.38150126
12	0x3f8b4c1f	1.0882605
13	0x3f8c2627	1.0949143
14	0xbec2393a	-0.37934285
15	0x3e12924b	0.14313619
16	0x3f76271f	0.96153444
17	0x3f538a89	0.8263326
18	0x3fa47b81	1.285019
19	0xbf1d8cea	-0.6154314
20	0x3f70de3e	0.94089115
21	0x3f5a81c2	0.85354245
22	0x3d6533c8	0.055957586
23	0xbe8ada9e	-0.27119917
24	0x3d5def0c	0.05418305
25	0x3f83a306	1.0284126
26	0x3f43d599	0.764978
27	0xbfd25bd5	-1.6434275
28	0x3f0ac1d0	0.54201984
29	0x3f9d649d	1.229633
30	0xbc7b5828	-0.015340842
31	0x3d5deebd	0.054182757

a1.weight f4 [32, 3]
0	0xba0b9b7c	-0.0005325598
1	0xbc7bbb6b	-0.015364508
2	0xbb9e04c5	-0.004822346
3	0x3c78457c	0.015153285
4	0x3bc15249	0.0058997017
5	0xbcab76f6	-0.020930748
6	0xbcce9702	-0.02521849
7	0xbc6325d2	-0.0138639975
8	0xbda7faba	-0.08202119
9	0xbbc16121	-0.0059014712
10	0xbca874a6	-0.020563435
11	0xbc8b345c	-0.01699274
12	0xbb35c540	-0.0027735978
13	0xbca2388e	-0.019802358
14	0x3bcff209	0.0063459915
15	0x3bf11a54	0.007357875
16	0xbbf4d693	-0.0074718683
17	0xbb12299d	-0.0022302635
18	0xbc67765a	-0.014127338
19	0xbbe664ea	-0.007031073
20	0xbc2e9886	-0.010656482
21	0x3c81a70c	0.015826724
22	0xbc615d6a	-0.013755182
23	0xbc3ac428	-0.011399306
24	0x3c1b33ad	0.00947277
25	0xbc671e12	-0.01410629
26	0xbc4959c0	-0.0122894645
27	0x3c4218b8	0.011846714
28	0xbc67bd72	-0.014144288
29	0x3c566e32	0.013087796
30	0xb9d16f4a	-0.00039946503
31	0xbc7e12a3	-0.015507373
32	0xbc49fd08	-0.012328394
33	0x3af6f653	0.0018841721
34	0xbcf9523b	-0.030434718
35	0x3b8b23f4	0.0042462293
36	0xbc97ae1e	-0.018515643
37	0x3bf616e4	0.007510053
38	0x3b9e1b6e	0.004825047
39	0x3c483590	0.012219802
40	0xbca3eed6	-0.020011347
41	0x3b31a050	0.002710361
42	0xba0e270c	-0.00054226886
43	0xbb7c629b	-0.0038510922
44	0xbcbdd167	-0.02317114
45	0xbc5d161a	-0.013494039
46	0xbc88fc64	-0.016721912
47	0x3a9f9bce	0.0012177171
48	0x3c8ed3b5	0.017434934
49	0xbcc87ca8	-0.024473503
50	0xba38796f	-0.0007037138
51	0x3cdeaac9	0.027181046
52	0xbca1591e	-0.019695815
53	0x3a606f23	0.00085614825
54	0xbb746eac	-0.003729741
55	0xbc8eb85c	-0.017421894
56	0x3c4cefb9	0.012508326
57	0x3b064514	0.002048795
58	0xbcf8939b	-0.030343821
59	0x3b855ab4	0.0040696505
60	0x3bdda831	0.0067644347
61	0xbc23f1f6	-0.010006418
62	0xbbd65081	-0.0065403585
63	0x3cd6d0a2	0.02622253
64	0xbceb0eab	-0.028693518
65	0x3ad190e2	0.0015988613
66	0xbb9c4a95	-0.004769633
67	0x3c59dc51	0.013297156
68	0xbc62b142	-0.013836207
69	0x3a202166	0.00061084924
70	0xbc5ad011	-0.013355271
71	0xba2cbf16	-0.00065897533
72	0x3bd4bef1	0.0064924886
73	0xbcc85340	-0.02445376
74	0x3ade4219	0.0016956954
75	0xbaf0a204	-0.0018358831
76	0xbc3ca567	-0.011514044
77	0x3c5a5952	0.01332696
78	0x3c5e7671	0.013578043
79	0xbc0cb0d4	-0.008587081
80	0x3bf30683	0.0074165477
81	0x3be3179a	0.0069303038
82	0xbb722263	-0.0036946766
83	0x3d081cf5	0.03323074
84	0xbb803dea	-0.0039136307
85	0xbc3975c7	-0.011319584
86	0xbc504ca9	-0.01271359
87	0x3c24f236	0.010067513
88	0xbc403138	-0.011730485
89	0x3bde7419	0.0067887423
90	0xbc0a83f2	-0.00845431
91	0x3a0cc013	0.00053691975
92	0x3dc1dc33	0.09465828
93	0x3b8de56d	0.004330328
94	0x3ca50e56	0.020148437
95	0xbc3eeaa7	-0.011652625

a1.bias f4 [32]
0	0xc03a7090	-2.9131203
1	0xc08a198d	-4.315619
2	0xbfb211c1	-1.3911668
3	0xc08b3dbd	-4.3512864
4	0xc05bc30a	-3.4337792
5	0xc07ee4cc	-3.9827147
6	0xc050c4fa	-3.2620225
7	0xc09432b6	-4.6311903
8	0xc07bd6c4	-3.9349833
9	0xc06e9b43	-3.7282264
10	0xc082e505	-4.0904565
11	0xc069259b	-3.6429203
12	0xc090fc0e	-4.5307684
13	0xc06c21ab	-3.689555
14	0xc065c333	-3.590039
15	0xc084180d	-4.127936
16	0xc0a74aff	-5.227905
17	0xc0aa19bf	-5.315643
18	0xc08279fd	-4.077391
19	0xc0710d0c	-3.7664213
20	0xc0409601	-3.0091555
21	0xc0c882e9	-6.2659802
22	0xc069259c	-3.6429205
23	0xc0000673	-2.0003936
24	0xc06dc78b	-3.7153041
25	0xc074a23c	-3.822402
26	0xc0468971	-3.1021388
27	0xc091056e	-4.531913
28	0xc03d6ef8	-2.959898
29	0xc08219e5	-4.065661
30	0xc075d0e7	-3.8408754
31	0xc0b4b0b0	-5.6465683

l2.weight f4 [32, 64]
0	0x4011ee50	2.2801704
1	0xbfa0df31	-1.2568113
2	0x3ea0b923	0.31391248
3	0x3f346e0a	0.70480406
4	0xbfc1fb50	-1.515482
5	0xbe4fc17d	-0.20288654
6	0xbf214a4f	-0.6300401
7	0x40244ea2	2.5672994
8	0xbf645d26	-0.89204633
9	0xbf8084df	-1.0040549
10	0x408998f9	4.2999234
11	0x40304fb7	2.7548654
12	0xbe0d5763	-0.13802867
13	0x3fba4f92	1.4555533
14	0x4044dd52	3.0760083
15	0x3fd29d0d	1.6454178
16	0x3f0215d1	0.5081454
17	0xc02d107b	-2.704131
18	0xbf245829	-0.6419702
19	0xbe15766c	-0.14595956
20	0xbd5e044d	-0.05420332
21	0xbe557c6e	-0.20848247
22	0x3d98bfe6	0.07458477
23	0xbf62aa53	-0.88541144
24	0x402e986e	2.7280536
25	0x3e108f92	0.14117268
26	0x3e561824	0.20907646
27	0x3e790237	0.24317251
28	0xbfb77a5c	-1.4334216
29	0xbe02a6fb	-0.1275901
30	0x4022e881	2.545441
31	0x40263d92	2.597508
32	0xbbf3dd5c	-0.0074421596
33	0xbd54c789	-0.051948104
34	0x3e02b078	0.1276263
35	0x3dd6a032	0.104797736
36	0x3ea82cc6	0.3284666
37	0x3b1a5d9d	0.0023554333
38	0xbd6cf62b	-0.05785195
39	0xbd8f8e6c	-0.07009587
40	0xbe50628a	-0.2035009
41	0xbe80073b	-0.25005516
42	0xbca90dc7	-0.020636452
43	0xbe319d30	-0.17345119
44	0xbde4727b	-0.11154648
45	0x3d5ed4f9	0.054402325
46	0xbe994846	-0.29937953
47	0x3e60ba23	0.21946006
48	0x3ce26003	0.027633673
49	0xbdeded0a	-0.11617477
50	0xbdb1f18f	-0.08688652
51	0xbd0466f4	-0.032324746
52	0xbeeb4df2	-0.45957905
53	0xbd3debf7	-0.04636761
54	0xbe8c1945	-0.2736303
55	0xbc1e68c6	-0.009668535
56	0xbe0c86a5	-0.13723238
57	0x3dabc067	0.08386307
58	0xbc4f4561	-0.012650819
59	0xbe881c2d	-0.26583996
60	0xbe23d50e	-0.15999243
61	0xbe6bbe73	-0.2302187
62	0xbd91ae15	-0.07113282
63	0xbebbc147	-0.36670896
64	0xbda429da	-0.08015795
65	0xbe9e68c6	-0.3093931
66	0x3bb12400	0.005405903
67	0xbdef4a43	-0.11684086
68	0xbddac9ea	-0.10683043
69	0xbe723c2c	-0.23655766
70	0xbe892695	-0.26787248
71	0xbe0f2685	-0.13979538
72	0xbe20416f	-0.15649961
73	0xbe5b3b1a	-0.21409264
74	0xbc457420	-0.012051612
75	0xbdc52f7a	-0.09628196
76	0xbd9bfece	-0.076169595
77	0xbe97087e	-0.29498667
78	0x3df6746c	0.120339245
79	0xbdd4c14a	-0.103884295
80	0xbe5a4692	-0.21315983
81	0xbe0646a5	-0.13112886
82	0xbe3fb9b0	-0.18723178
83	0xbded90db	-0.115998946
84	0xbdf35314	-0.1188108
85	0xbdb74e38	-0.08950466
86	0xbe5620da	-0.2091097
87	0xbe7ccf34	-0.24688417
88	0x3cb05d88	0.021528974
89	0xbdaa92d7	-0.08328789
90	0xbe7033dc	-0.23457283
91	0xbaed732b	-0.0018115988
92	0xbe0346ad	-0.1281993
93	0xbe9d8ece	-0.30773014
94	0xbe5ae5f2	-0.2137678
95	0xbda3afac	-0.07992491
96	0xbdb64b34	-0.089010626
97	0xb9b40000	-0.00034332275
98	0xbe41e849	-0.18936266
99	0x38b63047	8.6874286e-05
100	0xbd9d7f2e	-0.07690273
101	0xbe277b6f	-0.1635568
102	0xbe55e192	-0.2088683
103	0x3cfb1350	0.030648857
104	0xbe5397a2	-0.20663312
105	0xbd0568c5	-0.03257062
106	0xbcbf8b98	-0.023381993
107	0x3d6b4c00	0.057445526
108	0xbdb80ff8	-0.08987421
109	0xbdcd45a9	-0.10023052
110	0x3ad12b51	0.0015958344
111	0xbd836cf5	-0.06417266
112	0xbde11a2a	-0.109913185
113	0xbdde3efa	-0.108518556
114	0x3d46cfac	0.048537895
115	0xbd505ea2	-0.0508715
116	0xbdd5990e	-0.104295835
117	0xbb47fa31	-0.0030514116
118	0xbce39563	-0.027781194
119	0x3df47098	0.11935538
120	0xbd8ba5ce	-0.06818734
121	0xbe424799	-0.18972625
122	0xbc8a535d	-0.016885454
123	0xbd8ffd88	-0.07030779
124	0xbdc38401	-0.09546662
125	0xbd49a269	-0.049227152
126	0xbe4919b1	-0.19638707
127	0xbcd4250a	-0.025896568
128	0xbd734ff4	-0.05940242
129	0xbdfea64c	-0.12434062
130	0xbe24697f	-0.16055869
131	0xbe595cfa	-0.21226874
132	0xbdbc5d88	-0.09197527
133	0xbe5c63fa	-0.21522513
134	0xbe0438dd	-0.12912317
135	0xbb0119a5	-0.0019699123
136	0xbe71d82c	-0.2361762
137	0xbe490179	-0.19629468
138	0xbe5c19c2	-0.21494201
139	0xbe6ebe6b	-0.23314826
140	0xbeb28e98	-0.34874415
141	0xbe0317cd	-0.12802048
142	0xbd7d14bc	-0.061787352
143	0xbe260d07	-0.16215907
144	0xbe52dcea	-0.20592085
145	0xbe058e45	-0.13042553
146	0xbe6e6b9b	-0.23283236
147	0xbe12bc7e	-0.14329717
148	0xbdaa8337	-0.083258085
149	0xbe2911af	-0.16510652
150	0xbe1fa9de	-0.15592143
151	0xbe5f470a	-0.21804443
152	0xbcb17a08	-0.021664634
153	0xbe85107d	-0.25989142
154	0xbe616924	-0.22012764
155	0xbbb9ff48	-0.005676184
156	0xbe2eb317	-0.17060505
157	0xbe93126e	-0.28724998
158	0xbdc5b1d1	-0.096530564
159	0xbe03aaad	-0.12858076
160	0xbcde3efa	-0.027129639
161	0xbc89900d	-0.016792322
162	0xbe0d0dcd	-0.13774796
163	0xbd73a6ac	-0.059485123
164	0xbe7f68d4	-0.24942333
165	0xbe713d7c	-0.2355861
166	0xbe4a8cc9	-0.19780268
167	0xbd9864ee	-0.07441126
168	0x3d4a1540	0.04933667
169	0xbcf1260c	-0.029437087
170	0xbd9577b6	-0.07298224
171	0xbd1b786e	-0.037956648
172	0xbc8d1665	-0.017222593
173	0xbe674a9b	-0.22587053
174	0xbe5a68f2	-0.21329096
175	0xbe3935b8	-0.18086898
176	0xbe13608e	-0.14392301
177	0xbdb54db8	-0.08852714
178	0xbd66a81b	-0.05631266
179	0xbe015695	-0.12630685
180	0xbda67bf7	-0.08129113
181	0xbdfee594	-0.12446132
182	0xbe41bee1	-0.18920471
183	0xbccd9301	-0.025094511
184	0xbcb47938	-0.022030458
185	0xbb2845c7	-0.0025676356
186	0xbe3477a8	-0.1762377
187	0xbdf63b9c	-0.12023088
188	0xbcfc1ea4	-0.03077633
189	0xbd3d19d0	-0.046167195
190	0xbe39574f	-0.18099712
191	0xbd8cf405	-0.068824805
192	0xbba630f6	-0.0050717546
193	0xbe3960b0	-0.1810329
194	0xbdcb7021	-0.09933496
195	0xbe368f98	-0.17828214
196	0xbe03244d	-0.12806816
197	0xbaef258b	-0.0018245442
198	0xbd52167a	-0.051290967
199	0x39b2f1cf	0.00034130967
200	0xbe10d04e	-0.14141962
201	0xbd99b8c6	-0.07505946
202	0xbd26285e	-0.04056584
203	0x3c7e66a0	0.015527397
204	0xbe423989	-0.1896726
205	0xbd364ad8	-0.04450497
206	0xbd037e24	-0.03210272
207	0xbe147456	-0.14497504
208	0xbcd6da02	-0.026227001
209	0xbccf51e1	-0.025307598
210	0xbc74479c	-0.014909651
211	0xbd48bbf1	-0.04900736
212	0xbe62b84b	-0.22140615
213	0xbe829d25	-0.25510517
214	0x3d80f294	0.06296268
215	0xbd6ece0b	-0.058301967
216	0xbd1b6805	-0.037940998
217	0xbe169286	-0.14704332
218	0xbe152676	-0.14565453
219	0xbe1400b6	-0.14453396
220	0xbd0a4935	-0.033761222
221	0xbe07bf35	-0.13256533
222	0xbcd9e421	-0.026598038
223	0xbd8fb57c	-0.07017037
224	0xbca23957	-0.019802732
225	0x3cad2a1e	0.021138247
226	0xbe58f062	-0.21185449
227	0xbca810a7	-0.020515753
228	0xbe729474	-0.23689443
229	0xbd6325ab	-0.055455845
230	0xbe60c5db	-0.21950476
231	0xbdee7113	-0.11642661
232	0xbe495449	-0.19661058
233	0xbe56d16a	-0.20978323
234	0xbd75a1b4	-0.059968665
235	0xbdd4dfc2	-0.10394241
236	0xbd3ff9c0	-0.04686904
237	0xbccc8001	-0.02496338
238	0xbe5174c2	-0.20454696
239	0xbdbbed08	-0.091760695
240	0xbd60dfa3	-0.054900777
241	0xbe38a6c0	-0.1803236
242	0xbe0c9005	-0.13726814
243	0xbdca8e59	-0.09890432
244	0xbe76eb64	-0.24113232
245	0xbd9b0b0e	-0.07570468
246	0xbc9de32e	-0.019273367
247	0xbdd5cc7a	-0.104393914
248	0xbe1c8786	-0.15286073
249	0xbd1f6f46	-0.038924478
250	0xbe05f3d5	-0.13081296
251	0xbe0ab375	-0.1354502
252	0xbe1f813e	-0.15576646
253	0xbcc6aa41	-0.024251105
254	0xbc5a4ff2	-0.0133247245
255	0xbc65889b	-0.01400962

l2.bias f4 [32]
0	0xbf352485	-0.7075885
1	0xbe9074e6	-0.28214186
2	0xbe011685	-0.12606247
3	0xbe39f390	-0.18159318
4	0x3f470405	0.7774051
5	0x3f67c87f	0.9054031
6	0xbe812b9d	-0.25228587
7	0xbf9566a9	-1.1671954
8	0x3f09aa1d	0.537752
9	0xbe4992c9	-0.196849
10	0xbf804dca	-1.0023739
11	0xbd917da4	-0.07104042
12	0xbf8bea14	-1.093081
13	0xbebe5a20	-0.37178135
14	0x3fd74c9b	1.6820253
15	0xbe27afc7	-0.16375647
16	0xbf3109db	-0.69155663
17	0xbe72219c	-0.23645633
18	0x3f38a564	0.72127366
19	0x3fa03324	1.2515607
20	0xbf0bb76a	-0.5457674
21	0xbe1c8c36	-0.15287861
22	0x3f942b91	1.1575795
23	0x3f157df0	0.5839529
24	0xbcad8bc7	-0.021184815
25	0x3f0c59b0	0.5482435
26	0xbe556f82	-0.20843318
27	0xbdb4a4f8	-0.08820528
28	0xbf74f3de	-0.9568461
29	0xbe3afdf8	-0.18260944
30	0x3f2b0806	0.6680912
31	0x3fe643fa	1.7989495

l3.weight f4 [32, 32]
0	0xbd5c4bc2	-0.053783186
1	0xbdfc8ce5	-0.12331561
2	0xbda1d52a	-0.07901986
3	0x3da00abe	0.07814549
4	0xbe14576e	-0.14486477
5	0xbe77f5cc	-0.24214858
6	0x3d6f5f17	0.058440294
7	0xbe63548b	-0.2220022
8	0xbe46f929	-0.19430985
9	0xbd833779	-0.06407065
10	0xbca0fcef	-0.019651858
11	0xbd168605	-0.036748905
12	0xbb242d57	-0.0025051439
13	0x3e199a7d	0.15000339
14	0xbd97550e	-0.0738927
15	0xbd8fbdac	-0.07018599
16	0xbe4104f0	-0.1884954
17	0xbe2e01bf	-0.16992854
18	0xbd696a5b	-0.056986194
19	0xbdf36da3	-0.11886146
20	0xbe8a23b5	-0.26980367
21	0x3d9aa53b	0.075510465
22	0xbe66a2a2	-0.22522977
23	0x3e1807ad	0.14846678
24	0x3deb8052	0.114990845
25	0xbe7f680c	-0.24942034
26	0x3dfdc331	0.123907454
27	0xbd8daa18	-0.069172084
28	0x3d5d7e02	0.05407525
29	0xbddefb42	-0.108877674
30	0xbd8ca134	-0.068666846
31	0xbe2c90ff	-0.16852187
32	0xbe803297	-0.25038597
33	0x3bd0f7cf	0.0063771973
34	0x3c0a7962	0.0084517915
35	0xbd0c2425	-0.034214158
36	0xbee2111b	-0.44153675
37	0xbe443b99	-0.1916336
38	0xbdb68b9b	-0.089133464
39	0xbed38991	-0.41315892
40	0xbe50a4f2	-0.20375422
41	0x3c8ea6ed	0.01741358
42	0xbe3cd1f0	-0.1843946
43	0xbe6aed13	-0.22941999
44	0xbde777d3	-0.113021515
45	0x3e1cdb58	0.15318048
46	0x3d83613c	0.0641503
47	0xbdaa8d3f	-0.08327722
48	0xbe0b2a35	-0.1359032
49	0x3e1032cd	0.14081879
50	0xbea3661f	-0.3191385
51	0x3dc8bb28	0.09801322
52	0xbea8c137	-0.3295991
53	0x3bf223a2	0.0073895017
54	0xbecda049	-0.4016135
55	0x3d918fb5	0.07107488
56	0xbde0b04f	-0.10971128
57	0xbee30fcb	-0.44347987
58	0xbe1f9d9b	-0.15587465
59	0x3db1bf2f	0.086790435
60	0x3e099fad	0.13439818
61	0xbd77e330	-0.060519397
62	0xbe47b571	-0.19502808
63	0xbd9ef7be	-0.07762097
64	0xc017a015	-2.3691456
65	0xbd9f2326	-0.07770376
66	0xbdde4602	-0.10853197
67	0xbdb84130	-0.089968085
68	0x3e2259b2	0.15854529
69	0x3dbb68af	0.09150826
70	0x3d42b33a	0.047534205
71	0xbfa1eb45	-1.2649924
72	0xbf61a42f	-0.8814115
73	0x3db86495	0.090035595
74	0x3d65db6d	0.056117464
75	0x3f8088e0	1.0041771
76	0xbfbd7367	-1.4800843
77	0x3e8eef0d	0.27916756
78	0xbe9afaed	-0.30269566
79	0xbd3ffa8d	-0.046869803
80	0x3f5860b7	0.84522575
81	0xbc37de27	-0.011222399
82	0xbf9bbd29	-1.2167102
83	0x3e8ec98a	0.27888137
84	0xbe87a8bb	-0.2649592
85	0xbd10140f	-0.03517538
86	0x3f03d510	0.5149698
87	0xbfb2830c	-1.3946242
88	0x3d909414	0.07059494
89	0x40115daa	2.2713418
90	0xba614363	-0.000859311
91	0x3d3e9af7	0.046534505
92	0xbe050655	-0.12990697
93	0xbd70662d	-0.058691192
94	0xbf9e79e1	-1.2380944
95	0xbf0921e7	-0.53567356
96	0xbe341894	-0.17587501
97	0xbd309908	-0.043114692
98	0x3c3ea907	0.011636979
99	0x3d98bec5	0.074582614
100	0xbecf9ce0	-0.40549374
101	0xbdf3fc9c	-0.11913416
102	0xbd10577a	-0.035239674
103	0xbe5fefca	-0.21868816
104	0xbe839725	-0.25701252
105	0xbdf4fc1b	-0.11962148
106	0xbe9fe156	-0.31226605
107	0xbea034ef	-0.31290385
108	0xbe82673d	-0.2546939
109	0xbd2a66b3	-0.041601848
110	0x3d8c4ff4	0.06851187
111	0x3dfeb7f9	0.12437434
112	0xbcc4bfa1	-0.024017157
113	0xbbc07bcc	-0.0058741327
114	0xbdf49bfc	-0.11943814
115	0xbf10cc66	-0.5656189
116	0xbe4ae511	-0.19813944
117	0xbdb38b9f	-0.08766865
118	0xbf21591f	-0.63026613
119	0x3e1ef284	0.155222
120	0x3e11ef39	0.14251412
121	0xbdeb649b	-0.11493798
122	0x3dde2dca	0.10848577
123	0xbe268ecb	-0.16265409
124	0xbdcb7279	-0.09933943
125	0x3ca03746	0.019557606
126	0x3c9ef565	0.019404123
127	0xbc36e7e0	-0.011163682
128	0x3ebff5e0	0.37492275
129	0xbc179f46	-0.009254282
130	0xbdc2b1d8	-0.09506577
131	0xbd26af86	-0.040694736
132	0x3f0b8b4a	0.54509413
133	0x3f5a4de7	0.8527512
134	0xbd2e6817	-0.042579737
135	0x4019da07	2.4039323
136	0x3e924e10	0.28575182
137	0x3d4713b8	0.04860279
138	0x3e4d9be6	0.20079002
139	0xc0047a81	-2.069977
140	0xbf9b0aa9	-1.2112628
141	0xbd028b2c	-0.031871006
142	0xbfa544bf	-1.2911605
143	0x3e1e071e	0.15432402
144	0x3fb310b6	1.3989475
145	0xbd82cc04	-0.06386569
146	0xc069e161	-3.654381
147	0xbe0b429c	-0.13599628
148	0xbc7b51d0	-0.01533933
149	0x3e643e23	0.22289328
150	0xbf58cef9	-0.84690815
151	0x3e927f22	0.2861262
152	0x3dda9bba	0.10674234
153	0x3f44d449	0.7688642
154	0xbe0b07d4	-0.13577205
155	0xbd954bf5	-0.07289878
156	0x3e18f740	0.14938068
157	0x3dcc80c8	0.099855006
158	0x3ed47aae	0.41499847
159	0xbdd5a385	-0.104315795
160	0xbcbde99f	-0.023182688
161	0x3e2b8c27	0.16752683
162	0x3be72b5a	0.0070547285
163	0xbdf9041c	-0.12158987
164	0xc0024285	-2.03531
165	0xbe4b4781	-0.19851495
166	0xbcb7da0f	-0.022442846
167	0xbf608b43	-0.87712497
168	0xbf168156	-0.587911
169	0x3da68def	0.081325404
170	0xbfd4ce91	-1.6625539
171	0x3ef11f03	0.47093973
172	0xbf32a860	-0.6978817
173	0xbdffca7c	-0.12489793
174	0xbeb53968	-0.3539536
175	0x3d7f88dc	0.06238638
176	0xbf853f5d	-1.0409962
177	0x3d891a15	0.06694428
178	0x3e839724	0.2570125
179	0xbdf1ca1b	-0.11806127
180	0xbf081525	-0.53157264
181	0xbd8ccc2c	-0.0687488
182	0xbed6cbf2	-0.41952473
183	0x3eb35760	0.350276
184	0xbda14232	-0.07873954
185	0xbe04e00d	-0.12976094
186	0xbd97c336	-0.074102804
187	0xbde45273	-0.111485384
188	0xbe5a7702	-0.2133446
189	0xbdbbeb77	-0.09175771
190	0xbf5d9bb2	-0.865657
191	0xbf31ded0	-0.6948061
192	0xbe843364	-0.25820458
193	0x3c9a9fed	0.018875087
194	0x3c8fd3f4	0.017557122
195	0xbd02560d	-0.031820346
196	0xc01e56ce	-2.4740481
197	0xbecdd249	-0.40199497
198	0xbda7ef0e	-0.08199893
199	0xbf63435b	-0.8877465
200	0xbf319880	-0.6937332
201	0xbd6a50d3	-0.057205986
202	0xbf975da5	-1.1825453
203	0x3f08ad7c	0.53389716
204	0xbfb70018	-1.4296904
205	0x3d80e484	0.06293586
206	0xbedac202	-0.4272614
207	0xbc42ba70	-0.0118852705
208	0xbee9fae3	-0.45699224
209	0xbd80493e	-0.0626397
210	0x3d8b92e4	0.068151265
211	0xbdad3766	-0.08457832
212	0xbf87c575	-1.0607134
213	0x3cc66fa9	0.024223166
214	0xbedfd85a	-0.4371975
215	0x3ef80954	0.48444617
216	0x3dcb862b	0.099377
217	0xbdfe0494	-0.12403217
218	0x3d33e977	0.04392382
219	0xbdaf7d6f	-0.085688464
220	0xbe6653bb	-0.22492878
221	0xbd7d74d3	-0.06187899
222	0xbf952b26	-1.1653793
223	0xbf24fdef	-0.6444997
224	0xbdf0f4d4	-0.11765447
225	0x3ca7a940	0.020466447
226	0x3d1408e1	0.03614128
227	0xbdd185cb	-0.10230597
228	0xbe80d0fd	-0.25159445
229	0xbeeda912	-0.46418053
230	0xbe57cb6a	-0.2107369
231	0xbe48b4e9	-0.19600262
232	0xbf1d2b96	-0.6139463
233	0xbdf537a8	-0.11973506
234	0xbef18b9c	-0.47176826
235	0x3ed1b661	0.40959457
236	0xbe4a5619	-0.19759406
237	0xbe26b36f	-0.16279386
238	0xbf11489e	-0.5675143
239	0x3db90288	0.09033686
240	0xbf0d799d	-0.5526369
241	0xbe03f145	-0.12885006
242	0xbf01df4d	-0.50731355
243	0xbec89991	-0.39179662
244	0xbf27fde7	-0.656218
245	0x3d85b0a4	0.06527832
246	0x3e36fdbf	0.17870234
247	0xbf0da6ed	-0.55332834
248	0xbbf6509a	-0.0075169327
249	0xbf184356	-0.59477746
250	0xbc9c7016	-0.019096415
251	0x3e21b167	0.1579033
252	0x3e225c7f	0.15855597
253	0xbd9f97e5	-0.077926435
254	0xbf522f7a	-0.82103693
255	0xbd0648fd	-0.03278445

l3.bias f4 [32]
0	0xbeb6ed58	-0.35727954
1	0xbef0bb04	-0.47017682
2	0xbfa13cd2	-1.2596686
3	0xbedc0e0a	-0.4297946
4	0xc04e15b8	-3.2200756
5	0xbe86250d	-0.26200143
6	0xbeee943b	-0.46597466
7	0x3cfedb6b	0.031110486
8	0xbf036a9d	-0.51334554
9	0xbedc8722	-0.43071848
10	0xbe35eb3e	-0.17765519
11	0x3e652932	0.22378996
12	0xbe0da175	-0.13831122
13	0xbf29c6ef	-0.66319174
14	0x403f7d1a	2.9920106
15	0xbf869d7d	-1.0516812
16	0x3f8665e4	1.0499845
17	0x3fa77328	1.3082018
18	0x3f101d6e	0.56294906
19	0xbf1b5f6e	-0.6069249
20	0xbf0c8a8d	-0.5489891
21	0x400c8dac	2.196147
22	0xbe6e6b9b	-0.23283236
23	0xbfc8d5b1	-1.5690213
24	0xbee20883	-0.4414712
25	0x40693701	3.6439822
26	0xbee4df13	-0.44701442
27	0x4060054d	3.5003235
28	0xbea2c467	-0.31790468
29	0x3fba93a4	1.4576306
30	0xbe952996	-0.2913329
31	0xbe232867	-0.15933381

q.weight f4 [1, 32]
0	0xbc011d8d	-0.007880581
1	0xbdbf2e9f	-0.09335064
2	0xbf6135e1	-0.8797284
3	0xbdcea6c8	-0.10090405
4	0xbf84950b	-1.0357984
5	0x3ccb6210	0.024827033
6	0x3e904e9d	0.28184977
7	0xbe3319a7	-0.17490254
8	0x3e0d799c	0.13815922
9	0x3ca29587	0.01984669
10	0xbfba3a6e	-1.4549081
11	0x3f83a4ea	1.0284703
12	0xbcc8b4e8	-0.024500325
13	0xbeec139a	-0.46108705
14	0x4010d123	2.2627647
15	0xbf9fa97c	-1.2473598
16	0xbd9a016e	-0.07519804
17	0x3f7522ea	0.957564
18	0x3fbd8638	1.4806585
19	0xbd35d738	-0.0443947
20	0xbc99076d	-0.018680299
21	0x3e3108bf	0.17288493
22	0x3d7417f4	0.059593156
23	0xbf46c187	-0.7763905
24	0x3ed4bbd1	0.41549543
25	0x3f9571e1	1.1675378
26	0x3db3bf48	0.087767184
27	0x3f9e125d	1.2349354
28	0xbb124bfe	-0.0022323127
29	0x3f779233	0.9670746
30	0x3d9cad06	0.07650189
31	0xbd8efc54	-0.069817215
